notebook/result/weights/sac_snapbot/episode_350.pth (torch, 355440 bytes, 8 tensors)

parameters.mlp_0_b f4 [256]
00000000: 6b2a 403e 39f0 79bd 0b29 86bb 828a 84bd
00000010: 5287 993e d126 fabd a87a d2bd 1546 09be
00000020: 4d88 32be 38d4 86bd 9bcb 8dbd e537 37bd
00000030: f6b7 4fbd 0595 e03d 6cc4 3abe ee97 073f
00000040: b1b4 e9bc f35e 19be 1414 00be 1f84 2fbd
00000050: e299 143d 8263 01be 73d7 56bd 6a66 cd3d
00000060: 4633 2ebd 734b b1bd 8847 49bd 7097 d7bd
00000070: 49a9 d93b 4cba 73bd 1722 7dbd 0882 6fbe
00000080: 12e9 9ebc 3e2f 4a3e b9ce 03bd 601c d4bd
00000090: 738f 69bd c171 4b3d a337 71be c8dc 43bd
000000a0: a80f 05bd 1aa0 20be 2671 df3d 3310 4ebe
000000b0: fe3f a9bc c7f5 2d3e 99b8 e8bd 783f 17be
000000c0: 4f95 05be 8bbd c13d eda3 3bbe 0da5 da3d
000000d0: 95fd e7bd a285 2dbe d910 773e b5f8 a8bd
000000e0: ae2f 9dbd b51c 88be bead b6bd 8c02 34be
000000f0: 8185 40be af20 d13d 311d ed3c 443e 1dbc
00000100: 4f04 55bc 7e45 94be 15dd 69bd 108d d73d
00000110: 908d 26be 3e32 98be d719 303e 5c2f 24be
00000120: 4a6d 4fbe 0048 97bc 4a8f f8bd 2ac8 40bc
00000130: 61a1 773d 8823 4ebe 480b d7bc 4175 a6be
00000140: ee88 46be f7df fabd 7113 bebc 452b 90bd
00000150: 4944 5a3e 67ca 7dbd fe77 6ebe 5b01 83be
00000160: 59f7 de3d 4c72 353e 2bd3 fcbd 68fc e13d
00000170: bc62 a93c 9708 b93d 185a 2cbb 5c20 9ebe
00000180: 5a25 87bc fd17 e0bd a689 bb3c 3074 a9bd
00000190: 0328 da3d dd82 a03d f9b3 263d 1512 72bd
000001a0: 2ba4 cebd 1d19 0cbd 49ff 80bd 956c ef3c
000001b0: cfad 35be f8e6 c9bd b547 e7bd 3884 833d
000001c0: fe00 f23c 443e aabd ab82 68bb 1668 c4bd
000001d0: 5e6c 063d 2204 63bc 867a 463e 820d 04be
000001e0: f821 033e d506 c4bd 45a4 07bd d263 143e
000001f0: 7259 ddbc c2e2 e63d c0d3 13be ed4a 13bd
00000200: 9a30 9bbd 97d5 443e cafa b7bd a367 a9bb
00000210: 6c47 98be 5b5b 56be 9d29 13be e218 7c3d
00000220: e2a7 543e 4089 53bd 5cd5 c33c baa2 153e
00000230: e834 013e ce0f 1f3d 1146 7abe 5e40 3c3d
00000240: 1b49 24bb d1ed e33d 17c4 3abc 158b 29be
00000250: 24f9 7fbe 3f66 29be 9be9 e0bd 82e8 11be
00000260: db1c 10be 019e 3cbe f421 abbc 3f14 64bc
00000270: ba99 2cbe 9717 f0bd a46c 09be 5318 2abe
00000280: 254b 963d eaa3 03be fa04 60be 0999 00bd
00000290: 07bd c03d c82c 74bd 70fa 733e cc66 b83b
000002a0: 7dd7 0cbe 5a02 3abe 6236 8ebc 85f4 413c
000002b0: f8ee f43d 50d7 c3bb f191 8e3d bb2a a63d
000002c0: d52f e5bd 484d 843e 09a5 89be d8f1 40be
000002d0: 6939 23bc 147c eabd 9dd6 1bbe 6d20 e2bd
000002e0: f228 01be e221 2dbc 3ed9 d0bd 11f5 20be
000002f0: 5312 0a3d 7876 7e3e 136b 59bd 0e77 aebd
00000300: 9d38 1ebd d9f8 683d bf47 063e d0c8 123d
00000310: 7e0a c7bd ee75 fd3d d6c1 c6bd df54 f03d
00000320: d026 033e d9cc 73be 1785 693c 7cb5 18be
00000330: 1236 1a3d d785 83bd 9879 163e d407 1cbe
00000340: fc70 a7bd 1368 1a3d df33 09be c848 0fbd
00000350: e4ed 5d3e c567 edbd 3be8 54bd 88ba 333e
00000360: 6edf 4e3c 846d af3d 1946 cebd 6071 08be
00000370: 31fd 1abe ad06 e6bd ca22 b23d 312a 46be
00000380: c964 42be 9586 51bd 9cba 45bd 1856 15be
00000390: 3248 d4bd b75a 01bd 940a f03c daa7 b93e
000003a0: 3d7c 83bc 69b0 7d3e 2260 d33d 563f babd
000003b0: 1d71 913d 8c83 4bbd 8463 d0bd 0041 46bb
000003c0: 6c38 553e 9e0b 5d3e a57c 8cbe a000 fbbd
000003d0: cc06 283d 556b ab3d 62e2 06bd 2154 ac3d
000003e0: 530e 1fbd 82eb 86be 96c0 113e 4e3f 88bb
000003f0: 6772 ffbb 7e82 ef3d d298 e6bd 8e6d babc
0.18766181 -0.06102011 -0.004094248 -0.06471731 0.29986054 -0.12214435 -0.10277301 -0.1340564
-0.17434807 -0.06583446 -0.069236 -0.04473104 -0.05071255 0.10965923 -0.18238991 0.529662
-0.028528543 -0.14977627 -0.12507659 -0.04285061 0.036279567 -0.12635615 -0.052451562 0.100292996
-0.042529367 -0.08656969 -0.049140483 -0.10526931 0.006642495 -0.05950384 -0.06180009 -0.23389447
-0.019398246 0.19744584 -0.032179568 -0.103569746 -0.05702157 0.04966903 -0.2355638 -0.047817975
-0.032485634 -0.15686074 0.10910253 -0.20123367 -0.020660397 0.16988288 -0.11363334 -0.14770305
-0.13045238 0.094599806 -0.18324251 0.10676012 -0.11327664 -0.16945508 0.2412752 -0.08250562
-0.0767511 -0.26584402 -0.089198574 -0.17579097 -0.18800928 0.10211312 0.028944584 -0.009597365
-0.0130015155 -0.28959268 -0.057095606 0.105249524 -0.1626494 -0.29725832 0.17197357 -0.16033691
-0.20256534 -0.01846695 -0.12136705 -0.011766473 0.060456637 -0.20130742 -0.026250497 -0.32511333
-0.19388172 -0.12249749 -0.02320263 -0.07039503 0.21315111 -0.061960604 -0.23287961 -0.25586972
0.108870216 0.17719382 -0.123449646 0.11034471 0.020676963 0.090348415 -0.0026298817 -0.30884063
-0.016497303 -0.109420754 0.022892784 -0.08274114 0.10652163 0.0783746 0.04069898 -0.059099276
-0.10089906 -0.034203637 -0.06298692 0.02922658 -0.17742084 -0.09858507 -0.11292974 0.06421703
0.029541489 -0.083126575 -0.0035478275 -0.09590165 0.03281819 -0.013855966 0.19382676 -0.12895778
0.12805927 -0.095716156 -0.033115644 0.14491203 -0.02702019 0.11273719 -0.14436245 -0.035960127
-0.075776294 0.19222103 -0.08983381 -0.005169825 -0.2974199 -0.20933287 -0.14371343 0.061547168
0.20767167 -0.051644564 0.023905449 0.14612857 0.12617838 0.038833432 -0.2444079 0.045959823
-0.0025067988 0.11129344 -0.0113992905 -0.16556962 -0.24997383 -0.1654291 -0.10982057 -0.14248851
-0.14073507 -0.18419649 -0.020890214 -0.013920843 -0.16855517 -0.117232494 -0.1342035 -0.16610841
0.073385514 -0.12855497 -0.21876898 -0.031395946 0.09411054 -0.05961302 0.23826003 0.0056274887
-0.13754077 -0.1816496 -0.017359916 0.011838083 0.11959642 -0.005976595 0.0696143 0.08113619
-0.11190764 0.2584021 -0.26883724 -0.18842256 -0.009962418 -0.11449447 -0.15218587 -0.11041341
-0.12613276 -0.01056716 -0.10197686 -0.15718485 0.03370888 0.2484988 -0.05308063 -0.08518802
-0.03862821 0.056877945 0.13113306 0.03583604 -0.09718798 0.12376009 -0.0970494 0.11734938
0.12807775 -0.23808612 0.0142529225 -0.14912981 0.03764922 -0.06422012 0.14694822 -0.15237361
-0.08175847 0.03769691 -0.13398694 -0.03498152 0.2167278 -0.11592058 -0.051979285 0.17551625
0.012626512 0.0856581 -0.10071964 -0.13324499 -0.15135647 -0.11231742 0.08698042 -0.19352032
-0.18983759 -0.051153738 -0.048273668 -0.14583623 -0.10365333 -0.031580653 0.029301919 0.36260873
-0.016050452 0.24774326 0.1032107 -0.090941116 0.07101653 -0.049686 -0.10175231 -0.0030251145
0.20822304 0.21586463 -0.27438846 -0.122559786 0.041022107 0.08370081 -0.03293074 0.08414484
-0.03883202 -0.26351553 0.14233622 -0.004157937 -0.0077956202 0.11694811 -0.11259617 -0.022757318

parameters.mlp_0_w f4 [256, 70]
00000000: 9d14 ddbd e581 48be dc07 5dbe 9bc9 02bf
00000010: 695e 5d3d cdf4 503d c998 9e3c 518e 873d
00000020: db25 1d3d ea6a c7be 7cc1 82be 3cfc 1dbf
00000030: 275f 433c 1414 6f3e 11c0 723c e086 c43e
00000040: 11df aebc 67d0 0fbd 9cdc e03d 5891 643d
00000050: 13a7 0f3c 2591 c7be ed6c debb 24b7 513e
00000060: ade8 e13d f3d6 293e 6458 bcbd 8911 64bd
00000070: 506a d4b9 6f58 913c 555c eebb bcad 68bd
00000080: cdb3 00be d9e4 453c 08af aa3d a8f9 91be
00000090: e3c9 0abd b294 303c 382e 90be 57dd 2a3d
000000a0: e44f 82bd 4b7c 83bc da65 bebd cbd0 db3d
000000b0: 91b4 48be 9934 04be 331d 7e3c abdb 8c3d
000000c0: aaea eb3c 0abc 073e 3a73 be3e faec 71bd
000000d0: c23b 01be 37db b2be bf42 173e 581f 77bd
000000e0: 0b6f 63bc f93f 653e 9bc6 78be ba7c 493d
000000f0: 0cac df3d dd62 40be c132 cabd f20a d0bd
00000100: aa7e 7bbd bd80 933d 3f3d 56bd 9357 2a3e
00000110: 22f6 fbbc b577 583d 3213 51be c12e 863d
00000120: 15d0 1dbd 6303 853a 1c75 92bd d341 e1be
00000130: fde4 3b3d 713c bebd c569 8fbe c415 c9be
00000140: 8511 6fbe 6805 893d 28de 2fbd 46a2 b6be
00000150: baaf 403e cca3 cbbe 1801 603d ebaa 70be
00000160: 4458 04bf 632f 5f3e 70e0 563d 23bf 78be
00000170: de98 da3e 39f4 4e3e 7e67 f5bd 0c01 1abe
00000180: 2950 b5bd eb8f ed3c aac4 12bd 4d91 64be
00000190: 9e4e 7d3d 96d5 a0be 43d5 12be 7669 ddbc
000001a0: 878c 203d fbea 493c 47a6 6c3d d7fb 023e
000001b0: df4d 693b 4ffe 973a 46f2 b5be 47c4 73bc
000001c0: 987f 43bd 2aa2 05be d4a4 12be 59dd 1ebe
000001d0: 98f3 67bd 0378 29be a7f5 f23d c3e0 f33d
000001e0: c82c 693e 6245 663d 104d d2bd 8436 bdbe
000001f0: 1008 d93d b593 053d 308b ccbd 56f5 303e
00000200: 3a3a aeba 59b5 20be 60a0 0bbe 95a4 063d
00000210: 1868 dcbd 70eb 05bd c1a3 51be 231f f93d
00000220: 918f 94bd 24e5 90bd aea2 6c3b 997e 34bd
00000230: 7fcc 90bc 4940 c53e 6db2 983b 0117 063e
00000240: 3100 98be 10c4 e5bd 9305 833e de21 833d
00000250: dab2 a53e 97e1 9d3e 3247 b43e c543 903e
00000260: 6818 14bf b06f aebe 2b17 063e d281 f63c
00000270: 8407 89bd 5b4a 7a3e dc75 8b3e 33d1 78be
00000280: 18c9 8bbd 771d 543e 1ff1 06bf e3b9 813e
00000290: 88c4 293c e794 933e fea7 98be 46c0 d8bc
000002a0: 4857 ca3c d7a7 813c 65fd 073e f6e3 88be
000002b0: 7b24 06bf 0232 8ebe 0b1c 573d a188 74be
000002c0: eb7c b03e 0c30 50be d4f7 a5bc 8032 98ba
000002d0: a3cf e2bd 73f2 3ebe f11c 5e3d 5b06 28bd
000002e0: 7f6b 7cbe e058 cbbd a842 e43a 199e 5a3d
000002f0: 5227 943e 3b24 463e baab 9fbd 94e9 33be
00000300: 8854 843e 4851 be3e cbdd 5fbe 465a 46be
00000310: 7940 a6be cbed 19bf 6e00 a23e c7e9 01be
00000320: 1bcc 12be 7fc7 d5be fea5 e63c 7955 373d
00000330: 6659 dcbc 571c 45bd 41fb 9ebb a766 b9bd
00000340: 83d0 10bd 9e31 543d 9c3c 82bd 4ff5 223e
00000350: c058 00be 3ee3 413e 5f82 9abe c491 aebe
00000360: 3ba9 e53d 2c93 b13e 5640 81be fa3f 8f3d
00000370: 4da8 b4bd f8b5 033f 314d 8dbe ff02 51bf
00000380: 6808 2abe b30b 6ebd a2bf 8f3d ad0c 3abe
00000390: ba9b 57bd a7f8 553e d18a 183d d795 de3e
000003a0: d288 a83b 5bb6 30be 44b1 46bd f415 813d
000003b0: c641 6bbf 3894 c9bc 0d14 f23b ecc6 e3bd
000003c0: 2dc0 913d 44be 75be c406 e4be fcc2 06bd
000003d0: e6b9 8abd 26ce 093e 7e22 523d b9e1 50be
000003e0: 20c7 663d cdd5 19be a9a6 07be 6284 8d3e
000003f0: 4612 8f3e ea01 763c bce3 063e 1af3 e6bd
-0.10794947 -0.19580801 -0.2158503 -0.51088876 0.054045115 0.05101471 0.019359963 0.066189416
0.03836618 -0.38948756 -0.25538242 -0.61713004 0.011924542 0.23347503 0.0148163 0.3838415
-0.0213466 -0.035110857 0.10979578 0.055802673 0.008767861 -0.38977924 -0.0067878873 0.20480019
0.110307075 0.16585903 -0.09196547 -0.055680785 -0.00040515 0.017742364 -0.0072741904 -0.05680631
-0.12568589 0.012078487 0.08334166 -0.28510785 -0.03388394 0.010777639 -0.28160262 0.041714992
-0.06362894 -0.016050478 -0.092967704 0.107331835 -0.1960013 -0.1291069 0.015509891 0.06877836
0.02879842 0.13255325 0.37197286 -0.05906389 -0.12620452 -0.34932873 0.14771555 -0.060332626
-0.013881455 0.22387685 -0.24294512 0.049191214 0.10921487 -0.18787713 -0.09872962 -0.10158338
-0.061400093 0.07202289 -0.052304503 0.1663497 -0.030757014 0.052848537 -0.20417479 0.06551886
-0.03852852 0.0010148104 -0.07151243 -0.43995532 0.045872677 -0.09288872 -0.28010383 -0.39274418
-0.23346527 0.06690484 -0.042936474 -0.3567068 0.18817034 -0.39773405 0.054688543 -0.235027
-0.5169718 0.2179542 0.052460134 -0.24291663 0.42694753 0.20210351 -0.1198263 -0.15039462
-0.0885318 0.02899929 -0.035832085 -0.22321053 0.061842553 -0.31412953 -0.14339165 -0.027027827
0.039196517 0.01232409 0.057775762 0.12791382 0.0035599393 0.0011596176 -0.35536402 -0.014878339
-0.047729105 -0.13050142 -0.1432069 -0.15514125 -0.056628793 -0.16549687 0.11863261 0.11908104
0.22770989 0.056218512 -0.10268605 -0.36955655 0.10597241 0.032611568 -0.099874854 0.17281088
-0.0013292499 -0.15694179 -0.13635397 0.0328718 -0.10762042 -0.032695234 -0.20472623 0.12164142
-0.072539456 -0.07074955 0.0036107707 -0.044066045 -0.017675636 0.38525608 0.004659942 0.13094713
-0.29687646 -0.112190366 0.2559019 0.06402944 0.32363015 0.30836174 0.35210568 0.28176704
-0.5784974 -0.34069586 0.13094775 0.0300912 -0.066908866 0.24442427 0.27238357 -0.24298553
-0.06825465 0.20714365 -0.5271167 0.25337133 0.010361798 0.2882454 -0.29815668 -0.02645887
0.024699822 0.015827103 0.13280256 -0.2673642 -0.52399415 -0.27772528 0.05251698 -0.23880245
0.34470305 -0.20330828 -0.020259775 -0.001161173 -0.1107476 -0.18647175 0.05422682 -0.041021686
-0.24650382 -0.09929061 0.0017414885 0.05337343 0.2893625 0.19349758 -0.07796426 -0.17569572
0.25845742 0.37171388 -0.21861951 -0.19370374 -0.32471064 -0.6012847 0.31640953 -0.12686835
-0.14335673 -0.41753766 0.028155323 0.044759247 -0.026898097 -0.04812273 -0.004851729 -0.090527825
-0.035355102 0.05180513 -0.063592166 0.1591389 -0.12533855 0.18934342 -0.3017759 -0.34095585
0.11213919 0.34682596 -0.25244397 0.069946244 -0.08821163 0.5144954 -0.27597955 -0.81645197
-0.16604769 -0.058116626 0.07018973 -0.18168898 -0.052638747 0.20895635 0.03724176 0.43473694
0.0051432634 -0.17257063 -0.048508897 0.06303015 -0.9189724 -0.024606809 0.007387644 -0.11121926
0.07116733 -0.23998362 -0.44536412 -0.032900795 -0.067737386 0.13457546 0.051302426 -0.20398606
0.056342244 -0.15022965 -0.1324717 0.27640063 0.2794363 0.015015105 0.13172811 -0.11276837

parameters.mlp_1_b f4 [256]
00000000: 6943 813d 9bea 043e d8bf 0a3e edac 183d
00000010: 4a9a d23c 6d63 673e edd6 853d 4b22 ae3d
00000020: d33a c83c 34bb 543e e709 c43d b725 263e
00000030: d634 14be 8517 233d 96e2 b13e 7664 973d
00000040: bb78 463e f20e 59bd e4f6 c8bb 318b 893c
00000050: 15d2 913d d5e9 793c 7fe7 9d3c 6e04 d8bc
00000060: 2ecf 723d 3b7a 003d e6d4 92bc 4e29 d9bc
00000070: bf65 703d 5496 a73d 4fe8 403e 8518 213d
00000080: 9a17 2abd 1fc0 453e fedf d23d 2112 8b3e
00000090: 262a 47bc 12fb e4bb 95a9 853d 4768 7abc
000000a0: 7260 4ebc b0cf 1d3e 3df8 98bc 2196 853d
000000b0: 5ad1 883d 2349 673e 49c3 8dbc eee4 d6bb
000000c0: e2ad 6dbc 8a4b 903d 8fce f43c a9dd 5a3e
000000d0: 257e 593d 5ce4 3f3d ae25 083d c176 18bd
000000e0: 0c27 86bc 1b0a 9dbc 85d3 273e 6ae9 813d
000000f0: df04 27bb f9d4 6ebc 8460 9d3e 7232 933d
00000100: 1007 b83d 61d3 7f3d 5bad 92bc 1716 9ebc
00000110: 4210 1b3e d592 073e 46ff 8c3d 0d83 cc36
00000120: 69d9 7b3d 9a0b 843e 71c4 83bc 8b27 083e
00000130: a7f2 41bc 2488 e03e a580 a53d f940 15be
00000140: 8be8 dd3c 8a03 5a3d 43b8 3fbc 1232 47bd
00000150: d8a1 a8bc 42f0 883d 68cf 7a3e 0d9f 683d
00000160: f4b6 563d 9c59 14bc a88d b73d d8b8 293e
00000170: 584f 38bc 7ef1 8a3d 16a2 bd3d bc6d 203e
00000180: 59f8 c0bc 3bd4 6dbc 64ff 533e 9fb6 713c
00000190: 8e6f 84bc c0f1 d5bc 52fd babc b3e5 8abc
000001a0: 6d12 5bbc 82f9 0e3d a8eb 97bc 4085 0ebd
000001b0: d325 c0bc 70f3 9bbd 9aaa 553d 5660 d1bb
000001c0: 07c5 9d3e 3c94 923d 35f2 9c3e 3a49 ce3d
000001d0: 1019 a0bc 1ee8 91bc 6f44 73bc b233 9fbd
000001e0: 0fd1 993e c22c 0b3e 6015 273d 3ceb d6bb
000001f0: 75ba da3e ce65 5a3c 8d47 d93d 59b9 983c
00000200: 8bdd ed3d deb8 d93d 6d56 4a3d e56e fd3c
00000210: 56b8 7c3d 94b3 42bc c3ef 383d 047b efbc
00000220: c4ba 89bc b140 9ebc e7b4 53bd 81c3 b53d
00000230: d486 c9bc 1948 9e3d 70ee 8cbc 554a 63bc
00000240: 90ef f5bc 595c 493d 0d7d c1bc fc98 903e
00000250: e04c 3f3e e946 743e 39fc 323e 63e6 9dbc
00000260: 2853 423d 4ac6 043e 84fe 563c 5792 1b3e
00000270: 7824 fd3d 2dbc a63d c5c5 843d 6e73 5b3d
00000280: 8803 473d 3465 af3e 8cc3 b8bc 52e0 db3c
00000290: 8123 303e 5b09 2e3d dfa8 723d 4344 86bc
000002a0: 63e7 963d 78fc 69bc e726 edbd a656 923d
000002b0: f96b 8abc fda9 a93c d995 273e 2f6c 223d
000002c0: 0fbc 773d 00f0 a03c 7b5c 113e 4101 11bc
000002d0: 14d4 c5bc 3eac 513e 2321 e83c d311 83bb
000002e0: a252 423e 1588 273e 351c 623e 2aee 013e
000002f0: 56f3 903c 6371 6abd a474 c9bc 25a9 fe3e
00000300: 25fc ee3c 7bf5 273d 56a0 9cbc 104c fa3d
00000310: 467a 923d 25cb 99bb 7e57 743e ee06 a6bc
00000320: 7df3 d93c c439 933e f578 c63d c6a8 553d
00000330: 2c8a 883d 59bd 00bc 9c55 10be 6184 8dbc
00000340: 62a1 5d3d 0f23 68bc 2ab8 c8bc ffb8 1c3e
00000350: fe76 be3d 2b86 bc3d cd96 983d 0b92 a3bc
00000360: 142f 9a3d 6c52 52bb 10bb 1f3d f259 c5bc
00000370: e5b2 d63d 7ef6 b63e 05ea 86bc e24d b93d
00000380: 6709 253d 29cf 1ebc 9c46 a43d 0ac2 453d
00000390: be64 d33c 0203 233e c42d 5bbc 5db0 913d
000003a0: b4a4 4c3d 73fb e13d 8425 3dbd 443b 82bc
000003b0: 8f58 213e 380e bebd 6067 d03d b93c 3ebd
000003c0: 66af 663e 42f0 943e 4b3b c93b d614 f73d
000003d0: 3f2e 3cbb 4810 b4bc 9950 cd3d c369 093e
000003e0: 5368 9d3d 52a9 7fbc 3e06 d63d 5b40 d83e
000003f0: 53ba b1bc 989e 78bc f6e1 e9bc 037b 5cbc
0.063116856 0.1298012 0.13549745 0.03727429 0.025708336 0.22596522 0.065351345 0.085026346
0.024442112 0.20774537 0.09572201 0.16225325 -0.1447328 0.03981735 0.34743184 0.07392208
0.19381993 -0.05299277 -0.0061329473 0.016790004 0.07120148 0.015253504 0.019275425 -0.0263693
0.059279613 0.031366568 -0.017923784 -0.026508953 0.058690783 0.0818297 0.18838619 0.039330024
-0.041526414 0.1931157 0.10296629 0.2716227 -0.012156045 -0.0069879377 0.06526486 -0.015283651
-0.012596237 0.15411258 -0.018673057 0.065227754 0.06680556 0.22586493 -0.017305033 -0.0065580523
-0.014506789 0.07045658 0.029883651 0.21373619 0.053098816 0.04684864 0.03323906 -0.037222628
-0.01637604 -0.019169858 0.16389282 0.06343348 -0.002548508 -0.014577144 0.30737698 0.07187356
0.08985722 0.062457446 -0.017904928 -0.019297643 0.1514292 0.13239606 0.06884627 6.09493e-06
0.061486635 0.257901 -0.016084881 0.13296334 -0.011837638 0.43853867 0.080811776 -0.14575566
0.027088424 0.05322603 -0.011701646 -0.048631735 -0.020584986 0.066864505 0.24493182 0.056792308
0.05242057 -0.009054568 0.08962566 0.16574419 -0.011249386 0.06784342 0.09259431 0.1566686
-0.023555921 -0.014515932 0.20702893 0.014753013 -0.016166475 -0.026116252 -0.02282587 -0.016955232
-0.013371092 0.034905918 -0.018544987 -0.034795046 -0.023455536 -0.076147914 0.05216465 -0.006389658
0.30814382 0.0715718 0.3065354 0.100725606 -0.0195432 -0.017810877 -0.014847859 -0.07773532
0.30042312 0.13591293 0.04079187 -0.006558804 0.4272038 0.013329936 0.1060935 0.018643068
0.116145216 0.10630964 0.04939883 0.030936668 0.061699234 -0.011883635 0.04515053 -0.029233463
-0.01681269 -0.019317957 -0.051686194 0.0887518 -0.024600424 0.07728595 -0.01720354 -0.013872703
-0.030021459 0.049160335 -0.0236192 0.28241718 0.18681669 0.23855175 0.17479028 -0.019274896
0.047442585 0.12966266 0.013122205 0.15192543 0.123604715 0.081413604 0.06483034 0.05357688
0.048587352 0.342569 -0.022554182 0.026840363 0.17201044 0.04248939 0.05924308 -0.016389972
0.07368352 -0.014281385 -0.11579686 0.07145433 -0.016897188 0.02071094 0.16365756 0.039653953
0.06048208 0.01964569 0.14195435 -0.008850397 -0.024148978 0.20475861 0.028336113 -0.0039999275
0.18976834 0.16360505 0.22081073 0.12688509 0.017694157 -0.05723704 -0.024591751 0.49738422
0.029172966 0.041005593 -0.019119423 0.12221539 0.07152228 -0.004693406 0.238615 -0.020266976
0.026605362 0.2875501 0.096910395 0.052162908 0.06666979 -0.007857644 -0.14095157 -0.017275037
0.054108985 -0.014168515 -0.024501879 0.15304945 0.0930004 0.09205278 0.07450638 -0.0199671
0.07528511 -0.0032092584 0.038996756 -0.02409074 0.1048334 0.35734934 -0.016469011 0.09048058
0.04029217 -0.0096929455 0.0802128 0.048280753 0.025804874 0.15919116 -0.013377611 0.07113717
0.04996176 0.11034288 -0.046178356 -0.0158974 0.15756439 -0.09280056 0.10175967 -0.04644463
0.22527847 0.29089552 0.0061411015 0.12064521 -0.0028714088 -0.02198042 0.100251384 0.13419251
0.07685914 -0.015604334 0.10450409 0.422366 -0.021695292 -0.01517453 -0.02855013 -0.013457063

parameters.mlp_1_w f4 [256, 256]
00000000: c241 cabd c59c 9a3c 8a7e 673c d8ff 3ebc
00000010: 9782 8c3d 8ff7 27bc 5817 08bd bb14 ffbc
00000020: 5577 6dbd 7423 7cbc 8aa6 173d f960 1abd
00000030: 14dc b5bd 60fd e43b 7ea4 ab3c 0301 9b3c
00000040: 3a9e 923c 55cb acbc 81d7 6b3b 2ab9 febc
00000050: b9eb 613b 29d1 1cbc 7bcf 553b 29a0 99bd
00000060: b17b 0fbd a28b 97bd 62fe b6bb f1b8 d4bc
00000070: 437b 8bbc 8bbb 00bd 5084 2e3c f07f f2bc
00000080: 19cd b9bb 8436 f9bc 6495 e53c b505 01ba
00000090: 1ef4 5dbc 4556 85bd 320b 26bc 0c1d 55bb
000000a0: bde9 a3bc ccfe 1fbc 70be af39 4b21 d0bc
000000b0: 3004 16bd 3d5d 773a c3fe c83c 72ef c83c
000000c0: 374d 06bc d095 1dbd e9c8 1cbd 4e14 a4bc
000000d0: 52f6 6dbd 1967 2c3c 42a8 5fbc 0319 95bc
000000e0: bac8 11bd 778b 9cbd 29dc 2e3b ccac 4abd
000000f0: aa4f 03bd 5622 60bd 227c 433b 053e 01bb
00000100: 29dc 8ebb 7251 aa3b 8df9 11bd 0048 52bd
00000110: 0352 63bc 08a2 2bbd a032 7bbc 389f d53c
00000120: dd7d 38bd 6550 d1bc 8997 113b 77c1 c63c
00000130: 59b8 58bd 97b0 883c ee76 68bb 2cad ac3b
00000140: c59b 3dbc d28e ca3b 81bc b2bc cdb2 5abc
00000150: 4e67 3bbd 421f ac3c 1ef7 ddbc 6673 f9bb
00000160: d47e ad3c fb52 bebc 6ed3 1bbb c399 8cbd
00000170: d82f b03c 9cb0 fabc 142a 89bd bb2a 5bba
00000180: 7ea7 bc3c 6ff0 8abb 0282 96bc f7e1 93bb
00000190: 7de8 34bb d845 8aba dcf6 873c 3298 36bc
000001a0: d68a 7b3b bc96 373a 2327 bbb8 f30c acbc
000001b0: bb18 983c a39e 87bd d350 973c 5b7e 41bd
000001c0: 055f e43c 6887 f5bb 92bd e9b9 8652 cd3c
000001d0: 54f8 1b3d 96ca db3b 1187 3cbd 79bc 9cbc
000001e0: efb1 3abd d38c 83bd a6b5 cf3b 1442 49bd
000001f0: 705e 07bd 2b75 c3bc 0471 313c 8c56 2dbd
00000200: c6d1 2abd 497a 703c 7088 03bd 160c b2bc
00000210: 231d 363c 5cb8 b6bb f6b8 81bc 8381 88bd
00000220: 6608 45b9 80be 4cbd 78b8 24bb de0a fc3c
00000230: 125e 3cbc 0db8 d7bc 24b3 a1bc 3809 30bc
00000240: 8dc2 0bbc 1c01 483d 4c92 e03c 42cb 993c
00000250: 82ff 883c a8cc beba bf29 10bd 1812 953a
00000260: df4c 823b 2ba6 66bd 4774 913b ca6b a4bb
00000270: b798 10bd e3fd a0b9 5f49 8dbd 3490 18bc
00000280: 8c28 78bc 83e8 88bd 932c 88bd e36e a4bc
00000290: fcf1 51bd 8a39 2cbd de0d 3abd dae1 9a3b
000002a0: 2f17 7bbc ab35 f4bc a0db 66bd 441d 16bd
000002b0: 0ee4 d7bc e82a 14bc 938d 1139 52fa ef3b
000002c0: f37a 743b 2e07 f83d 3e25 01bc 0c8f c53c
000002d0: e30a 01ba 0e06 8bbc 1791 58bd dce9 e8bb
000002e0: a06c 333c 0ec9 453b 9837 87bc 0404 61bc
000002f0: 6d9b adbc 4602 bfbc 73b0 5abd b8f3 8abd
00000300: 134f 973b d0fc 5ebd 0e4c 92bd 1b6f 65bd
00000310: b8b6 1fbc 0c4a 15bd 644e b0bc 1f3b a3bc
00000320: 8196 3b3b 1831 01bc d366 ddbc 72ee 3bbd
00000330: 22d5 32bd ced3 0f3c 2596 81bc a73c 863b
00000340: bee4 d3bc c00e ffbc 24b1 95bc 6eaa a2bc
00000350: d91a 06bd d4bb aebc d5ab 95bc 5bfc 7b3c
00000360: 4496 32bd 68bf da3c 64d2 36bb eb51 053c
00000370: 63d0 4e3a db41 02bc 01ae 8bbc 7e8d cdbc
00000380: ad66 503c 8235 63bc 1738 51bc 8481 c5bc
00000390: 015f 25ba a9bf 2ebc e6a7 89bc 5f61 ec3c
000003a0: 9a37 273d 4067 003d 9a0a d3bc 862e a9bc
000003b0: b4af 15bd 6015 a6bc ca05 0ebc 3ac7 c93c
000003c0: 4888 a3bc 6189 80bc 4725 0e3d 1566 79bd
000003d0: f289 cdbd 8ca7 b9b9 5a60 f03b 02c4 8bbc
000003e0: 242d 403c 3212 01bd a607 39bd 78d0 7c3c
000003f0: 2dfb 78bc 1df6 35bd 2da8 823c 8d67 bcbb
-0.098758236 0.018873582 0.01412929 -0.011657678 0.068608455 -0.010251894 -0.033225387 -0.031137815
-0.057975132 -0.015389312 0.03702406 -0.037690137 -0.08879867 0.0069882125 0.02095246 0.01892138
0.017897714 -0.02109305 0.0035986605 -0.031094152 0.0034472777 -0.009571352 0.0032624889 -0.07501251
-0.03503007 -0.0739968 -0.005584524 -0.025967093 -0.01702655 -0.031428855 0.010651663 -0.029602021
-0.0056702015 -0.030421503 0.028025337 -0.000492181 -0.013546972 -0.06510595 -0.010134505 -0.0032518534
-0.020008916 -0.009765338 0.00033520488 -0.0254065 -0.036625087 0.0009436196 0.024535542 0.024528239
-0.00819712 -0.03847295 -0.03827754 -0.020029213 -0.058096237 0.010522627 -0.013650956 -0.018200403
-0.03559182 -0.07643788 0.0026681519 -0.0494812 -0.032058395 -0.054720245 0.0029828628 -0.0019720804
-0.004359741 0.0051976973 -0.03563838 -0.051338196 -0.013874534 -0.041902572 -0.015331894 0.026076898
-0.045041908 -0.02555103 0.0022215566 0.024262173 -0.052910183 0.016685767 -0.0035471278 0.005269667
-0.011572783 0.0061815763 -0.021818401 -0.0133482935 -0.045752816 0.021010999 -0.027095374 -0.0076126335
0.02117864 -0.023232928 -0.0023777145 -0.06865265 0.021507189 -0.030601792 -0.06697479 -0.00083605543
0.023029085 -0.0042400877 -0.01837254 -0.004513021 -0.0027604394 -0.001054938 0.016597204 -0.011144685
0.0038382313 0.0007003357 -8.924145e-05 -0.021002268 0.01856648 -0.066220544 0.018471157 -0.047239643
0.02787734 -0.0074929483 -0.00044582464 0.025063764 0.03807862 0.0067074997 -0.046027247 -0.01913284
-0.045579847 -0.064233445 0.006338793 -0.049135283 -0.033049047 -0.023859581 0.010830168 -0.042318866
-0.04170396 0.014677593 -0.03211254 -0.021734279 0.011115345 -0.0055761766 -0.015835267 -0.066653274
-0.00018790513 -0.049986362 -0.0025134366 0.0307669 -0.0114970375 -0.02633288 -0.019738741 -0.010744385
-0.008530271 0.048829183 0.02741351 0.018773679 0.016723398 -0.0014556842 -0.035196062 0.001137319
0.003976449 -0.056310814 0.00443891 -0.0050177323 -0.03530189 -0.00030706738 -0.0689876 -0.009311724
-0.015146386 -0.06684973 -0.06649127 -0.020072406 -0.051256165 -0.04204706 -0.04542338 0.0047266306
-0.015325352 -0.029810747 -0.056361794 -0.036649004 -0.026353862 -0.009043433 0.00013881018 0.0073235417
0.0037304729 0.121107444 -0.007882414 0.024116062 -0.0004922582 -0.01697066 -0.052872743 -0.0071079563
0.010951191 0.0030179652 -0.016506001 -0.013733868 -0.021192277 -0.023316514 -0.05339093 -0.06784767
0.0046175807 -0.05444032 -0.071434125 -0.05601416 -0.009748153 -0.03644757 -0.021521755 -0.019925652
0.0028623643 -0.00788524 -0.02702657 -0.045881696 -0.04366029 0.0087785255 -0.015818665 0.004096586
-0.025865909 -0.031134963 -0.018272944 -0.019856658 -0.032740448 -0.021329798 -0.018270412 0.01537999
-0.043600336 0.026702598 -0.0027896399 0.008137207 0.00078893284 -0.0079502715 -0.017050745 -0.025091883
0.012719792 -0.013867738 -0.0127697205 -0.02410961 -0.0006308407 -0.0106658125 -0.016803693 0.028855024
0.04082451 0.031348467 -0.025761891 -0.020652067 -0.036544517 -0.020273864 -0.008668372 0.024631131
-0.019962445 -0.015690507 0.03470352 -0.06088837 -0.100360766 -0.00035410782 0.0073357048 -0.017061237
0.011729512 -0.031511493 -0.04517331 0.015430562 -0.015196604 -0.044424165 0.015949333 -0.005749649

parameters.mu_b f4 [8]
00000000: 4db7 da3d db7c 7cbd fbc6 e03d 7d17 a73e
00000010: 33ae 06bd d8aa 883d c7cf 9d3d be35 46be
0.10679493 -0.06164251 0.109754525 0.32635108 -0.032880973 0.06673211 0.07705646 -0.19356439

parameters.mu_w f4 [8, 256]
00000000: 3d81 6a3c 8172 cabd e381 613e 78fe 833e
00000010: f56c 87bd e729 ee3e 2cc8 2f3d 7ab9 0d3d
00000020: 5fc8 8abc cfa1 f13d 83b8 cb3d ec3a d9bd
00000030: e48a 98bd de71 15be 9e5b babe 61f8 623e
00000040: b00e 363d 8f5f 33be b804 45bc 0187 febb
00000050: 9f42 953c 6540 9abc e03d 15bd 95f7 c73c
00000060: 6be1 2abd 9175 953b e365 ef3a c1e3 e7ba
00000070: 1d88 bf3c b73b 65bd 68d4 583f 462f 3fbb
00000080: a0c8 993d 93ce a9be ce1f 3abb d703 13be
00000090: 1d1c e63b 5845 473c 89d1 993d 9e6b ec3b
000000a0: 4d21 073c f9d8 efbd 0eca 893c 5a9b 6ebd
000000b0: 9be4 4abc d6f1 c4be e3d8 aa3c 0c4f a3bb
000000c0: f62f 08bb e03f c0bb f558 c93d 5ebf 06be
000000d0: 23ed c1bc 54ab 7ebc 887d 4abc 918e 57bc
000000e0: a7bb 18bd b60a 983c e1ad e33c 7856 63bd
000000f0: 133a 603c 1837 ea3b 0c7c a3bd d38e 31bf
00000100: 69cc d23c e161 62bd a9eb 7e3c d033 20bc
00000110: 7a51 99bd a81a 37be 5f80 77bd 92c1 8dbb
00000120: 51fa 74bd 3f20 043e b492 54bc f989 6c3d
00000130: 7758 27bc c492 70bd eed9 1dbe 78ee 293f
00000140: 3e8e 4cbd f518 8b3d c38a fdbc 6168 09be
00000150: bf2d 8c3b 9f8d 65bb d08f 083e 2e3e f9bb
00000160: bea0 eabc 4b35 593b 0537 2b3f 5cc3 eebe
00000170: bca4 f33b 4eb5 913c b72b bbbc b54b bcbe
00000180: 59af 72bc 9233 75bb 164e 02be 1fbc 65bd
00000190: 27ff 86bc ef6c 1c3c 4987 71bc 18e6 cebb
000001a0: 86c0 223c f6ca 083d c5db 473b cb86 bb3c
000001b0: d9a8 913c 1cc8 19be f561 88be 55c7 01bc
000001c0: b842 97be 536a 87bd 25de 98be 4574 af3e
000001d0: 9dfa f33b b390 24ba e596 0c3c c0e1 b6bf
000001e0: b775 37bf 43b3 453b f32c f83d 933a 2b3b
000001f0: a5b8 4abe 6d43 043d 877d f6be 0c87 ab3d
00000200: 14d6 0a3e 1bd1 73be df44 ff3c 45b8 dfbb
00000210: d6b1 cebd a966 883c f696 d038 fa0a d73c
00000220: eaec 16bb 8007 89bc e00c 10be ec63 f5bd
00000230: ea27 34bc 4bff e63e 9689 96bb 6312 6c3c
00000240: b7c4 ee3c fa0d f9bc e177 1b3c 8a85 8cbe
00000250: 7a5c f2bc 0a83 dc3d 8cc0 02bf cf90 8e3c
00000260: 8c92 0ebc fc87 8bbe d004 193e b81f 333d
00000270: 4a84 0bbf 5865 e93d be55 68bd 863e cebd
00000280: 5307 b1bc b6d4 8d3f 829b 8a3c a2f0 0dbe
00000290: 80ff 11be ea33 33be 6b52 45be 2f6d c23b
000002a0: 8c25 003f f137 1f3b 92bf bebd 0ab7 e2bc
000002b0: 66a4 a9ba 549f d23d 0da0 093e 13e4 c5bc
000002c0: 2f25 1ebb 39a4 10be 327d d73c 048a 183c
000002d0: 1362 9c3c a345 13be d9fd 00bd 75e8 a2bc
000002e0: 7ead ee3d 7cb3 e5be 54da 7c3e 5c02 19be
000002f0: 0687 b8bc 09dd d73e dde7 853c 2621 b83e
00000300: c745 1bbd 8ffb bd3e 267b fcbb cc8e c23e
00000310: bffe 0abd 263d acbd 93ac fbbe 4a1d d23b
00000320: b702 243f 905a 7fbf 4382 cdbd f0cd 83bc
00000330: 86f0 0fbd b1d1 eebb 394d 66be 388c bc3b
00000340: 54c8 87be 543e 01bb 5639 203c 3b5a debe
00000350: a989 10bf e71f fc3d b1bd 6b3e 5ba2 82bc
00000360: 88b0 80bd a522 4abc 1964 e2bc 1349 a33c
00000370: 9c15 0fbd f80a 513e 5be6 70bb c881 8cbe
00000380: b716 52bc 024d c03e fedb 45bd 110a 9a3d
00000390: 33dd aebe dd5a 703e e032 03bc ed11 d33b
000003a0: fed3 d63e c45c 09be dd75 813c f075 d03a
000003b0: 8bba 94bb 0e2c f93e ae98 f4be 69d4 3ebd
000003c0: b92d 013f aa39 6a3e 06cd 3b3d 30b6 2d3f
000003d0: c56e 063e 49f6 31be dfe1 6dbe 4d74 943f
000003e0: 95b3 843e 9499 933c a9be b63c 6e56 f43d
000003f0: fb16 ba3a 306e 5abc 69d0 5dba 193b f53b
0.014313039 -0.09885121 0.22022204 0.25780082 -0.06612579 0.46516344 0.04291551 0.034600712
-0.016941248 0.11798441 0.09947302 -0.106069416 -0.07448366 -0.14594218 -0.36398023 0.22165062
0.0444476 -0.17516921 -0.012025051 -0.0077675586 0.018220244 -0.018829534 -0.03643596 0.024410048
-0.04171888 0.004561134 0.0018264618 -0.0017691777 0.023380334 -0.05596515 0.84699106 -0.0029172464
0.07508969 -0.33165416 -0.0028400305 -0.14356934 0.0070223943 0.012162529 0.07510669 0.0072149774
0.008247686 -0.11711306 0.01681998 -0.058253624 -0.012383605 -0.38465756 0.020855373 -0.0049837884
-0.002078054 -0.0058669895 0.0983142 -0.13158938 -0.023672646 -0.0155437775 -0.012359031 -0.013156549
-0.037288334 0.018559795 0.027792873 -0.055502385 0.013685721 0.007147681 -0.079826444 -0.6935856
0.025732236 -0.055269126 0.015559115 -0.009777978 -0.074862435 -0.17881262 -0.06042516 -0.004326054
-0.059809033 0.12902926 -0.01297443 0.05774877 -0.010213963 -0.058733717 -0.15415165 0.663795
-0.04994034 0.067918696 -0.030949956 -0.13418724 0.0042779143 -0.003502704 0.1333611 -0.0076062893
-0.028641101 0.0033143337 0.6688083 -0.46633422 0.0074354094 0.017786648 -0.022847993 -0.3677651
-0.014812314 -0.0037414772 -0.127251 -0.05608761 -0.016479088 0.009547456 -0.014741727 -0.0063140504
0.0099335965 0.033396684 0.0030495983 0.022891423 0.017780708 -0.15017742 -0.26637235 -0.00792106
-0.2954309 -0.066120766 -0.29856983 0.34268394 0.007445647 -0.00062776654 0.008580898 -1.4287643
-0.71663994 0.0030166663 0.121179484 0.0026127442 -0.19796999 0.032290865 -0.48142645 0.083753675
0.13558227 -0.23810236 0.03116077 -0.0068273866 -0.10092513 0.016650515 9.9463316e-05 0.026250351
-0.0023029395 -0.01672721 -0.14067411 -0.11981949 -0.010995844 0.45116648 -0.0045940382 0.014408681
0.029146535 -0.030402172 0.009489031 -0.27445632 -0.029585112 0.10767181 -0.51075053 0.017403034
-0.008701932 -0.27252185 0.14943242 0.04373142 -0.5449873 0.11396283 -0.056722395 -0.10070519
-0.021609938 1.1080539 0.016919855 -0.13861325 -0.14257622 -0.17500272 -0.19269721 0.005933426
0.5005729 0.0024294818 -0.09313883 -0.02767517 -0.0012942671 0.10284296 0.13439961 -0.024156606
-0.002413105 -0.14125146 0.026304815 0.009310249 0.019089734 -0.14382033 -0.031492088 -0.019886235
0.11654185 -0.44863498 0.2469266 -0.14942306 -0.022525322 0.42160824 0.016345913 0.3596279
-0.03790834 0.37105986 -0.00770511 0.3799957 -0.03393435 -0.08410101 -0.491551 0.006412183
0.6406664 -0.9974756 -0.10034611 -0.01608941 -0.03514149 -0.0072881808 -0.22490396 0.00575402
-0.26520026 -0.0019720988 0.009779295 -0.43428215 -0.5646005 0.123107724 0.2302158 -0.015946558
-0.06283671 -0.012337361 -0.02763562 0.019932305 -0.034932718 0.2041434 -0.0036758396 -0.27442765
-0.012822798 0.37558752 -0.048305504 0.07521451 -0.34153137 0.23472162 -0.008007735 0.006441346
0.41958612 -0.13414294 0.015803272 0.0015904289 -0.004538839 0.48666424 -0.47772735 -0.04658929
0.5046039 0.2287356 0.045849822 0.6785612 0.13128193 -0.17379107 -0.23230694 1.1597992
0.2591826 0.018017568 0.02230771 0.11930548 0.0014197523 -0.013331935 -0.00084615365 0.0074838516

parameters.std_b f4 [8]
00000000: bbca 08c0 5d24 07c0 8ecb 08c0 9274 08c0
00000010: 0e71 04c0 f549 06c0 3b13 00c0 36b6 fcbf
-2.1373737 -2.1115944 -2.137424 -2.132115 -2.0694003 -2.098264 -2.0011737 -1.9743106

parameters.std_w f4 [8, 256]
00000000: 5dc2 aa3c 1eb4 18be 51cd 6ebe b3d3 89be
00000010: c893 083d 188d 983d e715 14bd 1578 44bb
00000020: 84dd 413d d07d 5bbe f6e6 4fbd c5d5 c5bc
00000030: e2e4 f43d f7c8 833e 06ba fc3c 6eac d33d
00000040: 2872 47be 6434 ce3d 2b87 fbbb b056 c03c
00000050: b3cd 243d 9096 883c 5da8 193c 80ed 173c
00000060: 9e5b ffbc f517 12bd 873f 3b3c a95e 193c
00000070: c952 a1bc 0f39 913c af4b f43e 0707 433d
00000080: 8a3e dd3d 866b 303d 68bc a8bd bcc9 9cbd
00000090: 1f52 563a 6620 173b d83e dd3d ac70 a0bc
000000a0: e0e9 973b 0afe d03c 1f5a 6d3c 6ff5 9f3c
000000b0: 05d4 2d3d dfab 3abe 7352 81ba ee7f 753c
000000c0: 21aa 343b 4c09 b8bc a8f8 8cbe 64a1 45bd
000000d0: e7f7 b03c a5fe 403d bebc 573d 1aca 49bc
000000e0: 2456 b93c 25ec afb9 dff2 80be c396 193d
000000f0: 71e7 013d ffde 303c 1d45 26be b3d2 963f
00000100: 7328 9dbe 6819 643c f75c 1f3c 5be3 6dbc
00000110: 35ae 76be 71fb 20be 5580 87ba 6385 8e3c
00000120: e0da 1e3c ca71 5bbc d18e e4bb b3ee 44bd
00000130: f06b 84ba 0e27 5ebe 8941 6e3e e45b ed3c
00000140: 97e0 333c 5f96 c7bb 6a89 ae3c 9a15 09bd
00000150: 37ea 693c cceb 293d bfa4 01be e383 293d
00000160: cbae e73b bcff c1bc 3342 45be 9c67 95bd
00000170: 8736 ee3a c831 e43c 7a0b 193c e798 a33d
00000180: 7ba4 133c 38fc df3b 6014 ddbc f79b 26ba
00000190: 5b0a c8ba 696b e43b 96c9 d33c 4d1a a13c
000001a0: 68f4 163c af4f 45bc 239f d53a a60d 3a3c
000001b0: 9fb1 053a e2a8 523d 2304 0abd 131c 553c
000001c0: 81d4 823d c46e 2e3b 3dac 0cbd 1951 48bd
000001d0: f34b bd3c 4944 bbbb e27e 98bb 763b 543f
000001e0: 634b 193e d5a1 fbbd aa0a 33be ab84 f43b
000001f0: bc7b cdbe 6e8f 4c3e 0ab8 6e3d 3057 26bd
00000200: 68ba 5ebc 3f49 8b3d fd2f 6d3d 128a f03c
00000210: 2958 ab3d 853e 223c 3c02 533d a23c 173c
00000220: 7a4b b8bb a9e6 31bc 45e8 a7be 7cdc 80be
00000230: 5561 a7bc 5618 97bd cc17 9c3b d845 4fbb
00000240: 3c5e 503c afe9 e0bd 9796 c23b f6ab 5abe
00000250: 6041 47be 3976 7bbe e428 763e e711 99bc
00000260: a4fb 56bd cc7b adbc b5ac 333d 52a5 38bd
00000270: b0cc 3b3e 5a41 6b3d 376a d73c e2b0 dd3c
00000280: 0852 083d 51b7 323f d150 063c c6a1 46bd
00000290: 442f 8a3d 03b0 0a3d ce7f 42be b571 67bb
000002a0: 2825 b6bc e6af 28bc 973a c53e 9947 453c
000002b0: 92ba 4a3a 9aca aa3b 21c8 90be 39ff 8c3d
000002c0: 63a7 bf3c dba7 f73d 0ca2 5a3d 7f36 10bc
000002d0: 2144 6b3c d16d 8ebe cb61 433c 73ac ae3e
000002e0: ecab 013e 3ace bd3d 43c3 52be fcba f1bd
000002f0: 4e0b ca3c 5d33 403f bb48 683c cf6c aebd
00000300: 1032 48be ec39 edbe ae45 a33c 1ad2 443e
00000310: 25cb 753e 43d4 623b 057a 3a3e d38a 1d3c
00000320: f9c2 0f3f 6136 3a3f b79a 24be aef0 143d
00000330: 62d5 463d d15d b63d bb15 553d f6fa 6e3c
00000340: 930e e4bd 9ef4 d3bb db09 0c3c 8e3a 99bd
00000350: a845 8a3e faa7 31bb 7032 8d3d 567f acbb
00000360: 3a66 49be 9264 743c 50c3 453c 59d2 7a3d
00000370: f92d 5e3d 74e7 17be 7a76 79bc 9cd8 833d
00000380: 56cf 633d 1b3f 053e b1b1 513c 5cb3 ef3d
00000390: 6d49 893e ed76 67bd 0566 33bb 9ed0 053d
000003a0: 7552 683e 68ae e7be c863 02ba 3520 a53b
000003b0: 057d b9bc d80a ef3d 5b25 d63d 2b7b 4ebe
000003c0: 0a32 193e 3071 eabd 610b 0ebe 6410 a23e
000003d0: 9a4b 44be a40e 203e dea1 9d3c ca23 6a3f
000003e0: bc18 9cbd 2969 0d3c 0468 923d 4fc4 a3be
000003f0: a926 c53c 7eab c43c 5bc1 963c 5f7c b239
0.020844633 -0.14912459 -0.2332051 -0.26919326 0.03334406 0.074487865 -0.0361537 -0.00299788
0.047330394 -0.21434712 -0.05075737 -0.024149785 0.119577184 0.25739262 0.030850422 0.10335623
-0.19477141 0.100685865 -0.0076760254 0.023478836 0.040235233 0.016673356 0.00937852 0.009272933
-0.031171616 -0.03566738 0.01142872 0.009360948 -0.019692795 0.017727403 0.47713992 0.047614124
0.10802944 0.043071292 -0.08239061 -0.07655665 0.0008175689 0.0023060082 0.10803002 -0.019584976
0.0046360344 0.02551176 0.014486819 0.019526212 0.042438526 -0.18229626 -0.0009866491 0.014984114
0.0027567225 -0.02246537 -0.2753346 -0.048249617 0.021602584 0.047117848 0.052670233 -0.012316251
0.022624083 -0.00033554542 -0.25185296 0.037497293 0.03171486 0.010795354 -0.16237302 1.178305
-0.30694923 0.013922073 0.009726754 -0.014519538 -0.24089892 -0.15720917 -0.0010337929 0.017397588
0.009695739 -0.013393829 -0.006975033 -0.048079204 -0.0010102969 -0.21694586 0.23267187 0.02897448
0.010978839 -0.0060909237 0.021305759 -0.033467866 0.014277033 0.04148464 -0.12660502 0.041385543
0.0070703975 -0.023681514 -0.19263534 -0.072951525 0.0018174209 0.027855769 0.009341115 0.07988148
0.009011383 0.0068354867 -0.026987255 -0.0006355638 -0.0015261875 0.006970812 0.02585296 0.019665862
0.009213544 -0.012042924 0.0016298037 0.011355793 0.0005100015 0.05143059 -0.03369535 0.013007182
0.06388188 0.0026616314 -0.034343947 -0.048905466 0.023107504 -0.0057149273 -0.0046537975 0.8290323
0.14970164 -0.122867264 -0.17484537 0.0074621043 -0.40133464 0.19976589 0.058280982 -0.040610492
-0.013594247 0.0680108 0.057907093 0.029362712 0.083664246 0.009902601 0.051515803 0.009230765
-0.005624232 -0.010858216 -0.32794395 -0.25168216 -0.020432154 -0.073776886 0.004763579 -0.0031627323
0.01271778 -0.109820716 0.005938362 -0.2135466 -0.19458532 -0.24556817 0.24039036 -0.018685294
-0.052486077 -0.021177195 0.043865878 -0.045079537 0.18339801 0.05743537 0.026295764 0.027061883
0.033281356 0.6981097 0.008197979 -0.048494123 0.067472965 0.033859264 -0.18994066 -0.0035315577
-0.022234514 -0.010295844 0.38521263 0.012040996 0.00077334896 0.0052121403 -0.28277686 0.06884617
0.023395246 0.12092563 0.053377196 -0.008802055 0.014359505 -0.27818158 0.011925171 0.34115943
0.12663239 0.0926785 -0.20582299 -0.118032426 0.024663594 0.75078374 0.014177497 -0.08516847
-0.19550347 -0.46333253 0.019930687 0.19220772 0.24003275 0.003461138 0.1821061 0.009615618
0.5615688 0.72739226 -0.16074644 0.036362343 0.04854334 0.08904613 0.052022677 0.014586201
-0.11135592 -0.0064683696 0.008547272 -0.074818715 0.27006269 -0.0027108178 0.06894386 -0.005264203
-0.19667903 0.014916556 0.012070492 0.06123576 0.05424306 -0.14834386 -0.015226001 0.06437799
0.055617653 0.13012354 0.012798713 0.11704132 0.26813832 -0.0565099 -0.002737404 0.032669656
0.22687705 -0.4525025 -0.0004973975 0.00503924 -0.022642622 0.1167199 0.10456344 -0.20164172
0.14960495 -0.1144737 -0.13871528 0.3165313 -0.19169465 0.15630585 0.019242223 0.9146086
-0.07621905 0.008631029 0.07148746 -0.3198571 0.024066286 0.024007555 0.018402746 0.0003404347
