notebook/result/weights/sac_snapbot/episode_250.pth (torch, 355440 bytes, 8 tensors)

parameters.mlp_0_b f4 [256]
000000 03 2d 7a 3e c4 df 56 bd 87 9c 0e 3c 37 27 b7 bd
       0.24431233 -0.052459493 0.008704311 -0.089430265
000010 5c 44 8e 3e 93 52 da bc 0a 58 8c bd 9d cc 75 be
       0.2778653 -0.026650703 -0.068527296 -0.24003835
000020 1e 5f 1a be cf 42 8e bc 28 d9 df bd 68 24 ec 3b
       -0.15075347 -0.017365841 -0.10930091 0.0072064884
000030 4a 0e 85 3c c5 0a 2c 3e 65 a9 14 be 9c b7 f8 3e
       0.016242165 0.16800983 -0.14517744 0.48577583
000040 66 a8 b4 bb ba 74 d7 bd e4 a3 1d bd 94 04 79 bc
       -0.0055132387 -0.10520311 -0.038486376 -0.015198845
000050 bf a6 b1 3d ee 65 16 bd d2 03 e2 bd 38 82 0e 3e
       0.086743824 -0.0367183 -0.11035885 0.13916862
000060 4d d4 85 bd be e7 a6 bc c7 1b 25 3c 69 e1 8f bd
       -0.06534634 -0.020374175 0.010077423 -0.070254155
000070 4c b4 30 3d 77 5b ac bd 9e 98 06 3d 72 1b 39 be
       0.043140694 -0.08415883 0.03286039 -0.18076876
000080 68 76 90 bd 27 c0 38 3e 31 f6 a6 bc 33 5f 5e bd
       -0.07053834 0.1804205 -0.020381065 -0.054290008
000090 3b 14 85 bc 91 40 ef 3d c0 48 37 be af 37 71 bd
       -0.016244998 0.11682237 -0.17898846 -0.058890995
0000a0 f0 04 de 3c 64 e8 fd bd b7 de 46 3e 5a 56 17 be
       0.027101964 -0.123978406 0.19420896 -0.14779034
0000b0 e8 e5 00 3d 3f 78 85 3e 41 36 a0 bd 7d 7e 36 be
       0.031469256 0.26068303 -0.07822848 -0.17821689
0000c0 26 9c 3a be 0b ac 45 3e 50 a6 80 bd 33 1b e3 3c
       -0.18223628 0.1930391 -0.062817216 0.02772293
0000d0 61 f5 98 bc 9e 36 d3 bd 5f 38 ad 3e 4d 03 32 bd
       -0.018671693 -0.10313152 0.3383207 -0.04346018
0000e0 fa d6 ba bd cd 7d 66 be 83 24 9f bc cb bf 17 be
       -0.09123035 -0.22508927 -0.01942659 -0.14819257
0000f0 e7 28 ed bd c9 28 a8 3d cb b1 e0 3d d0 81 a5 3d
       -0.11580067 0.08210904 0.10971411 0.080814004
000100 04 d3 1b bd 11 5b 88 be 5d be 92 bd 7d 51 98 3d
       -0.038043037 -0.26631978 -0.07165215 0.07437418
000110 fb d9 77 bd 53 0a 57 be 0a f1 34 3e 7b 5a 36 be
       -0.060510617 -0.21000032 0.17670074 -0.17807953
000120 81 e7 4c be 1f 16 a2 bc ed d5 c7 bd 65 a2 f2 3c
       -0.20010187 -0.019785939 -0.097576 0.029618451
000130 c1 a5 c6 3d e5 a4 4e be 1f 7e 1d 3d ce 94 46 be
       0.09699584 -0.2018009 0.038450357 -0.19392702
000140 ec d2 fb bd 31 4c bc bd b6 86 cd bc 94 c7 fa bc
       -0.122960895 -0.0919422 -0.02508865 -0.030612744
000150 9e 0c 6c 3e 54 af 9c 3c f3 55 35 be 83 aa 42 be
       0.23051688 0.019126572 -0.17708568 -0.19010358
000160 5a 3e 19 3e 2d c2 e2 3d e8 57 d2 bd 0e 43 03 3e
       0.14965191 0.11072192 -0.10270673 0.12818548
000170 0f d7 1e bd 77 c2 36 3e 75 a5 22 3d 31 8c 9d be
       -0.038779315 0.1784762 0.039708573 -0.3077102
000180 ce 80 e9 3c af f6 cb bd b2 9f a5 3c 50 7a 11 3d
       0.028503802 -0.099591605 0.02021775 0.035517037
000190 fc df 0b 3e 8b 53 fa 3d e5 f3 91 3d cb 5d 4a bd
       0.13659662 0.12222966 0.07126597 -0.049405854
0001a0 08 88 66 39 f2 89 ba bc dd 45 0b 3c 11 88 0a 3e
       0.00021985185 -0.022770856 0.008500543 0.13528468
0001b0 a9 f2 f2 bd 53 d7 9b bd d7 83 03 be ba 83 78 3d
       -0.1186269 -0.07609429 -0.12843262 0.0606725
0001c0 6a db 58 3c 41 d1 e2 bd dc 51 91 bd 49 dd cb bd
       0.013235906 -0.11075068 -0.070956916 -0.09954316
0001d0 78 0f 15 3d 49 61 0b 3c 8e d8 2d 3e 48 2b b7 bd
       0.036391705 0.008507081 0.1697714 -0.08943802
0001e0 77 c4 42 3e 72 44 0c be 41 de 23 bc 94 e3 2f 3e
       0.19020258 -0.13697985 -0.01000172 0.17176658
0001f0 2c 70 aa bc d3 f4 af 3d d1 5d 0e be 00 38 c7 3c
       -0.02080544 0.085916184 -0.13902976 0.024318695
000200 d4 fb 15 3c 72 0e 33 3e 86 24 fa bd f6 94 b1 3d
       0.009154279 0.17485979 -0.122139975 0.0867099
000210 56 66 40 be 6a d9 32 be f8 7d 85 bd 21 0a 9c 3d
       -0.18789038 -0.1746575 -0.06518167 0.076191194
000220 7c 79 1f 3e 79 0e 0d 3d ae 91 99 3d 9a ed 08 3e
       0.15573686 0.03443763 0.07498489 0.13371888
000230 1e 03 21 3e 09 7d e5 3d 31 f4 44 be 9d 78 d8 3d
       0.15723845 0.11205489 -0.19233777 0.1056988
000240 17 1e e8 3c e2 d4 3f 3e dc 0e 07 3e 84 64 eb bd
       0.02833466 0.18733552 0.13189262 -0.11493781
000250 25 68 8a be 52 ff f5 bd 89 2c 2e bd 8d bf 05 be
       -0.2703258 -0.12011589 -0.04252294 -0.13061352
000260 09 5e f6 bd dd 55 41 be 36 da 23 bc 05 69 5f bd
       -0.120296545 -0.1888041 -0.010000756 -0.054543514
000270 b2 0f a1 bd 68 3a d3 bd 89 26 55 bd 67 77 0c be
       -0.07864322 -0.103138745 -0.052038703 -0.13717423
000280 5b e1 f8 3d 90 07 3d be b9 33 1a be db fe f0 3c
       0.12152358 -0.18459916 -0.15058793 0.0294184
000290 57 a7 bc 3d 4a 32 e1 bc 34 0a 5f 3e e1 e6 d2 3d
       0.09211605 -0.0274898 0.21781236 0.10297943
0002a0 1e 1c cf bd 94 bc 2d bd b7 f8 c3 bd c0 31 78 3c
       -0.10112785 -0.04241617 -0.09568923 0.01514858
0002b0 c4 b1 2b 3e 24 9b 96 3d 65 62 a6 3d 14 6a 5e 3d
       0.16767031 0.073538095 0.08124236 0.054300383
0002c0 15 b8 5b bd bb d1 aa 3e c0 18 59 be ac 81 0b be
       -0.05364235 0.33363137 -0.21200848 -0.13623685
0002d0 63 48 7d 3d 06 f6 44 bd 12 1d 34 be fd 32 90 bd
       0.06183661 -0.04808619 -0.17589214 -0.07040975
0002e0 d6 ab e2 bd fc 2e 92 3d e8 f2 81 bd d9 ae cd bd
       -0.11067931 0.07137868 -0.06345159 -0.10043115
0002f0 3c 32 38 bc 80 e1 87 3e aa 3c 05 bd 76 bd a4 bd
       -0.011242446 0.2653923 -0.032528557 -0.08043949
000300 4a ab 0b bd 35 9b 8b 3d c8 95 30 3e 74 4e 17 3c
       -0.0340989 0.06816713 0.17244637 0.009235013
000310 63 5f 14 bd 3b ef ca 3d 21 96 92 bd d4 21 e6 3d
       -0.03622378 0.09908911 -0.07157541 0.11236921
000320 25 70 ba 3d bf d7 60 be e3 0f 15 3c 26 e5 0b be
       0.09103421 -0.219573 0.009098026 -0.13661632
000330 29 b5 3a 3d be aa dc bc 27 68 94 3d 42 4f 02 be
       0.045582924 -0.026936885 0.07246428 -0.12725547
000340 4e 82 bd bd 80 e1 12 3d 95 52 bb bd 0f 28 85 bd
       -0.09253369 0.035859585 -0.09146611 -0.06501781
000350 3a ec 2f 3e 63 d2 aa bd e4 8e 27 bd 33 e8 60 3e
       0.17179957 -0.08340909 -0.040907755 0.21963577
000360 45 08 aa 3c d5 25 d5 3d dd 07 6c bd 10 54 2b be
       0.020755896 0.104076065 -0.057624687 -0.16731286
000370 8f 8f 26 be ab 88 47 bd b6 17 61 bb d4 45 cc bd
       -0.16265701 -0.04871432 -0.0034346408 -0.09974256
000380 2e 66 e6 bd 08 18 33 bd 36 77 36 3d ff 02 1d be
       -0.11249958 -0.04372409 0.044547282 -0.15333174
000390 5f 7e b7 bd ee 89 ea bd 29 6c 66 3d 2b 2a ca 3e
       -0.0895965 -0.11452089 0.056255493 0.39485297
0003a0 a3 9c da bb b8 b2 56 3e 37 fc 45 3d 12 e8 81 bd
       -0.0066715046 0.20966613 0.048336234 -0.06343092
0003b0 14 88 e4 3d 26 6e 63 3d 79 3a b6 bc 57 b4 af 3c
       0.11158767 0.055524968 -0.022244679 0.021448297
0003c0 96 db 8f 3e c7 01 95 3e 6b 80 6a be 3f 10 b1 bd
       0.28097218 0.29102919 -0.2290055 -0.08645677
0003d0 53 f1 42 3d 59 be 95 3d ac e7 61 bd 0f 3d b6 3d
       0.047593426 0.073116966 -0.05515258 0.08898365
0003e0 c0 91 2a 3d e5 ed 1e be 2b 50 f9 3d a3 77 f8 bb
       0.041642904 -0.15520437 0.12173494 -0.007582621
0003f0 3d 1f 1e 3d 98 5d 33 3e f2 9d 29 bd c8 a0 25 3d
       0.03860401 0.17516172 -0.041410394 0.040436536

parameters.mlp_0_w f4 [256, 70]
000000 87 28 05 bc 03 37 2d be 07 18 bf be 4a ea d9 be
       -0.008127338 -0.16915517 -0.3732302 -0.4256156
000010 23 cb 03 3e 0c f3 46 3d d1 46 45 bd 43 8c 8a 3d
       0.1287046 0.04857163 -0.04816324 0.06765034
000020 97 c6 72 3e aa 00 47 3c 2f ec 82 be 19 13 df be
       0.23708569 0.012146154 -0.2557082 -0.43569258
000030 0b 69 4d 3e 5c f0 b5 3d 45 3c 5b be 9f ba ea 3c
       0.20059602 0.088837355 -0.2140971 0.028653441
000040 15 68 e0 3c 27 bc 05 be b3 bd a4 bd d5 38 1c 3e
       0.02739338 -0.13060056 -0.08043995 0.15256055
000050 3d 9b 77 3d 69 62 b8 be cd 17 48 3e 29 ab 56 3e
       0.06045078 -0.3601258 0.1954033 0.2096373
000060 d0 c1 2f 3e 23 16 43 3e 77 a8 43 3e 99 70 ee bd
       0.17163777 0.19051413 0.19107233 -0.1164257
000070 3a 71 dc bb 0b 7a 12 3e 48 df f0 bc df 54 87 3c
       -0.006727365 0.14304368 -0.029403344 0.016519962
000080 59 ab 04 bd d9 e8 a9 3d fd 71 d4 bb da 6c 38 be
       -0.032389972 0.08296365 -0.006483315 -0.18010274
000090 a0 5d 07 be bd 2d 12 be 8d 7b 82 be b1 78 e9 3b
       -0.13219309 -0.1427526 -0.25484887 0.0071249832
0000a0 56 5a 02 bd 45 de 45 3d ef a9 b2 3c f5 ee 10 3e
       -0.031824432 0.048307676 0.021809546 0.14153655
0000b0 dc 55 57 3d 87 19 b2 bd 17 43 de bd c5 e9 05 3e
       0.052572116 -0.08696275 -0.1085264 0.13077457
0000c0 d9 f1 a6 3d 07 80 f3 3d 74 6b 93 3e b5 0e b9 bc
       0.081515975 0.11889654 0.28792918 -0.02259002
0000d0 bf 3d 9e be d2 47 89 be 5d 35 a5 3e ee bb f5 bc
       -0.30906484 -0.26812607 0.32267275 -0.029996838
0000e0 30 11 ba be a1 fd 86 3e 7c 05 79 bd d6 fc f1 3d
       -0.36341238 0.26365378 -0.060796246 0.11815803
0000f0 44 ce fd 3d 0e 90 c1 3d 7c b6 90 bd 72 c8 98 bd
       0.12392858 0.094513044 -0.07066056 -0.07460107
000100 67 6f e0 bc 17 d9 37 bd 48 36 a7 3d 1c 00 86 3d
       -0.02739687 -0.044884767 0.0816465 0.065429896
000110 63 b5 d8 3d 2f fd 80 bd d3 e6 a5 be 78 2e e0 3d
       0.10581472 -0.06298291 -0.32402667 0.10946363
000120 47 40 6a bd 13 80 8d bd 3e 39 6e 3c c6 db 00 bf
       -0.057190206 -0.06909194 0.014540015 -0.5033535
000130 6e 0e 34 bd 25 f0 69 bd 1a 46 7c be 3b 3c 9a be
       -0.043959074 -0.057113785 -0.24636117 -0.30124077
000140 13 d2 41 be 60 c4 d9 3d c9 75 db 3b 67 37 c0 be
       -0.18927793 0.10633159 0.0066973907 -0.3754227
000150 39 5f 5c 3e 58 3f 9d be 36 52 3b 3b 0b 19 87 be
       0.215207 -0.3071239 0.0028582937 -0.26386294
000160 33 1f c3 be bd 1f 74 3e 71 95 45 bc 32 14 82 be
       -0.3810974 0.23840232 -0.012059555 -0.25406033
000170 93 fa 9f 3e 37 db 2c 3e 62 c1 dc bd 13 2b 26 be
       0.3124586 0.16880499 -0.10779072 -0.16227369
000180 1b dd 27 3e 41 2b 26 3b c9 79 a7 3d b9 2c 5b be
       0.16392939 0.0025355371 0.081775256 -0.21403779
000190 b5 70 36 3e 43 70 d2 be 82 46 ac be d0 61 86 3d
       0.17816432 -0.41101274 -0.33647543 0.06561625
0001a0 0a 00 e8 3d 63 5f 0e be e0 4e bd 3d 87 28 cb 3d
       0.113281325 -0.13903575 0.0924356 0.09919839
0001b0 4b 5c a2 bd 23 a2 e9 bc cb 47 d1 be f1 99 e0 bd
       -0.0792776 -0.028519696 -0.40875086 -0.10966862
0001c0 fd 01 66 bd 39 48 96 bc ed 92 2e be c7 60 d2 bd
       -0.05615424 -0.018344985 -0.17048235 -0.10272365
0001d0 39 24 bc 3b 4b 89 70 bd a5 7d a9 bd a1 d9 6d bd
       0.0057416228 -0.058724683 -0.08275918 -0.058068875
0001e0 cf b8 eb 3d 63 69 52 bd b0 60 24 be 78 61 df be
       0.11509859 -0.051370036 -0.16052508 -0.4362905
0001f0 e0 83 11 3e 85 9b b5 bd 67 64 db bc d8 4a 59 3e
       0.14210463 -0.088675536 -0.026781274 0.21219957
000200 62 16 98 3d 20 3b 3c be 97 34 5d be 1a 81 89 3e
       0.07426144 -0.1838193 -0.21602093 0.2685631
000210 66 5c 10 3d 6c 9e 0e 3e 25 b7 0e be f8 95 0b 3d
       0.035244368 0.1392762 -0.13937052 0.03407857
000220 ac be 18 be 1c bf 90 be dc 27 5c bd 54 cf 1f 3e
       -0.14916486 -0.28270805 -0.05374895 0.15606433
000230 e6 97 0d 3d 8e 3a c4 3e 1b 51 05 3d 49 39 3f 3e
       0.03456869 0.38325924 0.03254805 0.18674196
000240 88 22 c5 be cf 88 b1 3c 60 e1 23 3e d0 7e 8b 3d
       -0.38502908 0.02167168 0.16003942 0.06811297
000250 dc 9b 8b 3e a1 0f 85 3e eb 86 c7 3e 33 bc e4 3e
       0.2726735 0.25988486 0.38970122 0.44674835
000260 49 49 01 bf 8b 64 0d 3d 98 fc d8 3d fa 30 b2 3c
       -0.5050245 0.034519713 0.105950534 0.02175187
000270 46 0d e8 bc e2 ed c6 3d 7e be 7a 3e fe d7 dd bd
       -0.028326642 0.09713341 0.2448673 -0.10832213
000280 d4 b8 06 bd ea 07 a3 3e 7d 4c b6 be ec ed a9 3d
       -0.03289111 0.31841975 -0.3560523 0.08297333
000290 de 2e d8 3b f7 10 94 3e a4 f7 a9 be f7 e8 b0 bd
       0.006597384 0.28919193 -0.33196747 -0.086381845
0002a0 4b a7 8a 3c 58 c7 6e be c9 a5 57 be f8 cb 99 be
       0.016925475 -0.23318231 -0.21059336 -0.30038428
0002b0 c1 60 db be 26 31 5b bd 09 1b 0b 3e 39 60 35 be
       -0.42847255 -0.05351367 0.13584532 -0.17712487
0002c0 03 93 af 3e f5 9c 39 be de 9f 22 bc c2 35 0f be
       0.3429185 -0.1812628 -0.009925811 -0.1398535
0002d0 33 47 c3 3c 1f f9 1e be ea 02 3e 3d d7 c7 11 3d
       0.023837661 -0.1552472 0.046389498 0.035590973
0002e0 71 8d 10 be b0 c2 3d be 1f 9f da 3d 34 0d 32 3d
       -0.14116456 -0.18531299 0.10674881 0.043469623
0002f0 f9 6b 8c 3d 1b a2 9c 3e 4f 46 36 3e 72 10 4a be
       0.06856532 0.30592427 0.17800258 -0.19732836
000300 70 33 d1 3d 92 91 94 3e 24 a8 a1 bd a6 fd 59 be
       0.10214889 0.2901731 -0.078933984 -0.21288165
000310 31 a1 6f bd 07 5b b1 be 97 98 9c bd e1 db 34 be
       -0.058503333 -0.3463976 -0.07646292 -0.17662002
000320 1a 4e fd bd 2f 1f c7 be e6 b2 51 bd 33 19 0f bd
       -0.12368412 -0.3889098 -0.051196 -0.03493614
000330 55 f5 67 be 5a 91 c4 bd 70 d8 9f be e4 96 ba be
       -0.2265218 -0.09598036 -0.31219816 -0.36443245
000340 ab 96 d0 3c 7f df 26 3e 0d 4b aa bd 80 74 83 3d
       0.02546247 0.16296194 -0.08315096 0.06418705
000350 31 b0 94 bd f2 0f c4 bd cd 58 a7 be 0b e0 89 be
       -0.07260168 -0.09573354 -0.32684937 -0.26928744
000360 84 45 cc bd a8 36 a9 3e 4f 4c 9e be b1 71 01 3e
       -0.099741966 0.33049512 -0.30917594 0.12641026
000370 e5 cc 1f 3d c6 4f fb 3e 09 19 71 be 03 42 e4 be
       0.039013762 0.490843 -0.23544706 -0.44581613
000380 f6 22 2e bd f0 f0 f4 bd 98 ce 7f 3c be ed c7 bd
       -0.04251381 -0.11960018 0.015613221 -0.097621426
000390 b2 a5 48 3d 95 63 07 3e 2a 11 d7 3b 42 c0 c3 3e
       0.048986144 0.13221581 0.0065633254 0.3823262
0003a0 88 99 75 bd f9 16 00 be 76 00 d9 bd 04 49 df bc
       -0.059960872 -0.12508763 -0.10595791 -0.027256496
0003b0 49 99 fa be f8 da af 3c ae b2 c7 b9 d6 9a 83 bd
       -0.48945072 0.021466717 -0.00038089365 -0.06426017
0003c0 6c db c3 3c f4 a8 9b be 05 40 e5 be 96 3e 26 be
       0.02390834 -0.30402339 -0.44775406 -0.16234812
0003d0 88 63 15 be 5f 72 61 3c 00 01 5d 3c d9 dc 4c be
       -0.1458875 0.013760178 0.013489008 -0.20006122
0003e0 04 97 49 be 1d ed 33 be ed e5 35 be d8 a0 e0 3c
       -0.19686514 -0.1757092 -0.17763491 0.027420446
0003f0 5d eb 9e 3e e9 cc 08 3c 1f 5f a8 3c d0 e2 ac 39
       0.31038943 0.008349636 0.02055317 0.00032975385

parameters.mlp_1_b f4 [256]
000000 69 43 81 3d 4f 35 d3 3d d8 bf 0a 3e 53 7f fd bc
       0.063116856 0.10312902 0.13549745 -0.030944502
000010 4a 9a d2 3c b5 27 80 3e ed d6 85 3d 7a 4a c9 3d
       0.025708336 0.25030294 0.065351345 0.098286584
000020 d3 3a c8 3c 9f af 28 3e 4a 36 83 3d 45 60 21 3e
       0.024442112 0.16473244 0.06406839 0.1575938
000030 18 fd 0a be 89 8a 4b 3d 27 96 96 3e 34 ea a6 3d
       -0.1357311 0.049692664 0.29411432 0.081501395
000040 28 58 34 3e 4d c0 c8 3a e4 f6 c8 bb 31 8b 89 3c
       0.17611754 0.0015316099 -0.0061329473 0.016790004
000050 15 d2 91 3d d5 e9 79 3c 26 4a 4e 3d 6e 04 d8 bc
       0.07120148 0.015253504 0.050363682 -0.0263693
000060 5d 31 f7 3d 38 1c 41 3d e6 d4 92 bc 64 c1 82 bc
       0.12069962 0.047146052 -0.017923784 -0.015961356
000070 fe 3d f7 3c 54 96 a7 3d e0 10 27 3e 85 18 21 3d
       0.030180927 0.0818297 0.16315031 0.039330024
000080 9a 17 2a bd e0 47 f1 3d 94 3f 50 3d 7d a3 d0 3d
       -0.041526414 0.11781287 0.050841883 0.10187433
000090 26 2a 47 bc 12 fb e4 bb 50 6a 0d 3e 4f d6 98 bb
       -0.012156045 -0.0069879377 0.13810086 -0.0046642195
0000a0 72 60 4e bc c3 24 f3 3d 3d f8 98 bc 72 bd 9e 3d
       -0.012596237 0.11872246 -0.018673057 0.077509776
0000b0 5a d1 88 3d fe eb 5b 3e 49 c3 8d bc ee e4 d6 bb
       0.06680556 0.21476743 -0.017305033 -0.0065580523
0000c0 e2 ad 6d bc 8a 4b 90 3d 94 ff 99 3d c2 61 72 3e
       -0.014506789 0.07045658 0.07519451 0.23670104
0000d0 25 7e 59 3d 5c e4 3f 3d ae 25 08 3d 4b d6 44 bc
       0.053098816 0.04684864 0.03323906 -0.012013982
0000e0 0c 27 86 bc 2b 14 93 bb 4c 32 58 3e 6a e9 81 3d
       -0.01637604 -0.004488488 0.21112937 0.06343348
0000f0 df 04 27 bb f9 d4 6e bc 01 06 70 3e 5a df b1 3d
       -0.002548508 -0.014577144 0.2343979 0.08685179
000100 f1 2a df bc 61 d3 7f 3d 5b ad 92 bc 17 16 9e bc
       -0.027242156 0.062457446 -0.017904928 -0.019297643
000110 3b 71 44 3e 6b a3 da 3d 46 ff 8c 3d 0d 83 cc 36
       0.19183819 0.10675701 0.06884627 6.09493e-06
000120 69 d9 7b 3d 71 0f 87 3e 71 c4 83 bc 38 23 d7 3d
       0.061486635 0.26378968 -0.016084881 0.10504764
000130 a7 f2 41 bc 6c 87 c9 3e cc 54 32 bd 52 da 53 bd
       -0.011837638 0.3936113 -0.0435379 -0.05172188
000140 a0 7a 2f 3d c9 76 8b 3d 43 b8 3f bc 12 32 47 bd
       0.042841554 0.06809766 -0.011701646 -0.048631735
000150 70 ad b5 bb 42 f0 88 3d 41 33 60 3e 0d 9f 68 3d
       -0.005544357 0.066864505 0.21894552 0.056792308
000160 f4 b6 56 3d 9c 59 14 bc c8 79 f9 3b 8c 2d 23 3e
       0.05242057 -0.009054568 0.0076133944 0.15935344
000170 58 4f 38 bc 7e f1 8a 3d 16 a2 bd 3d 7c ec 4b 3e
       -0.011249386 0.06784342 0.09259431 0.1991443
000180 59 f8 c0 bc 3b d4 6d bc 82 da 1d 3e 9f b6 71 3c
       -0.023555921 -0.014515932 0.15415385 0.014753013
000190 8e 6f 84 bc c0 f1 d5 bc d4 2e cc bb b3 e5 8a bc
       -0.016166475 -0.026116252 -0.0062311683 -0.016955232
0001a0 6d 12 5b bc 8a 9d 4e 3d a8 eb 97 bc 40 85 0e bd
       -0.013371092 0.05044321 -0.018544987 -0.034795046
0001b0 ac 0e 3b bc 43 ad 66 3d 7c 00 c4 3c 56 60 d1 bb
       -0.011417072 0.05631758 0.023926012 -0.006389658
0001c0 50 ce 89 3e 3c 94 92 3d 5e e0 a2 3e 80 15 46 3d
       0.26915216 0.0715718 0.31811804 0.048360348
0001d0 10 19 a0 bc 1e e8 91 bc 6f 44 73 bc 22 c7 ee bc
       -0.0195432 -0.017810877 -0.014847859 -0.029147688
0001e0 2a 0a aa 3e 8f b2 02 3e 04 95 67 3d 3c eb d6 bb
       0.3321088 0.12763427 0.056538597 -0.006558804
0001f0 c8 dc c3 3e e4 25 38 3c 6a 50 ea 3d 80 a0 94 bd
       0.3825438 0.011239503 0.11441119 -0.072571754
000200 8b dd ed 3d f0 20 cf 3d 6d 56 4a 3d e5 6e fd 3c
       0.116145216 0.10113704 0.04939883 0.030936668
000210 8c b8 a6 3d 94 b3 42 bc 96 f3 77 3d 04 7b ef bc
       0.08140668 -0.011883635 0.060535036 -0.029233463
000220 c4 ba 89 bc b1 a9 be bb de a2 10 bd 41 31 0f 3e
       -0.01681269 -0.0058185686 -0.035311572 0.13983633
000230 d4 86 c9 bc d7 9b 1b 3d 22 dc 46 bc 55 4a 63 bc
       -0.024600424 0.037990417 -0.012137445 -0.013872703
000240 90 ef f5 bc cc 76 59 3d 0d 7d c1 bc 21 7c 67 3e
       -0.030021459 0.05309181 -0.0236192 0.22605945
000250 dd f1 a0 3d 5e 78 81 3e ad 7d 38 3e 63 e6 9d bc
       0.07858632 0.25287145 0.18016692 -0.019274896
000260 28 53 42 3d ac b2 58 3e df 8d ec 3c 9e d3 22 3e
       0.047442585 0.21161908 0.028876243 0.15901038
000270 6a 17 b2 3d fb f5 c5 3d 78 e1 a4 3d d4 53 8b 3d
       0.08695872 0.09666058 0.08050817 0.06803098
000280 1a 4b 83 3d ae 49 5b 3e 8c c3 b8 bc 52 e0 db 3c
       0.06410809 0.21414825 -0.022554182 0.026840363
000290 e3 43 80 3d 2c 71 82 3d 03 38 ec 3c 43 44 86 bc
       0.06262948 0.06369242 0.028835302 -0.016389972
0002a0 2f 36 27 3d 78 fc 69 bc 6f e5 73 bd a6 56 92 3d
       0.040823158 -0.014281385 -0.059544977 0.07145433
0002b0 f9 6b 8a bc 8a 46 b0 3d e4 3c 5b 3e 2f 6c 22 3d
       -0.016897188 0.08607204 0.21409947 0.039653953
0002c0 0f bc 77 3d 00 f0 a0 3c 88 05 1c 3e 41 01 11 bc
       0.06048208 0.01964569 0.15236485 -0.008850397
0002d0 14 d4 c5 bc f5 13 3c 3e 01 ab 33 3d d3 11 83 bb
       -0.024148978 0.18366988 0.043864254 -0.0039999275
0002e0 df f3 ef 3d 21 7c 50 3e 02 56 40 3e d7 d6 3e 3e
       0.117164366 0.20359851 0.1878281 0.18636642
0002f0 56 f3 90 3c b4 bf 5f b8 a4 74 c9 bc 09 70 02 3f
       0.017694157 -5.334588e-05 -0.024591751 0.509522
000300 c9 2f d7 3c 77 34 6a 3d 56 a0 9c bc 57 9d 67 3d
       0.026267903 0.05717894 -0.019119423 0.056546535
000310 5c 37 ac 3d db 56 94 bc 64 82 6f 3e ee 06 a6 bc
       0.084089965 -0.018107822 0.23389584 -0.020266976
000320 9b 75 e2 3d e5 bc 68 3e 59 54 5e bd c6 a8 55 3d
       0.11057588 0.22728308 -0.05427966 0.052162908
000330 2c 8a 88 3d 38 d2 7a 3d 5d 1a 00 be 61 84 8d bc
       0.06666979 0.061235636 -0.12510057 -0.017275037
000340 32 8e 7a 3c 0f 23 68 bc 2a b8 c8 bc f2 61 25 3e
       0.015292691 -0.014168515 -0.024501879 0.16150644
000350 c5 5f 13 3e 2b 86 bc 3d 63 4a 69 3d 0b 92 a3 bc
       0.14392002 0.09205278 0.056955706 -0.0199671
000360 26 d3 a5 3d 6c 52 52 bb 10 bb 1f 3d f2 59 c5 bc
       0.08096914 -0.0032092584 0.038996756 -0.02409074
000370 c9 9e 0b 3e 19 2f 88 3e 05 ea 86 bc f6 b5 64 3d
       0.1363479 0.26598433 -0.016469011 0.055837594
000380 67 09 25 3d b7 c5 9f ba 9c 46 a4 3d a7 d0 f6 3c
       0.04029217 -0.0012189661 0.0802128 0.03012879
000390 8b f3 8a 3d e8 78 17 3d c4 2d 5b bc 5d b0 91 3d
       0.067847334 0.03698054 -0.013377611 0.07113717
0003a0 cd 80 53 3d 9b 03 b4 3d 84 25 3d bd 44 3b 82 bc
       0.051636506 0.0878975 -0.046178356 -0.0158974
0003b0 2b c6 f5 3d 8b a6 9d bd e0 af 2f 3b ac 3e 77 bc
       0.12000688 -0.07697781 0.002680771 -0.015090626
0003c0 15 b5 46 3e 71 db 57 3e 4b 3b c9 3b 0c 76 09 3e
       0.19405015 0.21079804 0.0061411015 0.13423938
0003d0 a0 e1 32 3d db ee 12 3b 12 4c 03 3e 2f 56 23 3e
       0.043672204 0.00224202 0.12821987 0.15950845
0003e0 ad 20 98 ba ce 01 28 bc 3e 06 d6 3d ed fb 54 3e
       -0.0011606418 -0.0102543365 0.10450409 0.20799227
0003f0 53 ba b1 bc 98 9e 78 bc f6 e1 e9 bc 03 7b 5c bc
       -0.021695292 -0.01517453 -0.02855013 -0.013457063

parameters.mlp_1_w f4 [256, 256]
000000 c2 41 ca bd c5 9c 9a 3c 8a 7e 67 3c d8 ff 3e bc
       -0.098758236 0.018873582 0.01412929 -0.011657678
000010 97 82 8c 3d 8f f7 27 bc 58 17 08 bd bb 14 ff bc
       0.068608455 -0.010251894 -0.033225387 -0.031137815
000020 55 77 6d bd 74 23 7c bc 8a a6 17 3d f9 60 1a bd
       -0.057975132 -0.015389312 0.03702406 -0.037690137
000030 14 dc b5 bd 60 fd e4 3b 7e a4 ab 3c 03 01 9b 3c
       -0.08879867 0.0069882125 0.02095246 0.01892138
000040 3a 9e 92 3c 55 cb ac bc 81 d7 6b 3b 2a b9 fe bc
       0.017897714 -0.02109305 0.0035986605 -0.031094152
000050 b9 eb 61 3b 29 d1 1c bc 7b cf 55 3b 29 a0 99 bd
       0.0034472777 -0.009571352 0.0032624889 -0.07501251
000060 b1 7b 0f bd a2 8b 97 bd 62 fe b6 bb f1 b8 d4 bc
       -0.03503007 -0.0739968 -0.005584524 -0.025967093
000070 43 7b 8b bc 8b bb 00 bd 50 84 2e 3c f0 7f f2 bc
       -0.01702655 -0.031428855 0.010651663 -0.029602021
000080 19 cd b9 bb 84 36 f9 bc 64 95 e5 3c b5 05 01 ba
       -0.0056702015 -0.030421503 0.028025337 -0.000492181
000090 1e f4 5d bc 45 56 85 bd 32 0b 26 bc 0c 1d 55 bb
       -0.013546972 -0.06510595 -0.010134505 -0.0032518534
0000a0 bd e9 a3 bc cc fe 1f bc 70 be af 39 4b 21 d0 bc
       -0.020008916 -0.009765338 0.00033520488 -0.0254065
0000b0 30 04 16 bd 3d 5d 77 3a c3 fe c8 3c 72 ef c8 3c
       -0.036625087 0.0009436196 0.024535542 0.024528239
0000c0 37 4d 06 bc d0 95 1d bd e9 c8 1c bd 4e 14 a4 bc
       -0.00819712 -0.03847295 -0.03827754 -0.020029213
0000d0 52 f6 6d bd 19 67 2c 3c 42 a8 5f bc 03 19 95 bc
       -0.058096237 0.010522627 -0.013650956 -0.018200403
0000e0 ba c8 11 bd 77 8b 9c bd 29 dc 2e 3b cc ac 4a bd
       -0.03559182 -0.07643788 0.0026681519 -0.0494812
0000f0 aa 4f 03 bd 56 22 60 bd 22 7c 43 3b 05 3e 01 bb
       -0.032058395 -0.054720245 0.0029828628 -0.0019720804
000100 29 dc 8e bb 72 51 aa 3b 8d f9 11 bd 00 48 52 bd
       -0.004359741 0.0051976973 -0.03563838 -0.051338196
000110 03 52 63 bc 08 a2 2b bd a0 32 7b bc 38 9f d5 3c
       -0.013874534 -0.041902572 -0.015331894 0.026076898
000120 dd 7d 38 bd 65 50 d1 bc 89 97 11 3b 77 c1 c6 3c
       -0.045041908 -0.02555103 0.0022215566 0.024262173
000130 59 b8 58 bd 97 b0 88 3c ee 76 68 bb 2c ad ac 3b
       -0.052910183 0.016685767 -0.0035471278 0.005269667
000140 c5 9b 3d bc d2 8e ca 3b 81 bc b2 bc cd b2 5a bc
       -0.011572783 0.0061815763 -0.021818401 -0.0133482935
000150 4e 67 3b bd 42 1f ac 3c 1e f7 dd bc 66 73 f9 bb
       -0.045752816 0.021010999 -0.027095374 -0.0076126335
000160 d4 7e ad 3c fb 52 be bc 6e d3 1b bb c3 99 8c bd
       0.02117864 -0.023232928 -0.0023777145 -0.06865265
000170 d8 2f b0 3c 9c b0 fa bc 14 2a 89 bd bb 2a 5b ba
       0.021507189 -0.030601792 -0.06697479 -0.00083605543
000180 7e a7 bc 3c 6f f0 8a bb 02 82 96 bc f7 e1 93 bb
       0.023029085 -0.0042400877 -0.01837254 -0.004513021
000190 7d e8 34 bb d8 45 8a ba dc f6 87 3c 32 98 36 bc
       -0.0027604394 -0.001054938 0.016597204 -0.011144685
0001a0 d6 8a 7b 3b bc 96 37 3a 23 27 bb b8 f3 0c ac bc
       0.0038382313 0.0007003357 -8.924145e-05 -0.021002268
0001b0 bb 18 98 3c a3 9e 87 bd d3 50 97 3c 5b 7e 41 bd
       0.01856648 -0.066220544 0.018471157 -0.047239643
0001c0 05 5f e4 3c 68 87 f5 bb 92 bd e9 b9 86 52 cd 3c
       0.02787734 -0.0074929483 -0.00044582464 0.025063764
0001d0 54 f8 1b 3d 96 ca db 3b 11 87 3c bd 79 bc 9c bc
       0.03807862 0.0067074997 -0.046027247 -0.01913284
0001e0 ef b1 3a bd d3 8c 83 bd a6 b5 cf 3b 14 42 49 bd
       -0.045579847 -0.064233445 0.006338793 -0.049135283
0001f0 70 5e 07 bd 2b 75 c3 bc 04 71 31 3c 8c 56 2d bd
       -0.033049047 -0.023859581 0.010830168 -0.042318866
000200 c6 d1 2a bd 49 7a 70 3c 70 88 03 bd 16 0c b2 bc
       -0.04170396 0.014677593 -0.03211254 -0.021734279
000210 23 1d 36 3c 5c b8 b6 bb f6 b8 81 bc 83 81 88 bd
       0.011115345 -0.0055761766 -0.015835267 -0.066653274
000220 66 08 45 b9 80 be 4c bd 78 b8 24 bb de 0a fc 3c
       -0.00018790513 -0.049986362 -0.0025134366 0.0307669
000230 12 5e 3c bc 0d b8 d7 bc 24 b3 a1 bc 38 09 30 bc
       -0.0114970375 -0.02633288 -0.019738741 -0.010744385
000240 8d c2 0b bc 1c 01 48 3d 4c 92 e0 3c 42 cb 99 3c
       -0.008530271 0.048829183 0.02741351 0.018773679
000250 82 ff 88 3c a8 cc be ba bf 29 10 bd 18 12 95 3a
       0.016723398 -0.0014556842 -0.035196062 0.001137319
000260 df 4c 82 3b 2b a6 66 bd 47 74 91 3b ca 6b a4 bb
       0.003976449 -0.056310814 0.00443891 -0.0050177323
000270 b7 98 10 bd e3 fd a0 b9 5f 49 8d bd 34 90 18 bc
       -0.03530189 -0.00030706738 -0.0689876 -0.009311724
000280 8c 28 78 bc 83 e8 88 bd 93 2c 88 bd e3 6e a4 bc
       -0.015146386 -0.06684973 -0.06649127 -0.020072406
000290 fc f1 51 bd 8a 39 2c bd de 0d 3a bd da e1 9a 3b
       -0.051256165 -0.04204706 -0.04542338 0.0047266306
0002a0 2f 17 7b bc ab 35 f4 bc a0 db 66 bd 44 1d 16 bd
       -0.015325352 -0.029810747 -0.056361794 -0.036649004
0002b0 0e e4 d7 bc e8 2a 14 bc 93 8d 11 39 52 fa ef 3b
       -0.026353862 -0.009043433 0.00013881018 0.0073235417
0002c0 f3 7a 74 3b 2e 07 f8 3d 3e 25 01 bc 0c 8f c5 3c
       0.0037304729 0.121107444 -0.007882414 0.024116062
0002d0 e3 0a 01 ba 0e 06 8b bc 17 91 58 bd dc e9 e8 bb
       -0.0004922582 -0.01697066 -0.052872743 -0.0071079563
0002e0 a0 6c 33 3c 0e c9 45 3b 98 37 87 bc 04 04 61 bc
       0.010951191 0.0030179652 -0.016506001 -0.013733868
0002f0 6d 9b ad bc 46 02 bf bc 73 b0 5a bd b8 f3 8a bd
       -0.021192277 -0.023316514 -0.05339093 -0.06784767
000300 13 4f 97 3b d0 fc 5e bd 0e 4c 92 bd 1b 6f 65 bd
       0.0046175807 -0.05444032 -0.071434125 -0.05601416
000310 b8 b6 1f bc 0c 4a 15 bd 64 4e b0 bc 1f 3b a3 bc
       -0.009748153 -0.03644757 -0.021521755 -0.019925652
000320 81 96 3b 3b 18 31 01 bc d3 66 dd bc 72 ee 3b bd
       0.0028623643 -0.00788524 -0.02702657 -0.045881696
000330 22 d5 32 bd ce d3 0f 3c 25 96 81 bc a7 3c 86 3b
       -0.04366029 0.0087785255 -0.015818665 0.004096586
000340 be e4 d3 bc c0 0e ff bc 24 b1 95 bc 6e aa a2 bc
       -0.025865909 -0.031134963 -0.018272944 -0.019856658
000350 d9 1a 06 bd d4 bb ae bc d5 ab 95 bc 5b fc 7b 3c
       -0.032740448 -0.021329798 -0.018270412 0.01537999
000360 44 96 32 bd 68 bf da 3c 64 d2 36 bb eb 51 05 3c
       -0.043600336 0.026702598 -0.0027896399 0.008137207
000370 63 d0 4e 3a db 41 02 bc 01 ae 8b bc 7e 8d cd bc
       0.00078893284 -0.0079502715 -0.017050745 -0.025091883
000380 ad 66 50 3c 82 35 63 bc 17 38 51 bc 84 81 c5 bc
       0.012719792 -0.013867738 -0.0127697205 -0.02410961
000390 01 5f 25 ba a9 bf 2e bc e6 a7 89 bc 5f 61 ec 3c
       -0.0006308407 -0.0106658125 -0.016803693 0.028855024
0003a0 9a 37 27 3d 40 67 00 3d 9a 0a d3 bc 86 2e a9 bc
       0.04082451 0.031348467 -0.025761891 -0.020652067
0003b0 b4 af 15 bd 60 15 a6 bc ca 05 0e bc 3a c7 c9 3c
       -0.036544517 -0.020273864 -0.008668372 0.024631131
0003c0 48 88 a3 bc 61 89 80 bc 47 25 0e 3d 15 66 79 bd
       -0.019962445 -0.015690507 0.03470352 -0.06088837
0003d0 f2 89 cd bd 8c a7 b9 b9 5a 60 f0 3b 02 c4 8b bc
       -0.100360766 -0.00035410782 0.0073357048 -0.017061237
0003e0 24 2d 40 3c 32 12 01 bd a6 07 39 bd 78 d0 7c 3c
       0.011729512 -0.031511493 -0.04517331 0.015430562
0003f0 2d fb 78 bc 1d f6 35 bd 2d a8 82 3c 8d 67 bc bb
       -0.015196604 -0.044424165 0.015949333 -0.005749649

parameters.mu_b f4 [8]
000000 b6 60 c5 3c 77 b3 45 be 70 bf 10 3e 6d 84 98 3e
       0.024093967 -0.19306742 0.14135528 0.29788533
000010 29 fe db bc 90 5f 36 3c b8 f4 f5 3d 00 02 32 be
       -0.026854591 0.011131182 0.12009567 -0.17383575

parameters.mu_w f4 [8, 256]
000000 3d 81 6a 3c f2 e0 bc 3c e3 81 61 3e 91 51 56 3e
       0.014313039 0.023056481 0.22022204 0.20929553
000010 f5 6c 87 bd a4 b2 ee 3e 2c c8 2f 3d 5d af 0b 3d
       -0.06612579 0.46620667 0.04291551 0.034102786
000020 5f c8 8a bc bd 5b df 3d 34 43 d8 bc 51 60 6b 3d
       -0.016941248 0.109061696 -0.026399232 0.0574649
000030 20 20 ad bd 20 ed c1 be c1 51 f3 be a1 19 70 3e
       -0.08453393 -0.37876225 -0.4752331 0.23447277
000040 00 e9 ae 3c 95 6b 8c be b8 04 45 bc 01 87 fe bb
       0.021351337 -0.2742583 -0.012025051 -0.0077675586
000050 9f 42 95 3c 65 40 9a bc 78 04 c7 bc 95 f7 c7 3c
       0.018220244 -0.018829534 -0.024294123 0.024410048
000060 e6 70 18 3d 63 f6 10 3c e3 65 ef 3a 17 0a 43 3b
       0.037217043 0.008847806 0.0018264618 0.0029760653
000070 48 51 07 3d b7 3b 65 bd 30 05 af 3e 46 2f 3f bb
       0.0330365 -0.05596515 0.34183645 -0.0029172464
000080 a0 c8 99 3d 11 f3 b5 be 3f ad 12 3e 01 72 ba 3d
       0.07508969 -0.35537007 0.143239 0.09103776
000090 1d 1c e6 3b 58 45 47 3c c7 b2 70 3d 72 82 de bb
       0.0070223943 0.012162529 0.058764245 -0.0067904526
0000a0 4d 21 07 3c d0 70 1d 3d 0e ca 89 3c b7 1b 80 bd
       0.008247686 0.038437665 0.01681998 -0.06255286
0000b0 9b e4 4a bc 51 5d d8 be e3 d8 aa 3c 0c 4f a3 bb
       -0.012383605 -0.42258695 0.020855373 -0.0049837884
0000c0 f6 2f 08 bb e0 3f c0 bb bc 3d 12 3e de 4e d3 bd
       -0.002078054 -0.0058669895 0.14281362 -0.10317777
0000d0 23 ed c1 bc 54 ab 7e bc 88 7d 4a bc 3f 47 c1 bb
       -0.023672646 -0.0155437775 -0.012359031 -0.005898386
0000e0 a7 bb 18 bd 1e 6e 29 3c ab 23 d7 3d 78 56 63 bd
       -0.037288334 0.010341195 0.1050485 -0.055502385
0000f0 13 3a 60 3c 18 37 ea 3b d7 3a 63 3e d5 ee 70 bf
       0.013685721 0.007147681 0.22190414 -0.9411443
000100 15 6e 28 3e e1 61 62 bd a9 eb 7e 3c d0 33 20 bc
       0.16448243 -0.055269126 0.015559115 -0.009777978
000110 b7 48 3f 3e 81 dd ab bc 5f 80 77 bd 92 c1 8d bb
       0.18680082 -0.020979645 -0.06042516 -0.004326054
000120 51 fa 74 bd 98 f7 05 3e b4 92 54 bc 7b e2 88 3d
       -0.059809033 0.13082731 -0.01297443 0.06683823
000130 77 58 27 bc 7c 4e 44 be 3e 01 17 3c 6a c5 a1 3e
       -0.010213963 -0.19170564 0.009216605 0.31595927
000140 ea cb 4e bd 39 92 8c 3d c3 8a fd bc 61 68 09 be
       -0.050487436 0.06863827 -0.030949956 -0.13418724
000150 86 8f 88 3b 9f 8d 65 bb 1d 13 18 3d 2e 3e f9 bb
       0.0041675 -0.003502704 0.037127603 -0.0076062893
000160 be a0 ea bc 4b 35 59 3b e3 7c 9b 3e 61 fe 3a 3d
       -0.028641101 0.0033143337 0.30368719 0.04565275
000170 bc a4 f3 3b 4e b5 91 3c b7 2b bb bc 6b 2d 1b bf
       0.0074354094 0.017786648 -0.022847993 -0.6061618
000180 59 af 72 bc 92 33 75 bb bd f3 56 bd 1f bc 65 bd
       -0.014812314 -0.0037414772 -0.05247854 -0.05608761
000190 27 ff 86 bc ef 6c 1c 3c 93 59 f4 3b 18 e6 ce bb
       -0.016479088 0.009547456 0.007456967 -0.0063140504
0001a0 86 c0 22 3c 7e 2c 2d 3d c5 db 47 3b cb 86 bb 3c
       0.0099335965 0.04227876 0.0030495983 0.022891423
0001b0 80 09 8e 3c 07 b9 5a 3d ec 71 3a bd 55 c7 01 bc
       0.017338514 0.053399112 -0.0455188 -0.00792106
0001c0 09 63 47 be 53 6a 87 bd 1c 24 b2 be 98 8f ce bb
       -0.19471373 -0.066120766 -0.34793174 -0.006303739
0001d0 9d fa f3 3b b3 90 24 ba e5 96 0c 3c 74 d7 59 bf
       0.007445647 -0.00062776654 0.008580898 -0.8509438
0001e0 ba 17 06 bf 97 a8 03 3d f1 d9 f2 3d 93 3a 2b 3b
       -0.52379954 0.0321432 0.11857975 0.0026127442
0001f0 3e 06 4d be 7a 39 b3 bb a2 f2 91 be fd ae 7d 3d
       -0.20021912 -0.005469498 -0.28505427 0.06193446
000200 14 d6 0a 3e 07 85 f4 bd df 44 ff 3c 45 b8 df bb
       0.13558227 -0.119394355 0.03116077 -0.0068273866
000210 a0 20 46 bd a9 66 88 3c e1 f6 00 bc fa 0a d7 3c
       -0.048370957 0.016650515 -0.0078713605 0.026250351
000220 ea ec 16 bb ac 7c 03 bc ae 6a af bd cf e0 4d be
       -0.0023029395 -0.00802533 -0.085652694 -0.20105289
000230 ea 27 34 bc c3 66 2b 3f ab fb 99 bb 63 12 6c 3c
       -0.010995844 0.66953677 -0.0046991906 0.014408681
000240 b7 c4 ee 3c 04 0d 13 3e e1 77 1b 3c 50 a0 f8 be
       0.029146535 0.14360434 0.009489031 -0.4855981
000250 ae bc 8d bb 08 b2 a6 3d 66 d0 eb be cf 90 8e 3c
       -0.004325471 0.081394255 -0.46057433 0.017403034
000260 8c 92 0e bc fd 46 02 3d 3e a0 25 3e e1 39 2b bc
       -0.008701932 0.03180598 0.16174409 -0.010450811
000270 58 48 66 bd 74 47 8f bd 70 12 48 bd 2f a3 e7 bd
       -0.056221336 -0.069960505 -0.04884571 -0.11310422
000280 5f 3f 08 bd 0b 55 c0 3f 82 9b 8a 3c a2 f0 0d be
       -0.03326356 1.5025953 0.016919855 -0.13861325
000290 c9 5e 92 be 56 00 2d be a8 a5 9e be 2f 6d c2 3b
       -0.2858794 -0.1689466 -0.3098576 0.005933426
0002a0 69 b4 12 3e f1 37 1f 3b 2d 5c 09 be 0a b7 e2 bc
       0.14326634 0.0024294818 -0.13414069 -0.02767517
0002b0 66 a4 a9 ba 99 4f c7 3e e9 e3 c2 3c 13 e4 c5 bc
       -0.0012942671 0.38927916 0.023790317 -0.024156606
0002c0 2f 25 1e bb 39 a4 10 be 44 13 6d 3d 04 8a 18 3c
       -0.002413105 -0.14125146 0.0578797 0.009310249
0002d0 13 62 9c 3c 4c b9 17 bd 53 c1 1b bd 75 e8 a2 bc
       0.019089734 -0.037041947 -0.038026165 -0.019886235
0002e0 9d a0 22 3e ad 94 49 be 92 fc c0 3d 6d 82 e4 bd
       0.15881582 -0.19685622 0.09423174 -0.11157689
0002f0 06 87 b8 bc 32 f4 9e 3e dd e7 85 3c 46 b1 ed 3e
       -0.022525322 0.3104568 0.016345913 0.4642431
000300 7c 1b c0 3b 2c a7 e0 3e 26 7b fc bb 4f 8c 05 3a
       0.0058626514 0.43877542 -0.00770511 0.0005094455
000310 13 ac c7 bd f4 57 99 3c 10 f2 fa bd 4a 1d d2 3b
       -0.097496174 0.018718697 -0.12253201 0.006412183
000320 d3 77 35 3f 1a 82 7d bf 20 f5 b7 3c f0 cd 83 bc
       0.7088596 -0.99026644 0.022455752 -0.01608941
000330 86 f0 0f bd 0f 86 21 be 46 0b 72 be 38 8c bc 3b
       -0.03514149 -0.15773796 -0.23637113 0.00575402
000340 bd bc 8f be 54 3e 01 bb 56 39 20 3c cd 82 56 be
       -0.28073683 -0.0019720988 0.009779295 -0.20948334
000350 3c a7 42 be e7 1f fc 3d 67 86 7b 3e 5b a2 82 bc
       -0.19009107 0.123107724 0.24562989 -0.015946558
000360 e4 cb 02 3e a5 22 4a bc 19 64 e2 bc 13 49 a3 3c
       0.1277309 -0.012337361 -0.02763562 0.019932305
000370 7e 2b 3c bd 84 2a 60 3e 5b e6 70 bb 82 59 2d bd
       -0.045939915 0.21891218 -0.0036758396 -0.04232169
000380 b7 16 52 bc d2 79 87 3e fe db 45 bd 6f aa 48 bc
       -0.012822798 0.2646013 -0.048305504 -0.012247666
000390 2d 04 9d be 93 1f fa bc e0 32 03 bc ed 11 d3 3b
       -0.30667248 -0.030532634 -0.008007735 0.006441346
0003a0 24 a8 f3 3e 42 c9 5e be dd 75 81 3c f0 75 d0 3a
       0.4758922 -0.21756461 0.015803272 0.0015904289
0003b0 3e b1 14 3d 50 d3 fe 3e 6a 0f 2f bc 18 d6 13 3c
       0.036301844 0.49770594 -0.010684827 0.009023212
0003c0 3e 7e 0f 3e b9 bd d0 3e 06 cd 3b 3d 90 5b 31 3f
       0.14013001 0.40769747 0.045849822 0.6928034
0003d0 bf e8 16 3d 33 31 e0 bd 1f 0f 43 be 51 6b aa 3f
       0.036843058 -0.10946884 -0.19048737 1.3314
0003e0 d1 82 a2 bb ee b9 eb bb a9 be b6 3c 42 8e de 3d
       -0.004959442 -0.0071937954 0.02230771 0.10866977
0003f0 fb 16 ba 3a 30 6e 5a bc 69 d0 5d ba 19 3b f5 3b
       0.0014197523 -0.013331935 -0.00084615365 0.0074838516

parameters.std_b f4 [8]
000000 b2 89 ad bf c2 1b b4 bf d7 b9 b6 bf cf b0 9f bf
       -1.3557646 -1.4070971 -1.4275464 -1.2475833
000010 ba 2b ac bf a5 83 a3 bf 38 9b a8 bf f0 9e 8f bf
       -1.3450844 -1.277455 -1.3172369 -1.1220379

parameters.std_w f4 [8, 256]
000000 5d c2 aa 3c 9a 4f 27 bd 51 cd 6e be 91 5a 2b be
       0.020844633 -0.0408474 -0.2332051 -0.16733767
000010 c8 93 08 3d 9e 80 af 3d e7 15 14 bd 8d a7 44 bb
       0.03334406 0.08569454 -0.0361537 -0.0030007095
000020 84 dd 41 3d df 7b 92 be 68 28 16 3e 02 1c 09 be
       0.047330394 -0.2861013 0.14663851 -0.1338959
000030 df 5b 69 3d fe 68 b0 3e f6 b8 9b 3e cd 63 e8 3d
       0.05697238 0.34455103 0.30414551 0.113471605
000040 e4 80 01 be e5 99 8d 3c 2b 87 fb bb b0 56 c0 3c
       -0.12646824 0.017285297 -0.0076760254 0.023478836
000050 b3 cd 24 3d 90 96 88 3c 06 8c 11 3c 80 ed 17 3c
       0.040235233 0.016673356 0.008883482 0.009272933
000060 f6 51 4e 3d 4d d8 11 bd 87 3f 3b 3c f8 10 1e 3c
       0.050371133 -0.03560667 0.01142872 0.0096476
000070 33 a3 89 be 0f 39 91 3c 59 2d a2 3e 07 07 43 3d
       -0.26882324 0.017727403 0.31675223 0.047614124
000080 8a 3e dd 3d c7 d5 dc 3e 24 72 de bd f3 33 05 be
       0.10802944 0.4313185 -0.10861614 -0.13008098
000090 1f 52 56 3a 66 20 17 3b c4 bf b2 bd a2 86 ab bc
       0.0008175689 0.0023060082 -0.08727983 -0.020938221
0000a0 e0 e9 97 3b 00 45 94 bd 1f 5a 6d 3c de 01 9e 3c
       0.0046360344 -0.07239723 0.014486819 0.019288
0000b0 05 d4 2d 3d 3f 7f 4b 3c 73 52 81 ba ee 7f 75 3c
       0.042438526 0.012420475 -0.0009866491 0.014984114
0000c0 21 aa 34 3b 4c 09 b8 bc 6b 66 8b be b1 a6 57 3b
       0.0027567225 -0.02246537 -0.27226576 0.0032905752
0000d0 e7 f7 b0 3c a5 fe 40 3d be bc 57 3d 90 ee 1d 3b
       0.021602584 0.047117848 0.052670233 0.0024098493
0000e0 24 56 b9 3c 27 5b 3a b9 cc 3e b2 be c3 96 19 3d
       0.022624083 -0.00017772299 -0.34813535 0.037497293
0000f0 71 e7 01 3d ff de 30 3c 28 6f 41 bd 35 05 d7 3e
       0.03171486 0.010795354 -0.047225147 0.4199616
000100 96 4c 4f be 68 19 64 3c f7 5c 1f 3c 5b e3 6d bc
       -0.20244059 0.013922073 0.009726754 -0.014519538
000110 7f ae 51 be c1 16 4e be 55 80 87 ba 63 85 8e 3c
       -0.20476721 -0.20125867 -0.0010337929 0.017397588
000120 e0 da 1e 3c ec 6e e1 bc d1 8e e4 bb 58 a5 50 bb
       0.009695739 -0.027518712 -0.006975033 -0.0031836834
000130 f0 6b 84 ba 2a 4e af bd 9d a8 d8 3c 90 3b 76 be
       -0.0010102969 -0.085598305 0.026447589 -0.24046159
000140 e7 d9 33 3c 38 52 7c bb 6a 89 ae 3c 9a 15 09 bd
       0.010977245 -0.0038501155 0.021305759 -0.033467866
000150 65 d5 69 3c cc eb 29 3d ce 39 e6 bd e3 83 29 3d
       0.014272069 0.04148464 -0.11241494 0.041385543
000160 cb ae e7 3b bc ff c1 bc 1e a7 ea bd b5 6b 22 be
       0.0070703975 -0.023681514 -0.11457656 -0.158614
000170 87 36 ee 3a c8 31 e4 3c 7a 0b 19 3c 4e d4 d0 3e
       0.0018174209 0.027855769 0.009341115 0.40786976
000180 7b a4 13 3c 38 fc df 3b e5 60 6d bd f7 9b 26 ba
       0.009011383 0.0068354867 -0.057953734 -0.0006355638
000190 5b 0a c8 ba 69 6b e4 3b 67 8b a4 ba 4d 1a a1 3c
       -0.0015261875 0.006970812 -0.0012553752 0.019665862
0001a0 68 f4 16 3c 23 8a 49 bc 23 9f d5 3a a6 0d 3a 3c
       0.009213544 -0.012301001 0.0016298037 0.011355793
0001b0 70 f4 01 3a e0 2d 5b be 0c c8 e9 3c 13 1c 55 3c
       0.00049573835 -0.21404219 0.028537773 0.013007182
0001c0 48 32 80 3d c4 6e 2e 3b 43 25 37 be 03 98 64 3d
       0.062595904 0.0026616314 -0.17885308 0.055809032
0001d0 f3 4b bd 3c 49 44 bb bb e2 7e 98 bb fa b8 07 3f
       0.023107504 -0.0057149273 -0.0046537975 0.53016627
0001e0 7c 84 ae 3e 1c 27 32 be 99 20 33 be ab 84 f4 3b
       0.34085453 -0.17397732 -0.17492904 0.0074621043
0001f0 61 f3 be be 4f 66 1e 3d 14 11 ca 3d 16 51 08 be
       -0.37295058 0.038671788 0.09866539 -0.13312182
000200 68 ba 5e bc 75 0d 03 3c fd 2f 6d 3d 12 8a f0 3c
       -0.013594247 0.007998814 0.057907093 0.029362712
000210 e4 59 9a 3c 85 3e 22 3c 45 7b 53 3d a2 3c 17 3c
       0.018841691 0.009902601 0.05163123 0.009230765
000220 7a 4b b8 bb d5 22 30 bc 11 9a 1a be 58 7c fa bc
       -0.005624232 -0.010750492 -0.15097834 -0.03057687
000230 55 61 a7 bc a5 a7 98 3e e1 d3 9b 3b d8 45 4f bb
       -0.020432154 0.29815403 0.0047554825 -0.0031627323
000240 3c 5e 50 3c d1 4b 62 be 97 96 c2 3b 68 99 87 3d
       0.01271778 -0.22099234 0.005938362 0.06621057
000250 30 6f 9d 3d 3c 5a 90 be 1e 47 e0 3d e7 11 99 bc
       0.07687223 -0.28193843 0.109510645 -0.018685294
000260 a4 fb 56 bd 5b c7 8f bd 07 d4 2c 3d 23 9c dc bd
       -0.052486077 -0.07020446 0.042194393 -0.10771968
000270 65 38 70 3c 06 6a a2 bb 21 be d7 3c 88 de e8 3c
       0.014661883 -0.0049564866 0.026335778 0.028426424
000280 ec 49 08 3d 8a 41 e1 3e d1 50 06 3c c6 a1 46 bd
       0.033273622 0.43995315 0.008197979 -0.048494123
000290 1f af a3 3e e9 cf b5 bc 82 d3 ab 38 b5 71 67 bb
       0.31969544 -0.022193866 8.193312e-05 -0.0035315577
0002a0 d8 dd 28 bb e6 af 28 bc 6e 37 73 3e 99 47 45 3c
       -0.0025766995 -0.010295844 0.23751613 0.012040996
0002b0 92 ba 4a 3a 42 c9 47 3e 06 b0 86 bd 39 ff 8c 3d
       0.00077334896 0.19510368 -0.065765426 0.06884617
0002c0 63 a7 bf 3c db a7 f7 3d 78 f8 5b be 7f 36 10 bc
       0.023395246 0.12092563 -0.21481502 -0.008802055
0002d0 21 44 6b 3c 04 cb 0c be 8a bf 41 3c 73 ac ae 3e
       0.014359505 -0.1374932 0.011825452 0.34115943
0002e0 e9 5d 45 3c ea 4d 31 3e 71 d8 d2 bd de ff 02 3e
       0.012046316 0.17314878 -0.10295189 0.12792918
0002f0 4e 0b ca 3c 22 70 83 3c bb 48 68 3c a2 c2 54 be
       0.024663594 0.01604468 0.014177497 -0.20777372
000300 2a 88 27 be 7c bc f2 be ae 45 a3 3c 36 bc d0 3c
       -0.16360536 -0.47409427 0.019930687 0.025480371
000310 12 17 08 3e 22 6a 68 3d a9 49 42 3c d3 8a 1d 3c
       0.1329005 0.05674184 0.011858382 0.009615618
000320 24 68 b6 3d e3 6e 58 3f 1b 90 2a bd ae f0 14 3d
       0.08906582 0.845442 -0.041641336 0.036362343
000330 62 d5 46 3d a8 f5 d9 3d 74 03 55 3d f6 fa 6e 3c
       0.04854334 0.10642558 0.052005246 0.014586201
000340 99 1a fb bb 9e f4 d3 bb db 09 0c 3c aa 57 d9 3d
       -0.007663083 -0.0064683696 0.008547272 0.10612424
000350 f2 39 07 3e fa a7 31 bb f8 f8 44 be 56 7f ac bb
       0.13205698 -0.0027108178 -0.19235599 -0.005264203
000360 bb 01 33 be 92 64 74 3c 50 c3 45 3c 59 d2 7a 3d
       -0.17481129 0.014916556 0.012070492 0.06123576
000370 77 04 5b 3d 7e dd 25 be 7a 76 79 bc 2b 9b f1 3c
       0.053471055 -0.16197774 -0.015226001 0.029492935
000380 56 cf 63 3d 00 bc c7 bd b1 b1 51 3c 12 4f ea 3e
       0.055617653 -0.09752655 0.012798713 0.4576345
000390 10 94 b5 3d ce 3c 19 3c 05 66 33 bb 9e d0 05 3d
       0.08866131 0.009352876 -0.002737404 0.032669656
0003a0 5f fc b2 3e 6a 76 d3 bc c8 63 02 ba 35 20 a5 3b
       0.3495817 -0.0258133 -0.0004973975 0.00503924
0003b0 79 4c d4 bd 6f f5 ef 3d e7 68 0b 3a 7e 2f 98 bc
       -0.103661485 0.117167346 0.0005318061 -0.018577334
0003c0 a0 98 75 3d f0 fa 89 bc 61 0b 0e be 6b ce 68 3e
       0.059960008 -0.01684329 -0.13871528 0.22734992
0003d0 95 24 8f bd 4b 92 1b 3c 36 aa 62 3e ad 03 56 3f
       -0.06989399 0.009495328 0.22135243 0.8359936
0003e0 38 ed 4f bc a9 8e 81 3c 04 68 92 3d ee 60 a1 be
       -0.012690835 0.015815096 0.07148746 -0.31519264
0003f0 a9 26 c5 3c 7e ab c4 3c 5b c1 96 3c 5f 7c b2 39
       0.024066286 0.024007555 0.018402746 0.0003404347
