notebook/result/weights/sac_snapbot/episode_600.pth (torch, 355440 bytes, 8 tensors)

parameters.mlp_0_b f4 [256]
00000000: 2c22 f23d 8f66 81be ad54 753c 1dea b7bd
00000010: 58a0 c63e 8ece 26be 9517 84be c72e dfbd
00000020: b503 64be 581e 64bd 8435 993d 89ee 00be
00000030: 3d85 3bbd a7ff f73d 0d49 bebd b6d1 123f
00000040: 9849 03be 1ee4 71be f6ad 10be 9639 a1bd
00000050: ead4 b43b 721f b8bd d0d9 efbd 73f3 643d
00000060: a911 39be b68b 43bd 1bd1 d73d db5f c7bd
00000070: 33b3 30be a253 49bd ea96 12be 3816 7bbe
00000080: d174 77bd 3d23 b93d 9b60 76bd ebf7 35be
00000090: cea6 d93d 4a08 ef3d 1315 efbd 54ad 13be
000000a0: 6e1c 44be 8f1c 85be 192f a1bd ee42 51be
000000b0: 27fa 88bd 2ddf 143e 4597 20bc 3b27 2bbe
000000c0: d0fd 73bd d3bc 073e 27fb 4fbe eec9 bdbc
000000d0: 454c 25be a7d5 79be 4af7 3f3e 5dad 83bd
000000e0: 7fa0 59be eda5 60be ea2d 0bbe 1743 91be
000000f0: 127b 3abe db23 5ebd 0771 1cbd 2317 36be
00000100: 0532 4dbe 320b b7be 093c d7bd fec7 193e
00000110: 5e42 91be e2b3 a1be c8d1 0d3e 0875 84be
00000120: b6c9 50be ae10 cebc f332 e1bd 8954 8cbd
00000130: 2214 8d3c c9c8 37be f639 bcbc 26de a2be
00000140: 9e70 1abe 9029 fc3b f019 1fbd 0b88 34be
00000150: 6f3b be3d 21b9 3fbe 8f22 9abe a0c3 59be
00000160: 1fd3 d73d 3f43 3e3e 6eef dcbd 9e7a 0d3e
00000170: ac8a 153d 7173 cf3c 6793 a5bd 7151 94be
00000180: 0a05 96bd 9b45 f33a d688 0abe eeb5 13be
00000190: 702b ac3c ca92 d7ba 229b 99bc a1b1 babd
000001a0: 6944 43be f1d0 6dbd 4ff5 15be 41d8 773e
000001b0: 48c3 7cbe 96e9 29be 359a 26be 9d5e d1ba
000001c0: c5c1 a1bd 1389 33be 3afe 833d 3224 e7bd
000001d0: b932 e4bb 9a22 acbd e5ca e13d 654e 60be
000001e0: 3664 2c3e 5a7e 75be b94c dcbd 5be4 863e
000001f0: 936b c5b9 069c db3c 4d99 90bd 6967 dbbc
00000200: 47aa 06be 1e19 433e 5130 e3bd 44de 07bd
00000210: 46ec a1be 08de 8cbe 12ba 1abe 1a3c 493d
00000220: 1572 433e 4c6a e5bd bb75 febd a586 72bc
00000230: b044 793c 7805 fa3d 80af 5dbe 319c 07be
00000240: 9ee8 2bbe fb46 3abc b7ae 17be 7d0d 98be
00000250: f9c3 48be 2f10 01be fb56 a1bc 573a 81be
00000260: 91ab 1dbe 81ab 88be fd7a 1e3d e8ab babc
00000270: e0eb 84be 8e1c 09be dfe2 4cbe a2e7 a4be
00000280: cf47 923d c9f4 6cbd a6ec 83be 1d1e 61bd
00000290: 55f1 45bd d547 35be 9f55 133e 79e4 dbbc
000002a0: 922c 8abe 1875 87be 6cc7 973c b7ce 0bbc
000002b0: c5a9 bd3d fd78 03bd 6f49 403c 7fbc 1fbd
000002c0: 9cb1 08bd f684 943e b10d 60be 9138 3dbe
000002d0: fa47 0fbe 969c 5dbe f81d 83be 63a3 25be
000002e0: b560 3dbe b9a5 17be 1bb1 2dbe ecd0 39be
000002f0: 23f0 303d d4f2 173e f6ba 1fbe 71ec a8bd
00000300: 53b8 83bd 0c89 f33d b13f aa3d c532 e03c
00000310: 7e70 89bd 3903 863d 7ab5 1dbe fc72 513c
00000320: b6a7 aa3d 5581 49be 10eb ad3d 5676 a8bd
00000330: f5c3 36bd c7f9 f0bc a617 343d 5c68 0fbe
00000340: 6a53 2dbe 8c53 01be 06e7 34be 02bf d1bd
00000350: 1794 e83e cf4c 44be 1ed5 43bd c5d0 183e
00000360: f2fb cebd da19 683d de72 52be e662 c8bd
00000370: d95e 61be 9d8e 25be 4366 823d 187b 25be
00000380: ea17 76be 9d33 9cbd 2fca 9abd 6bb6 18be
00000390: 4cdf 4bbe 18f5 8abd ee47 f8bb 09b0 fd3e
000003a0: 3cac ecbd 8b28 733e c836 91bc 9112 0dbe
000003b0: 0327 cbbc 62ae 90bd 71e7 2ebe 8420 0dbe
000003c0: 598f 523e 86c8 393e 67d1 46be bfbd f5bd
000003d0: db98 033e 5a25 55bd 4e4d 46bd d117 cc3d
000003e0: c61c 953c dbf3 55be d704 e33d d85f a0bd
000003f0: c54a bbbb 543b 0d3e 356c 75ba 89aa cbbd
0.11822924 -0.25273558 0.014973802 -0.089802004 0.38794208 -0.16289732 -0.25799242 -0.10897594
-0.22267039 -0.055693 0.074809104 -0.12590994 -0.045781363 0.12109309 -0.09291277 0.57351243
-0.12821043 -0.23622176 -0.14128861 -0.07872312 0.0055185454 -0.08990373 -0.11711466 0.055896234
-0.18073143 -0.04774066 0.105379306 -0.0973508 -0.17255859 -0.049152024 -0.14315382 -0.24520195
-0.06041414 0.09039924 -0.060150724 -0.17770354 0.106275186 0.11671503 -0.116739415 -0.14421588
-0.1915147 -0.2599835 -0.07870311 -0.20435688 -0.06688338 0.1453826 -0.0098016905 -0.16714184
-0.059568226 0.13255624 -0.20310651 -0.023167577 -0.16142376 -0.24397908 0.18746677 -0.06429551
-0.2125263 -0.21938296 -0.13591734 -0.28371498 -0.1821101 -0.054233413 -0.03819373 -0.17782263
-0.20038612 -0.3575073 -0.10509498 0.15017697 -0.28370947 -0.31582552 0.13849556 -0.25870538
-0.20389447 -0.025154438 -0.10996046 -0.06852061 0.017221514 -0.17947687 -0.022976857 -0.3181011
-0.15082023 0.0076953843 -0.038843095 -0.17630021 0.0928868 -0.18722965 -0.3010449 -0.21266031
0.10538315 0.1858034 -0.10787855 0.13816306 0.0365092 0.025323601 -0.080847554 -0.28968385
-0.0732518 0.0018560173 -0.13528761 -0.1442487 0.021016806 -0.0016446945 -0.01875073 -0.09115911
-0.19069065 -0.05806059 -0.14644359 0.24203588 -0.24683869 -0.16593012 -0.16269763 -0.0015973632
-0.07898287 -0.17532758 0.06444974 -0.112862006 -0.0069640544 -0.08405037 0.11025027 -0.21904905
0.16835102 -0.2397398 -0.10756821 0.26346096 -0.00037654917 0.026807796 -0.0706049 -0.026782708
-0.13150893 0.1905255 -0.110932 -0.033170953 -0.31625575 -0.27513146 -0.15110043 0.049129583
0.19086488 -0.11201915 -0.12424799 -0.01480261 0.01521413 0.12208074 -0.21648979 -0.13243176
-0.16787955 -0.011369462 -0.14812742 -0.2969779 -0.19606008 -0.1260383 -0.019694796 -0.25239822
-0.15397479 -0.26693347 0.03869151 -0.02278705 -0.25961208 -0.13389799 -0.2000842 -0.32207972
0.07142603 -0.057850633 -0.25766486 -0.05496036 -0.048325855 -0.17703183 0.1438813 -0.026842343
-0.2698713 -0.26456523 0.018527709 -0.008533171 0.092608966 -0.032097805 0.011736258 -0.038998123
-0.033372506 0.2900769 -0.21880223 -0.1847861 -0.139923 -0.21641764 -0.25608802 -0.16175608
-0.18493922 -0.14809312 -0.16962092 -0.18146104 0.043197762 0.14838725 -0.15598664 -0.082482226
-0.064316414 0.11891374 0.083129294 0.027367959 -0.06710909 0.065435834 -0.15401259 0.012783762
0.083327696 -0.19678243 0.084921 -0.08225696 -0.044620473 -0.029415978 0.043967865 -0.14004654
-0.16926351 -0.12629527 -0.17666253 -0.1024151 0.45425484 -0.19169925 -0.047810666 0.1492339
-0.101066485 0.05666528 -0.20551631 -0.097844884 -0.22008838 -0.16167684 0.06367161 -0.16160238
-0.2403256 -0.07627032 -0.07558095 -0.14913337 -0.199094 -0.06785029 -0.007576934 0.49548367
-0.115562886 0.23745935 -0.017726317 -0.13776614 -0.024798876 -0.07064511 -0.17080475 -0.13781935
0.20562495 0.181429 -0.19415818 -0.11999082 0.12851278 -0.052037574 -0.048413567 0.0996548
0.018202197 -0.20893805 0.110849075 -0.07830781 -0.0057157003 0.13792163 -0.00093621324 -0.099446364

parameters.mlp_0_w f4 [256, 70]
00000000: ab7d 14be aca3 523d d9a4 7bbe d145 22bf
00000010: 82ee 8cbd 9b22 d0bd d293 293d 9e28 14bc
00000020: 7b00 ac3d 8bb9 69be 6643 48be 7c86 35bf
00000030: ec13 223c 91bd 563e 8f57 de3c 66eb 0c3f
00000040: 9ca1 36be 8479 84bd 970e 4d3e 3a46 50bc
00000050: 167e dcbd 6f72 0fbf 6a4c a3be 2c55 023f
00000060: d456 af3c 20cf 9a3c 2afd 163f d54d 9d3d
00000070: fbdb b53d e7e4 953c 42f5 7bbe 5797 353e
00000080: 5d16 8bbd 7d76 103e 80ca 863d 4745 18be
00000090: 0998 493e ddd5 a13d b573 9abe 9cf2 733e
000000a0: 6d92 6abe db0e 7ebd 9474 8abd 51b0 27be
000000b0: c365 103d 4043 6fbd a548 c6be bd10 8e3d
000000c0: 5509 313e 03b0 113a 4bbb 36bd c800 87bd
000000d0: d1b5 24be 801a fcbe a594 ff3d 07f0 a5bd
000000e0: bfc0 3c3d 73a2 6c3e 22a7 04be e6bf 46bc
000000f0: 000c 193e b7db 063f 5c57 cf3b b44e 85bc
00000100: f9e7 6a3d 9b54 5dbd 704c c93b a4b1 36bc
00000110: 659d c6bd 8379 84bc 7467 89be d5b8 913d
00000120: 6876 b9bd 3d2f 433e e054 123d 4be5 a3be
00000130: b3ac 483e d121 8bbb 0ed6 9fbe 9437 dcbd
00000140: 64cf fdbd 580d 5cbd aab1 f5bd b3e7 e2be
00000150: 6e05 64bc d7a7 56be 6583 60bd ae6d bebd
00000160: 122d 48bf 3861 0f3e 383a 27bd 3c52 87be
00000170: eb25 2c3f a001 5ebe d9ef b1be d751 c03d
00000180: 0eb7 933c 19e9 f9bd 2a2b 90bc f5f9 af3d
00000190: b21e acbd d7a7 c6be fcd8 2a3e c207 9e3c
000001a0: 5bc4 afbe 744e 633e cb9c 92bd 7002 f03d
000001b0: a1df b33d 220a ff3a 52ed 63be 0801 f4bd
000001c0: 6f1e 2bbd 388c 2c3c 6379 403e c36c 24be
000001d0: e26b 703e 8262 2cbe aaac 293d 5b4f 9b3e
000001e0: 3697 f23d 38b3 113d 5c4e 323e d493 5fbe
000001f0: dd30 51be 72af 683d 9248 0abe 75ed 1a3e
00000200: 5274 3b3e b116 8cbe 7e6a 05bd 3e7b af3d
00000210: 058f 07be 6aff 683d 1cae 95bd 0e6d 833d
00000220: eb7c d13d 108b 92be a95b 773e e3af 4b3e
00000230: cc15 323d 7edd 873e 5a6e 20be c7af 7e3e
00000240: 772a 84be e095 bd3d cf75 c73e b087 43be
00000250: 752f d13e 5f87 c43e 2cfe 2e3d 20a5 e9bd
00000260: 4efa 8abe dae0 27bd 175a 6c3e 7178 38be
00000270: faea b8bd 81a2 233f 74f4 5d3f e203 1dbf
00000280: bf69 77bd a8c5 773e 2fed 8cbf 9cd0 233e
00000290: e35e a0bc e108 3c3f cb35 8ebe 9e52 f0bd
000002a0: 2a57 c9bc 5e4b e1bb faa8 693d 65f9 16be
000002b0: fd00 33bd 3f8e f3be 44a8 463e 10de 3fbe
000002c0: 0806 213e 06c9 56bd 1790 1d3e 2b02 c2bd
000002d0: f57b a03c bdb7 3dbe 4e55 04be 6432 cd3d
000002e0: 2641 6fbe c77f 28be 31bd d03d a411 40bc
000002f0: 9734 5f3e 0a0d 223e a368 4ebd 7a89 03be
00000300: 87c4 ae3e ec5e 863e a18b 8abe 620e 00be
00000310: 5b52 b6be d71e f7be cb5a 2d3f 89ef f6bd
00000320: 76cb 033e de6b fabe 9d2b c83d 00c6 7d3c
00000330: fe5b bbbd 274c fa3d d081 af3d e752 7fbe
00000340: 53f7 39be 15d6 6cbd f17e 9a3c 1ffa 503e
00000350: e2e1 e1bd ae01 753d 0de5 7dbe deb7 5abe
00000360: c65c 013e 97fe 193f 0912 23be 7c8d 683d
00000370: ebe3 6cbe c10b 0c3e 6cc1 e4bd d386 40bf
00000380: 79cc a33d 494f 483e 4713 e23d bbcb 8bbe
00000390: 2fbc ddbc 36fa aa3e 1e3d 4b3d 0b68 7e3e
000003a0: 90f5 0fbd 83fa dfbd fbfb 1dbd e67a 673d
000003b0: 127a 88bf cfbc 15bd 091f 8ebb bf97 4abd
000003c0: a526 a23c 5e6b bfbe a2da aabe b7e5 a33d
000003d0: 99b1 833e 55ff 823e fd5e 46bd e0b0 ecbd
000003e0: 4b03 d93c d0b0 59be ab46 18bd 86b6 513e
000003f0: abac d93e 11e2 30bc f8f9 3a3d 9279 99bd
-0.14501064 0.05142562 -0.24574603 -0.6338778 -0.06881429 -0.101628505 0.041400738 -0.009042887
0.08398529 -0.22824685 -0.1955696 -0.7090833 0.009892445 0.20970751 0.02714136 0.5504669
-0.17835087 -0.0646849 0.20025097 -0.012712056 -0.107662365 -0.56033987 -0.31894237 0.5091121
0.021403708 0.018897593 0.5898005 0.07680861 0.088798486 0.018297626 -0.24605277 0.17733513
-0.06791375 0.141077 0.065815926 -0.14870177 0.19686903 0.07902119 -0.30166402 0.23823017
-0.2290742 -0.062025886 -0.06760517 -0.16375853 0.035253298 -0.058413744 -0.38727298 0.06936786
0.17288716 0.0005557539 -0.04461221 -0.06591946 -0.16084982 -0.49238968 0.124795236 -0.08102422
0.046082254 0.23108844 -0.12954381 -0.012130713 0.14945984 0.5267901 0.0063275527 -0.01627288
0.057350133 -0.054035764 0.0061431453 -0.011150751 -0.096979894 -0.016171223 -0.2683674 0.07115332
-0.09055787 0.19060989 0.035725474 -0.32010874 0.1959713 -0.0042459746 -0.31217998 -0.10752788
-0.12393072 -0.053723663 -0.11996777 -0.44317397 -0.01391731 -0.20962463 -0.054812808 -0.092982635
-0.7819377 0.1400193 -0.040827006 -0.26429927 0.6724536 -0.21680307 -0.34753302 0.0939061
0.018031623 -0.12202663 -0.017598707 0.085925974 -0.08404292 -0.38799927 0.16684335 0.019290809
-0.34329495 0.22197896 -0.07158812 0.11719215 0.08782888 0.0019457976 -0.222585 -0.11914259
-0.04177707 0.010531478 0.18796305 -0.16057114 0.23478654 -0.16834453 0.04142443 0.3033398
0.118452474 0.035571307 0.17412704 -0.21833736 -0.20428796 0.056807943 -0.13504246 0.15129645
0.18306091 -0.27361062 -0.032572262 0.085684285 -0.13238151 0.056884207 -0.07308599 0.06417285
0.10228904 -0.2862172 0.2415606 0.19891314 0.04347782 0.26536173 -0.15667096 0.24871741
-0.25813648 0.09257102 0.38957068 -0.1909473 0.4085652 0.3838453 0.042722866 -0.11408448
-0.27144092 -0.04098592 0.23081242 -0.18014695 -0.09029193 0.63919836 0.8670113 -0.6133405
-0.06040358 0.24196494 -1.1009883 0.15997547 -0.019576496 0.7345105 -0.27775416 -0.11734508
-0.024577696 -0.0068754395 0.057045914 -0.14743574 -0.043702114 -0.47569463 0.19400126 -0.18737054
0.15724957 -0.052437805 0.15386997 -0.0947307 0.019590357 -0.18527122 -0.12923166 0.10019377
-0.23364696 -0.16454993 0.101923354 -0.011722956 0.21797405 0.15825287 -0.050392758 -0.12845412
0.34134313 0.26244295 -0.27059653 -0.12505487 -0.35609707 -0.48265716 0.67716664 -0.120574065
0.12870583 -0.4891042 0.097739436 0.015489101 -0.091484055 0.12221556 0.08569682 -0.24933968
-0.18160753 -0.057821352 0.018859359 0.20407914 -0.11029412 0.059816055 -0.24794407 -0.21359202
0.12633047 0.601541 -0.15924849 0.056775555 -0.23133819 0.13676359 -0.11169705 -0.75205725
0.079979844 0.19561495 0.11038833 -0.27303872 -0.027067272 0.3339402 0.049618833 0.24844377
-0.035146296 -0.10936453 -0.038570385 0.05651369 -1.0662253 -0.036557015 -0.004337196 -0.049461123
0.019793818 -0.37386602 -0.3336993 0.08002799 0.25721434 0.25585428 -0.04843043 -0.11557174
0.026490828 -0.21258855 -0.03717677 0.20479783 0.42514548 -0.010796086 0.045648545 -0.07493891

parameters.mlp_1_b f4 [256]
00000000: 41a8 9b3d 3656 853e bb88 cf3e b6b8 f43c
00000010: c189 2b3c 9178 b03e a609 db3d 330d 813d
00000020: 161c 133c 5552 6a3e ac56 d33b b0da 053e
00000030: c25c 53be 509e c53d 1884 d13e 0b65 343e
00000040: b3c9 7b3d 63ea c3bd 4498 aabc 318b 893c
00000050: 8919 9e3e d5e9 793c 7fe7 9d3c 6e04 d8bc
00000060: 1332 583d 75eb 7b3c e6d4 92bc 4e29 d9bc
00000070: 7975 df3d 007e cfbb 0e04 763e 91e7 883d
00000080: 9a17 2abd 2143 373e 704b f13d 8f0b c93c
00000090: 262a 47bc 58d1 493e 2e8a 34bd 4768 7abc
000000a0: 7260 4ebc 0994 a13e 3df8 98bc da51 4f3d
000000b0: 64d4 ed3d 1f69 373e 49c3 8dbc 9e5d b63d
000000c0: e2ad 6dbc 2fb3 5f3d 8ae2 283d d3f0 273e
000000d0: d5d4 5b3e e6a0 0b3e 8c0a 903c c176 18bd
000000e0: 0c27 86bc 1b0a 9dbc 945b d83d 8609 e73d
000000f0: df04 27bb a78a f4bc 6630 9c3e da54 e53c
00000100: 8f71 d63d 931b 8a3e b161 e9bc 1716 9ebc
00000110: c3c2 333e 2507 c8bd dad4 aa3d b003 80bc
00000120: e333 b93e b05e d43e 71c4 83bc b4c6 2a3e
00000130: 329a c2bd cf39 963e f39c a43d d9aa c4bb
00000140: 8be8 dd3c f422 ac3d 43b8 3fbc 89c1 b6bd
00000150: d8a1 a8bc ce62 513d 07d8 933e 737a 083e
00000160: 6bdb 5a3e 9c59 14bc 1382 213d 8d3a c03e
00000170: 584f 38bc 0389 923e cd07 803d b659 a43d
00000180: 59f8 c0bc 3bd4 6dbc 84e5 263e 4cb3 00bd
00000190: a727 f8bc c0f1 d5bc 52fd babc 0fa7 04bd
000001a0: 6d12 5bbc a9ec 013d a8eb 97bc 4085 0ebd
000001b0: d325 c0bc 43bc 363b bea1 fa3d 5660 d1bb
000001c0: 5d2e eb3e c19b 643d 3505 9e3e eac9 6d3e
000001d0: 64dc 06bd 1ee8 91bc 6f44 73bc ad14 6cbd
000001e0: e42b ac3e b2fb 9c3e be6c 623e de2c afbc
000001f0: 7abb e83e 9e83 163e 94cd 1b3e 7f1d 173e
00000200: d362 763e e069 a23e a088 0b3d 2a3e 8a3c
00000210: e216 513e d7f4 47bd c3ef 383d 047b efbc
00000220: c4ba 89bc b140 9ebc 4a2c 28be 4512 b1bc
00000230: d486 c9bc 9f64 1e3e eea8 03bd 554a 63bc
00000240: 90ef f5bc 9c77 0cbd 0d7d c1bc 5d63 893e
00000250: 228d 2e3e 20dd 6f3e eb5e 413e 63e6 9dbc
00000260: 9dac 163c 8c46 2a3e d7f1 e43d 0c36 2d3e
00000270: cfde 2e3e de39 203e 8e81 503d 37b8 b53c
00000280: e97f 073d 5223 be3d 8cc3 b8bc 4959 18bd
00000290: db14 853e 6105 813e f52d b93d 4344 86bc
000002a0: d609 7c3d 78fc 69bc 8dfa 10be a467 e33c
000002b0: f96b 8abc 7d64 323e 67c7 7d3e 8462 c33c
000002c0: 9d30 3d3d b62d 593e 922d 743e bdf5 bcbc
000002d0: 14d4 c5bc 63e6 143e a28d 423e d481 a0bc
000002e0: 6f2f 1d3e 0762 cebd a584 483e 01af 44bc
000002f0: 56f3 903c b85a 36be a474 c9bc 7a03 e33e
00000300: ca1f 9fbd 52fe 503d 56a0 9cbc e3e2 d53d
00000310: 7e82 ac3b 04f8 113e fcc3 8f3e ee06 a6bc
00000320: 441a 8bbd f1f8 843e 7a3e 343e 1160 f2bc
00000330: f0b8 a43e 7ad8 06be cc9b 503d 6184 8dbc
00000340: e77e 9f3b 0f23 68bc 2ab8 c8bc 3c30 d53d
00000350: 3e32 7a3e f10c 783d 624e 6a3e 0b92 a3bc
00000360: e62e 893e 3718 0abd 10bb 1f3d f259 c5bc
00000370: e6a3 223e d1bf 613e 05ea 86bc 9acd 813e
00000380: f0d6 cb3c 22df 7f3c d6a8 bc3e d9db 5e3c
00000390: 207f 9e3e 9fee 133d e445 ecbc b807 173e
000003a0: 8676 233e 0840 a33e 8425 3dbd 443b 82bc
000003b0: adc4 70bd 380e bebd 02c7 6d3e 886b fd3d
000003c0: 5582 7e3e 6c79 ad3e 367f 063e 80d7 eebb
000003d0: fa6f 87bd 15b9 84bd a36b 8a3d 75a2 d23d
000003e0: 1bcd 0a3e 52a9 7fbc 3eb0 aa3e 4948 c33e
000003f0: 53ba b1bc 989e 78bc f6e1 e9bc 037b 5cbc
0.07600451 0.26042336 0.40534005 0.029873233 0.010469855 0.34466985 0.106952 0.06301346
0.008978864 0.2288297 0.006449541 0.13071704 -0.20640853 0.09649336 0.40921092 0.1761667
0.061471652 -0.0956619 -0.020824559 0.016790004 0.30878857 0.015253504 0.019275425 -0.0263693
0.05278213 0.015375962 -0.017923784 -0.026508953 0.10911078 -0.006332159 0.24024984 0.06684793
-0.041526414 0.17896701 0.11781967 0.024541644 -0.012156045 0.19708765 -0.04407709 -0.015283651
-0.012596237 0.31558254 -0.018673057 0.05061517 0.11612776 0.17911194 -0.017305033 0.08904575
-0.014506789 0.054614242 0.04123167 0.16400461 0.21467908 0.13635597 0.017583154 -0.037222628
-0.01637604 -0.019169858 0.10564342 0.11281113 -0.002548508 -0.02985127 0.30505675 0.027994562
0.10470878 0.26974162 -0.028488966 -0.019297643 0.17554764 -0.09766988 0.083413795 -0.015626758
0.361724 0.4147849 -0.016084881 0.16677362 -0.09502067 0.2934098 0.08037748 -0.006001812
0.027088424 0.08405104 -0.011701646 -0.08923633 -0.020584986 0.051119618 0.28875753 0.1332796
0.21372764 -0.009054568 0.03943069 0.3754467 -0.011249386 0.28620157 0.06251488 0.080249235
-0.023555921 -0.014515932 0.16298491 -0.03142099 -0.030292345 -0.026116252 -0.02282587 -0.032385882
-0.013371092 0.031719837 -0.018544987 -0.034795046 -0.023455536 0.0027883209 0.12237881 -0.006389658
0.4593381 0.0558126 0.30863348 0.23221555 -0.032925025 -0.017810877 -0.014847859 -0.057636905
0.33627236 0.30660778 0.22111794 -0.021383699 0.45455533 0.14698645 0.1521514 0.14757346
0.24061136 0.317214 0.034065843 0.016875345 0.20418885 -0.04881748 0.04515053 -0.029233463
-0.01681269 -0.019317957 -0.16423145 -0.021615157 -0.024600424 0.15468071 -0.032143526 -0.013872703
-0.030021459 -0.034293756 -0.0236192 0.2683362 0.17046025 0.23424196 0.18883865 -0.019274896
0.009196428 0.16628474 0.1117894 0.16915148 0.17077182 0.15647075 0.050904803 0.022182567
0.03308097 0.092840806 -0.022554182 -0.037194524 0.25992474 0.25199416 0.09041969 -0.016389972
0.061532818 -0.014281385 -0.14158078 0.02775938 -0.016897188 0.17421146 0.24783097 0.023850687
0.04618894 0.21208844 0.23845509 -0.023066396 -0.024148978 0.1454101 0.18999341 -0.019593157
0.15350126 -0.10077291 0.1958185 -0.012004615 0.017694157 -0.17808044 -0.024591751 0.4433859
-0.07769735 0.05102379 -0.019119423 0.10443666 0.0052645793 0.14254767 0.28079212 -0.020266976
-0.06792119 0.25971177 0.17601958 -0.029586824 0.32172346 -0.13168517 0.05092983 -0.017275037
0.004867423 -0.014168515 -0.024501879 0.104095906 0.24433228 0.060559217 0.22881463 -0.0199671
0.26793593 -0.0337145 0.038996756 -0.02409074 0.15882835 0.22045828 -0.016469011 0.25352174
0.024882764 0.015617164 0.36847562 0.01360222 0.30956364 0.03611624 -0.02884192 0.14749038
0.15963182 0.3188479 -0.046178356 -0.0158974 -0.058781315 -0.09280056 0.23220447 0.123740256
0.24854405 0.338817 0.13134465 -0.007288873 -0.06613155 -0.06480614 0.06758811 0.102848925
0.13554804 -0.015604334 0.33337587 0.38141087 -0.021695292 -0.01517453 -0.02855013 -0.013457063

parameters.mlp_1_w f4 [256, 256]
00000000: 2d72 80be 3150 6dbd 142c e03d bfd3 923c
00000010: 2249 f83d 62e3 02be 242f eabd ef7a e5bd
00000020: 7dcc 9abe 1cea b33d 0eeb 913e b213 87be
00000030: 0975 f9be 0f70 00bf 2ef1 d4be 7d35 1d3e
00000040: f746 303e 5114 193e 94d4 93bd 7367 debd
00000050: f60a 8bbd dca5 15bf 1599 09bc e3c3 ea3c
00000060: 649c 7b3e 883c c6bd 71ef 13be 7f42 c23d
00000070: c70d d43d b981 8abe 96dc c03d 3dea cbbe
00000080: f5d3 86be 325d 973d 8e75 133c dcb8 9f3d
00000090: 7e8a acbe 9fc4 8dbd 8928 d13d 0210 223d
000000a0: 7efa 613d 7037 a5be 6f01 213e 9f74 a63d
000000b0: 451b 683d 984d 863c 3a19 a43e 4e11 883d
000000c0: 74da 7fbe c586 ab3e 1857 cabd 7738 4e3e
000000d0: 89b2 11bd 95bf 22bf 3107 12be 9894 5b3e
000000e0: 7d2d 29bb 8d21 2f3d 7747 0d3e 6483 85be
000000f0: ecfc 733e 8ec9 1d3e 5f6f d0bd 4ed1 ad3d
00000100: cfd3 5ebe c31a 1d3e 55b2 d23d aa76 94be
00000110: 768e c5be 92ef 3e3c 889e a63d bbcc 023d
00000120: d6a2 9d3c de3f af3d ad8c 2abd fc92 7c3e
00000130: 4253 dcbd 93df 6ebe 009a 9abe 3be2 9f3c
00000140: 90c9 953e 3cf6 413e 1d5c 223e 1f8a 0b3b
00000150: ef1a 90bd 67ce a03e 7ca1 b2be ca11 9a3e
00000160: f02f b83d a6cf 01bb b98b 38bc 83ba 85be
00000170: 0bfc e43c 3cab c6bd 4039 be3c ad32 29be
00000180: e3bc 1cbe d7ea 38bd 3889 89be 6169 523d
00000190: 9285 5cbe d530 d8bd 4869 e0be 6ce0 723d
000001a0: e05e 243e 731a 83bd 705e 533d 4b96 b93d
000001b0: 07f7 77be fd80 4d3c ec53 6c3d 292d d33d
000001c0: be32 103e 9b78 82be 2c4e 123e c52a 29be
000001d0: cfd7 f63d f0b4 0fbe 9a58 dd3d 2071 123e
000001e0: 9d3b d8be e3a0 63be 2b9d ddbc 084c 1d3d
000001f0: 3bbf 9e3e e2a7 2e3e c62f 883e d6a0 90bc
00000200: d2bd e6ba cf63 18be 2f78 313d 0544 eebd
00000210: 9b2a 993e b580 ea3c b658 35be 7ecd 6abe
00000220: 9c14 56be 2510 593d 3095 a53d 9158 ac3e
00000230: fd16 c93e 7035 83be 3ed1 863c a23e efbd
00000240: f0e6 d2be d92c c73d c64d 873e 06ab 733d
00000250: dc33 efbd c444 8a3e db71 a3bc adaa 813e
00000260: dbbc b4be 9d36 cebd bb21 a53d 3bc4 92be
00000270: e007 81bd 6544 febd 4b87 223d 8ea9 d03d
00000280: 9a4c 98be 082a 05be 74a8 2dbe c440 eabd
00000290: 3ca2 283d e2e4 bbbd 0f26 4c3d 2e8e 453e
000002a0: 35b9 80be b74e 1e3e a232 36bf 6106 70be
000002b0: 8726 c43d 6b67 423e cb10 3bbd 4152 03be
000002c0: 1c0d 8abd a53d 043e 4cc0 8cbd d8f2 7d3d
000002d0: 75c9 a43e a6bc 28be b884 2cbd 0f09 553d
000002e0: 6c4c b83d d20c 95be e211 75be 6c6b ba3d
000002f0: 5531 94be b22c 1b3e 12f0 bbbe 7670 1c3e
00000300: ca5d 15bf 4fdb 3abe d5ac e33d afb0 49bc
00000310: 511f 3ebd d8ea 9dbe 4411 c83c 2c8e 91bd
00000320: 74bd a0bd 560f 5f3e d974 e1bd 29bb 53be
00000330: ff7e 98be 381d eb3d b8fc 913e 4a17 4a3e
00000340: 2d90 77bd ba64 7fbd a0ea 0ebe 3bfc 98bc
00000350: ffe1 f3bc 217d d23d 3576 01bf 0bbb f8be
00000360: ca76 daba 1436 a13d 3439 2b3e 484b a93d
00000370: 5ab1 a33e e0bb 3fbe d4a9 dbbe 9750 213e
00000380: ecf1 3fbe 6b20 4d3e 401a 33be ee9d 06bf
00000390: 07ad 91bc 0ccb b1bc 2a4b 843d 1dc4 52bd
000003a0: b00d 833a e21e 343e 0fea 0cbf 8113 b83d
000003b0: ff8d eebd 3711 e0bd 25ed 92be 8af6 9dbd
000003c0: f0a2 1ebc ac88 1ebe d1c1 6c3e e83d 80be
000003d0: 0bd4 89be ae01 dcbe b5c2 f63d 0721 89be
000003e0: cbc9 c1bd fbf1 9dbe b48d 40bd ee10 84be
000003f0: df7c b53c 7404 633d 10df f03d 1518 7dbd
-0.2508711 -0.057937805 0.10945907 0.017923234 0.12123324 -0.12782052 -0.114347726 -0.11205088
-0.30234137 0.08784887 0.28499645 -0.26382214 -0.48722103 -0.5017099 -0.41590255 0.15352435
0.17214571 0.14949156 -0.072182804 -0.10859575 -0.067892 -0.58456206 -0.008398314 0.02865786
0.24571377 -0.09679514 -0.14446808 0.094853394 0.1035419 -0.27052096 0.094170734 -0.39827147
-0.26333585 0.073908225 0.009000195 0.07798931 -0.3369941 -0.06922268 0.102128096 0.039566047
0.05517053 -0.32268858 0.15723203 0.081277125 0.05666663 0.016394421 0.32050496 0.066439256
-0.24985677 0.33501258 -0.09879893 0.20138727 -0.035570655 -0.6357358 -0.14260556 0.21443403
-0.0025814467 0.042756606 0.13796793 -0.26076806 0.23826951 0.15408918 -0.10177492 0.08487187
-0.21760486 0.1534224 0.102879204 -0.28996783 -0.38585252 0.011653798 0.08135706 0.031933527
0.019242685 0.085571036 -0.041638065 0.24665445 -0.10758068 -0.23327474 -0.30195618 0.019517055
0.29255342 0.18941587 0.15855451 0.0021292043 -0.07036387 0.31407472 -0.34888828 0.30091697
0.08993518 -0.0019807606 -0.011263781 -0.2611886 0.027952215 -0.09700629 0.023220658 -0.16523238
-0.1530643 -0.045145836 -0.26862502 0.05137003 -0.21535328 -0.10556189 -0.43830323 0.059296057
0.16051817 -0.06401529 0.051603734 0.09061869 -0.24215327 0.01254296 0.05769722 0.10311348
0.14081857 -0.2548264 0.14287633 -0.16520222 0.12052881 -0.14033866 0.10807915 0.14300966
-0.4223298 -0.22229342 -0.027052483 0.038402587 0.31005272 0.1705623 0.26598948 -0.017654818
-0.0017604178 -0.14881824 0.043327507 -0.116340674 0.29915318 0.028625825 -0.17709622 -0.22929952
-0.209063 0.052993912 0.08085096 0.3366132 0.3927535 -0.25626707 0.016457196 -0.11681868
-0.41191816 0.09725351 0.26426524 0.059489273 -0.11679813 0.2700559 -0.019951751 0.25325528
-0.35300335 -0.100690104 0.08063074 -0.28665337 -0.0630033 -0.12415389 0.039679807 0.1018859
-0.29745942 -0.13004315 -0.16958791 -0.11438134 0.041170344 -0.09174515 0.049840983 0.19292518
-0.25141302 0.15459715 -0.7117101 -0.23439933 0.09577661 0.18984763 -0.045670312 -0.12824346
-0.06740782 0.1291414 -0.06872615 0.061999172 0.3218495 -0.16478214 -0.042118758 0.052010592
0.08998951 -0.29111344 -0.23932603 0.0910252 -0.28943887 0.15153769 -0.36706597 0.15277275
-0.58346236 -0.18247722 0.111169495 -0.012310191 -0.046416584 -0.30843234 0.024422295 -0.07107195
-0.07848635 0.21783194 -0.11008615 -0.20676865 -0.2978439 0.114801824 0.28513122 0.19735447
-0.06044023 -0.06235192 -0.1395669 -0.01867496 -0.02977085 0.10277773 -0.50570995 -0.48580202
-0.0016667482 0.07871643 0.1672104 0.08266312 0.31971246 -0.18724012 -0.42903006 0.15753399
-0.1874463 0.20031898 -0.17490482 -0.5258473 -0.017782701 -0.021703266 0.06459649 -0.05145656
0.0009998586 0.17589906 -0.55044645 0.08988095 -0.11648177 -0.109407835 -0.28696552 -0.07713039
-0.009682402 -0.15481824 0.2312081 -0.2504723 -0.26919588 -0.42970031 0.12048856 -0.2678301
-0.09462317 -0.3084868 -0.04701014 -0.25794166 0.02215427 0.05542417 0.11761296 -0.061790545

parameters.mu_b f4 [8]
00000000: 7e72 7dbd 6889 073e 25cd 343e 0ab8 ca3d
00000010: fb74 703d e8e9 28bd 1625 14bd ab6b 1dbc
-0.061876766 0.1323601 0.17656381 0.09898384 0.05870531 -0.041238695 -0.03616818 -0.00960819

parameters.mu_w f4 [8, 256]
00000000: 8034 a93e 948c 5cbe 9e92 193d 9e67 593e
00000010: 501a 5fbd bd0c 853e a3cb 673d 8d6b 273d
00000020: c8c0 84bc 4ef4 a7be d9ca 363e 840d d2be
00000030: e867 31be 30fb d13e 36c3 02bf 4cd6 eb3e
00000040: fb06 ab3e 8974 d53e 0671 1cbb 0187 febb
00000050: 2cf9 973e 6540 9abc e03d 15bd 95f7 c73c
00000060: 8523 b53e 45f9 253e e365 ef3a c1e3 e7ba
00000070: 8e77 e1be 8e8e fa3d 1212 353f 5e07 5bbe
00000080: a0c8 993d 435a 15bf 289f 7e38 86d2 f5be
00000090: 1d1c e63b b6f0 33be cf52 d13d 9e6b ec3b
000000a0: 4d21 073c e7f7 22be 0eca 893c ead5 53bd
000000b0: a15a 87bd 34f5 533f e3d8 aa3c 306f b33e
000000c0: f62f 08bb 380a 26bc 75fe a93d 9952 553e
000000d0: 853f 1abe 56a6 7f3e dc20 c2bb 918e 57bc
000000e0: a7bb 18bd b60a 983c 2a18 a63d 7a9f 85be
000000f0: 133a 603c a20c e43b 4002 3dbe e50f c23e
00000100: 3adc 14be d90f e8bd 462c d23c d033 20bc
00000110: 832d 5bbe 77ca f93d 5176 623d d103 91bb
00000120: 8130 ffbd 5f1e 893e b492 54bc c139 523e
00000130: 4078 c0be b2fc 913e 2e93 8a3f 1415 f03e
00000140: 3e8e 4cbd c5f5 853d c38a fdbc d9ed 07be
00000150: bf2d 8c3b f19e 043c 5f46 0d3e c3dd 823e
00000160: 4b86 d2be 4b35 593b c40a 013f 6b78 27bf
00000170: bca4 f33b bc2f 4bbe 51a0 bbbc 2d8f 82bd
00000180: 59af 72bc 9233 75bb 9723 8dbe 90cb fdbc
00000190: d052 17bc ef6c 1c3c 4987 71bc cc6a f538
000001a0: 86c0 223c 262e 8b3d c5db 473b cb86 bb3c
000001b0: d9a8 913c 0f28 bb3f 4c1b 56bf 55c7 01bc
000001c0: 913f 4abe ccda 51bd 1a78 d4be b08d 243f
000001d0: 6e09 f43b b390 24ba e596 0c3c 25a0 b3bf
000001e0: 7279 ebbe cd82 b1bd 1b90 a63e 04c1 2f3c
000001f0: 2da8 1dbe 491f 08bd e977 3bbf 2991 853e
00000200: 2413 99be 3adc 82bf c6bb 2f3d 1a2f c7ba
00000210: 8391 de3e 4016 1b3b f696 d038 fa0a d73c
00000220: eaec 16bb 8007 89bc 78ee 31bd f2b6 2a3d
00000230: ea27 34bc 53c7 6d3f ebc5 a7ba 6312 6c3c
00000240: b7c4 ee3c 1f58 5cbb e177 1b3c 3703 3abe
00000250: 3934 8dbe 2a03 9ebc 23b3 95bf cf90 8e3c
00000260: 8d7a 91bd 57ee 4d3f b49d 75be 4da7 503f
00000270: 56f3 d7be 7e9e 0a3e ba23 5b3e 7fdd f4bd
00000280: d9d9 babc 85bb 2740 829b 8a3c 73a6 60bd
00000290: da6e 9bbd 1ac3 94bd 370f 8c3e 2f6d c23b
000002a0: 6fb3 343f f137 1f3b e67e abbd 04f9 b0bd
000002b0: 66a4 a9ba df30 fb3d f07a 07be 87ce 36bc
000002c0: 9cc3 a0ba 96bb c63d 12de fabe d5b5 a03c
000002d0: 1362 9c3c 53c3 a5bc ee0d 453f a7df a3bc
000002e0: df13 1dbe 84b7 7fbf fc97 853e 3757 bf3d
000002f0: 0687 b8bc ea72 bd3e dde7 853c ebb9 1b3f
00000300: d548 ab3b a4e0 bdbe 267b fcbb 2701 4f3e
00000310: ab59 73bf 47b2 bbbe b55e b4be 4a1d d23b
00000320: ba86 083f fe84 7bbf 7af2 5dbd e8b2 d5be
00000330: 9ecb 0dbe e89b 8e3d 6fa6 b5be 388c bc3b
00000340: 9277 a4be 543e 01bb 5639 203c 7138 9dbf
00000350: a194 87be 3475 e43d 09e3 d13d 5ba2 82bc
00000360: f6ce debd 87ea 37bd 1964 e2bc 1349 a33c
00000370: 36a3 653e be82 513e 5be6 70bb 4edf 97bf
00000380: c61e 33bc a8e2 2c3e 561e abbd 8646 523f
00000390: a793 68bf d863 373f 7d1c 19bc 4701 013e
000003a0: d022 223e 779d adbe dd75 813c f075 d03a
000003b0: d157 463f 0e2c f93e 4265 35be 38e0 f8bd
000003c0: bf64 c53f c8bf 103f 3053 88bd 7d7d 5e3f
000003d0: f85b 1c3f 4dc2 97bc 89fd e23e a677 6a3e
000003e0: 6932 0c3f 9499 933c c7c7 063e 139c 5b3d
000003f0: fb16 ba3a 306e 5abc 69d0 5dba 193b f53b
0.33047867 -0.21538001 0.03749334 0.21230933 -0.054468453 0.2598628 0.056590687 0.040874053
-0.016205207 -0.32803577 0.17850818 -0.41025937 -0.17324793 0.41011953 -0.5107912 0.46061933
0.33403763 0.41690472 -0.0023871078 -0.0077675586 0.2968229 -0.018829534 -0.03643596 0.024410048
0.35378662 0.1620837 0.0018264618 -0.0017691777 -0.44036525 0.122342214 0.707307 -0.21389529
0.07508969 -0.58340853 6.0706545e-05 -0.4801218 0.0070223943 -0.17572293 0.102208726 0.0072149774
0.008247686 -0.1591488 0.01681998 -0.051717676 -0.06609083 0.82796025 0.020855373 0.35045767
-0.002078054 -0.010134272 0.08300487 0.2083229 -0.15063293 0.24965796 -0.0059243273 -0.013156549
-0.037288334 0.018559795 0.08110078 -0.26098233 0.013685721 0.0069595138 -0.1845789 0.37902752
-0.14537135 -0.11331148 0.025655877 -0.009777978 -0.2140408 0.1219682 0.055288617 -0.004425504
-0.12460423 0.26780984 -0.01297443 0.20529844 -0.37591743 0.28513104 1.0826166 0.4689108
-0.04994034 0.065410174 -0.030949956 -0.13274325 0.0042779143 0.008094535 0.13796376 0.25559816
-0.41118082 0.0033143337 0.5040705 -0.6541812 0.0074354094 -0.19842428 -0.022903593 -0.06374965
-0.014812314 -0.0037414772 -0.27566215 -0.030980855 -0.009236053 0.009547456 -0.014741727 0.00011702403
0.0099335965 0.067959115 0.0030495983 0.022891423 0.017780708 1.46216 -0.836354 -0.00792106
-0.19750811 -0.05123405 -0.4149788 0.642787 0.007447413 -0.00062776654 0.008580898 -1.4033247
-0.45991093 -0.086675264 0.3253182 0.010727171 -0.15396185 -0.03323296 -0.73229843 0.2608731
-0.29897416 -1.0223458 0.042903684 -0.0015196532 0.43470392 0.0023664385 9.9463316e-05 0.026250351
-0.0023029395 -0.01672721 -0.043440312 0.041678376 -0.010995844 0.9288227 -0.0012800073 0.014408681
0.029146535 -0.003362186 0.009489031 -0.18165289 -0.27578905 -0.019288618 -1.1695293 0.017403034
-0.07103453 0.804418 -0.2398594 0.8150528 -0.42177838 0.13537022 0.21400347 -0.119563095
-0.022808956 2.6208203 0.016919855 -0.05484624 -0.07589503 -0.07263775 0.27355358 0.005933426
0.70586294 0.0024294818 -0.08373813 -0.08641246 -0.0012942671 0.12265181 -0.1323049 -0.011157638
-0.0012265327 0.09703748 -0.4899755 0.019617954 0.019089734 -0.02023474 0.7697438 -0.020004107
-0.15339611 -0.998894 0.26092517 0.09342807 -0.022525322 0.37001735 0.016345913 0.60830563
0.005227188 -0.3708545 -0.00770511 0.20215283 -0.950587 -0.36659452 -0.35228506 0.006412183
0.53330576 -0.98249805 -0.05418632 -0.41738057 -0.13847205 0.069633305 -0.3547854 0.00575402
-0.32122475 -0.0019720988 0.009779295 -1.228285 -0.26480582 0.11155167 0.10248382 -0.015946558
-0.108793184 -0.044901397 -0.02763562 0.019932305 0.22425541 0.2046003 -0.0036758396 -1.1865022
-0.01093263 0.16883337 -0.083553955 0.8213886 -0.908503 0.71636724 -0.009345171 0.12598144
0.15833592 -0.339092 0.015803272 0.0015904289 0.7747775 0.48666424 -0.17714408 -0.12152141
1.542137 0.56542635 -0.06656492 0.8691023 0.61077833 -0.018525267 0.44334057 0.22897205
0.5476442 0.018017568 0.13162147 0.05361564 0.0014197523 -0.013331935 -0.00084615365 0.0074838516

parameters.std_b f4 [8]
00000000: 186d 4dc0 e18f 56c0 7847 5ac0 4e03 59c0
00000010: 75f4 4fc0 45f3 5bc0 ab1d 50c0 1829 4dc0
-3.2097836 -3.3525317 -3.410612 -3.3908267 -3.2492955 -3.436723 -3.2518108 -3.2056332

parameters.std_w f4 [8, 256]
00000000: 9444 203d 7d46 a5be e1ea 00bf dda7 e3bd
00000010: 9b5d 063d da12 abbe 45a5 15be 70eb 753a
00000020: abda 413d 74aa 3fbe dfeb 6abe d619 94be
00000030: 32ed 8f3d 7fcf 87bd 6100 68be 0134 62bd
00000040: 3683 29be 5c24 4b3e 0140 08bc b056 c03c
00000050: 7cb7 c2be 9096 883c 5da8 193c 80ed 173c
00000060: ebd7 87be 2da3 5ebd 873f 3b3c a95e 193c
00000070: 4b4a ba3d 6a62 84be 1a30 ba3e 11dd 49bd
00000080: 8a3e dd3d 0c62 623b de78 44be 6144 063e
00000090: 1f52 563a 8db0 5fbe 59d2 8dbe ac70 a0bc
000000a0: e0e9 973b 88d4 b0be 1f5a 6d3c aeb1 9f3c
000000b0: 31ca 233e d811 d9bd 7352 81ba 8c6c 13bc
000000c0: 21aa 343b 47ce b7bc 6ca3 13bf 74af 033e
000000d0: c592 ff3c 2a7b 1dbe a97c 573d 1aca 49bc
000000e0: 2456 b93c 25ec afb9 3dae ebbe 924d 3bbe
000000f0: 71e7 013d 951a 313c ee09 9ebe bf72 563f
00000100: e67e 91be 8751 ecbd b48a 253c 5be3 6dbc
00000110: 791c 0ebf 7a5a 3dbe ec3d debd ac86 8e3c
00000120: 2df9 fabd 01bb 793d d18e e4bb cfbf 60be
00000130: 1d35 11bd 4073 42be 8b6f c13c 81db cdbe
00000140: 97e0 333c 5e6e 74bc 6a89 ae3c 06cc 0fbd
00000150: 37ea 693c 70e6 2a3d 8447 d03d ac26 d6ba
00000160: aaf6 89bd bcff c1bc 8d15 51be 92ef 413e
00000170: 8736 ee3a c78f 5bbe 7f24 193c 1296 ca3c
00000180: 7ba4 133c 38fc df3b 9ca5 1abe 3094 42be
00000190: 7ccd c9ba 696b e43b 96c9 d33c e715 a23c
000001a0: 68f4 163c 9eda 40bc 239f d53a a60d 3a3c
000001b0: 9fb1 053a 12ea e43d 9174 3cbd 131c 553c
000001c0: 5c1a 1fbe 2ede 053c dbd1 7dbe b400 71be
000001d0: 604c bd3c 4944 bbbb e27e 98bb c8ea 253f
000001e0: 759f d2bd 9380 6bbd 67c2 bdbe 942e f13b
000001f0: f09f fcbe 3a5d 3abc f7fa 5cbc 8d20 3e3d
00000200: 0203 0ebe d5a6 d43d 7c2d 6e3d 2e82 ef3c
00000210: cb19 35bd 8393 69bb 3c02 533d a23c 173c
00000220: 7a4b b8bb a9e6 31bc 7834 10bf 1075 13bf
00000230: 5561 a7bc fe18 e9be 7760 9c3b d845 4fbb
00000240: 3c5e 503c 3d19 af3d 9796 c23b 8aa5 14bf
00000250: 91e6 5dbd cc0e cbbe bae8 eb3d e711 99bc
00000260: d808 0cbe c436 313e 9f89 31be 45aa 063e
00000270: 631c 27bd 22cf 98bd ac2e 313d 69b9 dd3c
00000280: db53 083d 787c 5f3f d150 063c 7a5b 43bd
00000290: 88e1 d93d 6b41 94be 992f 1b3b b571 67bb
000002a0: 517c aa3d e6af 28bc a3b2 c33e 01d6 3abd
000002b0: 92ba 4a3a fd22 b5bd d735 e9be ab50 8d3d
000002c0: 50e2 bf3c fd07 82be 41a8 843e 1130 10bc
000002d0: 2144 6b3c d1df ebbe 3021 aabd bbac ae3e
000002e0: 4d64 10bd 6af7 ce3d 05e3 7fbe e8ef 3fbe
000002f0: 4e0b ca3c e954 d03e bb48 683c d95c 5fbe
00000300: 0414 f3be 8517 a1be ae45 a33c b615 273d
00000310: 01b6 0c3f 22cd 07bc 29bc c63c d38a 1d3c
00000320: 5c47 f93e 308d ea3e 00d0 90be 5df0 6cbd
00000330: 176c 3abe f23e b3bd 4a5d 0f3e f6fa 6e3c
00000340: b6e6 a73d 9ef4 d3bb db09 0c3c e8f9 11bd
00000350: eac3 d1bd 712c 87bb e453 f0bd 567f acbb
00000360: 9c1e 49be 83bf f23b 50c3 453c 59d2 7a3d
00000370: d2a6 46bd 33fd 03bf 7a76 79bc 34de b53d
00000380: 24ca 633d 11fd 78be b8a9 6cbe 5243 6b3c
00000390: abd7 e23d 6060 ab3b ca1a 33bb d82c e53d
000003a0: c4e3 6ebe cdb4 a5be c863 02ba 3520 a53b
000003b0: 3c2d dfbe d80a ef3d 6314 96be 3a7a f1be
000003c0: 1eb2 423e ca94 4cbe 2bd7 71be 43e2 a13d
000003d0: bf04 61be 8d74 853d 5d16 3dbe 8352 a03f
000003e0: ad9e 59be 2969 0d3c 13ca 1c3d f8b0 38bf
000003f0: a926 c53c 7eab c43c 5bc1 963c 5f7c b239
0.0391279 -0.3228034 -0.50358397 -0.11116002 0.032804113 -0.3341282 -0.14613827 0.0009381091
0.04732768 -0.18717366 -0.2294154 -0.2892596 0.07027663 -0.066313736 -0.22656395 -0.055225376
-0.16553959 0.19838089 -0.008316041 0.023478836 -0.38030612 0.016673356 0.00937852 0.009272933
-0.2653192 -0.054354835 0.01142872 0.009360948 0.090962015 -0.25856334 0.36364824 -0.04928309
0.10802944 0.0034543304 -0.19186732 0.13112022 0.0008175689 -0.21844693 -0.27699545 -0.019584976
0.0046360344 -0.34537148 0.014486819 0.019493904 0.15995099 -0.105991066 -0.0009866491 -0.008998048
0.0027567225 -0.022437228 -0.57671237 0.12859899 0.031197915 -0.15379015 0.05260912 -0.012316251
0.022624083 -0.00033554542 -0.4603137 -0.1829131 0.03171486 0.01080956 -0.3086695 0.8376884
-0.28417128 -0.115389876 0.01010387 -0.014519538 -0.55512196 -0.18491545 -0.108516544 0.0173982
-0.12254558 0.060969356 -0.006975033 -0.21948169 -0.035451043 -0.18989277 0.023612758 -0.4020653
0.010978839 -0.014918892 0.021305759 -0.03510668 0.014277033 0.04172367 0.101698905 -0.0016338429
-0.067365006 -0.023681514 -0.20418377 0.18939045 0.0018174209 -0.21441565 0.00934708 0.024729762
0.009011383 0.0068354867 -0.15102237 -0.19001842 -0.0015396322 0.006970812 0.02585296 0.019785834
0.009213544 -0.011770872 0.0016298037 0.011355793 0.0005100015 0.11177458 -0.046009604 0.013007182
-0.15537399 0.008170648 -0.24787085 -0.23535424 0.023107708 -0.0057149273 -0.0046537975 0.6481137
-0.1028432 -0.057495665 -0.3706238 0.007360289 -0.49340773 -0.011374766 -0.013487569 0.04641776
-0.13868335 0.10383383 0.058148846 0.02923688 -0.04421405 -0.0035640902 0.051515803 0.009230765
-0.005624232 -0.010858216 -0.5633006 -0.576005 -0.020432154 -0.4552688 0.0047722417 -0.0031627323
0.01271778 0.08549736 0.005938362 -0.5806509 -0.054174963 -0.39659727 0.115189984 -0.018685294
-0.13675249 0.17306048 -0.17337655 0.1315089 -0.040798556 -0.074613824 0.0432574 0.02706595
0.033283096 0.872993 0.008197979 -0.04769466 0.1063872 -0.2895616 0.0023679493 -0.0035315577
0.08324493 -0.010295844 0.38222227 -0.045614246 0.00077334896 -0.08844564 -0.4554889 0.06900152
0.023423344 -0.2539672 0.25909618 -0.008800522 0.014359505 -0.46069196 -0.08307111 0.34116158
-0.035251904 0.10105784 -0.24988945 -0.1874386 0.024663594 0.4068978 0.014177497 -0.21812762
-0.47476208 -0.31463256 0.019930687 0.04079219 0.54965216 -0.008288654 0.024259644 0.009615618
0.48687255 0.45810843 -0.2828369 -0.057846416 -0.18205296 -0.0875224 0.1400043 0.014586201
0.081983015 -0.0064683696 0.008547272 -0.03563872 -0.10242446 -0.004125171 -0.11734751 -0.005264203
-0.19640583 0.007408084 0.012070492 0.06123576 -0.048498936 -0.51558226 -0.015226001 0.088802725
0.0556127 -0.24315287 -0.23111618 0.014359312 0.11076292 0.0052299947 -0.00273292 0.11190194
-0.23329073 -0.32364503 -0.0004973975 0.00503924 -0.435892 0.1167199 -0.2931243 -0.47163564
0.19013259 -0.19978634 -0.23617236 0.07904484 -0.21974467 0.06516371 -0.18465562 1.252518
-0.21251936 0.008631029 0.03827865 -0.7214503 0.024066286 0.024007555 0.018402746 0.0003404347
