notebook/result/weights/sac_snapbot/episode_850.pth (torch, 355440 bytes, 8 tensors)

parameters.mlp_0_b f4 [256]
000000 70 4c 9d 3d 24 4c 34 be fd d7 76 3d 01 a5 dd bd
       0.07680595 -0.1760717 0.060264576 -0.108224876
000010 34 72 b0 3e 54 99 83 be 7f 7c 98 be a3 e7 1c be
       0.3446213 -0.25702918 -0.29782483 -0.15322737
000020 53 be 65 be 9f 8c 85 bd bc 7f ee 3d a3 a6 f3 bd
       -0.22435884 -0.06520962 0.11645457 -0.11897018
000030 d4 5a bb bd 10 2b b3 3d 12 54 c3 bd c6 06 08 3f
       -0.091481835 0.08748448 -0.095375195 0.53135335
000040 b9 f0 1a be a5 50 a1 be 7d 06 09 be 2e a1 02 be
       -0.15130891 -0.3150684 -0.13381381 -0.12756798
000050 a9 a6 8c bc 10 22 a7 bd cc 90 39 bd 19 01 3d 3d
       -0.017169314 -0.08160794 -0.045304105 0.046143625
000060 23 3c 61 be db 65 2f bd ee fb b6 3d 70 4d 10 be
       -0.21995597 -0.042821746 0.089347705 -0.1409204
000070 d4 91 3c be b6 d3 9b ba 43 62 4b be 09 fc 84 be
       -0.18415004 -0.0011888656 -0.19861703 -0.25973538
000080 c3 42 17 be c5 50 01 3e 49 86 da bd e8 1d 36 be
       -0.14771561 0.12628467 -0.10670144 -0.17784846
000090 a5 fc 50 bc 55 ec 92 3d 7e b3 c7 bd 03 be ce bd
       -0.012755548 0.07173983 -0.09751032 -0.100948356
0000a0 6c ec 6f be b2 50 9d be 32 ab 06 be a7 d1 5f be
       -0.23430032 -0.30725628 -0.13151243 -0.2185732
0000b0 99 39 a0 bd 32 36 51 3e c4 5b b6 3d 05 4d 45 be
       -0.07823486 0.2043083 0.08904222 -0.19267662
0000c0 57 f7 28 bd 28 98 51 ba fe 5b ed bd ea 8f a7 bd
       -0.041251507 -0.00079953903 -0.11589812 -0.08181746
0000d0 44 ca d7 bd bd 72 7a be bd ef 3b 3e b5 e5 c6 bd
       -0.10536626 -0.24457832 0.18353172 -0.09711782
0000e0 55 c2 18 be b6 f7 9b be 84 15 34 be 5a bd a7 be
       -0.14917882 -0.30462426 -0.17586333 -0.3276165
0000f0 c9 21 c6 bd 56 a4 a6 bd ca 52 b7 bd ed eb 34 be
       -0.09674413 -0.08136813 -0.08951338 -0.17668124
000100 01 42 be bd 25 57 c1 be 9e c2 e9 bd ad 29 d5 3d
       -0.09289933 -0.37761799 -0.114140734 0.1040834
000110 59 ba 90 be 8e 09 b8 be 95 d3 dd 3d e1 ec 61 be
       -0.28267172 -0.3594479 0.10831372 -0.22063018
000120 d9 a6 35 be 9c 94 92 bc f3 f3 cb bd 69 d0 a3 bd
       -0.17739429 -0.017893128 -0.09958639 -0.079987355
000130 ac 6a 6f 3d 5c c2 00 be 00 2f 79 bd 8f 5a a3 be
       0.05845134 -0.12574142 -0.06083584 -0.31905028
000140 68 55 1f be d3 4c 98 bd 1c 42 51 bd 2b 9d 0f be
       -0.15559924 -0.07436528 -0.051088437 -0.14024799
000150 e5 bc 1a bc 23 8d 92 be 50 bb 76 be 94 12 4a be
       -0.00944445 -0.28623304 -0.24094892 -0.1973365
000160 9f b2 a1 3c 80 12 83 3e 92 79 a9 bd a0 50 17 3e
       0.019738493 0.25600052 -0.08275141 0.1477685
000170 15 5c 04 3d d5 08 7f bc 6b f9 ec bd 58 88 99 be
       0.03231438 -0.015566071 -0.1157101 -0.29986835
000180 bf 07 98 bd ed 96 45 bd 6e a8 24 be 76 0a 13 be
       -0.074233525 -0.048239637 -0.16079876 -0.1435946
000190 0a 02 9b bd a2 b9 e9 bc 25 9b 01 bd 45 d9 1f be
       -0.07568748 -0.0285309 -0.031642098 -0.15610225
0001a0 ab 73 99 be 38 64 03 be 95 04 49 be a3 ed b2 3e
       -0.2997106 -0.12831199 -0.19630654 0.34946927
0001b0 85 90 91 be 68 24 22 be f5 ae 4e be ff 1e 05 bd
       -0.28430572 -0.158342 -0.20183928 -0.032500263
0001c0 0d 9c 2a be 21 24 2d be 95 43 48 3e 56 bf 2e be
       -0.16661091 -0.16908313 0.1955703 -0.17065176
0001d0 0e db e6 bc ff 92 d7 bd 43 17 2d 3e 28 71 7f be
       -0.028180625 -0.10526084 0.16903405 -0.2494551
0001e0 e1 ca 0c 3e 6a 62 86 be 36 86 0b be 64 ee 8e 3e
       0.13749267 -0.2624696 -0.13625416 0.27916253
0001f0 75 5b ad 3c 41 b7 53 3c 54 a5 a2 bd 32 56 95 bd
       0.021161774 0.012922109 -0.0794169 -0.07291831
000200 88 7a 30 be f9 be d4 3d 7e 1c df bd 3c 2e 9b bd
       -0.17234242 0.10387988 -0.10894106 -0.07577178
000210 3e dc a8 be 77 73 95 be 44 bb fd bd f8 30 23 3d
       -0.3298053 -0.29189655 -0.12389234 0.039841622
000220 73 08 f0 3e 8e 0d 31 be d4 3c 4a be 7c 7b f8 bc
       0.46881446 -0.17290327 -0.19749767 -0.03033232
000230 d4 07 64 bd e1 df 8b 3c 29 f0 e3 bd 90 ff 39 be
       -0.055671528 0.017074527 -0.11129791 -0.18163896
000240 c6 4f 8d be 98 df 9f 3c 87 8d 3c be 46 d7 a0 be
       -0.27599925 0.019515797 -0.18413363 -0.3141424
000250 6c 66 59 be 7f 76 58 be ba cf 81 bd ad f4 7c be
       -0.21230477 -0.21138953 -0.06338449 -0.24702711
000260 fa 9f 55 be ae c4 92 be 05 d8 12 3c 67 d5 31 3e
       -0.20861807 -0.2866568 0.008962636 0.17366563
000270 6e 00 8a be c4 6f 17 be eb 24 7d be 02 20 6b be
       -0.26953453 -0.14788729 -0.24721114 -0.22961429
000280 3f a9 4a bc 51 b3 9f bd 2a 7f 9b be 26 4f 01 be
       -0.012369453 -0.07797874 -0.30370456 -0.12627849
000290 9a 44 f9 bd 3f 7b 4c be c4 c5 61 3e 3d 3a d5 bd
       -0.12171288 -0.1996889 0.22048098 -0.10411499
0002a0 b6 bb 98 be a2 99 7a be b3 e2 7c bc 43 c6 94 3c
       -0.29830712 -0.24472669 -0.015434909 0.018160945
0002b0 56 45 71 3d af 18 9d bd ba cf 33 bd ad 92 a9 bd
       0.058904015 -0.07670724 -0.043899275 -0.08279929
0002c0 30 14 98 3c 00 db 64 3e 8b b7 3e be e8 b2 49 be
       0.018564314 0.22349167 -0.18624704 -0.19697154
0002d0 f0 65 27 be c9 68 a1 be 15 93 75 be 66 5c 19 be
       -0.1634748 -0.31525257 -0.23981889 -0.14976653
0002e0 ed ae 4e be b1 7a 27 be 7c eb 3c be 6b 95 aa bd
       -0.20183916 -0.16355397 -0.18449205 -0.083292805
0002f0 40 35 c0 ba 8c 6b 04 3e ba 62 5e be 05 f2 64 bd
       -0.0014664307 0.12931651 -0.21717349 -0.05589487
000300 f5 fe 4b bd d1 13 95 3d d6 27 88 3e 41 bd 92 bb
       -0.049803693 0.0727917 0.26592892 -0.004478127
000310 f8 e2 c4 bd 69 13 ba 3d dc 13 f8 bd a6 5e c9 3d
       -0.09613603 0.090857334 -0.12113163 0.09832506
000320 30 f6 55 3e b7 d1 84 be 83 80 80 bd 55 ba fa 3b
       0.20894694 -0.2594125 -0.06274512 0.007651607
000330 b0 b4 b4 bd 00 fe 1e bd ab 49 8f 3d dc 30 2c be
       -0.08823526 -0.038816452 0.06996473 -0.16815513
000340 72 cb 44 be c1 4d 32 be bb 5c e3 bd af 50 37 bd
       -0.19218233 -0.17412473 -0.11101671 -0.04475468
000350 e4 d4 31 3f 41 a1 86 be d5 29 8b bc 87 47 f6 3e
       0.6946547 -0.26294902 -0.01698772 0.48101446
000360 93 b2 ef bd 88 dd 02 3e 2e c0 69 be d2 25 31 be
       -0.11703982 0.1277982 -0.22827217 -0.17299584
000370 53 30 6a be b8 2d 5b be 3f f3 0c 3e 9a 85 0a be
       -0.22869997 -0.21404159 0.13764666 -0.13527527
000380 9c 3a 63 be 3f e1 b0 bd f4 4a 69 bd 7f 18 a7 bd
       -0.22190326 -0.08636712 -0.056956246 -0.08158969
000390 67 b3 82 be a6 80 24 bd 69 c4 18 3e e7 3f 29 3f
       -0.25527498 -0.04016175 0.14918675 0.6611313
0003a0 60 d2 15 be 61 55 7e 3e f2 b8 f0 bc 89 50 4e be
       -0.14631033 0.24837257 -0.029385064 -0.20147909
0003b0 97 83 ff bd 34 56 c2 3d 08 c1 2e be a0 5e 07 be
       -0.12476271 0.09489098 -0.17065823 -0.1321969
0003c0 d5 f9 10 3e 4c dd be 3e 8d a2 46 be 29 57 1d be
       0.14157803 0.3727821 -0.19397946 -0.1536528
0003d0 ac a9 2c 3e 15 bd e7 bd fc 16 03 be f4 c2 87 3d
       0.168616 -0.113153614 -0.12801737 0.06628981
0003e0 56 bf 51 3e 4a 44 71 be 5f 02 fa 3c 07 8b 67 bd
       0.20483145 -0.23561206 0.030518709 -0.05652907
0003f0 66 97 86 3d 15 20 62 3e cb 39 03 bd 6f 7a 17 be
       0.06571846 0.22082551 -0.032037538 -0.14792798

parameters.mlp_0_w f4 [256, 70]
000000 b4 85 9e bd b0 e1 39 3c 72 4c 25 be 9f e5 5b bf
       -0.077403456 0.011345312 -0.16142443 -0.8589725
000010 5e 03 7d 3c 8a 2f 22 3d 30 de de 3a 8e 6c a2 3e
       0.015442697 0.039596118 0.0017003473 0.31723446
000020 d7 9b b3 3d dc 2c 94 3c 22 6d 48 be b8 4d 81 bf
       0.087699585 0.018087797 -0.19572881 -1.0101843
000030 dd d0 85 bb 5d 49 f6 3c 8c 77 1d 3e e8 0d eb 3e
       -0.0040837363 0.03006428 0.15377635 0.45909047
000040 26 90 71 be 82 1a 6f 3e 6c 14 e5 3e 34 d9 7e be
       -0.23590145 0.23349956 0.44742143 -0.24887544
000050 1a 62 18 be 85 ab 8b bf c0 c2 23 bf 6b e7 56 3f
       -0.14881173 -1.0911719 -0.6396904 0.83946866
000060 49 c3 0d 3d a8 1b 59 bd ec 74 a2 3f 7c 0c 30 3d
       0.034610067 -0.05300489 1.2691932 0.042980656
000070 74 d3 53 bd 69 b0 4a 3d 23 44 37 3d ba 80 04 3e
       -0.05171533 0.049484644 0.044742715 0.1293973
000080 5c 17 ce 3b b0 12 f7 3d 7c 05 b5 3c 82 2e b7 bd
       0.0062894057 0.12064111 0.022097342 -0.089444175
000090 5b ae 32 3e a1 63 0c be 54 c6 87 be 27 c5 82 3e
       0.17449324 -0.1370988 -0.265185 0.2554104
0000a0 4d c1 60 be 8f 67 11 be d5 b0 e8 3d 24 fe 9a bd
       -0.21948738 -0.1419966 0.11361853 -0.07568005
0000b0 e4 3b 96 be 9b 30 0a 3d 11 de c8 be 6a ed 18 3e
       -0.29342568 0.03373776 -0.39231923 0.14934316
0000c0 38 2b 45 3e fc a3 01 bc a7 e9 3f 3e 5d 83 e0 3a
       0.19254768 -0.007912632 0.18741475 0.0017128993
0000d0 c6 8e 8f bd a5 71 0b bf 6d ae 93 3d 62 3c ae 3b
       -0.07009654 -0.5447028 0.072110035 0.005317257
0000e0 ce 8d 7c 3e 8b 22 2e 3e 4b 02 af 3d b8 cc 4f 3d
       0.24663469 0.17005365 0.08545359 0.050732344
0000f0 4e bc da 3e 32 f5 85 3f 99 ce fc bc 61 cd 9e 3d
       0.4272179 1.0465453 -0.030860232 0.07754017
000100 26 c6 11 3d b2 8b 09 be 12 38 82 3e 8b 8b c0 bd
       0.03558936 -0.13432196 0.25433403 -0.09401616
000110 9e 58 a0 bd 0b 14 2d bd 6c 7f eb be ae 11 5e 3d
       -0.078294024 -0.042255443 -0.45995653 0.05421608
000120 7a e7 26 be c3 33 a7 3e c0 b1 eb bc e2 bc 8e be
       -0.16299239 0.3265668 -0.028771281 -0.2787848
000130 76 e4 90 3e 8b 9d 32 3d 49 c3 c3 be f9 a9 8a bd
       0.28299302 0.043607276 -0.38234928 -0.06770701
000140 af 59 b4 bd 11 0d 56 3e 4f ee 0d bd f6 fd b5 be
       -0.08806168 0.20903422 -0.034651097 -0.3554532
000150 ec 6c 4e 3e ba ca a3 bd 23 4b bd 3b aa 76 10 3e
       0.20158738 -0.079976514 0.0057767793 0.14107767
000160 62 4b 87 bf 77 8c 27 3d 8d ca 3f 3d ab e5 bb be
       -1.056988 0.040905442 0.046824027 -0.3669866
000170 bc 03 5b 3f 8f 70 56 3d 6c 63 96 be e8 15 c5 3e
       0.85552573 0.052353438 -0.29372728 0.38493276
000180 19 bb d8 3d 5d cb 04 be c3 ac 9e 3d 7b 46 95 be
       0.10582561 -0.12968202 0.077477954 -0.29155335
000190 29 78 2b 3d 8c a4 b1 be f9 05 d0 3d 60 e7 7e be
       0.04186264 -0.34695852 0.10157389 -0.2489295
0001a0 bb 11 c4 be 5b f5 bf 3e da 53 23 bd 7c 12 b2 3d
       -0.38294777 0.3749188 -0.03987489 0.08694932
0001b0 62 f5 09 3e 2a 7b 06 3d f0 a7 18 be de 24 3c be
       0.13472512 0.032832302 -0.14907813 -0.18373439
0001c0 c9 22 df 3d 53 1f 2c 3b 6b 86 5c bd c3 1a 30 bd
       0.108953066 0.0026263788 -0.05383913 -0.042994272
0001d0 ed 43 a0 3e 59 b0 75 bd 73 1f df 3b af 36 41 3d
       0.31301823 -0.05998263 0.006809169 0.04717129
0001e0 3f 01 66 bd 54 6a b2 bb 94 79 b7 3d 54 c0 7e be
       -0.056153532 -0.005444804 0.08958736 -0.24878055
0001f0 fe b0 19 be 75 fc 90 bb c5 35 ef be 3e 4c 3a 3d
       -0.15008923 -0.0044246265 -0.4672071 0.045482866
000200 f8 24 e7 bb e7 33 b7 be 36 54 10 be 22 15 71 3e
       -0.0070539676 -0.35781786 -0.14094624 0.23543218
000210 87 a1 10 be 04 b9 d5 bc 2b f6 86 bd db 1e 7d 3d
       -0.14124118 -0.026089199 -0.065899216 0.061797004
000220 00 33 e6 3d 55 78 d3 3c c3 b2 bb 3d 62 7b ac bc
       0.11240196 0.025814215 0.091649555 -0.021054927
000230 06 ed 36 be 2f 1d df 3e f8 13 67 be 9c c0 96 3e
       -0.17863855 0.43576953 -0.22566211 0.29443824
000240 a1 a5 97 be fc 54 ff 3c 74 68 0f 3f f3 84 16 be
       -0.29618552 0.031168453 0.5601876 -0.14699154
000250 4c 39 36 3e e1 a3 12 3f b5 61 79 be f7 05 1b be
       0.17795295 0.5728131 -0.24353679 -0.15138994
000260 8d 54 89 be 43 21 12 3e fc 83 b6 3d 9f 41 c3 be
       -0.2682232 0.14270501 0.08911893 -0.38136002
000270 8e ad ce bd 3f 7b 34 3f b6 24 7f 3f f8 09 2d bf
       -0.10091697 0.7050056 0.9966539 -0.67593336
000280 0b 77 4b bd 98 3a c5 bd 54 2b a7 bf 76 22 bc 3d
       -0.049674075 -0.096303165 -1.3060098 0.091862604
000290 49 46 21 bd 3b 53 69 3f 62 09 da be 3b 51 59 bd
       -0.03937367 0.91142625 -0.42585284 -0.053055983
0002a0 05 3e e5 bc f6 9a 3a bc a0 e3 08 bd c3 97 04 be
       -0.027983675 -0.011389485 -0.033420205 -0.12948518
0002b0 f4 64 ab 3e d1 f0 c5 bc 9e 5e ea 3d a5 bc ac be
       0.3347546 -0.024162682 0.11443828 -0.33737674
0002c0 72 ae 58 3e a5 93 94 bd 19 f6 6d 3e bb 2d 79 3d
       0.21160296 -0.072547235 0.2323841 0.060834628
0002d0 45 6a e9 bb 5f e7 25 be 51 98 84 bd 12 12 ee bd
       -0.007123264 -0.16201542 -0.064743645 -0.116245404
0002e0 d0 29 c5 be 10 34 4e be 51 7c 3d 3e c7 be 29 bc
       -0.38508463 -0.20137048 0.18504454 -0.010360426
0002f0 03 e0 88 be ce ab d8 3d 23 02 b4 bd 6c 65 a3 bd
       -0.26733407 0.10579644 -0.0878947 -0.07978329
000300 37 5c b4 3e 1b 9f 07 be bd 8c 9a be 60 74 bc bd
       0.35226604 -0.13244288 -0.301855 -0.09201884
000310 92 47 07 be 2c b0 35 be 89 3c 8d 3e 5e 9d 16 be
       -0.13210896 -0.17742985 0.27585247 -0.14708468
000320 8e e6 5f 3e c3 cc 17 bf 41 fc b4 bd cb 13 72 bc
       0.21865293 -0.59296817 -0.08837176 -0.014775227
000330 4d 63 a4 bc 9c 07 b1 3d 53 8d c5 be eb ca fc bd
       -0.020066882 0.086440295 -0.38584384 -0.12343391
000340 e1 7b bb bd 0d 3b 45 3e 31 78 03 bf 87 d5 70 3e
       -0.091544874 0.19260807 -0.5135527 0.23518954
000350 5a 46 61 bd 74 6b d6 bd e0 c7 dc be bf 26 0b bf
       -0.054998733 -0.10469714 -0.43121243 -0.54355997
000360 b6 10 aa 3e 11 6b ee 3e bf 87 b4 bd 86 44 53 be
       0.33215874 0.4656606 -0.08814954 -0.20631608
000370 ea af 9b bd ec b9 47 be 62 58 09 be 49 a2 82 bf
       -0.07601912 -0.19504517 -0.13412622 -1.0205775
000380 39 e5 a6 3d fd e9 17 3f 83 aa 39 3e 0c d9 ab 3d
       0.081491895 0.5934141 0.18131451 0.08391008
000390 7b eb a1 3d 42 07 3a 3d 9a e3 9c 3d dd 68 07 3f
       0.079062425 0.045417078 0.07660599 0.52894384
0003a0 86 b0 30 be cf 6c b5 be 6f c9 33 bc 27 05 2d be
       -0.17254838 -0.35434577 -0.0109733185 -0.16896497
0003b0 dc b3 6b bf bd 22 31 bd 73 ab da bb 79 55 f2 3d
       -0.9207132 -0.04324602 -0.0066732704 0.11832709
0003c0 25 3a ea 3c cd c7 75 3e fd 91 cb be 0c 58 1c bf
       0.028592179 0.24001999 -0.39759818 -0.6107185
0003d0 5c 93 1c 3e 3b c4 15 3e b6 35 30 3c 1f aa 68 3d
       0.15290588 0.14625637 0.010754993 0.056802865
0003e0 fb 78 ba bd 4f dd 13 be d8 4e 34 be b5 fb f1 3d
       -0.091051064 -0.14439891 -0.17608202 0.118155874
0003f0 21 da b6 3e 6b 48 fc 3d 85 f6 96 3d e8 0c 27 be
       0.35713294 0.123185 0.073712386 -0.16313517

parameters.mlp_1_b f4 [256]
000000 c0 d0 1c 3e 59 95 d6 3e d8 61 ef 3e aa 67 a5 3d
       0.15314007 0.41910818 0.46754336 0.08076413
000010 c1 89 2b 3c 95 f4 ca 3e 59 b0 b7 3d 21 77 c4 3e
       0.010469855 0.39639726 0.089691825 0.38372138
000020 16 1c 13 3c 3d 92 a5 3e 7e 2e f2 3d a8 c2 4a 3e
       0.008978864 0.32338133 0.11825274 0.19800818
000030 99 6c e8 bd fd ce e6 3d cc ff e9 3e 3d 24 30 3e
       -0.11348838 0.11269949 0.4570297 0.17201324
000040 c6 bb 27 3e cc 82 cb 3d 44 98 aa bc 31 8b 89 3c
       0.16380224 0.09937057 -0.020824559 0.016790004
000050 4a 88 97 3e d5 e9 79 3c 7f e7 9d 3c 6e 04 d8 bc
       0.29596168 0.015253504 0.019275425 -0.0263693
000060 a3 42 07 3d e4 cb 09 3e e6 d4 92 bc 4e 29 d9 bc
       0.033022534 0.13456684 -0.017923784 -0.026508953
000070 d1 8a aa 3d 06 e7 ba bc b6 7f 83 3e f2 37 66 3b
       0.083272584 -0.022815239 0.25683373 0.003512856
000080 9a 17 2a bd 8d 8b cb 3e b8 1e 82 3e 61 3d 84 3e
       -0.041526414 0.39754906 0.25414062 0.25828078
000090 26 2a 47 bc 7d ac 64 3e c0 ad cf 3d 47 68 7a bc
       -0.012156045 0.22331424 0.10140562 -0.015283651
0000a0 72 60 4e bc d6 91 f1 3e 3d f8 98 bc da 51 4f 3d
       -0.012596237 0.47181576 -0.018673057 0.05061517
0000b0 3c ca 0b 3e a2 3b e9 3d 49 c3 8d bc 81 fc 08 3e
       0.13651365 0.11388327 -0.017305033 0.13377573
0000c0 e2 ad 6d bc 2f b3 5f 3d c7 9d bc bd 09 56 6e 3e
       -0.014506789 0.054614242 -0.09209781 0.23275007
0000d0 2f 71 46 3e 79 5e 31 3e 8c 0a 90 3c c1 76 18 bd
       0.19379114 0.17321195 0.017583154 -0.037222628
0000e0 0c 27 86 bc 1b 0a 9d bc 5c 05 85 39 56 8e 55 3e
       -0.01637604 -0.019169858 0.0002537173 0.20855078
0000f0 84 fe b1 bb a7 8a f4 bc 1e c2 1b 3e 84 de 93 3d
       -0.005431952 -0.02985127 0.15210769 0.07220176
000100 a1 a5 b1 bd e9 9b 9b 3e b1 61 e9 bc 17 16 9e bc
       -0.08674169 0.30392388 -0.028488966 -0.019297643
000110 24 9c 28 3e 04 92 0c be 86 74 6c 3d b0 03 80 bc
       0.16465813 -0.13727576 0.057728313 -0.015626758
000120 68 58 b6 3e b0 6b 9c 3e 71 c4 83 bc a9 ff 07 3e
       0.35614324 0.3055091 -0.016084881 0.1328112
000130 03 e6 94 bd 31 d7 b0 3e 76 42 f1 bd 3c 6f 52 3d
       -0.07270434 0.34539178 -0.117802545 0.051375613
000140 8b e8 dd 3c af 63 51 3e 43 b8 3f bc 60 b8 21 3e
       0.027088424 0.20448183 -0.011701646 0.1579299
000150 d8 a1 a8 bc ce 62 51 3d 82 47 c3 3e 78 b5 24 3e
       -0.020584986 0.051119618 0.38140494 0.1608485
000160 1d dd 47 3e 9c 59 14 bc 53 1e 3f 3d 35 25 17 3f
       0.19517942 -0.009054568 0.04665978 0.5904115
000170 58 4f 38 bc e7 24 d9 3e cd 07 80 3d 88 f2 1d 3c
       -0.011249386 0.42410967 0.06251488 0.0096403435
000180 59 f8 c0 bc 9e 5c f3 bc e9 e0 36 3e 90 cd 80 bd
       -0.023555921 -0.02970725 0.17859234 -0.06289208
000190 a7 27 f8 bc c0 f1 d5 bc 52 fd ba bc 0f a7 04 bd
       -0.030292345 -0.026116252 -0.02282587 -0.032385882
0001a0 6d 12 5b bc f4 b7 8a 3c a8 eb 97 bc 40 85 0e bd
       -0.013371092 0.016933419 -0.018544987 -0.034795046
0001b0 d3 25 c0 bc af 71 85 bc 6d a0 59 3e 56 60 d1 bb
       -0.023455536 -0.01628956 0.21252604 -0.006389658
0001c0 8c 3f 0a 3f c1 9b 64 3d 4b 49 e0 3e ea a5 8b 3e
       0.54003215 0.0558126 0.43805918 0.2727502
0001d0 64 dc 06 bd 1e e8 91 bc 6f 44 73 bc e0 8f 37 3e
       -0.032925025 -0.017810877 -0.014847859 0.17925978
0001e0 d6 b8 db 3d c2 0b f8 3e 59 69 87 3e de 2c af bc
       0.10728614 0.4844647 0.2644756 -0.021383699
0001f0 aa ee ec 3e 3d 88 83 3e b1 31 40 3e 64 e0 7b 3e
       0.46275836 0.2568988 0.18768956 0.24597317
000200 2b c5 1c 3e 68 df a1 3e b5 b7 95 3d 2a 3e 8a 3c
       0.15309589 0.31615758 0.0731043 0.016875345
000210 9b 16 17 3e d7 f4 47 bd c3 ef 38 3d 04 7b ef bc
       0.14754717 -0.04881748 0.04515053 -0.029233463
000220 c4 ba 89 bc b1 40 9e bc 1e c1 3d be d0 20 52 be
       -0.01681269 -0.019317957 -0.185307 -0.2052033
000230 d4 86 c9 bc 80 58 72 3e ee a8 03 bd 6d dd 97 bc
       -0.024600424 0.23666573 -0.032143526 -0.018538201
000240 90 ef f5 bc a7 7d cd 3d 0d 7d c1 bc ba 9d c6 3e
       -0.030021459 0.10033732 -0.0236192 0.3879221
000250 c9 4d a2 3e 12 03 99 3e b2 56 ce 3e 63 e6 9d bc
       0.3169997 0.29885155 0.40300518 -0.019274896
000260 a2 62 10 3e 26 5a 4c 3e 7e ae cb bc a1 b7 18 3e
       0.14100125 0.19956264 -0.024863478 0.14913799
000270 d6 6d 22 3e 3b 62 79 3e cd 12 3f 3e dc aa 7f 3d
       0.15862212 0.24353878 0.18659516 0.062418804
000280 e9 7f 07 3d de c7 79 3d 8c c3 b8 bc 49 59 18 bd
       0.03308097 0.060981624 -0.022554182 -0.037194524
000290 7d 19 a3 3e 69 37 fe 3e fa 18 79 3d 43 44 86 bc
       0.31855384 0.4965165 0.060814835 -0.016389972
0002a0 9d ed 32 3e 78 fc 69 bc 64 f9 51 be ff b3 5b 3e
       0.17473455 -0.014281385 -0.20505291 0.21455382
0002b0 ba 03 05 bd c3 34 04 3e 93 75 8f 3e 84 62 c3 3c
       -0.032474257 0.12910752 0.2801939 0.023850687
0002c0 9d 30 3d 3d 28 e7 b2 3e e3 cf 41 3e bd f5 bc bc
       0.04618894 0.34941983 0.18926959 -0.023066396
0002d0 14 d4 c5 bc 08 64 9e 3e 58 37 6d 3e d4 81 a0 bc
       -0.024148978 0.30935693 0.23165643 -0.019593157
0002e0 d6 b3 6c 3e 44 dd 2d be b5 37 5f 3e 3d e9 21 3d
       0.23115477 -0.16978937 0.21798594 0.039529074
0002f0 56 f3 90 3c 5a 68 3d be a4 74 c9 bc 78 f4 d1 3e
       0.017694157 -0.18496838 -0.024591751 0.41006827
000300 12 88 da bd 46 03 92 3c 56 a0 9c bc 1f 3a e6 3d
       -0.106704846 0.017823827 -0.019119423 0.112415545
000310 db 5c 47 3e 8e 13 4b 3e 2f ec 98 3e ee 06 a6 bc
       0.19469015 0.19831678 0.29867694 -0.020266976
000320 9a f8 f5 bd e0 6e 8a 3e 07 b3 90 3e cc 86 90 3c
       -0.120103076 0.27037716 0.28261587 0.017642401
000330 a9 49 01 3f 88 17 a7 bd 2c 93 a9 3d 61 84 8d bc
       0.5050302 -0.08158785 0.08280024 -0.017275037
000340 da 88 35 3d 0f 23 68 bc 2a b8 c8 bc 59 09 1c 3e
       0.044319965 -0.014168515 -0.024501879 0.15237941
000350 21 fe c7 3e f1 0c 78 3d 0a bd 83 3d 0b 92 a3 bc
       0.39061072 0.060559217 0.06432541 -0.0199671
000360 1c f6 87 3e 37 18 0a bd 10 bb 1f 3d f2 59 c5 bc
       0.26554954 -0.0337145 0.038996756 -0.02409074
000370 43 6f 7b 3d 1a 65 2f 3e 05 ea 86 bc e1 bf a0 3e
       0.061385404 0.17128411 -0.016469011 0.31396392
000380 f0 d6 cb 3c 3b bb e8 bd 44 24 a5 3e d5 ba c7 3b
       0.024882764 -0.113638364 0.3225423 0.00609527
000390 26 5a e0 3e f9 9c f7 3b e4 45 ec bc ee fd b0 3e
       0.43818778 0.0075565544 -0.02884192 0.34568733
0003a0 26 61 2a 3e 4a ad d7 3e 0d fe 7d bd 7d 89 3e bd
       0.16638622 0.42124397 -0.06200986 -0.046517838
0003b0 49 49 0d be 54 70 de bd f4 45 14 3e f8 c7 93 3c
       -0.13797487 -0.10861269 0.1447981 0.018039688
0003c0 4e 1c 66 3e d1 bc 9d 3e 0f ea ed 3d a9 20 fd bd
       0.22471735 0.30808118 0.11616909 -0.12359745
0003d0 12 12 0b be f2 8b cd bd d4 d8 09 3e 75 a2 d2 3d
       -0.13581112 -0.10036458 0.1346162 0.102848925
0003e0 5d 22 bc 3d 52 a9 7f bc a0 33 95 3e 9b 4e 92 3e
       0.09186242 -0.015604334 0.2914095 0.28575596
0003f0 53 ba b1 bc 98 9e 78 bc f6 e1 e9 bc 03 7b 5c bc
       -0.021695292 -0.01517453 -0.02855013 -0.013457063

parameters.mlp_1_w f4 [256, 256]
000000 f9 de 90 be b5 e2 48 be 9f b4 6b 3d 70 ee 12 bd
       -0.28295115 -0.19617732 0.0575453 -0.035871923
000010 cf 57 e4 bc 86 eb 94 be f9 4f 31 bd 2e 37 d8 be
       -0.027873902 -0.2908594 -0.04328916 -0.422296
000020 14 73 0a bd c2 e5 2d 3e ef 41 00 3f ab a9 75 be
       -0.033801153 0.16982177 0.50100607 -0.23990504
000030 22 e3 1f bf 5b ec d0 bd 17 4a 94 3c f1 36 a4 3e
       -0.6245595 -0.10201331 0.018101735 0.32073167
000040 f5 09 85 3e 5f 54 1e 3e 79 61 b5 bd 56 64 42 be
       0.2598416 0.15461873 -0.08856482 -0.18983588
000050 11 81 a0 3d 98 a0 b9 be ba 1c 8e 3d 86 2b d6 3d
       0.078371175 -0.36255336 0.06939073 0.1045752
000060 3a 8b 11 3d 87 c6 c0 3b b4 80 96 3d 9d 74 11 be
       0.035533167 0.0058830413 0.07348767 -0.1420464
000070 2b a8 1c 3e fb 3f 94 bb e8 56 0e be 7d a3 a0 bd
       0.15298526 -0.0045242286 -0.1390034 -0.07843683
000080 c4 65 d8 3d a1 50 ca be 0f f9 5b 3e b3 6e 39 3e
       0.10566285 -0.3951464 0.21481727 0.18108635
000090 15 df 91 3d 91 f0 07 bd 32 54 cc bd e8 81 9f 3e
       0.07122628 -0.033188406 -0.099769965 0.31153798
0000a0 77 27 a2 bd d6 ac 76 be d4 b4 bc bd 85 78 05 3e
       -0.079176836 -0.24089369 -0.09214178 0.13034256
0000b0 03 cb 64 be bf 29 08 3e f0 e5 db 3e 3f 41 ca bd
       -0.22343068 0.13297175 0.42948866 -0.09875726
0000c0 c1 ee 32 bf e5 65 85 3e d6 93 be 3d 01 17 83 3e
       -0.6989556 0.26054302 0.09305541 0.25603488
0000d0 d8 3f 09 3e 61 39 8e bf ac c5 2d be 5a 21 1c 3e
       0.1340326 -1.1111261 -0.16969937 0.15247098
0000e0 42 ad 4c be 16 84 0c bf 5b c5 b3 3d e6 88 b6 be
       -0.19987968 -0.5488905 0.08777877 -0.3565132
0000f0 2d 12 6b 3e ea 0a 87 3c 0c 54 11 bf 1f 5e 87 3c
       0.22956152 0.016484696 -0.5676887 0.016524373
000100 8e 95 94 be 67 26 32 bd 32 a2 87 bb 0f 60 76 bf
       -0.2902035 -0.043493655 -0.0041392082 -0.96240324
000110 4c 5b 55 bf 8e df 3b be 22 bd 00 3e c2 09 73 3e
       -0.8334243 -0.18346998 0.12572148 0.23734191
000120 be 2a e8 bd 83 ad 42 be c7 71 4f bd b6 f2 5d 3e
       -0.113362774 -0.19011502 -0.050645616 0.21674618
000130 61 06 82 be d9 7a 5c 3b d1 a7 4d bd ff ac 8a 3e
       -0.25395492 0.003364256 -0.05020887 0.2708511
000140 3b b5 ce 3e f9 2c e6 3d 4b ad 17 3e 29 84 29 3e
       0.40372643 0.112390466 0.148122 0.16554321
000150 87 e7 b2 3d 52 69 f5 3d c4 4f d2 be 92 4d 53 3e
       0.087355666 0.11982979 -0.4107648 0.2063506
000160 08 77 92 3e a8 b8 81 3c 0a b9 0e 3d 65 3c d1 bd
       0.2860644 0.015835121 0.034844436 -0.102165975
000170 7a 7b c0 3e bf 2e 48 3d 54 fb 65 3d f2 a1 ad 3c
       0.37594205 0.048872706 0.05614789 0.021195386
000180 5f 2a b2 bd 44 41 90 3d 0b 65 d0 be dd d5 0c 3c
       -0.08699488 0.070436984 -0.4070209 0.008595911
000190 71 8e 78 be 89 9f 2f 3c 3d 8e 77 bf a7 7f f6 3d
       -0.24273087 0.0107191885 -0.96701413 0.120360665
0001a0 d0 0b 45 3e 0d c6 2a be eb 51 68 3e 01 a4 36 3e
       0.19242787 -0.16677113 0.22687499 0.17836
0001b0 26 35 b8 3d a5 28 3d be 02 c4 8f 3d 29 92 92 3e
       0.08994512 -0.18472536 0.070198074 0.28627136
0001c0 53 b8 27 3e aa 46 8a 3e 00 89 b5 3d 76 9a 1f be
       0.16378908 0.27007037 0.08864021 -0.15586266
0001d0 6f fa 05 bd 33 55 6a be ee 68 c5 3e 82 26 21 bf
       -0.032709535 -0.22884063 0.38556617 -0.62949383
0001e0 bb ab b6 be 7b ca 82 be a4 4b 53 3e e4 d0 99 3e
       -0.35677895 -0.25545105 0.20634323 0.30042183
0001f0 97 e8 a7 3e 09 2e a4 3e 74 17 ba 3e bb d1 24 3e
       0.3279464 0.32066372 0.36346018 0.16095631
000200 5a fd 43 be e9 8e 1a bf e0 a1 b4 3d 75 9f 3f 3e
       -0.19139615 -0.60374314 0.08819938 0.18713172
000210 b1 49 18 3f bf a5 f8 bc 3d 12 b7 be 9d 73 6d be
       0.59487444 -0.030352471 -0.35756102 -0.23188634
000220 5a 52 96 bd 98 18 e5 bc 0f bd 28 be ea f6 ca bd
       -0.07339926 -0.027965829 -0.1647837 -0.09910376
000230 d0 34 bb 3e 12 be 06 be b2 ed 82 be 29 5f 8d 3e
       0.3656373 -0.13158444 -0.25571972 0.27611664
000240 a8 c6 92 be 2d 79 00 3d 46 0a a5 3e d7 54 a9 bd
       -0.28667188 0.031365562 0.322344 -0.08268135
000250 c4 0b 39 b9 4b 90 7c be 25 30 00 be e0 98 17 be
       -0.00017647358 -0.24664418 -0.12518366 -0.14804411
000260 41 f2 ef be cf 84 01 3e 98 60 1c bc eb 12 10 be
       -0.46864513 0.12648319 -0.009544514 -0.14069717
000270 ee 07 10 3d 53 d4 be 3d a8 b8 25 be 97 36 c2 3d
       0.035163812 0.093178414 -0.16183722 0.094830684
000280 22 8c c9 3d 30 7a c3 bd 42 67 fd be c8 03 41 be
       0.09841181 -0.0954479 -0.49492842 -0.18849099
000290 6e 5b a0 3d 0e fa 07 3d 71 fd 86 3c 24 4e 84 3e
       0.07829939 0.033197455 0.016478272 0.25840867
0002a0 22 a0 d3 be ff ae 06 3e d5 4d 27 bf b0 1d d9 be
       -0.4133311 0.13152693 -0.6535314 -0.42405462
0002b0 96 06 b0 3d b2 4a 8d 3c 0c 30 9d 3c dd 1c b6 be
       0.08595006 0.017247532 0.01918795 -0.35568896
0002c0 e7 03 95 be ea de e3 bb 9d f8 87 be db db 9b 3e
       -0.2910454 -0.0069540637 -0.26556864 0.30441174
0002d0 d7 dd 1f 3e a6 91 f0 be b0 e7 01 3e 34 25 39 bc
       0.15611969 -0.4698612 0.12686038 -0.011300374
0002e0 6f d1 c5 bd 35 8b 71 3d 49 c0 c6 be 50 be 7a 3d
       -0.09659087 0.05897065 -0.38818577 0.061216652
0002f0 9a 4c 9a be 08 81 2b 3e 2e ae bf be ba 5c 01 be
       -0.30136567 0.1674844 -0.37437576 -0.12633029
000300 dc e7 02 bf 4d 86 7c be e4 30 25 3d c6 08 0f be
       -0.5113504 -0.24660607 0.04032983 -0.1396819
000310 c1 52 a2 bb 69 72 e1 be 7a e0 53 3d c9 e5 41 be
       -0.0049537127 -0.440326 0.05172775 -0.18935312
000320 ef 52 b9 be 54 30 90 3e 6a 4d 64 bf 5c 36 4e be
       -0.36196086 0.2816187 -0.89180624 -0.20137924
000330 34 a4 ab be df 3d 22 bc 0c 1e 87 3e 3a 86 7e 3d
       -0.33523715 -0.0099024465 0.2639011 0.062139727
000340 c7 07 8f bb 93 7d ec bb f6 70 10 be 10 e5 bd 3c
       -0.004364941 -0.007217118 -0.14105591 0.023180515
000350 b5 6c e3 be a0 34 f2 bc b1 e6 59 be 3a c3 2f bf
       -0.44418874 -0.02956611 -0.21279408 -0.6865727
000360 5b d8 1b 3e 1a 08 70 3e 10 4e 45 3e 4e 21 0d 3d
       0.15219252 0.2344059 0.1926806 0.03445559
000370 7a df cc 3e ae f5 91 3e 36 05 90 bd f5 5a 35 3d
       0.4001425 0.2850775 -0.07032244 0.044276197
000380 ee 89 4d bd 91 08 8b 3a 60 e1 1b 3e 0c ac 3b bf
       -0.050180368 0.0010607411 0.15222692 -0.733094
000390 e8 21 51 be 86 47 da 3d 9e a6 54 be 8b af 98 be
       -0.2042309 0.10658173 -0.20766684 -0.2982143
0003a0 1f d1 8e bd f1 e5 28 3c 56 1b 01 bf b5 fa 29 bd
       -0.069734804 0.010308729 -0.50432336 -0.04149886
0003b0 67 7f 52 bd 0c e5 5d be a5 1b 58 be 46 7d 97 be
       -0.05139103 -0.21669406 -0.21104296 -0.29587764
0003c0 ed 1f 9e 3d f1 d0 5a bd 19 e3 f3 3e 07 bc 50 bd
       0.07720933 -0.05342192 0.476342 -0.050960567
0003d0 b0 62 c0 be 14 0a c6 be ed ad 27 3e 68 20 29 be
       -0.37575293 -0.38679564 0.16374941 -0.16516268
0003e0 27 7c 22 3f 80 2f 6f be 2d 38 d5 be ec e4 10 bf
       0.6347069 -0.23357964 -0.4164442 -0.5659931
0003f0 bc e3 e7 bd c4 ae d5 3d 3d e2 2d b9 5c 30 5b be
       -0.11322734 0.104337245 -0.00016582846 -0.21405166

parameters.mu_b f4 [8]
000000 b4 37 3f be 2d 29 fd 3d 4b 88 29 3e 9c a5 dc bc
       -0.18673593 0.12361369 0.16555898 -0.026934437
000010 20 30 3e bc bd bb 82 bd 79 99 f8 3d a0 4b 0c bc
       -0.011608154 -0.063834645 0.121386476 -0.008562952

parameters.mu_w f4 [8, 256]
000000 9f 5c c9 3e 97 77 aa be 4c db 58 be be 96 6b 3d
       0.39328477 -0.33294365 -0.21177405 0.057516806
000010 50 1a 5f bd 6c 30 50 3e 48 a6 76 3e 01 e4 e8 3d
       -0.054468453 0.20330971 0.24086869 0.11371613
000020 c8 c0 84 bc 73 23 1e be 50 9c 1e 3e e6 38 a0 be
       -0.016205207 -0.1544321 0.15489316 -0.3129341
000030 ee 95 1b bf e0 bb 20 3e 26 89 9c be 0f 3b 6b 3f
       -0.6077565 0.15696669 -0.30573386 0.9188699
000040 ee f2 bb 3e 56 e0 6d 3f 06 71 1c bb 01 87 fe bb
       0.36708778 0.92920434 -0.0023871078 -0.0077675586
000050 d7 b0 70 3d 65 40 9a bc e0 3d 15 bd 95 f7 c7 3c
       0.058762398 -0.018829534 -0.03643596 0.024410048
000060 4d fe 19 3f be b7 86 bd e3 65 ef 3a c1 e3 e7 ba
       0.6015366 -0.06578015 0.0018264618 -0.0017691777
000070 f0 6d 4d bf c4 e1 76 3e 87 f9 31 3f e7 12 3a bf
       -0.80245876 0.2410956 0.69521374 -0.7268509
000080 a0 c8 99 3d 4f d4 84 bf 5b 8b 48 be a8 fc 42 bf
       0.07508969 -1.0377291 -0.1958441 -0.7616677
000090 1d 1c e6 3b 7c 32 36 be f8 5c c8 be 9e 6b ec 3b
       0.0070223943 -0.17792696 -0.3913343 0.0072149774
0000a0 4d 21 07 3c a4 e0 46 be 0e ca 89 3c ea d5 53 bd
       0.008247686 -0.19421631 0.01681998 -0.051717676
0000b0 8a d3 0e 3f 74 d9 6d 3f e3 d8 aa 3c 00 6d 24 3e
       0.55791533 0.9290993 0.020855373 0.16057205
0000c0 f6 2f 08 bb 38 0a 26 bc 4a fd 00 bd b1 8f a0 bd
       -0.002078054 -0.010134272 -0.031491555 -0.07839907
0000d0 aa 20 40 3e 11 03 73 3f dc 20 c2 bb 91 8e 57 bc
       0.1876246 0.94926554 -0.0059243273 -0.013156549
0000e0 a7 bb 18 bd b6 0a 98 3c 58 cc c4 3e b5 90 ec be
       -0.037288334 0.018559795 0.38437152 -0.46204153
0000f0 0b 59 9a bb a2 0c e4 3b 2f e6 1c bf d6 0d 17 3f
       -0.004710322 0.0069595138 -0.6128873 0.59005487
000100 ae cb a9 be f9 56 a2 bc 46 2c d2 3c d0 33 20 bc
       -0.33163208 -0.019816862 0.025655877 -0.009777978
000110 f1 41 2d bf ae 36 81 3e ba 65 75 3e d1 03 91 bb
       -0.67678744 0.2523703 0.23964587 -0.004425504
000120 1c 6c 1a be 05 1f 27 3e b4 92 54 bc 1c 4c 95 3d
       -0.15080303 0.16320427 -0.01297443 0.07289907
000130 d1 49 57 bf 63 7d 00 3e f5 9b 95 3f 89 17 95 3d
       -0.8409701 0.12547831 1.1688219 0.072798796
000140 3e 8e 4c bd 50 16 ca 3e c3 8a fd bc a6 bb d7 be
       -0.04994034 0.39470148 -0.030949956 -0.42135352
000150 bf 2d 8c 3b f1 9e 04 3c a6 c0 4a 3e 36 59 ad 3e
       0.0042779143 0.008094535 0.19800052 0.33857125
000160 68 05 9f bf 4b 35 59 3b 52 a9 35 3f 5c 4f a7 be
       -1.2423525 0.0033143337 0.7096149 -0.32677734
000170 bc a4 f3 3b 68 0e 0a bf 51 a0 bb bc e2 47 3a be
       0.0074354094 -0.5392823 -0.022903593 -0.18191484
000180 59 af 72 bc 40 ff 5d bb 9c c2 08 bd 3c f9 6e 3e
       -0.014812314 -0.0033874065 -0.03338872 0.23337263
000190 d0 52 17 bc ef 6c 1c 3c 49 87 71 bc cc 6a f5 38
       -0.009236053 0.009547456 -0.014741727 0.00011702403
0001a0 86 c0 22 3c 6a 25 62 3d c5 db 47 3b cb 86 bb 3c
       0.0099335965 0.055211462 0.0030495983 0.022891423
0001b0 d9 a8 91 3c 13 f9 bd 3f 84 72 83 bf 55 c7 01 bc
       0.017780708 1.4841636 -1.0269322 -0.00792106
0001c0 eb f9 3d bd cc da 51 bd ee 7d 82 be 37 d9 9a 3d
       -0.04638092 -0.05123405 -0.25486702 0.07560962
0001d0 6e 09 f4 3b b3 90 24 ba e5 96 0c 3c eb 56 09 c0
       0.007447413 -0.00062776654 0.008580898 -2.14593
0001e0 b1 98 39 bf c5 82 5a be 4e 6d 8f bd 04 c1 2f 3c
       -0.72498614 -0.21338947 -0.0700327 0.010727171
0001f0 3c 21 16 3d de 7e 19 bf d9 90 ad be 93 a0 a7 bd
       0.03665279 -0.5995921 -0.33899572 -0.08184924
000200 03 eb 09 bf d3 99 22 bf 23 ec 3a bd 1a 2f c7 ba
       -0.53874224 -0.6351597 -0.045635354 -0.0015196532
000210 bb 42 85 bd 40 16 1b 3b f6 96 d0 38 fa 0a d7 3c
       -0.065068685 0.0023664385 9.9463316e-05 0.026250351
000220 ea ec 16 bb 80 07 89 bc c2 8a b3 3b ad 93 7a 3c
       -0.0023029395 -0.01672721 0.0054791877 0.015293998
000230 ea 27 34 bc 14 3a 9c 3f eb c5 a7 ba 59 94 61 bb
       -0.010995844 1.2205224 -0.0012800073 -0.0034420697
000240 b7 c4 ee 3c 4b 85 66 be e1 77 1b 3c f2 4a 93 bd
       0.029146535 -0.22511785 0.009489031 -0.07192029
000250 00 69 eb be 6b d7 4c 3e cd 29 59 bf cf 90 8e 3c
       -0.45978546 0.2000405 -0.8482941 0.017403034
000260 47 23 68 bd 0d 07 0a 3f c5 31 06 bf af ba 9e 3f
       -0.056674268 0.5391701 -0.5241969 1.2400721
000270 5e 52 c5 be d6 58 06 3e 86 53 92 3e f9 7a b5 be
       -0.38539404 0.13119826 0.28579348 -0.35445383
000280 d9 d9 ba bc 3f 9b 13 40 82 9b 8a 3c 73 a6 60 bd
       -0.022808956 2.3063505 0.016919855 -0.05484624
000290 88 fd a2 3d f6 2c 25 be 6a b3 27 3e 2f 6d c2 3b
       0.079585135 -0.16130432 0.16377035 0.005933426
0002a0 3c 87 48 3f f1 37 1f 3b df cd 84 bd de bf 77 be
       0.7833135 0.0024294818 -0.06484579 -0.24194285
0002b0 21 63 a9 ba 14 3a 21 3e 73 45 97 be 87 ce 36 bc
       -0.001292322 0.15744811 -0.29545173 -0.011157638
0002c0 9c c3 a0 ba be cd d6 3e 87 a9 8c be d5 b5 a0 3c
       -0.0012265327 0.41953844 -0.2747309 0.019617954
0002d0 13 62 9c 3c 9a ed 46 bb d3 07 8b 3f a7 df a3 bc
       0.019089734 -0.0030354024 1.0861763 -0.020004107
0002e0 2b 62 57 be 7f f6 74 bf 77 6d 5e 3e 11 32 49 bd
       -0.21033542 -0.95688623 0.21721445 -0.049120013
0002f0 06 87 b8 bc 5f d0 a2 be dd e7 85 3c 68 09 36 3f
       -0.022525322 -0.317996 0.016345913 0.711081
000300 41 45 9a be 45 5d dd be 26 7b fc bb bf e3 ed bd
       -0.30130962 -0.43235222 -0.00770511 -0.11615705
000310 9d 8d 3a bf 26 1f f3 be be 8c e6 be 4a 1d d2 3b
       -0.72872335 -0.47484702 -0.45029253 0.006412183
000320 11 78 01 3f c2 7f 97 bf 4a 84 e5 3b a2 fb bb be
       0.5057383 -1.1835864 0.0070042955 -0.36715418
000330 79 dc bd be d5 fc b5 3d 71 d6 04 3f 38 8c bc 3b
       -0.3708227 0.088861145 0.5188971 0.00575402
000340 2e 4a c7 be 54 3e 01 bb 56 39 20 3c 8c c4 fc be
       -0.38923782 -0.0019720988 0.009779295 -0.49368703
000350 81 a7 3d bf 34 75 e4 3d 96 0a eb 3d 5b a2 82 bc
       -0.74083716 0.11155167 0.114766285 -0.015946558
000360 88 1d c5 bd 87 ea 37 bd 19 64 e2 bc 13 49 a3 3c
       -0.09624773 -0.044901397 -0.02763562 0.019932305
000370 e8 7b 89 3d b1 98 b6 3d 5b e6 70 bb dc b7 e9 bf
       0.06713086 0.08915842 -0.0036758396 -1.8259234
000380 c6 1e 33 bc 96 91 0c 3e 1b 1c fe bd d0 cf 93 3f
       -0.01093263 0.13727412 -0.124077044 1.1547794
000390 88 c5 04 bf a4 66 ba 3e 7d 1c 19 bc 54 65 0d 3e
       -0.5186391 0.36406434 -0.009345171 0.13808185
0003a0 18 f3 25 be cf cc 1a be 89 1b b1 3c 24 8f 9e bc
       -0.16206014 -0.15117191 0.021619575 -0.019355364
0003b0 e0 de 8d 3e 8e 23 fa 3e f3 5c e1 bd ff 00 10 bf
       0.27709103 0.4885525 -0.11004057 -0.5625152
0003c0 9a 09 c4 3f 1f 72 33 3f 08 fe 8f be dd 91 36 3f
       1.531543 0.7009601 -0.28123498 0.7131632
0003d0 d4 53 20 3f 77 f6 a1 be a9 52 ff 3e a6 77 6a 3e
       0.6262791 -0.3163335 0.49867752 0.22897205
0003e0 68 29 00 3f 94 99 93 3c 7b 94 13 bd a2 a8 30 be
       0.5006318 0.018017568 -0.036030274 -0.17251828
0003f0 fb 16 ba 3a 30 6e 5a bc 69 d0 5d ba 19 3b f5 3b
       0.0014197523 -0.013331935 -0.00084615365 0.0074838516

parameters.std_b f4 [8]
000000 39 22 66 c0 09 0e 68 c0 8f f5 79 c0 2d a4 62 c0
       -3.5958388 -3.6258566 -3.9056127 -3.5412705
000010 ec c0 6a c0 6e 3b 72 c0 98 b5 65 c0 da c0 69 c0
       -3.668025 -3.7848773 -3.5892086 -3.6523957

parameters.std_w f4 [8, 256]
000000 b3 40 c5 3d 89 71 ff bc 34 4a ac be 25 e0 09 bd
       0.09631481 -0.031182067 -0.33650362 -0.033661027
000010 9b 5d 06 3d d0 e8 06 be 43 10 5b bd 6e f2 ea bd
       0.032804113 -0.13174748 -0.053482305 -0.11472021
000020 ab da 41 3d 89 c9 88 be cd d0 8c be 5d f1 96 be
       0.04732768 -0.2671626 -0.27503052 -0.2948102
000030 a2 cb 27 bd 5b ef b1 bd 50 c3 21 be df 98 13 3e
       -0.040965684 -0.086882316 -0.15797162 0.14413784
000040 95 e3 2a be ad cc 43 3e 01 40 08 bc b0 56 c0 3c
       -0.16688378 0.19121046 -0.008316041 0.023478836
000050 d9 cb c7 be 90 96 88 3c 5d a8 19 3c 80 ed 17 3c
       -0.3902271 0.016673356 0.00937852 0.009272933
000060 4a 70 ae bd 99 21 48 3e 87 3f 3b 3c a9 5e 19 3c
       -0.08517511 0.19544066 0.01142872 0.009360948
000070 d0 86 52 bd f6 43 bf be b7 0d 95 3e 5b 8c 30 bd
       -0.0513981 -0.37356538 0.29112026 -0.043102603
000080 8a 3e dd 3d 3c 97 5d 3e 7f 0c ef bd fc 0d d8 3e
       0.10802944 0.21639723 -0.11672305 0.4219817
000090 1f 52 56 3a f2 c9 c7 bd 1a b8 98 bd ac 70 a0 bc
       0.0008175689 -0.09755315 -0.074569896 -0.019584976
0000a0 e0 e9 97 3b fe ef 41 be 1f 5a 6d 3c ae b1 9f 3c
       0.0046360344 -0.18939206 0.014486819 0.019493904
0000b0 9b 5c 59 3b 92 bc 16 3e 73 52 81 ba fc 19 53 bd
       0.003316677 0.14720371 -0.0009866491 -0.051538453
0000c0 21 aa 34 3b 47 ce b7 bc 1e d7 db be 9a 7a 79 3e
       0.0027567225 -0.022437228 -0.4293756 0.24363175
0000d0 eb 3d 1f 3e 73 53 4f be a9 7c 57 3d 1a ca 49 bc
       0.15550964 -0.20246677 0.05260912 -0.012316251
0000e0 24 56 b9 3c 25 ec af b9 fe 8e d1 be 74 ea 87 be
       0.022624083 -0.00033554542 -0.40929407 -0.2654606
0000f0 70 4f 02 3d 95 1a 31 3c 31 46 c9 bd a8 47 13 3f
       0.03181404 0.01080956 -0.09827841 0.57531214
000100 1c 71 17 be a6 34 dc bd b4 8a 25 3c 5b e3 6d bc
       -0.14789242 -0.107522294 0.01010387 -0.014519538
000110 ad e0 b4 be 3d 65 28 be d6 da e1 bd ac 86 8e 3c
       -0.35327664 -0.1644487 -0.11028068 0.0173982
000120 81 31 93 be 8f 9e 1e bd d1 8e e4 bb a0 cb 4f be
       -0.28748706 -0.038725432 -0.006975033 -0.2029252
000130 02 77 b6 3d 10 01 10 be c2 2d 03 3e e7 e5 03 bf
       0.08909418 -0.14062905 0.12810424 -0.5152268
000140 97 e0 33 3c 60 4f 45 be 6a 89 ae 3c a7 02 82 3d
       0.010978839 -0.1926856 0.021305759 0.06348162
000150 37 ea 69 3c 70 e6 2a 3d 32 3b 66 be 25 36 8e 3d
       0.014277033 0.04172367 -0.22483519 0.06943921
000160 8f bb 07 3e bc ff c1 bc 77 39 19 bc 01 44 83 3e
       0.13255142 -0.023681514 -0.00935208 0.2563782
000170 87 36 ee 3a e3 3e 21 be 7f 24 19 3c 19 eb 88 3a
       0.0018174209 -0.15746646 0.00934708 0.0010446041
000180 7b a4 13 3c 1b fb df 3b 58 3a e3 bd d5 69 ef be
       0.009011383 0.006835354 -0.110951126 -0.4676043
000190 7c cd c9 ba 69 6b e4 3b 96 c9 d3 3c e7 15 a2 3c
       -0.0015396322 0.006970812 0.02585296 0.019785834
0001a0 68 f4 16 3c be 99 42 bc 23 9f d5 3a a6 0d 3a 3c
       0.009213544 -0.011877475 0.0016298037 0.011355793
0001b0 9f b1 05 3a f6 28 24 3e 76 7d cd 3c 13 1c 55 3c
       0.0005100015 0.1603125 0.025084238 0.013007182
0001c0 c4 c3 19 be 2e de 05 3c 73 33 fe bd fe 99 05 bd
       -0.15016085 0.008170648 -0.12412157 -0.03261756
0001d0 60 4c bd 3c 49 44 bb bb e2 7e 98 bb d8 5e 55 3f
       0.023107708 -0.0057149273 -0.0046537975 0.83347845
0001e0 08 8d 23 bd 72 19 4d 3e af f6 88 be 94 2e f1 3b
       -0.03992942 0.20029238 -0.26750705 0.007360289
0001f0 f6 2d 0e bf ba ae a7 3c 99 95 9c 3d ce 8e 24 bb
       -0.5553888 0.020469058 0.07645721 -0.0025109532
000200 c0 28 aa bb 7f 27 e8 bc 7b 0e c7 3d 2e 82 ef 3c
       -0.005192846 -0.028339146 0.09719559 0.02923688
000210 0a bf b3 3d 83 93 69 bb 3c 02 53 3d a2 3c 17 3c
       0.08776672 -0.0035640902 0.051515803 0.009230765
000220 7a 4b b8 bb a9 e6 31 bc 44 2a 0e bf 5e 35 2b bf
       -0.005624232 -0.010858216 -0.5553324 -0.66878307
000230 55 61 a7 bc 55 5e 76 be 77 60 9c 3b bd ec 8f bb
       -0.020432154 -0.24059422 0.0047722417 -0.004392235
000240 3c 5e 50 3c 0a 89 89 3e 97 96 c2 3b 09 28 cb be
       0.01271778 0.26862365 0.005938362 -0.39678982
000250 74 9d 26 be 7c e8 53 be c5 30 e4 3d e7 11 99 bc
       -0.16271001 -0.20694155 0.111421145 -0.018685294
000260 90 7b 83 be 50 95 63 3e 22 ee 28 bd 29 f7 8c 3e
       -0.25680208 0.22224927 -0.041242726 0.27532318
000270 c2 34 1c 3e b3 2c 55 3c 2d 79 5e bd cb 43 17 3c
       0.152545 0.013011145 -0.05431478 0.009232472
000280 db 53 08 3d 4a 9c 7c 3f d1 50 06 3c 7a 5b 43 bd
       0.033283096 0.9867598 0.008197979 -0.04769466
000290 94 18 86 bd a0 5b 23 be c1 7f f3 bd b5 71 67 bb
       -0.06547657 -0.15952921 -0.118896015 -0.0035315577
0002a0 ee 30 99 3d e6 af 28 bc 19 ce c3 3e 2f f9 73 be
       0.07480036 -0.010295844 0.38243178 -0.23825525
0002b0 18 bb 4a 3a 67 2a 32 be f6 cc b0 be ab 50 8d 3d
       0.00077335676 -0.17398988 -0.34531373 0.06900152
0002c0 50 e2 bf 3c fb 2d b1 3d 2e 80 4a 3e 11 30 10 bc
       0.023423344 0.08651348 0.19775459 -0.008800522
0002d0 21 44 6b 3c e8 63 d9 be 84 6f a5 3b bb ac ae 3e
       0.014359505 -0.42459035 0.005048694 0.34116158
0002e0 20 a9 bf 3d a9 8d 7b 3e fc 51 8a be 7b a7 6c be
       0.0935843 0.24565758 -0.27015674 -0.23110764
0002f0 4e 0b ca 3c 25 df fa 3e bb 48 68 3c 4e c9 c9 bd
       0.024663594 0.4899837 0.014177497 -0.09852849
000300 1f 1b e7 be eb 7d 33 be ae 45 a3 3c 86 15 60 bd
       -0.4513788 -0.17528503 0.019930687 -0.054708026
000310 1b 4d e7 3e a2 7e dd bc 5b dc 37 3e d3 8a 1d 3c
       0.45176014 -0.027037922 0.17955153 0.009615618
000320 0c 8d f9 3e 45 6e 28 3f 08 df 21 be 75 c0 b1 bd
       0.48740423 0.6579326 -0.15807736 -0.086792864
000330 24 89 95 3d 65 8a 89 be a5 93 ba 3c f6 fa 6e 3c
       0.07301548 -0.268634 0.02277548 0.014586201
000340 7e b7 42 be 9e f4 d3 bb db 09 0c 3c 8e ca 19 3d
       -0.19015309 -0.0064683696 0.008547272 0.037546687
000350 71 1a 87 3d 71 2c 87 bb 2b b6 6b be 56 7f ac bb
       0.0659684 -0.004125171 -0.2301871 -0.005264203
000360 fe 2a b9 3d 83 bf f2 3b 50 c3 45 3c 59 d2 7a 3d
       0.09041403 0.007408084 0.012070492 0.06123576
000370 42 e7 39 3e 64 5a d6 be 7a 76 79 bc fa 15 66 3e
       0.18154624 -0.41865838 -0.015226001 0.22469321
000380 24 ca 63 3d 77 af c6 be 0e 41 d9 be 0b 4a f9 3d
       0.0556127 -0.38805744 -0.42432445 0.12172326
000390 39 94 85 3e c2 39 62 be ca 1a 33 bb 7a c4 c6 3d
       0.26089647 -0.22092345 -0.00273292 0.09705444
0003a0 d8 95 a2 be a3 d2 c2 be 84 f3 02 ba 6d 87 c8 3c
       -0.31754947 -0.38051328 -0.0004995393 0.024478639
0003b0 44 75 d7 be 20 0a ef 3d b5 0e aa be e7 72 1f bf
       -0.42081654 0.11671853 -0.33214346 -0.622847
0003c0 82 60 92 3e 8b a1 43 be d3 68 51 3c a9 95 39 3e
       0.28589255 -0.19104593 0.01278134 0.18123497
0003d0 61 1d cf be 52 f7 a9 3d 50 03 2d be 83 52 a0 3f
       -0.40452102 0.08299126 -0.16895795 1.252518
0003e0 df 82 24 be 29 69 0d 3c bc 02 82 3e cf 76 e1 be
       -0.16065548 0.008631029 0.2539271 -0.44035956
0003f0 a9 26 c5 3c 7e ab c4 3c 5b c1 96 3c 5f 7c b2 39
       0.024066286 0.024007555 0.018402746 0.0003404347
