notebook/result/weights/sac_snapbot/episode_100.pth (torch, 355440 bytes, 8 tensors)

parameters.mlp_0_b f4 [256]
000000 4e 80 c5 3d 6a 9a 7f bd 56 c4 d1 3d 9a bc 4a bd
       0.09643613 -0.06240312 0.10242526 -0.04949627
000010 75 db a5 3e 3e cd 94 3d fb d3 63 bc e0 26 27 3d
       0.32393995 0.07265709 -0.013905521 0.04080856
000020 eb 05 1a bc 31 ce 0d 3e 39 87 98 bd 92 19 04 3c
       -0.009400825 0.13848187 -0.07447667 0.008062737
000030 6a ca c8 3d ca 2e ae 3d 7e 26 2e bd c3 27 dc 3e
       0.098042324 0.08505018 -0.042517178 0.42999086
000040 78 9e e7 3d ac d5 c7 3c e6 4b 0b 3d 11 78 e0 3c
       0.113095224 0.024393879 0.03400793 0.027401002
000050 02 b4 0c 3d a7 4f cb 3d 55 79 0b 3e 2c ba 84 3d
       0.034351356 0.09927302 0.13620503 0.06480822
000060 0e 88 0a 3d e9 9a 13 3e 04 aa fb 3a 02 18 50 3e
       0.033821158 0.14414562 0.0019200449 0.20321658
000070 15 d1 a9 3c b9 b9 31 3d 9c 1d d1 3a dd 98 d7 bc
       0.02072958 0.04339001 0.0015954259 -0.026318008
000080 8c a3 8a bc c1 a5 a7 3c ad 46 c1 3c eb 57 ae 3d
       -0.016923688 0.02046478 0.023593271 0.08512863
000090 0a db 92 3d 04 05 ac 3d 14 35 fa bb cf c2 26 bd
       0.07170685 0.08399394 -0.007635722 -0.040713128
0000a0 2c 14 66 bc ff 05 cb 3d 97 c8 02 3e e1 a1 da 3b
       -0.014042895 0.09913253 0.12771831 0.0066721295
0000b0 3f 96 4f 3e 1a 37 6e 3e 4a c5 80 3e 57 63 48 3d
       0.20272158 0.23263207 0.2515052 0.048922863
0000c0 67 91 b8 bb de f3 65 3d d8 69 9d bb be 2a fa 3d
       -0.0056325677 0.056140773 -0.0048038773 0.12215184
0000d0 e7 57 ae bc 1c 39 ab bc d4 bc 1f 3e 8f 80 0d 3e
       -0.02128215 -0.020901255 0.15599376 0.13818572
0000e0 bb 93 71 bd 7d 06 0b 3d 71 58 ab bc 8d b1 4a 3d
       -0.058978777 0.033941735 -0.020916196 0.049485732
0000f0 39 91 1a 3e 59 05 05 3e 2c f1 65 3d 65 bc f1 3c
       0.1509446 0.12990321 0.056138203 0.029508779
000100 99 95 88 bd ee d8 60 bd 5e ec 38 bc 61 ca 7f bd
       -0.066691585 -0.05489438 -0.011286823 -0.062448863
000110 d6 64 31 bd 7c 5c 8a bd 64 b6 0a bc 98 31 ac 3d
       -0.043309055 -0.06755921 -0.008466337 0.08407897
000120 0e 4b 1c be 6c 49 af bd 9a 3d 34 bc 61 ab 02 bd
       -0.15263006 -0.08558926 -0.011001015 -0.03190172
000130 61 e5 1b 3e 1a 6c 48 ba c7 c1 f0 3d 7a 1a 26 3a
       0.1522422 -0.0007645503 0.1175571 0.0006336343
000140 fb 53 3a bd 13 0b ab 3d a0 e5 1c bb 75 5f c2 3d
       -0.045490246 0.083517216 -0.0023940578 0.09490863
000150 9a 83 53 3e da 71 00 3d f8 c4 97 bd fa f3 5c 3c
       0.20655671 0.031358577 -0.07410616 0.013485903
000160 e2 32 e0 bd e3 07 1e bd e4 76 b8 3c bb bc 8f 3e
       -0.10947205 -0.03858174 0.022517629 0.28073677
000170 fb d0 82 3d 11 7f 9f 3d 3c 21 7d bc 89 77 c1 bd
       0.06387516 0.07787908 -0.015449818 -0.09446628
000180 34 5b a4 bc 81 c7 0c 3e 35 95 71 bc cd 7c 8e 3d
       -0.02006302 0.1374798 -0.014745046 0.069573976
000190 a3 8a 43 3e 09 56 21 3d 24 30 b4 3d 63 f8 e7 3d
       0.19095854 0.03938869 0.087982446 0.11326673
0001a0 82 be 1c 3d 33 a0 b7 3d f8 f8 a6 3d 5c e5 84 3d
       0.03826762 0.089661025 0.08152956 0.06489059
0001b0 4e b6 51 3c 78 f7 70 3d 0b 4b e8 bd 6c 90 c3 3d
       0.0127998125 0.058829755 -0.11342438 0.09549031
0001c0 bd dc 13 3e 25 b1 f9 3b 49 00 3b 3d c0 95 9a 3c
       0.14439674 0.007619994 0.04565457 0.018870234
0001d0 f6 6a eb 3d cf c7 1e 3e d5 dc 69 3e 3e c8 a0 3c
       0.114950106 0.15505908 0.22838147 0.019626733
0001e0 2e be 1c bd 56 24 ba 3d 55 13 c9 bd c0 d1 79 3e
       -0.038267307 0.09088962 -0.098181404 0.2439642
0001f0 e3 cd 04 3c 2e 5c 4f 3e 06 16 ff bc 3b 0f bd 3d
       0.008105728 0.20250008 -0.031138431 0.092314206
000200 2e f4 01 3d 3d 8d 6c 3e 7e 16 00 3e 7d 51 32 3e
       0.03172701 0.23100753 0.1250858 0.17413898
000210 7d b6 f1 3d bd 7f 01 3c b3 9c 6f 3d a2 c1 0c 3e
       0.11802385 0.00790399 0.05849905 0.1374574
000220 da 21 10 3e 61 67 9b 3c e7 f3 0d 3e 20 3e 45 3e
       0.14075413 0.018970193 0.13862573 0.1926198
000230 5a 47 0f 3e 8e 85 20 3e 52 69 80 bc ab 1c ca 3c
       0.13992062 0.15675947 -0.01567522 0.024671873
000240 ee de ed 3d c3 e2 85 3e 71 e1 ac bd 51 30 ad 3c
       0.11614786 0.26149568 -0.08441437 0.021141203
000250 af ac c3 bd a5 10 cb 3d 4e 6a 25 3d f9 62 e4 3b
       -0.09554421 0.09915284 0.040384583 0.0069698063
000260 c4 5a 88 3c 94 0f 6b bc 1f d6 80 3d 85 63 8c 3c
       0.016644843 -0.014346976 0.0629084 0.017137298
000270 a5 ef ff bd c6 8b ac 3d 77 5f 9f bd 8e 60 15 3e
       -0.124968804 0.08425097 -0.0778188 0.14587614
000280 5c 6f 0a 3e 01 32 ab bc ab 84 e5 bc f4 74 cb 3d
       0.13519043 -0.020897867 -0.028017363 0.099344164
000290 f1 66 9b 3d 6b ca 73 3e d5 f1 9d 3d 0a e9 3a 3e
       0.07587994 0.23807685 0.077121414 0.1825296
0002a0 0e 4d 69 bd 5a b9 ae bc 2c 00 73 bd 26 70 bc 3d
       -0.05695825 -0.021328617 -0.059326336 0.09201078
0002b0 d1 7d 4a 3a d0 2f 91 3d 15 3c b7 3d d3 51 6b 3d
       0.00077244366 0.07089198 0.089470066 0.05745108
0002c0 c2 0f 92 3d cb d5 fb 3e 89 da 3c bd 9a 39 89 bd
       0.07131912 0.4918655 -0.04610685 -0.0670044
0002d0 0f 4a 3f 3d 62 8e 0b 3e 9b 03 10 3d ec d3 01 3d
       0.046701487 0.13628533 0.03515969 0.031696245
0002e0 7f 44 ed 3d 88 47 50 3d 49 5c d1 3d 5b a7 d5 3d
       0.1158533 0.050849468 0.1022268 0.10432311
0002f0 bb 33 80 bc 9b 4b 93 3d 8a fe 9e 3d b4 19 1d 3d
       -0.015649667 0.07192155 0.07763393 0.03835459
000300 ab 91 bf 3c ec 1a 99 3d d2 d9 d2 3d 79 90 9f bc
       0.02338489 0.07475838 0.10295452 -0.01947807
000310 8e 76 d7 bb ff 0e ba 3d 83 74 9f bc 73 0f 28 3d
       -0.006575412 0.090848915 -0.019464737 0.04103036
000320 95 38 9f 3e 5d b5 a7 bc 1b ed b2 3c 4a 26 0d bd
       0.31097856 -0.020472223 0.021841576 -0.034460343
000330 43 24 23 3e 2d 6a 42 3d d5 82 c4 3d 65 7b 10 3d
       0.15931801 0.04746454 0.09595267 0.03527393
000340 05 0e 11 bd 79 97 15 3e 36 f9 a8 3c 2a 12 b7 3d
       -0.03541376 0.14608563 0.020626646 0.089390114
000350 82 85 16 be 88 8c 94 bc ee aa 0b 3d 77 bb ee bb
       -0.14699367 -0.018133417 0.034098558 -0.007285531
000360 ba 09 1c 3e 76 e1 98 bd 94 b8 18 3e cf f1 92 3d
       0.15238085 -0.07464878 0.14914161 0.071750276
000370 fa 1a c7 3c bf 81 5a bd f0 59 2d bc 55 99 f6 3c
       0.024304856 -0.05334639 -0.010580525 0.030102411
000380 fc e5 bc bd e9 48 9c bb cb b2 4d bd c3 fe 91 bd
       -0.092235535 -0.0047694338 -0.05021934 -0.0712867
000390 b1 22 2f 3d ef 69 f6 bd 34 c0 31 3d 7c d4 87 3e
       0.042757694 -0.12031924 0.04339619 0.265293
0003a0 a0 c9 31 3e bc f4 a4 3e 6b 4c e7 3d 6e 5f cb 3d
       0.1736207 0.32217968 0.112938724 0.09930311
0003b0 68 74 05 3d 2e 05 35 3d 00 aa bc 3d 74 2d ce 3d
       0.032581717 0.044194393 0.092121124 0.10067263
0003c0 01 ae a1 3e 19 50 ab 3e 2b a2 70 3d 82 a5 49 3d
       0.31578067 0.33459547 0.058748405 0.049230106
0003d0 57 28 8c 3d 73 32 ab bd dd 30 7d 3d 6c 42 60 bb
       0.06843632 -0.08359232 0.061814178 -0.0034219278
0003e0 2c da 25 3e d4 92 1c bd 47 1e bb 3d f0 c2 13 3e
       0.16196507 -0.038225964 0.09136634 0.14429832
0003f0 aa b8 1d 3e ab 00 d7 3c a6 ec ec 3d 42 06 84 3c
       0.15402475 0.026245436 0.115685746 0.016116265

parameters.mlp_0_w f4 [256, 70]
000000 5d 92 fd bd a4 df 28 be 17 13 0b bf 4f 28 90 be
       -0.12381432 -0.16491562 -0.54326004 -0.28155753
000010 5f 88 dd 3e ea 83 46 bb 2c bf e6 bd b6 ad a7 bd
       0.43268105 -0.003029103 -0.11266932 -0.081874296
000020 17 0d 24 3e 4f 83 0e be 5d 79 ab be e4 ce d9 be
       0.16020618 -0.13917278 -0.3349103 -0.42540658
000030 5f 70 68 3e dd c4 73 bd 25 a1 87 be ec c5 a4 3c
       0.22699116 -0.059513915 -0.2649013 0.020113908
000040 e7 a3 ad 3c f0 6b 1e bd 74 23 92 bd 16 91 75 3d
       0.021196319 -0.038677156 -0.071356684 0.059952818
000050 5a e5 64 3d bf 24 d2 be 3e 07 46 3e 98 d2 21 3f
       0.05588279 -0.4104366 0.193387 0.63211966
000060 f0 37 1b 3d 36 04 13 3e 50 06 0a 3f f6 85 c0 3c
       0.037895143 0.14357075 0.5391588 0.023501378
000070 11 88 cc 3d f6 a3 fd 3c cf d4 a4 3d 86 72 96 3d
       0.0998689 0.030961972 0.080484025 0.07346062
000080 22 8d 7e 3d 0c c1 54 bd 09 c8 e5 3d 6f 92 19 be
       0.062146313 -0.051941916 0.11219794 -0.14997266
000090 cf 5c 12 be 0a 20 92 be 95 15 48 be e3 25 84 3e
       -0.14293216 -0.2854007 -0.19539483 0.25810155
0000a0 8e d9 4e bd 64 b2 45 3d 52 6a a8 bd 61 3e 1f 3e
       -0.050500445 0.04826583 -0.08223404 0.1555114
0000b0 04 a4 5b bb e1 c1 29 be c7 e0 6e be 37 14 d5 3d
       -0.003351451 -0.16577865 -0.23327933 0.10404246
0000c0 c2 a0 18 3e 1b 49 39 bd 1b 97 40 3e e9 6d 1b bb
       0.14905074 -0.045235734 0.18807642 -0.0023716635
0000d0 59 50 ee bc c0 44 3c be 73 03 29 3d bc 22 ef bb
       -0.029091047 -0.18385601 0.041263055 -0.007297842
0000e0 7a 0c 8e be e0 81 86 3e a9 4b a8 3e 86 16 aa 3c
       -0.27743894 0.26270962 0.32870224 0.020762693
0000f0 46 dc 87 3d c1 d1 00 3f a1 b9 35 bd f5 1f 94 3d
       0.06633811 0.5032006 -0.044366483 0.07232658
000100 a5 fe 1d 3d 15 0c 6f 3c 31 ff 00 3e 59 1c 11 bd
       0.038572926 0.014590283 0.12597348 -0.035427425
000110 a5 93 67 3b 77 1e 20 bd 24 71 e8 bc 0e 7b da bd
       0.0035335806 -0.039091554 -0.028374262 -0.10668002
000120 f7 27 6b 3d 2c 5c aa bd 21 93 0a bc fa 41 19 be
       0.05741116 -0.08318362 -0.00845793 -0.14966574
000130 92 80 ee 3d 7b 73 52 3c 4e de 3a be 42 fb 72 be
       0.116456166 0.0128449155 -0.18248865 -0.2372866
000140 28 2a 16 be ed f2 af bd 64 a9 26 3e e1 92 90 bd
       -0.14664519 -0.08591256 0.16275555 -0.07059265
000150 73 e6 9b 3d 24 11 80 3e 2c 83 a8 bd 5b a2 53 bd
       0.07612314 0.25013077 -0.08228144 -0.051668506
000160 80 06 12 bc b5 7a 62 3d 3e b3 c8 bd 83 59 a7 bd
       -0.0089126825 0.055292804 -0.09799813 -0.0817137
000170 b4 9b 17 be 81 5a bc bc b2 ad 02 be 02 14 6c be
       -0.1480549 -0.022992374 -0.12761572 -0.23054507
000180 5c 81 29 be 1f 0b d8 bd db e0 48 be e2 fe 01 3d
       -0.16553253 -0.10548996 -0.19617026 0.031737216
000190 c9 72 44 be 4b fa 46 3d fa 1f e9 bc 98 51 17 3d
       -0.19184412 0.04857854 -0.02845763 0.03694305
0001a0 b1 ae cd 3c c6 21 b0 3d 7a 53 db bd 16 5b d5 3d
       0.025107713 0.08600192 -0.10709281 0.10417764
0001b0 1a 59 8d bd 51 ef c4 bc 8e 61 ac bd 8e b1 76 3d
       -0.069017604 -0.024039896 -0.084170446 0.060227923
0001c0 71 f2 d0 bc 08 c7 08 bd b9 37 a5 bd d5 98 8b 3d
       -0.02550623 -0.033392936 -0.08067269 0.0681626
0001d0 4c 18 59 bd e5 ed 23 bc e6 d9 8e be 26 91 03 3c
       -0.053001687 -0.010005449 -0.27900618 0.008030212
0001e0 56 75 d6 3b 77 b5 cc bd f6 c3 35 bd 3d e1 ae 3d
       0.0065447493 -0.09995549 -0.044376336 0.085390545
0001f0 e8 9f 70 3d 74 02 07 be a1 3c 28 3c e3 a5 4f be
       0.05874625 -0.1318453 0.010268361 -0.20278125
000200 92 cc 7e 3d 42 5d 38 be fa 2a 80 be e3 5d 27 be
       0.062206812 -0.18004325 -0.2503279 -0.16344409
000210 68 cd d1 bd 85 a2 cc bd a4 cb 90 bb ce 09 35 be
       -0.10244256 -0.09991936 -0.004418807 -0.17679521
000220 06 ad 63 3c da 4c ea bd 09 9d 91 3d 4f 74 7d 3d
       0.0138962325 -0.114404395 0.0711003 0.0618785
000230 f3 dd fa 3d 05 f2 a0 3c a6 5b 95 3e 1c 14 29 3e
       0.12249365 0.019646654 0.29171485 0.16511577
000240 ae c2 66 be 94 ae 78 3d d8 25 c7 3d 9d 30 f7 3d
       -0.22535202 0.060713366 0.09724015 0.12069819
000250 9b dc 2b be 3c 67 85 3c 09 c4 d3 3d ed 38 e0 3d
       -0.16783373 0.016284578 0.10340125 0.10948358
000260 4d 11 5d bd 59 d0 6c 3c e3 26 2f 3e 30 41 01 3d
       -0.053971577 0.014453971 0.17104678 0.03155631
000270 88 3f 86 3d a3 d2 5b bd 50 09 17 3e 20 bb 4e 3d
       0.065550864 -0.053667676 0.14749646 0.050471425
000280 e3 54 6d 3d 48 f5 5b 3e 4a 55 55 be d0 09 45 be
       0.057942282 0.21480286 -0.20833316 -0.19242024
000290 3f 12 ad 3d 68 28 09 3e 7f 3f ab bd 74 bc 7c bc
       0.08450746 0.1339432 -0.0836172 -0.01542579
0002a0 5c 4f 6e bd d3 9e 0e bb 9d d6 c6 bc c3 83 f3 bc
       -0.05818115 -0.0021762147 -0.024272257 -0.029725915
0002b0 d9 e7 06 bd ec cf aa 3c 86 b2 13 3d e8 f2 c7 3d
       -0.03293595 0.020851098 0.036058925 0.097631276
0002c0 b6 ba ff b9 10 f1 c2 3d e9 60 07 3e 06 3b 2c be
       -0.000487765 0.09518635 0.13220562 -0.1681939
0002d0 c2 75 99 3d 35 71 c8 3c c0 63 cb 3d 95 a0 ca 3b
       0.07493164 0.024468044 0.09931135 0.0061836937
0002e0 84 73 08 bd d5 48 09 3e 1b f1 05 3e 2b fd 5a bd
       -0.03331329 0.1340669 0.13080256 -0.053464096
0002f0 77 33 99 3c 4b d3 22 3d b0 1c 42 3d 1d bc 8b 3d
       0.018701298 0.039752286 0.04739064 0.06822989
000300 77 ee b6 bd c0 34 a3 3d 9c ca de 3d 5f 22 5d 3d
       -0.08932202 0.07969046 0.108784884 0.053987857
000310 86 07 90 3d c6 53 c5 bd c4 23 99 bd 59 40 86 3d
       0.07032685 -0.09635119 -0.07477525 0.06555242
000320 1f 3f fd 3d f7 ee dc bd 5d a7 bb bc a4 07 9f bd
       0.12365555 -0.107877664 -0.022906953 -0.07765129
000330 38 f4 e1 bc f4 fc 8d 3c a8 9d a1 bc 15 fe 8f bc
       -0.027582273 0.017332532 -0.019728497 -0.01757721
000340 ca cc c6 3d ee 8d 95 3c 00 ee cb 3c c7 36 f2 3c
       0.09707029 0.018256154 0.02489376 0.029567135
000350 3d d5 b3 3c 85 d3 28 3c e2 3a 9f 3c e3 66 65 bc
       0.021952266 0.010304336 0.019437257 -0.014001581
000360 5c c6 8e 3c 7d 16 8a bc f7 3d 1b bd b8 cc 07 bc
       0.01742857 -0.016856426 -0.03790089 -0.008288555
000370 af 07 3e bc 52 9d 1f 3c 41 f0 4f bb 9f ee 9a bc
       -0.011598512 0.009742098 -0.0031728896 -0.018912612
000380 49 45 18 bc 40 13 19 3b be cc 29 3b 8b 5d 5e 3c
       -0.009293863 0.002335742 0.002590939 0.013572107
000390 34 67 4d 3c 1a 34 37 bb e5 5f 7d bc 52 bc ba 3c
       0.012536813 -0.002795464 -0.015464758 0.022794876
0003a0 b2 0e ce bb d9 53 b5 3b 2e 23 49 bd 72 03 ff bc
       -0.006288373 0.005533677 -0.049105816 -0.031129573
0003b0 e8 c1 f7 bc 0f c8 da bb fd 91 b9 bc 7f 92 06 3b
       -0.030243829 -0.006676681 -0.02265262 0.0020534096
0003c0 70 dc 21 3b e0 9e 07 3c 16 59 c0 bb 1e 52 4b bc
       0.0024698041 0.008277625 -0.005869995 -0.012409715
0003d0 f6 4e ef bb 50 4a 06 bc 48 54 18 3d eb 1d 46 bc
       -0.007303114 -0.008196428 0.037189752 -0.012092094
0003e0 cd 50 6c 3c 4d d5 15 bb 84 b2 57 3a ae 31 84 b9
       0.014423561 -0.0022862733 0.00082282 -0.00025214016
0003f0 75 24 2c bc 46 4c 82 3b 40 3f a0 bc 33 f8 12 3a
       -0.010506739 0.0039763777 -0.01956141 0.00056064426

parameters.mlp_1_b f4 [256]
000000 69 43 81 3d 6a 2a 3c 3e 54 7d 8b 3e ea 02 76 3d
       0.063116856 0.18375555 0.27244055 0.060061373
000010 4a 9a d2 3c df b7 88 3e b8 b3 ab 3d fe 2f 25 3e
       0.025708336 0.26702783 0.08383888 0.16131589
000020 d3 3a c8 3c 98 2a 47 3e 45 6e 31 3d d4 68 1b 3e
       0.024442112 0.19449842 0.04331805 0.15176708
000030 a5 12 cc bd 62 28 98 3d 98 08 20 3e 7c 0d 26 3e
       -0.09964494 0.074295774 0.15628278 0.16216081
000040 4a e6 ad 3d f5 09 ed 3d e4 f6 c8 bb 31 8b 89 3c
       0.0849119 0.11574165 -0.0061329473 0.016790004
000050 15 d2 91 3d d5 e9 79 3c fe b7 4e 3d 6e 04 d8 bc
       0.07120148 0.015253504 0.050468437 -0.0263693
000060 a9 d6 a7 bc 38 1c 41 3d e6 d4 92 bc 64 c1 82 bc
       -0.0204881 0.047146052 -0.017923784 -0.015961356
000070 0c a7 fd 3d 54 96 a7 3d 0c 91 a5 3e 85 18 21 3d
       0.12385377 0.0818297 0.32337224 0.039330024
000080 8a b6 e2 bc 17 e0 32 3e 56 40 e2 3d 13 0c 31 3e
       -0.027674932 0.17468296 0.11047427 0.17289762
000090 26 2a 47 bc 12 fb e4 bb fc 6e 09 3d 4f d6 98 bb
       -0.012156045 -0.0069879377 0.03355311 -0.0046642195
0000a0 72 60 4e bc ad 8c e0 3d 3d f8 98 bc 72 bd 9e 3d
       -0.012596237 0.10964332 -0.018673057 0.077509776
0000b0 5a d1 88 3d a5 5f 0b 3e 49 c3 8d bc ee e4 d6 bb
       0.06680556 0.13610704 -0.017305033 -0.0065580523
0000c0 e2 ad 6d bc 8a 4b 90 3d 5a 40 bc 3a 9f dd 01 3e
       -0.014506789 0.07045658 0.001436244 0.12682198
0000d0 25 7e 59 3d 5c e4 3f 3d ae 25 08 3d 4b d6 44 bc
       0.053098816 0.04684864 0.03323906 -0.012013982
0000e0 0c 27 86 bc 2b 14 93 bb a1 c4 74 3e 27 24 a2 3d
       -0.01637604 -0.004488488 0.23903133 0.07917052
0000f0 df 04 27 bb f9 d4 6e bc ab 86 c8 3d a6 8c 24 3e
       -0.002548508 -0.014577144 0.09791311 0.16069278
000100 b9 99 fa bb 55 fb 9e 3d 5b ad 92 bc 16 e5 83 bb
       -0.0076477197 0.077627815 -0.017904928 -0.004025112
000110 a4 e0 33 3e e0 8a bb 3d 46 ff 8c 3d 0d 83 cc 36
       0.17566162 0.09157348 0.06884627 6.09493e-06
000120 e4 fd 9c 3d 58 07 21 3e 75 57 9d bb a2 2a 8c bb
       0.07665613 0.15725458 -0.0048016855 -0.004277543
000130 a7 f2 41 bc f1 1d 7f 3e cc 54 32 bd 99 b5 89 3c
       -0.011837638 0.24913765 -0.0435379 0.016810225
000140 a0 7a 2f 3d c9 76 8b 3d 43 b8 3f bc 6e 9b bb 3c
       0.042841554 0.06809766 -0.011701646 0.022901263
000150 70 ad b5 bb 42 f0 88 3d af 00 3c 3e 0d 9f 68 3d
       -0.005544357 0.066864505 0.18359636 0.056792308
000160 f4 b6 56 3d 9c 59 14 bc ff 29 2e 3e b3 8a 64 3e
       0.05242057 -0.009054568 0.17008208 0.22318535
000170 58 4f 38 bc 78 f1 9b 3d e0 5a dd 3d 58 75 b9 3d
       -0.011249386 0.07614416 0.10808349 0.09055585
000180 59 f8 c0 bc 3b d4 6d bc d1 7d b1 3c ea 5f 0b 3d
       -0.023555921 -0.014515932 0.02166644 0.034027018
000190 8e 6f 84 bc 43 81 87 bb d4 2e cc bb b3 e5 8a bc
       -0.016166475 -0.0041352822 -0.0062311683 -0.016955232
0001a0 6d 12 5b bc 8a 9d 4e 3d a8 eb 97 bc 40 85 0e bd
       -0.013371092 0.05044321 -0.018544987 -0.034795046
0001b0 ac 0e 3b bc 5c da b7 3d 7c 00 c4 3c 56 60 d1 bb
       -0.011417072 0.089771956 0.023926012 -0.006389658
0001c0 dd a3 76 3e 3c 94 92 3d 9d 41 0e 3e 80 15 46 3d
       0.24085946 0.0715718 0.13892217 0.048360348
0001d0 10 19 a0 bc 1e e8 91 bc 6f 44 73 bc 47 51 83 3d
       -0.0195432 -0.017810877 -0.014847859 0.06411987
0001e0 d8 3e 25 3e 92 6b fc 3d b2 40 55 3d 3c eb d6 bb
       0.16137254 0.12325205 0.05206365 -0.006558804
0001f0 b0 f3 f4 3d e4 25 38 3c 4d 17 8b 3d 40 08 c9 bc
       0.11960542 0.011239503 0.06791554 -0.024540067
000200 8b dd ed 3d 1e f0 65 3d 6d 56 4a 3d e5 6e fd 3c
       0.116145216 0.056137197 0.04939883 0.030936668
000210 8c b8 a6 3d 92 2f a9 bb 96 f3 77 3d e7 8e a2 bb
       0.08140668 -0.0051631415 0.060535036 -0.004960883
000220 57 17 81 bb b1 a9 be bb 28 24 9a 3c e9 57 0c 3e
       -0.00393955 -0.0058185686 0.018816069 0.1370541
000230 1d a7 ae bb 4f 07 ac 3d 22 dc 46 bc 55 4a 63 bc
       -0.00532998 0.083998315 -0.012137445 -0.013872703
000240 5c 68 6c bc 00 dd 80 bb 0d 7d c1 bc dc 63 06 3e
       -0.014429178 -0.0039325953 -0.0236192 0.13124031
000250 5e 22 04 3d 08 e2 41 3e b5 7e 09 3e 63 e6 9d bc
       0.032259338 0.1893388 0.13427241 -0.019274896
000260 28 53 42 3d af a1 57 3e 91 aa 36 3d b2 89 23 3e
       0.047442585 0.21057771 0.04459626 0.15970495
000270 6a 17 b2 3d da 44 36 3e 78 e1 a4 3d 3d de f5 3d
       0.08695872 0.17799702 0.08050817 0.12005279
000280 1a 4b 83 3d 3d 1e 17 3e 8c c3 b8 bc 52 e0 db 3c
       0.06410809 0.14757629 -0.022554182 0.026840363
000290 dc 8e 26 3e 54 18 08 bd a8 73 80 3d 43 44 86 bc
       0.16265434 -0.033226326 0.0627206 -0.016389972
0002a0 ed ad 91 3d 78 fc 69 bc 6d d4 c2 3b a6 56 92 3d
       0.07113252 -0.014281385 0.0059457333 0.07145433
0002b0 f9 6b 8a bc bb 7b be 3d d4 22 a5 3d 2f 6c 22 3d
       -0.016897188 0.093009435 0.080632836 0.039653953
0002c0 0f bc 77 3d 00 f0 a0 3c 5a 0b 39 3d 41 01 11 bc
       0.06048208 0.01964569 0.04517684 -0.008850397
0002d0 93 6d 5a bc 45 3f 2f 3d 01 ab 33 3d 44 f5 4a 3d
       -0.013331789 0.042784948 0.043864254 0.04955031
0002e0 56 7c 72 3d ad 82 15 3e 70 4e 9f 3d 12 a7 94 3d
       0.059200607 0.1460063 0.07778633 0.07258429
0002f0 56 f3 90 3c d9 ff 46 3c a4 74 c9 bc f6 55 c3 3e
       0.017694157 0.01214596 -0.024591751 0.3815152
000300 c9 71 2c 3e e0 f3 0c 3d bd 0a b7 bb 57 9d 67 3d
       0.1684028 0.034412265 -0.005585997 0.056546535
000310 0b 3d 14 3e d0 49 9a 3d b0 a5 c1 3d 46 35 0e bc
       0.14476411 0.0753361 0.094554305 -0.008679694
000320 d5 c7 44 3e 77 7c 74 3e 3c 63 1f bd c6 a8 55 3d
       0.19216855 0.23875605 -0.038912997 0.052162908
000330 2c 8a 88 3d 94 25 5e 3a f8 56 e8 bd 61 84 8d bc
       0.06666979 0.00084742275 -0.11344713 -0.017275037
000340 bf f5 99 3b 0f 23 68 bc 2a b8 c8 bc 72 27 a9 3c
       0.0046984847 -0.014168515 -0.024501879 0.020648692
000350 86 a9 9c 3b 2b 86 bc 3d 55 ac 59 bd e8 d0 91 bb
       0.004780951 0.09205278 -0.053142864 -0.0044499524
000360 78 1d 86 3c 6c 52 52 bb 10 bb 1f 3d 81 ff 5e bb
       0.016371474 -0.0032092584 0.038996756 -0.0034026804
000370 bd c3 74 3e 5b 99 b5 3d 05 ea 86 bc f6 b5 64 3d
       0.23902793 0.08867141 -0.016469011 0.055837594
000380 67 09 25 3d ef 4d 43 bc 9c 46 a4 3d 22 b9 41 3d
       0.04029217 -0.011920436 0.0802128 0.047295697
000390 bc f8 83 bc e8 78 17 3d c4 2d 5b bc 5d b0 91 3d
       -0.016109817 0.03698054 -0.013377611 0.07113717
0003a0 3d 80 b5 3d 16 56 2c 3d 84 25 3d bd 00 aa a8 bb
       0.0886235 0.042074285 -0.046178356 -0.0051472187
0003b0 dc 34 47 3e 68 d7 48 bc e0 af 2f 3b ac 3e 77 bc
       0.19453758 -0.012258388 0.002680771 -0.015090626
0003c0 47 d1 26 3e 6a 88 f1 3d dc fd 8a 3c 23 de 00 3e
       0.1629077 0.11793597 0.016966753 0.12584738
0003d0 82 c6 7e bb 47 59 f2 3c 31 7b 3f 3e 29 6e 14 3e
       -0.0038875644 0.029583586 0.18699338 0.14495148
0003e0 54 1b 9a bb ce 01 28 bc b4 b0 d3 3d cd 14 90 3d
       -0.004702965 -0.0102543365 0.10336438 0.070352174
0003f0 44 99 df bb 07 57 3a bc 92 95 61 bc 03 7b 5c bc
       -0.0068236906 -0.011373288 -0.0137685705 -0.013457063

parameters.mlp_1_w f4 [256, 256]
000000 c2 41 ca bd c5 9c 9a 3c 8a 7e 67 3c d8 ff 3e bc
       -0.098758236 0.018873582 0.01412929 -0.011657678
000010 97 82 8c 3d 8f f7 27 bc 58 17 08 bd bb 14 ff bc
       0.068608455 -0.010251894 -0.033225387 -0.031137815
000020 55 77 6d bd 74 23 7c bc 8a a6 17 3d f9 60 1a bd
       -0.057975132 -0.015389312 0.03702406 -0.037690137
000030 14 dc b5 bd 60 fd e4 3b 7e a4 ab 3c 03 01 9b 3c
       -0.08879867 0.0069882125 0.02095246 0.01892138
000040 3a 9e 92 3c 55 cb ac bc 81 d7 6b 3b 2a b9 fe bc
       0.017897714 -0.02109305 0.0035986605 -0.031094152
000050 b9 eb 61 3b 29 d1 1c bc 7b cf 55 3b 29 a0 99 bd
       0.0034472777 -0.009571352 0.0032624889 -0.07501251
000060 b1 7b 0f bd a2 8b 97 bd 62 fe b6 bb f1 b8 d4 bc
       -0.03503007 -0.0739968 -0.005584524 -0.025967093
000070 43 7b 8b bc 8b bb 00 bd 50 84 2e 3c f0 7f f2 bc
       -0.01702655 -0.031428855 0.010651663 -0.029602021
000080 19 cd b9 bb 84 36 f9 bc 64 95 e5 3c b5 05 01 ba
       -0.0056702015 -0.030421503 0.028025337 -0.000492181
000090 1e f4 5d bc 45 56 85 bd 32 0b 26 bc 0c 1d 55 bb
       -0.013546972 -0.06510595 -0.010134505 -0.0032518534
0000a0 bd e9 a3 bc cc fe 1f bc 70 be af 39 4b 21 d0 bc
       -0.020008916 -0.009765338 0.00033520488 -0.0254065
0000b0 30 04 16 bd 3d 5d 77 3a c3 fe c8 3c 72 ef c8 3c
       -0.036625087 0.0009436196 0.024535542 0.024528239
0000c0 37 4d 06 bc d0 95 1d bd e9 c8 1c bd 4e 14 a4 bc
       -0.00819712 -0.03847295 -0.03827754 -0.020029213
0000d0 52 f6 6d bd 19 67 2c 3c 42 a8 5f bc 03 19 95 bc
       -0.058096237 0.010522627 -0.013650956 -0.018200403
0000e0 ba c8 11 bd 77 8b 9c bd 29 dc 2e 3b cc ac 4a bd
       -0.03559182 -0.07643788 0.0026681519 -0.0494812
0000f0 aa 4f 03 bd 56 22 60 bd 22 7c 43 3b 05 3e 01 bb
       -0.032058395 -0.054720245 0.0029828628 -0.0019720804
000100 29 dc 8e bb 72 51 aa 3b 8d f9 11 bd 00 48 52 bd
       -0.004359741 0.0051976973 -0.03563838 -0.051338196
000110 03 52 63 bc 08 a2 2b bd a0 32 7b bc 38 9f d5 3c
       -0.013874534 -0.041902572 -0.015331894 0.026076898
000120 dd 7d 38 bd 65 50 d1 bc 89 97 11 3b 77 c1 c6 3c
       -0.045041908 -0.02555103 0.0022215566 0.024262173
000130 59 b8 58 bd 97 b0 88 3c ee 76 68 bb 2c ad ac 3b
       -0.052910183 0.016685767 -0.0035471278 0.005269667
000140 c5 9b 3d bc d2 8e ca 3b 81 bc b2 bc cd b2 5a bc
       -0.011572783 0.0061815763 -0.021818401 -0.0133482935
000150 4e 67 3b bd 42 1f ac 3c 1e f7 dd bc 66 73 f9 bb
       -0.045752816 0.021010999 -0.027095374 -0.0076126335
000160 d4 7e ad 3c fb 52 be bc 6e d3 1b bb c3 99 8c bd
       0.02117864 -0.023232928 -0.0023777145 -0.06865265
000170 d8 2f b0 3c 9c b0 fa bc 14 2a 89 bd bb 2a 5b ba
       0.021507189 -0.030601792 -0.06697479 -0.00083605543
000180 7e a7 bc 3c 6f f0 8a bb 02 82 96 bc f7 e1 93 bb
       0.023029085 -0.0042400877 -0.01837254 -0.004513021
000190 7d e8 34 bb d8 45 8a ba dc f6 87 3c 32 98 36 bc
       -0.0027604394 -0.001054938 0.016597204 -0.011144685
0001a0 d6 8a 7b 3b bc 96 37 3a 23 27 bb b8 f3 0c ac bc
       0.0038382313 0.0007003357 -8.924145e-05 -0.021002268
0001b0 bb 18 98 3c a3 9e 87 bd d3 50 97 3c 5b 7e 41 bd
       0.01856648 -0.066220544 0.018471157 -0.047239643
0001c0 05 5f e4 3c 68 87 f5 bb 92 bd e9 b9 86 52 cd 3c
       0.02787734 -0.0074929483 -0.00044582464 0.025063764
0001d0 54 f8 1b 3d 96 ca db 3b 11 87 3c bd 79 bc 9c bc
       0.03807862 0.0067074997 -0.046027247 -0.01913284
0001e0 ef b1 3a bd d3 8c 83 bd a6 b5 cf 3b 14 42 49 bd
       -0.045579847 -0.064233445 0.006338793 -0.049135283
0001f0 70 5e 07 bd 2b 75 c3 bc 04 71 31 3c 8c 56 2d bd
       -0.033049047 -0.023859581 0.010830168 -0.042318866
000200 c6 d1 2a bd 49 7a 70 3c 70 88 03 bd 16 0c b2 bc
       -0.04170396 0.014677593 -0.03211254 -0.021734279
000210 23 1d 36 3c 5c b8 b6 bb f6 b8 81 bc 83 81 88 bd
       0.011115345 -0.0055761766 -0.015835267 -0.066653274
000220 66 08 45 b9 80 be 4c bd 78 b8 24 bb de 0a fc 3c
       -0.00018790513 -0.049986362 -0.0025134366 0.0307669
000230 12 5e 3c bc 0d b8 d7 bc 24 b3 a1 bc 38 09 30 bc
       -0.0114970375 -0.02633288 -0.019738741 -0.010744385
000240 8d c2 0b bc 1c 01 48 3d 4c 92 e0 3c 42 cb 99 3c
       -0.008530271 0.048829183 0.02741351 0.018773679
000250 82 ff 88 3c a8 cc be ba bf 29 10 bd 18 12 95 3a
       0.016723398 -0.0014556842 -0.035196062 0.001137319
000260 df 4c 82 3b 2b a6 66 bd 47 74 91 3b ca 6b a4 bb
       0.003976449 -0.056310814 0.00443891 -0.0050177323
000270 b7 98 10 bd e3 fd a0 b9 5f 49 8d bd 34 90 18 bc
       -0.03530189 -0.00030706738 -0.0689876 -0.009311724
000280 8c 28 78 bc 83 e8 88 bd 93 2c 88 bd e3 6e a4 bc
       -0.015146386 -0.06684973 -0.06649127 -0.020072406
000290 fc f1 51 bd 8a 39 2c bd de 0d 3a bd da e1 9a 3b
       -0.051256165 -0.04204706 -0.04542338 0.0047266306
0002a0 2f 17 7b bc ab 35 f4 bc a0 db 66 bd 44 1d 16 bd
       -0.015325352 -0.029810747 -0.056361794 -0.036649004
0002b0 0e e4 d7 bc e8 2a 14 bc 93 8d 11 39 52 fa ef 3b
       -0.026353862 -0.009043433 0.00013881018 0.0073235417
0002c0 f3 7a 74 3b 2e 07 f8 3d 3e 25 01 bc 0c 8f c5 3c
       0.0037304729 0.121107444 -0.007882414 0.024116062
0002d0 e3 0a 01 ba 0e 06 8b bc 17 91 58 bd dc e9 e8 bb
       -0.0004922582 -0.01697066 -0.052872743 -0.0071079563
0002e0 a0 6c 33 3c 0e c9 45 3b 98 37 87 bc 04 04 61 bc
       0.010951191 0.0030179652 -0.016506001 -0.013733868
0002f0 6d 9b ad bc 46 02 bf bc 73 b0 5a bd b8 f3 8a bd
       -0.021192277 -0.023316514 -0.05339093 -0.06784767
000300 13 4f 97 3b d0 fc 5e bd 0e 4c 92 bd 1b 6f 65 bd
       0.0046175807 -0.05444032 -0.071434125 -0.05601416
000310 b8 b6 1f bc 0c 4a 15 bd 64 4e b0 bc 1f 3b a3 bc
       -0.009748153 -0.03644757 -0.021521755 -0.019925652
000320 81 96 3b 3b 18 31 01 bc d3 66 dd bc 72 ee 3b bd
       0.0028623643 -0.00788524 -0.02702657 -0.045881696
000330 22 d5 32 bd ce d3 0f 3c 25 96 81 bc a7 3c 86 3b
       -0.04366029 0.0087785255 -0.015818665 0.004096586
000340 be e4 d3 bc c0 0e ff bc 24 b1 95 bc 6e aa a2 bc
       -0.025865909 -0.031134963 -0.018272944 -0.019856658
000350 d9 1a 06 bd d4 bb ae bc d5 ab 95 bc 5b fc 7b 3c
       -0.032740448 -0.021329798 -0.018270412 0.01537999
000360 44 96 32 bd 68 bf da 3c 64 d2 36 bb eb 51 05 3c
       -0.043600336 0.026702598 -0.0027896399 0.008137207
000370 63 d0 4e 3a db 41 02 bc 01 ae 8b bc 7e 8d cd bc
       0.00078893284 -0.0079502715 -0.017050745 -0.025091883
000380 ad 66 50 3c 82 35 63 bc 17 38 51 bc 84 81 c5 bc
       0.012719792 -0.013867738 -0.0127697205 -0.02410961
000390 01 5f 25 ba a9 bf 2e bc e6 a7 89 bc 5f 61 ec 3c
       -0.0006308407 -0.0106658125 -0.016803693 0.028855024
0003a0 9a 37 27 3d 40 67 00 3d 9a 0a d3 bc 86 2e a9 bc
       0.04082451 0.031348467 -0.025761891 -0.020652067
0003b0 b4 af 15 bd 60 15 a6 bc ca 05 0e bc 3a c7 c9 3c
       -0.036544517 -0.020273864 -0.008668372 0.024631131
0003c0 48 88 a3 bc 61 89 80 bc 47 25 0e 3d 15 66 79 bd
       -0.019962445 -0.015690507 0.03470352 -0.06088837
0003d0 f2 89 cd bd 8c a7 b9 b9 5a 60 f0 3b 02 c4 8b bc
       -0.100360766 -0.00035410782 0.0073357048 -0.017061237
0003e0 24 2d 40 3c 32 12 01 bd a6 07 39 bd 78 d0 7c 3c
       0.011729512 -0.031511493 -0.04517331 0.015430562
0003f0 2d fb 78 bc 1d f6 35 bd 2d a8 82 3c 8d 67 bc bb
       -0.015196604 -0.044424165 0.015949333 -0.005749649

parameters.mu_b f4 [8]
000000 c0 40 2a bd c4 5c 7d bd 0c d2 6e 3e 66 8e ba 3d
       -0.041565657 -0.061856046 0.23322314 0.091091916
000010 f5 7f 05 bd 39 c6 24 3b dd 8d b3 3d 7b 5a 80 bd
       -0.032592732 0.0025142564 0.08767293 -0.06267258

parameters.mu_w f4 [8, 256]
000000 3d 81 6a 3c 97 0f 49 3d c1 6a ce 3d 55 5e 42 bc
       0.014313039 0.049087133 0.100789554 -0.011863311
000010 f5 6c 87 bd 62 8a f6 3e 9a 95 2d 3d 05 fc 92 3c
       -0.06612579 0.48152453 0.042379 0.017942438
000020 5f c8 8a bc a0 ae a6 3d 8c 00 81 bc c4 e5 12 3e
       -0.016941248 0.08138776 -0.015747331 0.14345461
000030 02 55 b6 bd b9 90 cf bd cd 62 03 bd 09 7c 12 3e
       -0.08902933 -0.101350255 -0.032076646 0.14305128
000040 5a e2 2e 3e 3d fe 93 bd b8 04 45 bc 01 87 fe bb
       0.17078534 -0.072262265 -0.012025051 -0.0077675586
000050 9f 42 95 3c 65 40 9a bc b9 25 c7 bc 95 f7 c7 3c
       0.018220244 -0.018829534 -0.02430998 0.024410048
000060 92 83 13 3d 63 f6 10 3c e3 65 ef 3a 17 0a 43 3b
       0.036014147 0.008847806 0.0018264618 0.0029760653
000070 82 ab 0b be b7 3b 65 bd a5 6e 9a 3e 46 2f 3f bb
       -0.13639644 -0.05596515 0.3016254 -0.0029172464
000080 c8 6d 98 3d ac 73 44 be 5b d9 d0 bd bb 2c 61 3e
       0.07442814 -0.1918475 -0.10197707 0.2198972
000090 1d 1c e6 3b 58 45 47 3c fd c1 b4 bd 72 82 de bb
       0.0070223943 0.012162529 -0.08826063 -0.0067904526
0000a0 4d 21 07 3c c9 af d4 bd 0e ca 89 3c b7 1b 80 bd
       0.008247686 -0.10385091 0.01681998 -0.06255286
0000b0 9b e4 4a bc 09 32 88 bc e3 d8 aa 3c 0c 4f a3 bb
       -0.012383605 -0.016625421 0.020855373 -0.0049837884
0000c0 f6 2f 08 bb e0 3f c0 bb 9b b8 3e 3d f5 f3 0b bc
       -0.002078054 -0.0058669895 0.046562772 -0.008542051
0000d0 23 ed c1 bc 54 ab 7e bc 88 7d 4a bc 3f 47 c1 bb
       -0.023672646 -0.0155437775 -0.012359031 -0.005898386
0000e0 a7 bb 18 bd 1e 6e 29 3c e5 02 d7 bc 93 38 7f bd
       -0.037288334 0.010341195 -0.026246497 -0.062309813
0000f0 13 3a 60 3c 18 37 ea 3b c7 1b 9b 3d ee ad 23 be
       0.013685721 0.007147681 0.075736575 -0.15984318
000100 00 8b 8a 3c bd f2 2e bd a9 eb 7e 3c 3e e9 0b bc
       0.016911983 -0.042711962 0.015559115 -0.008539496
000110 f2 53 34 3d d5 da 4a be 5f 80 77 bd 92 c1 8d bb
       0.04402537 -0.1981004 -0.06042516 -0.004326054
000120 0c 96 4b bd 5f 34 3c 3e c5 29 94 bc 82 94 b8 3a
       -0.049703643 0.18379353 -0.018086324 0.0014082345
000130 77 58 27 bc 34 fd a0 be 3e 01 17 3c 73 c5 a6 3e
       -0.010213963 -0.3144318 0.009216605 0.32572517
000140 ea cb 4e bd 39 92 8c 3d c3 8a fd bc 41 9d bc bd
       -0.050487436 0.06863827 -0.030949956 -0.09209681
000150 86 8f 88 3b 9f 8d 65 bb 67 70 fb bd 2e 3e f9 bb
       0.0041675 -0.003502704 -0.122772984 -0.0076062893
000160 be a0 ea bc 4b 35 59 3b ae d7 c5 3d dd 75 ab bd
       -0.028641101 0.0033143337 0.09660278 -0.0837209
000170 bc a4 f3 3b 5c 17 10 bd ca 41 e6 bc d3 50 2a be
       0.0074354094 -0.035178527 -0.028107543 -0.16632394
000180 59 af 72 bc 92 33 75 bb a4 f5 5c be 0f e8 66 bd
       -0.014812314 -0.0037414772 -0.2157808 -0.056373652
000190 27 ff 86 bc 1c 66 d1 bb 93 59 f4 3b 18 e6 ce bb
       -0.016479088 -0.006390346 0.007456967 -0.0063140504
0001a0 86 c0 22 3c 7e 2c 2d 3d c5 db 47 3b cb 86 bb 3c
       0.0099335965 0.04227876 0.0030495983 0.022891423
0001b0 80 09 8e 3c aa fc cb bc ec 71 3a bd 55 c7 01 bc
       0.017338514 -0.024900753 -0.0455188 -0.00792106
0001c0 68 58 bc 3d 53 6a 87 bd 16 10 4d be 98 8f ce bb
       0.0919655 -0.066120766 -0.20025668 -0.006303739
0001d0 9d fa f3 3b b3 90 24 ba e5 96 0c 3c 02 b0 a6 bd
       0.007445647 -0.00062776654 0.008580898 -0.081390396
0001e0 c9 26 6d be f4 15 5e 3c 2a 68 cf 3d 93 3a 2b 3b
       -0.23159327 0.013555039 0.101272896 0.0026127442
0001f0 a0 bd 90 bd 7a 39 b3 bb 77 d4 ae 3c 7f 32 11 be
       -0.07067418 -0.005469498 0.021341546 -0.14179419
000200 14 d6 0a 3e 43 48 a7 3d df 44 ff 3c 45 b8 df bb
       0.13558227 0.0816808 0.03116077 -0.0068273866
000210 a0 20 46 bd 52 4e 87 3c e1 f6 00 bc 10 ad 86 3c
       -0.048370957 0.016516838 -0.0078713605 0.016439945
000220 45 ac 47 bb ac 7c 03 bc 6f 2d f9 bd 5a ba 15 be
       -0.003046767 -0.00802533 -0.12166869 -0.14621869
000230 e1 5d 8b bc 3d 79 e1 bb ab fb 99 bb 63 12 6c 3c
       -0.017012538 -0.006880908 -0.0046991906 0.014408681
000240 90 04 75 3c 34 72 04 bb e1 77 1b 3c 13 22 4f 3d
       0.014954701 -0.0020209672 0.009489031 0.050569605
000250 b0 30 00 bd d6 36 41 b9 77 a6 d3 bd cf 90 8e 3c
       -0.031296432 -0.00018426342 -0.10334485 0.017403034
000260 8c 92 0e bc 65 1b c5 3d 48 40 25 3e 53 24 81 3e
       -0.008701932 0.09624366 0.16137803 0.25223026
000270 58 48 66 bd 64 b0 47 bc 70 12 48 bd 15 75 fe bd
       -0.056221336 -0.012188051 -0.04884571 -0.124246754
000280 5f 3f 08 bd 62 a7 b6 3d 82 9b 8a 3c a2 f0 0d be
       -0.03326356 0.089186445 0.016919855 -0.13861325
000290 af f5 b0 bd 5f 32 da bd 4b 8d 0b be 2f 6d c2 3b
       -0.086406104 -0.10654139 -0.13628118 0.005933426
0002a0 48 2d 15 3e f1 37 1f 3b 68 a0 61 bd 0a b7 e2 bc
       0.14568055 0.0024294818 -0.055084616 -0.02767517
0002b0 66 a4 a9 ba a8 51 3c 3d 89 9c 3b bd 13 e4 c5 bc
       -0.0012942671 0.04597631 -0.04580358 -0.024156606
0002c0 2f 25 1e bb 39 a4 10 be 1a 81 bd 3c 04 8a 18 3c
       -0.002413105 -0.14125146 0.02313285 0.009310249
0002d0 af 3f ef 3c 76 c8 c6 bc 53 c1 1b bd a2 53 11 bd
       0.029205171 -0.02426551 -0.038026165 -0.03548015
0002e0 c2 2b be bc da 75 56 be 8f e2 3e 3e dd 04 81 bb
       -0.023214225 -0.20943394 0.18641113 -0.0039373473
0002f0 06 87 b8 bc 80 83 da 3e dd e7 85 3c fa f2 fd 3e
       -0.022525322 0.42678452 0.016345913 0.4959944
000300 bb cb 20 3e 26 79 6f bd 98 18 70 bb 4f 8c 05 3a
       0.15702717 -0.058465146 -0.0036635753 0.0005094455
000310 f1 a9 34 be d3 73 25 be b4 d4 bc bd 3c a4 20 bc
       -0.17642953 -0.16157465 -0.092202574 -0.0098047815
000320 83 bd a8 3e 47 47 81 be 72 ce ad 3c f0 cd 83 bc
       0.32957086 -0.25249693 0.021216605 -0.01608941
000330 86 f0 0f bd 76 43 70 bd 83 50 72 be 38 8c bc 3b
       -0.03514149 -0.058658086 -0.23663525 0.00575402
000340 12 64 43 be 54 3e 01 bb 56 39 20 3c b5 37 de 3d
       -0.19081143 -0.0019720988 0.009779295 0.10850469
000350 f1 1e 4d bc e7 1f fc 3d a0 35 ba 3d ea de a5 ba
       -0.012519584 0.123107724 0.090922594 -0.0012654935
000360 ab 01 b4 3d a5 22 4a bc 19 64 e2 bc 3f 23 42 3c
       0.08789381 -0.012337361 -0.02763562 0.011849224
000370 be 26 6e 3c 77 b2 c8 3d 5b e6 70 bb 82 59 2d bd
       0.014535604 0.097996645 -0.0036758396 -0.04232169
000380 b7 16 52 bc a7 71 6e bd fe db 45 bd 67 47 8e be
       -0.012822798 -0.058213856 -0.048305504 -0.2778885
000390 0e fb 1a 3d 93 1f fa bc e0 32 03 bc ed 11 d3 3b
       0.03783708 -0.030532634 -0.008007735 0.006441346
0003a0 9e 24 97 bd 52 c6 03 be dd 75 81 3c 3d 84 24 bb
       -0.07380031 -0.12868622 0.015803272 -0.0025103234
0003b0 0c 45 a6 bc 9e 6a 0e 3e 6a 0f 2f bc 18 d6 13 3c
       -0.020296596 0.13907859 -0.010684827 0.009023212
0003c0 d5 2b 18 3e 7d 66 a1 3b 9e c9 38 3d c4 3a 77 3e
       0.1486047 0.0049255476 0.045114152 0.24143511
0003d0 fe 88 9d bb e2 a4 e2 3d b8 12 27 be 2f cb 49 3e
       -0.0048075905 0.11066605 -0.16315734 0.19706415
0003e0 89 03 94 bb ee b9 eb bb e8 5c 80 bd 65 fb 80 bb
       -0.004517023 -0.0071937954 -0.062677205 -0.0039362186
0003f0 7d dd 24 3c 7b 9b ff 3b 9c 80 2b bc 19 3b f5 3b
       0.010062573 0.007800517 -0.010467675 0.0074838516

parameters.std_b f4 [8]
000000 a0 c2 75 be d1 5e 5d be ca 3d 3d be 04 fe 7e be
       -0.24000025 -0.21618201 -0.18480602 -0.24901587
000010 e0 05 aa be 3b 1d 4d be e6 35 9c be 97 69 59 be
       -0.33207607 -0.20030682 -0.3050987 -0.21231686

parameters.std_w f4 [8, 256]
000000 5d c2 aa 3c b1 cb b5 bd da 70 63 3a 65 1a 34 3d
       0.020844633 -0.08876742 0.0008676179 0.043970484
000010 c8 93 08 3d 9f 55 bf 3d 3c 40 15 bd 91 26 a0 bb
       0.03334406 0.09342503 -0.03643821 -0.00488741
000020 84 dd 41 3d 2f ed 7e bb 81 4a d1 bd 95 50 b7 3b
       0.047330394 -0.0038898697 -0.102192886 0.005594323
000030 e8 c2 4f 3d 4f 9f 67 3d 24 49 89 3c e7 e1 f3 3d
       0.050722986 0.056548413 0.016758509 0.11908322
000040 68 9f 00 3d a6 04 60 3d 2b 87 fb bb b0 56 c0 3c
       0.03140202 0.054691933 -0.0076760254 0.023478836
000050 b3 cd 24 3d 90 96 88 3c 7f 61 11 3c 80 ed 17 3c
       0.040235233 0.016673356 0.008873343 0.009272933
000060 c0 b8 79 ba 4d d8 11 bd 87 3f 3b 3c f8 10 1e 3c
       -0.0009526126 -0.03560667 0.01142872 0.0096476
000070 c1 c0 ea bc 0f 39 91 3c d1 8d 1c 3e 07 07 43 3d
       -0.028656365 0.017727403 0.15288474 0.047614124
000080 89 13 db 3d 5d 03 19 bd 21 99 90 bc b4 fc 6a 3d
       0.106970854 -0.037356723 -0.017651143 0.057369903
000090 1f 52 56 3a 66 20 17 3b 18 69 0d bd a2 86 ab bc
       0.0008175689 0.0023060082 -0.034524053 -0.020938221
0000a0 e0 e9 97 3b f4 48 2c ba 1f 5a 6d 3c de 01 9e 3c
       0.0046360344 -0.000657215 0.014486819 0.019288
0000b0 05 d4 2d 3d 9c 8a 21 3c 73 52 81 ba ee 7f 75 3c
       0.042438526 0.009859707 -0.0009866491 0.014984114
0000c0 21 aa 34 3b 4c 09 b8 bc 75 c0 72 bd e4 1b 36 bc
       0.0027567225 -0.02246537 -0.059265573 -0.011115048
0000d0 e7 f7 b0 3c a5 fe 40 3d be bc 57 3d 90 ee 1d 3b
       0.021602584 0.047117848 0.052670233 0.0024098493
0000e0 24 56 b9 3c 27 5b 3a b9 40 76 c1 bd d1 0d 14 3d
       0.022624083 -0.00017772299 -0.094463825 0.03614599
0000f0 71 e7 01 3d ff de 30 3c 3d 8e 7b bb 06 7a f8 bc
       0.03171486 0.010795354 -0.0038384341 -0.030331623
000100 92 54 53 bd e0 26 58 3c f7 5c 1f 3c 50 03 73 bc
       -0.051594324 0.013192862 0.009726754 -0.014832333
000110 5d f4 d0 3c 38 75 65 bd 55 80 87 ba 63 85 8e 3c
       0.025507146 -0.05601999 -0.0010337929 0.017397588
000120 e3 12 25 3c 78 d1 bc bd 9f 5d e2 bb b2 88 97 b9
       0.010075304 -0.092196405 -0.006908133 -0.0002890281
000130 f0 6b 84 ba e2 c7 e3 bd 9d a8 d8 3c b3 d6 3b 3c
       -0.0010102969 -0.11122109 0.026447589 0.0114647625
000140 e7 d9 33 3c 38 52 7c bb 6a 89 ae 3c 31 8f 62 3e
       0.010977245 -0.0038501155 0.021305759 0.22124936
000150 65 d5 69 3c cc eb 29 3d d3 57 04 bd e3 83 29 3d
       0.014272069 0.04148464 -0.03231032 0.041385543
000160 cb ae e7 3b bc ff c1 bc b1 b3 81 bd 61 09 88 bd
       0.0070703975 -0.023681514 -0.063331015 -0.06642414
000170 87 36 ee 3a a9 7e 71 3c 4a 9b 11 3c d9 57 9a 3d
       0.0018174209 0.014739671 0.008887121 0.07536287
000180 7b a4 13 3c 38 fc df 3b c6 a6 37 bd 3c 2c 2b ba
       0.009011383 0.0068354867 -0.044836782 -0.0006529724
000190 5b 0a c8 ba 4c 9f a4 3b 67 8b a4 ba 4d 1a a1 3c
       -0.0015261875 0.0050238725 -0.0012553752 0.019665862
0001a0 68 f4 16 3c 23 8a 49 bc 23 9f d5 3a a6 0d 3a 3c
       0.009213544 -0.012301001 0.0016298037 0.011355793
0001b0 70 f4 01 3a d4 b4 ad 3b 0c c8 e9 3c 13 1c 55 3c
       0.00049573835 0.0053010974 0.028537773 0.013007182
0001c0 32 91 1c be c4 6e 2e 3b 40 1f 85 bd 03 98 64 3d
       -0.15289763 0.0026616314 -0.06500101 0.055809032
0001d0 f3 4b bd 3c 49 44 bb bb e2 7e 98 bb 27 f1 0d 3c
       0.023107504 -0.0057149273 -0.0046537975 0.008663452
0001e0 05 ee e5 3d 6c f9 97 bd 54 0c 28 be ab 84 f4 3b
       0.11227039 -0.0742062 -0.16410953 0.0074621043
0001f0 ed b9 4c be 4f 66 1e 3d 34 9f 32 bc 03 9e eb 3d
       -0.199928 0.038671788 -0.010902215 0.11504748
000200 68 ba 5e bc c9 a0 42 bb fd 2f 6d 3d 12 8a f0 3c
       -0.013594247 -0.0029697886 0.057907093 0.029362712
000210 e4 59 9a 3c 20 6a 21 3c 45 7b 53 3d c7 a3 14 3b
       0.018841691 0.009851962 0.05163123 0.0022680627
000220 6f ab bf bb d5 22 30 bc bc b1 1a 3e 94 ad bd bd
       -0.005849294 -0.010750492 0.15106863 -0.09261623
000230 88 98 1e bb 4b e5 a2 3c e1 d3 9b 3b d8 45 4f bb
       -0.0024199802 0.019884726 0.0047554825 -0.0031627323
000240 d8 f8 8f 3c e6 82 3f 3b 97 96 c2 3b 2c 3d 5d 3d
       0.017574713 0.0029222309 0.005938362 0.054013416
000250 6e 3d b7 3d f5 65 b4 bc 92 5b 62 bd e7 11 99 bc
       0.08947264 -0.022021273 -0.05526311 -0.018685294
000260 a4 fb 56 bd d4 34 0f 3d f2 1d 2c 3d 10 49 5b 3d
       -0.052486077 0.03496249 0.042020746 0.053536475
000270 65 38 70 3c 12 81 1e bd 21 be d7 3c e6 85 eb 3c
       0.014661883 -0.03869731 0.026335778 0.028750371
000280 ec 49 08 3d 68 b4 aa 3c d1 50 06 3c c6 a1 46 bd
       0.033273622 0.020837978 0.008197979 -0.048494123
000290 b6 9d bc 3c 8a 06 75 bc 27 4f 1f bd b5 71 67 bb
       0.023024421 -0.014955172 -0.038893845 -0.0035315577
0002a0 e2 da 76 b9 e6 af 28 bc 5a 49 a6 bd 99 47 45 3c
       -0.00023541928 -0.010295844 -0.081194595 0.012040996
0002b0 92 ba 4a 3a 88 35 2f 3d dd 46 09 3d 39 ff 8c 3d
       0.00077334896 0.04277566 0.033514846 0.06884617
0002c0 63 a7 bf 3c db a7 f7 3d 4c 6f 10 3c 7f 36 10 bc
       0.023395246 0.12092563 0.008815598 -0.008802055
0002d0 90 54 79 3c 0e 49 08 bd 8a bf 41 3c 5d 5b a6 3e
       0.015217915 -0.033272795 0.011825452 0.3249158
0002e0 6e 32 07 3d ce 00 98 bd 2e b5 77 3a 6b a0 00 3d
       0.033007078 -0.074220285 0.00094493 0.031402986
0002f0 4e 0b ca 3c 9a 71 86 3b bb 48 68 3c 29 b9 90 3c
       0.024663594 0.004102898 0.014177497 0.017666416
000300 b6 0e b6 bd 8f 8e d7 bd 75 fd a2 3c 36 bc d0 3c
       -0.08889525 -0.10525238 0.019896248 0.025480371
000310 53 1c 06 3d 25 2f 8d bd 7b 57 62 3c 5e 63 92 3c
       0.032741856 -0.06893758 0.013814802 0.017869648
000320 4a fa 44 3e 65 2f ac 3d 28 e0 30 bd ae f0 14 3d
       0.19236103 0.08407477 -0.043182522 0.036362343
000330 62 d5 46 3d 61 c4 9c 3c c2 fa 54 3d f6 fa 6e 3c
       0.04854334 0.01913661 0.051996954 0.014586201
000340 8e c3 3c 3c 9e f4 d3 bb db 09 0c 3c b0 8c 9f 3d
       0.011521233 -0.0064683696 0.008547272 0.07790506
000350 70 c0 eb 3b fa a7 31 bb d7 dc 87 bd 99 b4 92 3b
       0.007194571 -0.0027108178 -0.06633919 0.0044770953
000360 3a 9e aa 3b 92 64 74 3c 50 c3 45 3c ae 3f ae 3c
       0.0052068504 0.014916556 0.012070492 0.0212706
000370 e6 e0 73 bc 1d be 02 bd 7a 76 79 bc 2b 9b f1 3c
       -0.014885163 -0.031919587 -0.015226001 0.029492935
000380 56 cf 63 3d 5d 7a 5b 3d b1 b1 51 3c 5b 9e 69 3e
       0.055617653 0.05358349 0.012798713 0.22814314
000390 65 e9 19 3c ce 3c 19 3c 05 66 33 bb 9e d0 05 3d
       0.0093940245 0.009352876 -0.002737404 0.032669656
0003a0 10 53 a7 3d 40 67 fc 3c c8 63 02 ba 2e 88 87 3b
       0.0817014 0.030810952 -0.0004973975 0.004136107
0003b0 d7 09 04 3d 5d e0 ef 3d e7 68 0b 3a 7e 2f 98 bc
       0.032235947 0.11712716 0.0005318061 -0.018577334
0003c0 a7 b5 6d bc 4e 21 03 bd cb 17 0d be 1c d9 9f bc
       -0.014508641 -0.032014184 -0.13778608 -0.019512706
0003d0 63 01 8f bc 4c 23 33 3c 5c 98 ee bd 46 1b 33 3d
       -0.017456716 0.010933708 -0.11650154 0.04372718
0003e0 10 3e 81 3b a9 8e 81 3c 92 d3 49 bd 5d d5 4b bd
       0.003944166 0.015815096 -0.049274035 -0.049764026
0003f0 b2 63 c3 3c e3 1c 38 bc 97 70 9f 3c 5f 7c b2 39
       0.02385125 -0.011237356 0.019462867 0.0003404347
