notebook/result/weights/sac_snapbot/episode_0.pth (torch, 355416 bytes, 8 tensors)

parameters.mlp_0_b f4 [256]
0.0 0.0 0.0 0.0 0.0 0.0 0.0 0.0
0.0 0.0 0.0 0.0 0.0 0.0 0.0 0.0
0.0 0.0 0.0 0.0 0.0 0.0 0.0 0.0
0.0 0.0 0.0 0.0 0.0 0.0 0.0 0.0
0.0 0.0 0.0 0.0 0.0 0.0 0.0 0.0
0.0 0.0 0.0 0.0 0.0 0.0 0.0 0.0
0.0 0.0 0.0 0.0 0.0 0.0 0.0 0.0
0.0 0.0 0.0 0.0 0.0 0.0 0.0 0.0
0.0 0.0 0.0 0.0 0.0 0.0 0.0 0.0
0.0 0.0 0.0 0.0 0.0 0.0 0.0 0.0
0.0 0.0 0.0 0.0 0.0 0.0 0.0 0.0
0.0 0.0 0.0 0.0 0.0 0.0 0.0 0.0
0.0 0.0 0.0 0.0 0.0 0.0 0.0 0.0
0.0 0.0 0.0 0.0 0.0 0.0 0.0 0.0
0.0 0.0 0.0 0.0 0.0 0.0 0.0 0.0
0.0 0.0 0.0 0.0 0.0 0.0 0.0 0.0
0.0 0.0 0.0 0.0 0.0 0.0 0.0 0.0
0.0 0.0 0.0 0.0 0.0 0.0 0.0 0.0
0.0 0.0 0.0 0.0 0.0 0.0 0.0 0.0
0.0 0.0 0.0 0.0 0.0 0.0 0.0 0.0
0.0 0.0 0.0 0.0 0.0 0.0 0.0 0.0
0.0 0.0 0.0 0.0 0.0 0.0 0.0 0.0
0.0 0.0 0.0 0.0 0.0 0.0 0.0 0.0
0.0 0.0 0.0 0.0 0.0 0.0 0.0 0.0
0.0 0.0 0.0 0.0 0.0 0.0 0.0 0.0
0.0 0.0 0.0 0.0 0.0 0.0 0.0 0.0
0.0 0.0 0.0 0.0 0.0 0.0 0.0 0.0
0.0 0.0 0.0 0.0 0.0 0.0 0.0 0.0
0.0 0.0 0.0 0.0 0.0 0.0 0.0 0.0
0.0 0.0 0.0 0.0 0.0 0.0 0.0 0.0
0.0 0.0 0.0 0.0 0.0 0.0 0.0 0.0
0.0 0.0 0.0 0.0 0.0 0.0 0.0 0.0
00000000: 0000 0000 0000 0000 0000 0000 0000 0000
00000010: 0000 0000 0000 0000 0000 0000 0000 0000
00000020: 0000 0000 0000 0000 0000 0000 0000 0000
00000030: 0000 0000 0000 0000 0000 0000 0000 0000
00000040: 0000 0000 0000 0000 0000 0000 0000 0000
00000050: 0000 0000 0000 0000 0000 0000 0000 0000
00000060: 0000 0000 0000 0000 0000 0000 0000 0000
00000070: 0000 0000 0000 0000 0000 0000 0000 0000
00000080: 0000 0000 0000 0000 0000 0000 0000 0000
00000090: 0000 0000 0000 0000 0000 0000 0000 0000
000000a0: 0000 0000 0000 0000 0000 0000 0000 0000
000000b0: 0000 0000 0000 0000 0000 0000 0000 0000
000000c0: 0000 0000 0000 0000 0000 0000 0000 0000
000000d0: 0000 0000 0000 0000 0000 0000 0000 0000
000000e0: 0000 0000 0000 0000 0000 0000 0000 0000
000000f0: 0000 0000 0000 0000 0000 0000 0000 0000
00000100: 0000 0000 0000 0000 0000 0000 0000 0000
00000110: 0000 0000 0000 0000 0000 0000 0000 0000
00000120: 0000 0000 0000 0000 0000 0000 0000 0000
00000130: 0000 0000 0000 0000 0000 0000 0000 0000
00000140: 0000 0000 0000 0000 0000 0000 0000 0000
00000150: 0000 0000 0000 0000 0000 0000 0000 0000
00000160: 0000 0000 0000 0000 0000 0000 0000 0000
00000170: 0000 0000 0000 0000 0000 0000 0000 0000
00000180: 0000 0000 0000 0000 0000 0000 0000 0000
00000190: 0000 0000 0000 0000 0000 0000 0000 0000
000001a0: 0000 0000 0000 0000 0000 0000 0000 0000
000001b0: 0000 0000 0000 0000 0000 0000 0000 0000
000001c0: 0000 0000 0000 0000 0000 0000 0000 0000
000001d0: 0000 0000 0000 0000 0000 0000 0000 0000
000001e0: 0000 0000 0000 0000 0000 0000 0000 0000
000001f0: 0000 0000 0000 0000 0000 0000 0000 0000
00000200: 0000 0000 0000 0000 0000 0000 0000 0000
00000210: 0000 0000 0000 0000 0000 0000 0000 0000
00000220: 0000 0000 0000 0000 0000 0000 0000 0000
00000230: 0000 0000 0000 0000 0000 0000 0000 0000
00000240: 0000 0000 0000 0000 0000 0000 0000 0000
00000250: 0000 0000 0000 0000 0000 0000 0000 0000
00000260: 0000 0000 0000 0000 0000 0000 0000 0000
00000270: 0000 0000 0000 0000 0000 0000 0000 0000
00000280: 0000 0000 0000 0000 0000 0000 0000 0000
00000290: 0000 0000 0000 0000 0000 0000 0000 0000
000002a0: 0000 0000 0000 0000 0000 0000 0000 0000
000002b0: 0000 0000 0000 0000 0000 0000 0000 0000
000002c0: 0000 0000 0000 0000 0000 0000 0000 0000
000002d0: 0000 0000 0000 0000 0000 0000 0000 0000
000002e0: 0000 0000 0000 0000 0000 0000 0000 0000
000002f0: 0000 0000 0000 0000 0000 0000 0000 0000
00000300: 0000 0000 0000 0000 0000 0000 0000 0000
00000310: 0000 0000 0000 0000 0000 0000 0000 0000
00000320: 0000 0000 0000 0000 0000 0000 0000 0000
00000330: 0000 0000 0000 0000 0000 0000 0000 0000
00000340: 0000 0000 0000 0000 0000 0000 0000 0000
00000350: 0000 0000 0000 0000 0000 0000 0000 0000
00000360: 0000 0000 0000 0000 0000 0000 0000 0000
00000370: 0000 0000 0000 0000 0000 0000 0000 0000
00000380: 0000 0000 0000 0000 0000 0000 0000 0000
00000390: 0000 0000 0000 0000 0000 0000 0000 0000
000003a0: 0000 0000 0000 0000 0000 0000 0000 0000
000003b0: 0000 0000 0000 0000 0000 0000 0000 0000
000003c0: 0000 0000 0000 0000 0000 0000 0000 0000
000003d0: 0000 0000 0000 0000 0000 0000 0000 0000
000003e0: 0000 0000 0000 0000 0000 0000 0000 0000
000003f0: 0000 0000 0000 0000 0000 0000 0000 0000

parameters.mlp_0_w f4 [256, 70]
-0.01116474 -0.0022484174 -0.00015327736 -0.0034862033 0.0042789425 -0.009962554 -0.0037340543 -0.007127025
-0.006299398 0.006499517 -0.0004670101 -0.026122632 -0.002552434 -0.006808151 -0.00028325076 -0.0025046216
0.0025392952 0.0139263375 0.0059432164 0.0088339355 0.011668806 -0.010522023 -0.0035261153 0.0081337895
-0.0012647491 0.012601497 0.012140752 0.010137453 0.00024923563 0.0007178147 -0.0030172653 0.011319532
-0.0037066336 -0.014803807 0.0051548057 -0.0064551174 -0.0034613449 -0.0040154303 0.01167302 -0.0017850325
-0.009846118 0.0033694159 0.0023932736 0.005340539 0.005137393 0.0033826753 -0.007952912 -0.0015965996
-0.015701972 -0.002598831 -0.0024436868 0.0045415987 -0.0023345128 -0.008129164 0.013333642 -0.01931336
0.0011170257 0.0036419295 0.004521418 5.2626983e-05 -0.00576368 -0.003891162 -0.0027895486 -0.0021597901
-0.018123383 -0.0044311616 0.012165897 -0.026203142 0.014256971 -0.011265782 0.0070173726 0.013406227
0.017004471 0.0001135867 -0.00046878867 -0.0011749156 -0.013927069 0.0012246362 0.0059259483 -0.01662264
-0.00416074 -0.0057283277 -0.0017232557 -0.004026149 0.0070808455 -0.004769667 -0.006616282 -0.0040948973
0.0012023799 -0.0019980655 0.0018616904 -0.0064332257 -0.0105063105 -0.000536987 0.008468883 -0.023364015
-0.0013074061 0.0072682337 -0.0038301912 0.017449776 0.006649065 -0.014471403 -0.0059791473 -0.0019288886
0.0026992112 -0.0168095 -0.008735494 0.011190282 -0.0066834097 0.007591493 -0.0075061675 0.00814896
-0.010412039 -0.014819506 -0.014338851 -0.011652376 -0.009138635 -0.005922376 -0.000944677 0.011015017
-0.007840362 0.009042607 -0.0057002245 0.023747921 0.003892288 -0.00026893197 -0.009135402 0.0055671637
0.014928152 -0.008330692 0.002988958 0.008158519 0.001541331 -0.0035447588 -0.0043444806 -0.0064863986
0.007393305 -0.007086797 0.009248964 -0.018352658 0.004730517 0.0030652552 -0.012645938 -0.007318254
0.010242667 -0.0036139034 0.00061179965 -0.0054986314 -0.018801842 0.0054631797 -0.008600043 0.0059943837
-0.0022335772 0.014614533 -0.0024266883 -0.015257117 0.0010159153 -0.0012815711 0.002292875 -0.002099043
0.0050516943 0.0019757939 -0.012933514 -0.0057362784 -0.006132545 0.010493662 -0.0015004881 -0.002813641
-0.018667165 0.018124826 0.009218395 0.012189138 0.00802741 0.009172555 -0.00061731826 0.0113798445
-0.011993385 -0.01811532 -0.0070239417 -0.0029404524 0.016287623 0.0036547598 -0.0020649293 -0.0053513455
0.0070959344 0.018753322 -0.0077511384 0.009771094 0.008327767 -0.0013742911 -0.0034080995 0.014271363
0.0023471292 -0.005678504 0.017424213 0.009943598 0.0012307953 0.008051089 -0.017550655 -0.008340092
0.0005802047 -0.0038283346 0.00016744922 0.0043878853 -0.0059546777 -0.004581902 0.0049063424 -0.005904932
0.001596559 0.0013574326 0.01266579 -0.007247861 0.004774339 -0.0054156887 0.011171722 0.002564568
0.0029033294 0.015839593 -0.019421509 -0.009566445 -0.002825414 0.011169735 -0.002931628 -0.0058077937
-0.009656405 0.0150535675 -0.00305572 0.0021300793 0.007297025 0.008572206 -0.019626075 -0.0022150686
-0.006622545 -0.0040071723 0.00059490866 0.0020912443 -0.012369677 -0.00558406 -0.006605437 0.0037966822
0.0064937435 0.008277625 0.009266083 -0.012409715 0.0051894556 -0.003751295 0.00066060066 0.00045896112
-0.00055334106 -0.000371063 0.014476319 -0.016665606 -0.0024239556 0.0055818227 -0.020669343 -0.014142743
00000000: 50ec 36bc 2f5a 13bb 14b9 20b9 c978 64bb
00000010: 5f36 8c3b fb39 23bc 09b7 74bb d289 e9bb
00000020: 2e6b cebb e6f9 d43b 09d9 f4b9 21ff d5bc
00000030: bd46 27bb e916 dfbb 4681 94b9 9424 24bb
00000040: 4e6a 263b 4b2b 643c 50bf c23b 36bc 103c
00000050: 852e 3f3c 9064 2cbc 6616 67bb 9643 053c
00000060: f0c5 a5ba 8276 4e3c 01ea 463c 8f17 263c
00000070: d7ab 8239 bb2b 3c3a 50bd 45bb 8f75 393c
00000080: feea 72bb ab8b 72bc a5e9 a83b 7385 d3bb
00000090: bbd7 62bb df93 83bb 3240 3f3c c0f7 e9ba
000000a0: 9d51 21bc 6bd1 5c3b 78d8 1c3b b0ff ae3b
000000b0: 9357 a83b e0af 5d3b ee4c 02bc fe44 d1ba
000000c0: 6ca1 80bc 2651 2abb 4326 20bb b1d1 943b
000000d0: a0fe 18bb 2f30 05bc 5975 5a3c 0d37 9ebc
000000e0: 2a69 923a 70ad 6e3b 6728 943b cbbb 5c38
000000f0: 41dd bcbb de02 7fbb dcd0 36bb 448b 0dbb
00000100: 7d77 94bc 4733 91bb 7853 473c f9a7 d6bc
00000110: 1296 693c 1d94 38bc fdf1 e53b cba5 5b3c
00000120: f64c 8b3c 6535 ee38 c0c7 f5b9 a0ff 99ba
00000130: 5c2e 64bc f983 a03a 752e c23b 342c 88bc
00000140: d156 88bb b2b4 bbbb dede e1ba c9ed 83bb
00000150: 7006 e83b de4a 9cbb 65cd d8bb 7d2e 86bb
00000160: 2d99 9d3a faf1 02bb f703 f43a cfcd d2bb
00000170: a922 2cbc 96c4 0cba 12c1 0a3c e465 bfbc
00000180: 455d abba 5d2a ee3b f203 7bbb d5f2 8e3c
00000190: 66e0 d93b 7719 6dbc b9ec c3bb c3d2 fcba
000001a0: 40e5 303b 14b4 89bc 511f 0fbc 7257 373c
000001b0: 8100 dbbb 0fc2 f83b 4cf6 f5bb 3783 053c
000001c0: 4297 2abc 83cd 72bc 80ed 6abc 9be9 3ebc
000001d0: 37ba 15bc 7e10 c2bb 33a4 77ba 5478 343c
000001e0: dd74 00bc 7127 143c f3c8 babb 008b c23c
000001f0: c215 7f3b 70ff 8cb9 a7ac 15bc c16c b63b
00000200: 3595 743c 747d 08bc 65e2 433b 4fab 053c
00000210: 7c06 ca3a 2f4f 68bb 255c 8ebb db8b d4bb
00000220: 8a43 f23b 5d38 e8bb f788 173c 5058 96bc
00000230: 7402 9b3b 73e2 483b e930 4fbc f7cd efbb
00000240: dcd0 273c 3dd7 6cbb 2e61 203a dd2d b4bb
00000250: 5206 9abc 7904 b33b 32e7 0cbc 896c c43b
00000260: 3561 12bb cb71 6f3c 1309 1fbb fdf8 79bc
00000270: 7628 853a 64fa a7ba 0f44 163b 1990 09bb
00000280: af88 a53b 527c 013b 17e7 53bc 64f7 bbbb
00000290: 84f3 c8bb 9ced 2b3c 07ac c4ba 1065 38bb
000002a0: e2eb 98bc 847a 943c c008 173c f3b4 473c
000002b0: 6685 033c 7c48 163c 87d3 21ba 8772 3a3c
000002c0: e77f 44bc 9466 94bc 1829 e6bb 9bb4 40bb
000002d0: 9f6d 853c b284 6f3b c453 07bb 575a afbb
000002e0: 0385 e83b 91a0 993c 43fd fdbb f016 203c
000002f0: 3071 083c 8f21 b4ba 6c5a 5fbb 6fd2 693c
00000300: 4bd2 193b be12 babb 39bd 8e3c 79ea 223c
00000310: a352 a13a b7e8 033c 64c6 8fbc e2a4 08bc
00000320: e118 183a cce4 7abb 4f95 2f39 40c8 8f3b
00000330: 751f c3bb c823 96bb 62c5 a03b 297e c1bb
00000340: a143 d13a e1eb b13a 2c84 4f3c 777f edbb
00000350: 0f72 9c3b 1776 b1bb 9909 373c 5012 283b
00000360: c945 3e3b 09c2 813c db19 9fbc 94bc 1cbc
00000370: 952a 39bb 4401 373c 8e20 40bb 4e4f bebb
00000380: e635 1ebc 3da3 763c 7942 48bb cd98 0b3b
00000390: e21b ef3b 7072 0c3c ddc6 a0bc af2a 11bb
000003a0: ef01 d9bb 994e 83bb a5f3 1b3a 420d 093b
000003b0: 30aa 4abc 7efa b6bb 6c72 d8bb c2d1 783b
000003c0: 78c9 d43b e09e 073c c5d0 173c 1e52 4bbc
000003d0: 4f0c aa3b 49d8 75bb 292c 2d3a b8a0 f039
000003e0: 170e 11ba 3c8b c2b9 152e 6d3c 4f86 88bc
000003f0: 3adb 1ebb b9e7 b63b c152 a9bc f7b6 67bc

parameters.mlp_1_b f4 [256]
0.0 0.0 0.0 0.0 0.0 0.0 0.0 0.0
0.0 0.0 0.0 0.0 0.0 0.0 0.0 0.0
0.0 0.0 0.0 0.0 0.0 0.0 0.0 0.0
0.0 0.0 0.0 0.0 0.0 0.0 0.0 0.0
0.0 0.0 0.0 0.0 0.0 0.0 0.0 0.0
0.0 0.0 0.0 0.0 0.0 0.0 0.0 0.0
0.0 0.0 0.0 0.0 0.0 0.0 0.0 0.0
0.0 0.0 0.0 0.0 0.0 0.0 0.0 0.0
0.0 0.0 0.0 0.0 0.0 0.0 0.0 0.0
0.0 0.0 0.0 0.0 0.0 0.0 0.0 0.0
0.0 0.0 0.0 0.0 0.0 0.0 0.0 0.0
0.0 0.0 0.0 0.0 0.0 0.0 0.0 0.0
0.0 0.0 0.0 0.0 0.0 0.0 0.0 0.0
0.0 0.0 0.0 0.0 0.0 0.0 0.0 0.0
0.0 0.0 0.0 0.0 0.0 0.0 0.0 0.0
0.0 0.0 0.0 0.0 0.0 0.0 0.0 0.0
0.0 0.0 0.0 0.0 0.0 0.0 0.0 0.0
0.0 0.0 0.0 0.0 0.0 0.0 0.0 0.0
0.0 0.0 0.0 0.0 0.0 0.0 0.0 0.0
0.0 0.0 0.0 0.0 0.0 0.0 0.0 0.0
0.0 0.0 0.0 0.0 0.0 0.0 0.0 0.0
0.0 0.0 0.0 0.0 0.0 0.0 0.0 0.0
0.0 0.0 0.0 0.0 0.0 0.0 0.0 0.0
0.0 0.0 0.0 0.0 0.0 0.0 0.0 0.0
0.0 0.0 0.0 0.0 0.0 0.0 0.0 0.0
0.0 0.0 0.0 0.0 0.0 0.0 0.0 0.0
0.0 0.0 0.0 0.0 0.0 0.0 0.0 0.0
0.0 0.0 0.0 0.0 0.0 0.0 0.0 0.0
0.0 0.0 0.0 0.0 0.0 0.0 0.0 0.0
0.0 0.0 0.0 0.0 0.0 0.0 0.0 0.0
0.0 0.0 0.0 0.0 0.0 0.0 0.0 0.0
0.0 0.0 0.0 0.0 0.0 0.0 0.0 0.0
00000000: 0000 0000 0000 0000 0000 0000 0000 0000
00000010: 0000 0000 0000 0000 0000 0000 0000 0000
00000020: 0000 0000 0000 0000 0000 0000 0000 0000
00000030: 0000 0000 0000 0000 0000 0000 0000 0000
00000040: 0000 0000 0000 0000 0000 0000 0000 0000
00000050: 0000 0000 0000 0000 0000 0000 0000 0000
00000060: 0000 0000 0000 0000 0000 0000 0000 0000
00000070: 0000 0000 0000 0000 0000 0000 0000 0000
00000080: 0000 0000 0000 0000 0000 0000 0000 0000
00000090: 0000 0000 0000 0000 0000 0000 0000 0000
000000a0: 0000 0000 0000 0000 0000 0000 0000 0000
000000b0: 0000 0000 0000 0000 0000 0000 0000 0000
000000c0: 0000 0000 0000 0000 0000 0000 0000 0000
000000d0: 0000 0000 0000 0000 0000 0000 0000 0000
000000e0: 0000 0000 0000 0000 0000 0000 0000 0000
000000f0: 0000 0000 0000 0000 0000 0000 0000 0000
00000100: 0000 0000 0000 0000 0000 0000 0000 0000
00000110: 0000 0000 0000 0000 0000 0000 0000 0000
00000120: 0000 0000 0000 0000 0000 0000 0000 0000
00000130: 0000 0000 0000 0000 0000 0000 0000 0000
00000140: 0000 0000 0000 0000 0000 0000 0000 0000
00000150: 0000 0000 0000 0000 0000 0000 0000 0000
00000160: 0000 0000 0000 0000 0000 0000 0000 0000
00000170: 0000 0000 0000 0000 0000 0000 0000 0000
00000180: 0000 0000 0000 0000 0000 0000 0000 0000
00000190: 0000 0000 0000 0000 0000 0000 0000 0000
000001a0: 0000 0000 0000 0000 0000 0000 0000 0000
000001b0: 0000 0000 0000 0000 0000 0000 0000 0000
000001c0: 0000 0000 0000 0000 0000 0000 0000 0000
000001d0: 0000 0000 0000 0000 0000 0000 0000 0000
000001e0: 0000 0000 0000 0000 0000 0000 0000 0000
000001f0: 0000 0000 0000 0000 0000 0000 0000 0000
00000200: 0000 0000 0000 0000 0000 0000 0000 0000
00000210: 0000 0000 0000 0000 0000 0000 0000 0000
00000220: 0000 0000 0000 0000 0000 0000 0000 0000
00000230: 0000 0000 0000 0000 0000 0000 0000 0000
00000240: 0000 0000 0000 0000 0000 0000 0000 0000
00000250: 0000 0000 0000 0000 0000 0000 0000 0000
00000260: 0000 0000 0000 0000 0000 0000 0000 0000
00000270: 0000 0000 0000 0000 0000 0000 0000 0000
00000280: 0000 0000 0000 0000 0000 0000 0000 0000
00000290: 0000 0000 0000 0000 0000 0000 0000 0000
000002a0: 0000 0000 0000 0000 0000 0000 0000 0000
000002b0: 0000 0000 0000 0000 0000 0000 0000 0000
000002c0: 0000 0000 0000 0000 0000 0000 0000 0000
000002d0: 0000 0000 0000 0000 0000 0000 0000 0000
000002e0: 0000 0000 0000 0000 0000 0000 0000 0000
000002f0: 0000 0000 0000 0000 0000 0000 0000 0000
00000300: 0000 0000 0000 0000 0000 0000 0000 0000
00000310: 0000 0000 0000 0000 0000 0000 0000 0000
00000320: 0000 0000 0000 0000 0000 0000 0000 0000
00000330: 0000 0000 0000 0000 0000 0000 0000 0000
00000340: 0000 0000 0000 0000 0000 0000 0000 0000
00000350: 0000 0000 0000 0000 0000 0000 0000 0000
00000360: 0000 0000 0000 0000 0000 0000 0000 0000
00000370: 0000 0000 0000 0000 0000 0000 0000 0000
00000380: 0000 0000 0000 0000 0000 0000 0000 0000
00000390: 0000 0000 0000 0000 0000 0000 0000 0000
000003a0: 0000 0000 0000 0000 0000 0000 0000 0000
000003b0: 0000 0000 0000 0000 0000 0000 0000 0000
000003c0: 0000 0000 0000 0000 0000 0000 0000 0000
000003d0: 0000 0000 0000 0000 0000 0000 0000 0000
000003e0: 0000 0000 0000 0000 0000 0000 0000 0000
000003f0: 0000 0000 0000 0000 0000 0000 0000 0000

parameters.mlp_1_w f4 [256, 256]
-0.0074769375 -0.014877929 0.015772443 -0.012587783 -0.0003639158 -0.017118953 -0.013324661 0.004304251
-0.01884962 -0.0064739115 0.006244664 0.0037069751 0.02032544 0.013891214 0.013888475 0.0020562385
0.0095609445 -0.011644362 0.015703443 0.011113735 0.0033814132 0.0052549127 -0.0020853507 0.001182595
-0.010558531 0.017837636 -0.0013356085 -0.015381128 -0.0081725195 0.007227869 -0.001886974 -0.019954596
0.012280345 -0.008124383 0.009549809 0.0060496214 -0.012436726 0.00596229 -0.00047265066 0.0032985033
0.007522373 0.004967944 0.0022234817 0.008843548 -0.011683494 -0.0033515322 0.023463441 0.008935484
0.0039921924 0.010069217 -0.0005735455 0.011634939 -0.0045281104 0.0098148305 0.0017889233 0.0059292368
-0.006968232 -0.003650544 0.004809515 -0.014373841 0.0031798177 -0.016006367 -0.0028353503 0.013196768
0.014248853 0.01571535 0.002257128 -0.003966346 0.00070219394 0.009622234 -0.0018565636 0.020816287
-0.0018485944 -0.009869165 -0.005688248 0.016105639 0.0055249897 0.015192209 -0.008064214 0.008928458
0.0005889438 0.005635699 -0.01959846 -0.00016694017 -0.015041103 0.005713471 -0.016545521 -0.008422201
0.0038403417 0.014313681 0.0008949623 -0.018721396 0.020806715 0.0068010134 -0.009914519 0.01397115
0.0026370129 -0.008095129 -0.0004573452 0.0101497825 0.014980448 0.000286551 0.00987567 -0.0055628833
0.0009392104 -0.0029796378 0.0084815975 -0.012532018 0.008122571 0.00030923303 0.012874711 -0.009106643
0.013165195 0.0010768126 0.0066124336 0.004954187 0.0039853826 -0.009114398 0.0019632233 0.008264767
0.0026511645 -0.012987886 0.0013003828 -0.010379742 -0.011237835 -0.0021934824 0.007763668 -0.0058775847
0.002139963 -0.0016228685 -0.010011824 0.007611812 0.014847934 -0.0019006788 -0.0018017883 -0.004864026
0.009004837 -0.02485741 0.013339207 0.0045977086 -0.0043374565 -0.008627939 -0.004375133 -0.012149978
-0.0034769077 -0.0024139162 0.020862473 0.015436473 0.01948856 0.003172842 -0.0037284377 -0.0033630906
0.023383059 -0.009592337 0.007608121 0.006407825 0.014784998 -0.00046742568 0.004451947 0.0013773076
-0.0011918435 0.012782609 -0.006079391 -0.0017432568 -0.008713509 -0.002744151 0.004931903 -0.005434087
-0.008219539 -0.0091743795 0.016676666 0.0012434856 -0.010925073 -0.01146423 -0.011889868 0.007543185
0.0028601512 -0.006842283 0.0007034464 0.006207439 -0.0052232826 0.0041575725 -0.015635934 0.0010516613
0.00948772 -0.0007539165 -0.002680438 0.009996485 -0.009291741 0.009285163 0.0043965396 -0.013142817
-0.0031173371 -0.0031089133 0.005010291 -0.0152215045 -0.012818883 0.0032434377 0.005239381 -0.002013464
-0.004267433 -0.0018307115 -0.024697816 -0.024549231 -0.004471149 0.0039364137 -0.003693429 0.023099558
-0.0010616938 -0.00733618 0.016182298 -0.00079600565 -0.012044726 -0.0010951209 -0.00044085638 0.011788093
-0.00059744075 0.008549868 0.012089228 0.004615749 0.010873081 -0.0005362851 0.005049423 0.0039072544
0.0127198715 0.0023719808 -0.0022724704 0.0036709695 -0.004011629 -0.016380336 0.009996329 0.02083495
0.004111535 0.018703785 -0.00017124298 -0.00024650554 -0.0031222033 -0.007295178 -0.012013507 0.011689392
0.0018152271 -0.007321326 0.026308283 -0.0061560017 -0.009610636 -0.002839423 0.0046409285 -0.001072819
0.0040338365 -0.0038132449 0.010128026 0.01934479 -0.0133837415 -0.007865374 -0.00073731225 -0.0014591155
00000000: 1901 f5bb 8fc2 73bc 3635 813c fd3c 4ebc
00000010: f4cb beb9 0c3d 8cbc ae4f 5abc ad0a 8d3b
00000020: 856a 9abc 1b23 d4bb 0aa0 cc3b b9f0 723b
00000030: 8a81 a63c f997 633c 7c8c 633c f5c1 063b
00000040: 82a5 1c3c fec7 3ebc 82a4 803c 6216 363c
00000050: b39a 5d3b 6731 ac3b 61aa 08bb 4e01 9b3a
00000060: b0fd 2cbc 3c20 923c 960f afba 2001 7cbc
00000070: 08e6 05bc c2d7 ec3b 5754 f7ba d277 a3bc
00000080: 8033 493c 221c 05bc cd76 1c3c e73b c63b
00000090: 69c3 4bbc 505f c33b 19ce f7b9 b42b 583b
000000a0: 3d7e f63b 23ca a23b d5b7 113b 87e4 103c
000000b0: 206c 3fbc 61a5 5bbb 6736 c03c 2366 123c
000000c0: f0d0 823b 5bf9 243c fd59 16ba 79a0 3e3c
000000d0: 8b60 94bb 62ce 203c 4e7a ea3a 0b4a c23b
000000e0: c455 e4bb f73d 6fbb 2399 9d3b 4280 6bbc
000000f0: 7d64 503b c91f 83bc 49d1 39bb 4237 583c
00000100: 0574 693c 7abd 803c 53ec 133b 1ff8 81bb
00000110: 7013 383a 93a6 1d3c f057 f3ba eb86 aa3c
00000120: 894c f2ba 47b2 21bc 7c64 babb f9ef 833c
00000130: f90a b53b bee8 783c c41f 04bc ab48 123c
00000140: 5963 1a3a abab b83b f38c a0bc a90c 2fb9
00000150: f56e 76bc 1238 bb3b 798a 87bc 45fd 09bc
00000160: 3eae 7b3b ee83 6a3c e79b 6a3a 9d5d 99bc
00000170: d872 aa3c 09db de3b 8270 22bc 40e7 643c
00000180: bcd1 2c3b 6fa1 04bc d5c7 efb9 464b 263c
00000190: 8e70 753c 393c 9639 90cd 213c d948 b6bb
000001a0: 5835 763a 0746 43bb 66f6 0a3c 1853 4dbc
000001b0: 8814 053c 8e20 a239 74f0 523c 0734 15bc
000001c0: d4b2 573c d623 8d3a 1dad d83b bc56 a23b
000001d0: d097 823b 8e54 15bc 6ca9 003b f268 073c
000001e0: 29bf 2d3b 24cb 54bc 9b71 aa3a cb0f 2abc
000001f0: e51e 38bc 87c0 0fbb 5e66 fe3b c198 c0bb
00000200: 9f3e 0c3b 6eb6 d4ba a208 24bc 826c f93b
00000210: c044 733c 3320 f9ba fc29 ecba 6862 9fbb
00000220: 0689 133c c4a1 cbbc b08c 5a3c 60a8 963b
00000230: 3921 8ebb 335c 0dbc 475d 8fbb b410 47bc
00000240: d5dc 63bb cb32 1ebb c7e7 aa3c 43e9 7c3c
00000250: 79a6 9f3c 75ef 4f3b ce58 74bb 4c67 5cbb
00000260: d48d bf3c 2d29 1dbc 8b4d f93b bbf8 d13b
00000270: c73c 723c d010 f5b9 a3e1 913b c686 b43a
00000280: a237 9cba 266e 513c a135 c7bb fe7d e4ba
00000290: 1bc3 0ebc 37d7 33bb cd9b a13b 6d10 b2bb
000002a0: 3fab 06bc 2350 16bc 819d 883c 74fc a23a
000002b0: 14ff 32bc 77d4 3bbc b9cd 42bc d22c f73b
000002c0: 6071 3b3b 3b35 e0bb 7d67 383a c667 cb3b
000002d0: 1228 abbb 3f3c 883b ee16 80bc e6d7 893a
000002e0: 6272 1b3c 7ba2 45ba 4aaa 2fbb 4cc8 233c
000002f0: 633c 18bc cc20 183c d910 903b f854 57bc
00000300: 3d4c 4cbb e9be 4bbb 5e2d a43b 9e63 79bc
00000310: 4b06 52bc db8f 543b 1daf ab3b 52f4 03bb
00000320: d3d5 8bbb 7cf4 efba 1353 cabc 781b c9bc
00000330: b782 92bb 08fd 803b 750d 72bb 493b bd3c
00000340: 8828 8bba 5764 f0bb bd90 843c 09ab 50ba
00000350: 3e57 45bc 298a 8fba be22 e7b9 d822 413c
00000360: 929d 1cba bf14 0c3c e611 463c b63f 973b
00000370: 0225 323c 7c95 0cba a175 a53b 6d08 803b
00000380: 0267 503c 3c73 1b3b baed 14bb a694 703b
00000390: fc73 83bb 0e30 86bc a5c7 233c 0fae aa3c
000003a0: 0eba 863b ae38 993c b08f 33b9 6a3d 81b9
000003b0: e19d 4cbb 630c efbb 4dd4 44bc dd84 3f3c
000003c0: eaec ed3a bce7 efbb 7884 d73c 49b8 c9bb
000003d0: ee75 1dbc 9d15 3abb ee12 983b d59d 8cba
000003e0: 462e 843b a2e7 79bb 05f0 253c f778 9e3c
000003f0: 7b47 5bbc c5dd 00bc 3048 41ba cb3f bfba

parameters.mu_b f4 [8]
0.0 0.0 0.0 0.0 0.0 0.0 0.0 0.0
00000000: 0000 0000 0000 0000 0000 0000 0000 0000
00000010: 0000 0000 0000 0000 0000 0000 0000 0000

parameters.mu_w f4 [8, 256]
0.0029725523 -0.0001905198 -0.006695876 0.009062451 0.0065852082 -0.0023805953 -0.0037832798 -0.006594576
-0.0015813757 -0.0052444255 -0.012804727 -0.0012380619 0.004170072 -0.0045085046 -0.009174373 -0.016459273
0.0059246663 -0.0021461665 -0.014396517 0.012052821 0.0039751255 0.016154196 -0.0039629797 0.0029481298
-0.00011781555 -0.0070237657 -0.0022874952 0.0076857703 -0.0050392603 -0.008598133 0.0030476486 0.006776003
-0.0020505039 -0.015324543 -0.013000664 -7.245723e-05 0.011724278 0.008069158 -0.0039578797 -0.005490901
0.0045113186 0.0053984015 0.02636203 -0.009559683 0.00213642 -0.0029022067 0.02091931 -0.011854138
-0.009765425 0.005133944 0.0024169772 -0.022044769 -0.01277579 0.0042147217 -0.0044188662 -0.0049599684
-0.0088394135 0.012149208 0.009448823 -0.012954618 -0.003907957 -0.004059599 0.013381465 -0.016639352
0.0044798795 0.0030424127 0.010144359 -0.006762954 -0.005540062 0.0043473975 0.0028231626 -0.004558607
-0.0038907053 -0.005598371 -0.013764604 2.476297e-05 -0.0043368656 -0.014367824 -0.00978366 0.02565381
-0.0051856046 0.018860817 -0.007224079 0.00683026 0.004172068 -0.0063346815 -0.009183098 0.012349616
0.0153309135 0.018460525 -0.0075562727 0.006758108 0.009925282 0.0037516784 -0.0019984874 -0.021629285
-0.012280383 0.0052472204 -0.017102035 -0.0026931867 -0.016716503 -0.010111885 0.008007744 -0.007817049
0.0076394784 0.004740423 0.0062993816 0.0044520185 0.009021386 -0.0055909334 0.014996373 -0.0014389036
-0.015187687 -0.006845956 -0.016440041 0.007963131 -0.0051625147 0.010623114 0.023071079 0.004600008
-0.008392105 -0.0010819131 -0.0023433822 0.0026401035 0.0032571773 0.013258071 0.011024476 -0.008500605
0.0052999905 0.0031689955 0.0038347368 -0.00018345744 -0.003169177 0.011696846 0.012413801 0.015100013
-0.0060948078 -0.008480675 0.0020980109 0.017036838 -0.013287651 -0.0009163288 -0.0039651184 0.013267133
-0.001311362 0.001975022 -0.014707516 -0.008392948 -0.00063392 -0.01887194 0.0014632092 0.009101468
0.015404537 -0.00812338 -0.0018822592 -0.014883843 -0.0025827712 -0.01730804 0.0048217215 0.0022221503
-0.004833204 0.018623471 0.0014437746 0.0036153402 0.017417677 0.007698888 0.0032068011 0.0118938275
0.007870704 0.01057217 -0.0070648068 0.003159088 0.003584764 -0.006694546 -0.005616621 0.002158729
0.0077253454 -0.0076164687 0.007746359 0.0140133 0.017217703 -0.0016840342 -0.0014815337 0.00034726987
-0.011231083 -0.015891438 -0.013766734 -0.017343504 -0.005868367 0.0055921585 0.001999577 0.017514842
-0.006945285 0.012132202 0.0009072657 -0.007723016 -0.014623817 -0.005864357 -0.0027893805 -0.011240342
0.0069559272 -0.0039179185 -0.0033339479 -0.0018859924 -0.0012336326 -0.009542312 -0.00028019064 -0.00805493
0.0080106845 0.008014438 0.0057118363 0.027360536 0.02501883 -0.0012180604 0.005591589 0.0017976221
-0.0156222535 0.012909035 0.0036931827 0.013363787 0.009316357 -0.0025726305 -0.019118967 -0.008301547
0.008302307 0.0069775824 -0.0034535623 -0.02088781 -0.0028833423 -0.010060213 0.0071830037 -0.0052255085
-0.0065230224 0.015743148 -0.008050356 7.4838565e-05 -0.010093352 0.0025903755 0.015113329 0.019296557
0.0049433373 0.016259788 0.006883978 0.012066732 -0.0029448178 -0.015952885 -0.005138098 -0.015925832
-0.0039656344 0.0033690655 -0.00171574 0.009399996 0.018112646 0.0067935097 -0.008630136 0.00091700174
00000000: 27cf 423b 45c6 47b9 1469 dbbb ad7a 143c
00000010: bbc8 d73b c303 1cbb e7f0 77bb 5017 d8bb
00000020: 2a46 cfba 6ed9 abbb ebca 51bc 7746 a2ba
00000030: 19a5 883b 14bc 93bb 1c50 16bc 99d5 86bc
00000040: b423 c23b b3a6 0cbb 5edf 6bbc 3279 453c
00000050: c541 823b ce55 843c e2db 81bb 6935 413b
00000060: be13 f7b8 9e27 e6bb cde9 15bb ead8 fb3b
00000070: 6120 a5bb 2fdf 0cbc 0fbb 473b 3c09 de3b
00000080: bf61 06bb cb13 7bbc bd00 55bc 2ef4 97b8
00000090: 3017 403c 8034 043c 1ab1 81bb 04ed b3bb
000000a0: afd3 933b 13e5 b03b 2ff5 d73c 37a0 1cbc
000000b0: 2e03 0c3b f332 3ebb f95e ab3c dc37 42bc
000000c0: 29ff 1fbc a53a a83b 2666 1e3b 3b97 b4bc
000000d0: 8c51 51bc a61b 8a3b 23cc 90bb 3b87 a2bb
000000e0: 30d3 10bc 790d 473c 3ccf 1a3c 9b3f 54bc
000000f0: 520e 80bb 6206 85bb ef3d 5b3c 404f 88bc
00000100: f4cb 923b 3763 473b 8734 263c c59b ddbb
00000110: 6989 b5bb 9d74 8e3b cf04 393b 5e60 95bb
00000120: 34fb 7ebb 8a72 b7bb ef84 61bc 13ba cf37
00000130: 441c 8ebb 0667 6bbc a54b 20bc f027 d23c
00000140: 01ec a9bb 0082 9a3c f8b7 ecbb 60d0 df3b
00000150: d8b5 883b 2993 cfbb b474 16bc 0b56 4a3c
00000160: 832e 7b3c 873a 973c 9c9a f7bb 1e73 dd3b
00000170: a69d 223c b8de 753b 0ef9 02bb e62f b1bc
00000180: a933 49bc e0f0 ab3b 9119 8cbc 2d80 30bb
00000190: 0cf1 88bc 52ac 25bc ea32 033c 1413 00bc
000001a0: 9754 fa3b 8d55 9b3b 0b6b ce3b 3de2 913b
000001b0: 6fce 133c 2634 b7bb 59b3 753c 9899 bcba
000001c0: c7d5 78bc 0b54 e0bb 44ad 86bc cb77 023c
000001d0: 502a a9bb 920c 2e3c 8fff bc3c aabb 963b
000001e0: 0a7f 09bc fbce 8dba 6e93 19bb 9605 2d3b
000001f0: 5e76 553b 6138 593c 01a0 343c 1f46 0bbc
00000200: 8bab ad3b ecae 4f3b 3550 7b3b 7b5e 40b9
00000210: f8b1 4fbb 21a4 3f3c 4163 4b3c 0c66 773c
00000220: f4b6 c7bb 87f2 0abc c87e 093b d790 8b3c
00000230: 73b4 59bc c935 70ba d3ed 81bb 645e 593c
00000240: 02e2 abba 5f6f 013b cbf7 70bc 9382 09bc
00000250: a72d 26ba 5499 9abc 27c9 bf3a 531e 153c
00000260: 5063 7c3c ed17 05bc 23b6 f6ba 5ddb 73bc
00000270: b643 29bb 97c9 8dbc 88ff 9d3b 7fa1 113b
00000280: db5f 9ebb 4090 983c 093d bd3a 58ef 6c3b
00000290: 84af 8e3c f446 fc3b 3229 523b 54de 423c
000002a0: 20f4 003c e536 2d3c e57f e7bb b408 4f3b
000002b0: 5cee 6a3b ec5d dbbb a20b b8bb 7679 0d3b
000002c0: e524 fd3b 9293 f9bb 2bd5 fd3b 0a98 653c
000002d0: 240c 8d3c d0ba dcba 0630 c2ba c611 b639
000002e0: 9402 38bc c32e 82bc de8d 61bc f713 8ebc
000002f0: 6e4b c0bb 6d3e b73b 560b 033b 497b 8f3c
00000300: 4695 e3bb 25c6 463c 92d5 6d3a 5b11 fdbb
00000310: bc98 6fbc cb29 c0bb 0ace 36bb 6929 38bc
00000320: 8cee e33b e261 80bb 5d7e 5abb 6733 f7ba
00000330: d7b1 a1ba 5b57 1cbc 8de6 92b9 d3f8 03bc
00000340: 3f3f 033c fd4e 033c 5b2a bb3b 3423 e03c
00000350: 4af4 cc3c 53a7 9fba a639 b73b 309e eb3a
00000360: 7bf4 7fbc 6b80 533c 5309 723b c9f3 5a3c
00000370: a2a3 183c 9499 28bb 619f 9cbc 3603 08bc
00000380: 6606 083c 34a4 e43b 2955 62bb ea1c abbc
00000390: 75f6 3cbb 97d3 24bc 675f eb3b be3a abbb
000003a0: 14bf d5bb c6f7 803c a4e5 03bc a6f2 9c38
000003b0: 965e 25bc 4ac3 293b e59d 773c d013 9e3c
000003c0: b8fb a13b 3f33 853c fe92 e13b 8bb3 453c
000003d0: d8fd 40bb a0af 82bc 7d5d a8bb e476 82bc
000003e0: 27f2 81bb 8acb 5c3b aee2 e0ba 7102 1a3c
000003f0: f960 943c 179c de3b 6a65 0dbc f262 703a

parameters.std_b f4 [8]
0.0 0.0 0.0 0.0 0.0 0.0 0.0 0.0
00000000: 0000 0000 0000 0000 0000 0000 0000 0000
00000010: 0000 0000 0000 0000 0000 0000 0000 0000

parameters.std_w f4 [8, 256]
-0.019025534 0.01078282 0.0146996565 0.01339602 0.016383946 0.012402371 0.014739426 -0.008649441
0.007669353 -0.00386866 0.0008368666 -0.0032434324 -0.00050065905 0.01072862 0.0058108317 0.018870581
-0.0002081325 -0.0066529224 -0.011476497 0.013244353 -0.00041541536 0.007010496 -0.005804016 -0.019338453
0.00045095204 0.0046934993 0.00753436 0.005364461 -0.0024432584 -0.0086695 0.006287778 0.006366301
-0.01568786 -0.007447087 0.02043913 -0.006375903 -0.004110117 -0.0023786908 0.006799785 -0.02481225
0.00012504995 0.0066967313 0.012494259 0.003423332 0.0033551976 0.009771351 -0.0048877774 0.0059847063
-0.0018352857 -0.0026562198 -0.0057687163 0.003796962 0.013115327 -0.002094208 -0.0040988913 -0.0015907455
0.00011625088 -0.003267304 0.008995398 0.014092286 0.025159862 0.008322875 0.013089382 -0.0061123935
-0.011658886 -0.00013949242 0.0051083337 -0.018428154 0.0030374983 -0.018151194 0.0019766376 -0.024545576
-0.012007023 0.0070585217 -0.011024929 -0.004054058 -0.0012523921 -0.0056553804 -0.029857745 0.014683567
0.008536717 0.027871193 0.012291418 -0.012863399 0.010993055 -0.01275595 0.0024090665 0.014974134
0.011563273 -0.012611968 0.016781725 -0.008000115 -0.0026335604 -0.004988571 0.0013729223 -0.004301015
0.0008322497 -0.007334416 -0.002067963 -0.008346484 -0.007888526 0.0010023151 -0.005338695 0.025135063
0.0050673536 -0.0025101842 -0.0026890219 0.0049803713 -0.0040303 0.004132854 -0.0026440981 -0.0012128444
-0.013097436 0.008051283 -0.004858471 0.009907956 0.017315263 -0.01915402 -0.018203033 -0.01235398
0.013364186 -0.003734256 0.0045833467 0.0032673448 0.005940138 -0.00095603307 0.020868627 0.00558816
-0.0020536482 0.016719561 0.0061287545 0.004575138 -0.0011845361 0.0053443005 0.018007563 -0.0016515612
-0.009364401 -0.014812385 0.0047239535 -0.008646969 -0.0065624653 -0.008347456 0.0013115501 -0.007359607
0.005002873 -0.0009793887 -0.008504178 -0.002753974 0.007834243 -0.004928325 -0.003756503 -0.0083563095
0.0028380933 0.009979722 -0.004483878 -0.0065680197 -0.0029246905 -0.009610203 0.013089658 0.020095708
0.016229106 0.021830305 0.0063932203 -7.111803e-05 0.009116092 0.006911923 0.007971424 0.005073299
-0.020925786 0.006022735 -0.0055582277 -0.007065924 -0.0015345461 -0.009401005 0.001902228 0.02073224
-0.01048224 0.024337478 -0.0008732656 -0.012671156 0.019061213 -0.0059868 -0.00036899335 -0.0052565983
0.0037580123 0.00023629317 0.0058553927 0.0056533655 -0.0024927226 -0.0068788794 -0.008282271 0.02563521
-0.0032403609 -0.007406737 0.014725989 -0.003527626 0.0069905967 0.007868992 0.008074804 0.014402165
-0.007278876 0.0060478086 -0.0070984717 0.012140654 0.016443118 0.0037618605 0.013133293 0.0023076679
-0.0068126903 -0.011170902 0.0038459478 0.014550608 -0.0006197027 -0.0081926705 0.005846578 0.0001685439
0.0013880585 0.0026873897 0.005469259 0.017738879 0.009454987 -0.003656796 -0.008425506 0.010423043
0.0062979013 0.0033377975 -0.011063147 0.0012011504 -0.011023233 -0.004633228 -0.00024798632 -0.0068003624
-0.008753255 0.0031749129 -0.009032943 -0.0010733149 0.019112786 -0.0065588234 0.010694918 -0.016607229
-0.0018430772 0.008850443 -0.0018455206 -0.0016644166 -0.0207892 -0.00093709375 0.006699043 0.017586822
-0.00026669237 0.00079761184 0.0061183786 -0.0018553198 0.006235875 -0.015026618 0.015151778 -0.0011417728
00000000: 70db 9bbc 6daa 303c d4d6 703c fb7a 5b3c
00000010: a037 863c 5033 4b3c a27d 713c 63b6 0dbc
00000020: 324f fb3b 5889 7dbb 2b61 5b3a c48f 54bb
00000030: a93e 03ba 18c7 2f3c ca68 be3b 7a96 9a3c
00000040: 243e 5ab9 c200 dabb eb07 3cbc d8fe 583c
00000050: 1bcc d9b9 4eb8 e53b 9d2f bebb ad6b 9ebc
00000060: c26d ec39 edcb 993b cbe2 f63b 5cc8 af3b
00000070: 131f 20bb 850a 0ebc b409 ce3b 679c d03b
00000080: d483 80bc b206 f4bb f66f a73c f3ec d0bb
00000090: 29ae 86bb cfe3 1bbb bbd0 de3b 0f43 cbbc
000000a0: d71f 0339 4170 db3b b8b4 4c3c fb59 603b
000000b0: e0e2 5b3b 0418 203c a629 a0bb 5b1b c43b
000000c0: f88d f0ba f913 2ebb 8007 bdbb 74d6 783b
000000d0: abe1 563c fb3e 09bb fe4f 86bb 9080 d0ba
000000e0: b7cb f338 4420 56bb 6f61 133c 55e3 663c
000000f0: 0e1c ce3c ab5c 083c d974 563c 794a c8bb
00000100: ea04 3fbc b644 12b9 cf63 a73b a4f6 96bc
00000110: c410 473b d0b1 94bc 7a8a 013b ce13 c9bc
00000120: 1bb9 44bc 2c4b e73b e7a1 34bc e7d7 84bb
00000130: 4e27 a4ba c550 b9bb 3b98 f4bc 5893 703c
00000140: 96dd 0b3c 2152 e43c f261 493c 02c1 52bc
00000150: 371c 343c 55fe 50bc 6ee1 1d3b 1256 753c
00000160: e273 3d3c 6ea2 4ebc d479 893c ea12 03bc
00000170: d097 2cbb 2b77 a3bb a1f3 b33a 87ef 8cbb
00000180: 552b 5a3a 8a55 f0bb a986 07bb b1bf 08bc
00000190: e03e 01bc 1d60 833a 38f0 aebb 0ce8 cd3c
000001a0: 0b0c a63b e781 24bb 4d3a 30bb 6232 a33b
000001b0: 9b10 84bb e46c 873b 9b48 2dbb 4ef8 9eba
000001c0: a196 56bc 87e9 033c cf33 9fbb fb54 223c
000001d0: bdd8 8d3c e4e8 9cbc 871e 95bc 5968 4abc
000001e0: 75f5 5a3c 6bba 74bb e62f 963b f320 563b
000001f0: 7da5 c23b 4b9e 7aba aff4 aa3c e21c b73b
00000200: 8096 06bb 76f7 883c b8d3 c83b 0aeb 953b
00000210: 7042 9bba 3e1f af3b 9984 933c 3379 d8ba
00000220: 256d 19bc a5af 72bc 65cb 9a3b 04ac 0dbc
00000230: f309 d7bb c5c3 08bc 52e8 ab3a dc28 f1bb
00000240: 24ef a33b d55e 80ba 1c55 0bbc 047c 34bb
00000250: 325b 003c c97d a1bb aa2f 76bb e7e8 08bc
00000260: 4eff 393b fd81 233c 7fed 92bb 8b38 d7bb
00000270: 2aac 3fbb 1d74 1dbc 0176 563c c19f a43c
00000280: e7f2 843c 78d5 b23c 387e d13b 3425 95b8
00000290: a95b 153c 6a7d e23b 939a 023c eb3d a63b
000002a0: 8e6c abbc 5d5a c53b cb21 b6bb 4489 e7bb
000002b0: d322 c9ba ac06 1abc 2e54 f93a a9d6 a93c
000002c0: b3bd 2bbc 645f c73c ddeb 64ba ae9a 4fbc
000002d0: 4326 9c3c eb2c c4bb 7375 c1b9 8b3f acbb
000002e0: fc48 763b 77c5 7739 98de bf3b de3f b93b
000002f0: f25c 23bb 3968 e1bb 5db2 07bc ef00 d23c
00000300: 3c5c 54bb 37b4 f2bb 4645 713c be2f 67bb
00000310: 6011 e53b f2ec 003c 2f4c 043c 0ff7 6b3c
00000320: a383 eebb b22c c63b 4c9a e8bb 98e9 463c
00000330: b8b3 863c 8c89 763b 062d 573c 3e3c 173b
00000340: fd3c dfbb 2906 37bc 4c0c 7c3b ac65 6e3c
00000350: 8b73 22ba 8d3a 06bc a794 bf3b 29bb 3039
00000360: 84ef b53a eb1e 303b 7837 b33b 2051 913c
00000370: 17e9 1a3c dba6 6fbb 220b 0abc 69c5 2a3c
00000380: a05e ce3b f3be 5a3b 3442 35bc eb6f 9d3a
00000390: ca9a 34bc 55d2 97bb 2904 82b9 93d5 debb
000003a0: d069 0fbc 3312 503b e9fe 13bc 79ae 8cba
000003b0: 6b92 9c3c 66eb d6bb bd39 2f3c e20b 88bc
000003c0: 6993 f1ba 7301 113c 65e5 f1ba 8e28 daba
000003d0: 1d4e aabc 4ca7 75ba a583 db3b 3d12 903c
000003e0: d8d2 8bb9 d316 513a ae7c c83b 342e f3ba
000003f0: 5056 cc3b 3432 76bc 2a3f 783c 8aa7 95ba
