notebook/result/weights/sac_snapbot/episode_1000.pth (torch, 355452 bytes, 8 tensors)

parameters.mlp_0_b f4 [256]
000000 47 e6 8b 3d 48 25 1d be ba b0 8b 3d 9f f8 19 be
       0.06831031 -0.15346253 0.06820817 -0.15036248
000010 ce 06 a9 3e 91 e8 90 be 76 14 a8 be 6f fc 2f be
       0.33013004 -0.28302434 -0.3282811 -0.1718614
000020 ef 58 77 be ae d6 67 bd 8f 63 0a 3e f0 c6 ff bd
       -0.24155019 -0.05660122 0.13514541 -0.12489116
000030 4e 68 a1 bd bd 79 d2 3d 14 4d a9 bd 77 22 01 3f
       -0.07881223 0.10277126 -0.082666546 0.50443214
000040 4b e3 1f be b4 b7 b4 be 49 31 5d be 6a 6c 06 be
       -0.15614049 -0.35296404 -0.21600832 -0.13127294
000050 dc c1 a8 3c f8 f0 e4 bd f9 4a 80 bd a0 89 4a bb
       0.020600252 -0.11178774 -0.062643 -0.0030904785
000060 d2 21 5f be 17 aa 43 3c 04 e9 f0 3c e8 23 f8 bd
       -0.21790245 0.011942408 0.029407986 -0.121162236
000070 b9 2c 33 be c2 80 0d bd a6 7d 7b be af ac 78 be
       -0.17497529 -0.03454662 -0.2455965 -0.24284624
000080 02 b2 2f be c8 36 05 3e b5 6c d0 bd f7 a0 20 be
       -0.17157748 0.13009179 -0.10176984 -0.15686403
000090 73 07 00 3d 23 8b af 3d 41 92 85 bd 95 d2 ec bd
       0.031257104 0.0857146 -0.06522036 -0.11563603
0000a0 84 50 6d be da 4c a4 be b8 e3 32 be f9 f4 5e be
       -0.23175246 -0.32089883 -0.1746968 -0.21773137
0000b0 78 07 05 be f9 72 73 3e de e6 14 3e 17 22 28 be
       -0.1299113 0.23774327 0.14541194 -0.16419254
0000c0 99 15 d6 3c d3 f8 1a bc 0e c3 b6 bd 03 5e e0 bd
       0.026133345 -0.009458738 -0.089239225 -0.10955431
0000d0 56 13 f0 bd de 8a 6f be 97 50 1a 3e 4f 0f df bd
       -0.11722438 -0.23392817 0.15069805 -0.10891592
0000e0 5f 48 14 be c3 d0 ac be d4 df 40 be cd aa b3 be
       -0.14480732 -0.33753023 -0.18835384 -0.35091248
0000f0 30 a1 8e bd c5 31 a4 bd 0e ce 03 be 4d 75 63 be
       -0.06964338 -0.08017305 -0.12871572 -0.22212715
000100 ba ea 5a bd 8f 95 bf be b4 6d e8 bd f4 1e 00 3e
       -0.05344651 -0.37418792 -0.11349049 0.12511808
000110 8a db 65 be fe bc aa be 1f c1 04 3e db 23 60 be
       -0.22447029 -0.33347315 0.12964295 -0.21888678
000120 ae 03 35 be 67 c4 8a 3c c3 6d 08 be 5c 1e 4a bd
       -0.17677185 0.016939355 -0.13323121 -0.04934536
000130 64 d7 93 bc 55 c5 16 be e4 47 74 bd da ab 9a be
       -0.018047042 -0.14723714 -0.059638873 -0.30209237
000140 39 1d 34 be b9 99 8a bd 7b 23 2b bd 12 93 0d be
       -0.17589273 -0.067676015 -0.041781884 -0.13825634
000150 9c c9 04 bd 93 f9 a2 be ec 54 73 be 91 15 46 be
       -0.032418832 -0.31831035 -0.23762864 -0.19344164
000160 6c a6 72 3d 6c cc bb 3e 43 aa e6 bd 7a f2 1c 3e
       0.059240744 0.366794 -0.112629436 0.15326872
000170 8e 10 79 3d d0 64 44 bc c5 fc 31 be 54 70 ab be
       0.060806803 -0.011986926 -0.1738158 -0.33484137
000180 24 64 75 bd a2 f9 da bd 46 3c fd bd 6c 50 23 be
       -0.059909955 -0.10692145 -0.12365012 -0.15948647
000190 bd 13 8d bd fe f9 37 3d 00 47 09 bd dc fa 3a be
       -0.068885304 0.044916146 -0.033514977 -0.18259758
0001a0 b0 11 a4 be 1f b0 3b be c0 15 70 be 66 59 a1 3e
       -0.32044744 -0.18328904 -0.23445797 0.31513518
0001b0 76 d6 aa be 3a 2e 40 be 73 f3 58 be 5d ff bb bc
       -0.33366746 -0.18767634 -0.21186619 -0.022948915
0001c0 2a af 09 be 70 02 2c be f7 28 7e 3d 0d 37 16 be
       -0.13445726 -0.16797805 0.062050786 -0.14669438
0001d0 f0 c2 8f bd 3d 90 b2 bd d7 e8 da 3d 4e a3 5a be
       -0.07019603 -0.087189175 0.10688942 -0.21351358
0001e0 a5 38 18 3e e7 f8 81 be 39 40 c3 bd 80 3e 98 3e
       0.14865358 -0.2538521 -0.09533734 0.29735184
0001f0 04 d7 9b bc 02 12 36 3c 57 25 ee bc 45 65 b5 bd
       -0.019023426 0.011112692 -0.02907054 -0.08857206
000200 7d e8 31 be 16 4f 0d 3e ad a2 12 be ad 53 a7 bd
       -0.17373843 0.137997 -0.14319868 -0.08170257
000210 19 d4 c1 be d2 e9 a4 be 0e 1e 01 be e5 2f 98 3d
       -0.3785713 -0.3220964 -0.12609121 0.0743101
000220 3d 2c cd 3e d0 44 6a be ef c6 56 be 75 1d 38 3d
       0.40072814 -0.22877812 -0.20974325 0.044949967
000230 c2 53 42 bd 76 56 0b bd bf fb 03 bd 62 eb 3a be
       -0.04744316 -0.034018002 -0.032222506 -0.18253854
000240 2e 94 a2 be 5a 7f 74 bc 18 a5 46 be c3 23 b7 be
       -0.31753677 -0.014922941 -0.19398916 -0.35769472
000250 5a 11 25 be 85 a9 4d be 60 ca 7b bd d9 06 6e be
       -0.161199 -0.20084198 -0.061472297 -0.232448
000260 c3 ac 83 be e0 9c a0 be bc 18 e7 3c 81 35 2b 3e
       -0.25717744 -0.31369686 0.028210036 0.16719629
000270 50 9e 9a be 89 93 e1 bd 80 70 81 be b0 14 89 be
       -0.30198908 -0.11014468 -0.25281143 -0.26773596
000280 c7 d3 be bc 79 a4 91 bd 25 1c 9f be 8f e3 e4 bd
       -0.023294343 -0.07111449 -0.3107616 -0.11176216
000290 1f a0 02 be 11 93 71 be 5c bf 81 3e 17 22 1c be
       -0.12756394 -0.23591258 0.25341308 -0.15247379
0002a0 49 72 a9 be dd 0d 46 be 37 0c 33 bd 1b b5 70 3d
       -0.33095005 -0.19341226 -0.04371282 0.058766466
0002b0 a8 e5 03 3d 8d 02 06 be a8 33 81 bd 81 54 91 bd
       0.03220144 -0.1308691 -0.06308681 -0.07096196
0002c0 4e d1 5b bb 61 96 43 3e 73 b9 21 be 71 ec 50 be
       -0.0033541503 0.19100334 -0.157934 -0.20402695
0002d0 22 4f 1f be bc fe af be d4 59 5d be 4e 01 00 be
       -0.1555753 -0.34374034 -0.21616298 -0.12500498
0002e0 a2 ba 68 be 7d 57 38 be 86 82 42 be 0c d4 71 bd
       -0.22727445 -0.18002124 -0.18995103 -0.059040114
0002f0 5e 0d 43 3c 56 3d 27 3e 7c 91 54 be ff 9f c4 bc
       0.011905042 0.16331992 -0.20758623 -0.024002073
000300 cd 9a d2 bc 32 3b 97 3d 78 8b a4 3e f0 31 a2 bb
       -0.02570858 0.073843375 0.32137656 -0.0049498007
000310 61 55 c0 bd 4a ed 77 ba 09 6c 0b be 7c 5d 01 3e
       -0.09391285 -0.0009457661 -0.13615431 0.12633318
000320 b4 d6 9d 3e bc cf 8e be 4a 80 da bc 16 05 8e 3c
       0.30827868 -0.27892864 -0.026672501 0.01733641
000330 a7 6a 9c bd e5 62 f5 bc 64 64 b3 3d 4e a5 61 be
       -0.0763753 -0.029954383 0.08759382 -0.22035715
000340 2d ff 5b be 53 68 27 be ce 36 0d be 60 2e a0 bc
       -0.2148406 -0.1634839 -0.13790438 -0.019553363
000350 73 ed 46 3f e5 c8 9c be cf 39 ae 3c df d1 f7 3e
       0.7770607 -0.3062202 0.0212678 0.48402306
000360 f1 e6 ca bd 81 60 bf 3d 93 a0 81 be 05 98 5b be
       -0.0990733 0.093445785 -0.2531782 -0.2144471
000370 31 05 70 be 37 b3 74 be 38 ce 16 3e a8 5f de bd
       -0.2343948 -0.2389649 0.14727104 -0.10858089
000380 e2 7d 44 be d9 30 d8 bd 34 a5 59 bd 4d 77 88 bd
       -0.19188645 -0.10556192 -0.053136066 -0.0666338
000390 0b ef 71 be 37 91 e8 bc 03 94 da 3d 28 11 26 3f
       -0.23626344 -0.028389556 0.10672762 0.6486993
0003a0 2e b8 23 be 70 9f 58 3e 9e 86 64 bd ce 84 86 be
       -0.15988228 0.2115457 -0.055792443 -0.26273197
0003b0 9d 7d 91 bd 4b cb 56 3e 47 c6 30 be b0 e0 f0 bd
       -0.07104037 0.20975988 -0.17263137 -0.11761606
0003c0 15 73 d5 3d 19 8e bd 3e b7 4f 2d be e7 26 26 be
       0.10422341 0.37022474 -0.1692494 -0.16225778
0003d0 64 be 2e 3e 51 d6 cd bd f6 4b 41 be a9 32 d5 3d
       0.17064816 -0.10050643 -0.18876633 0.10410053
0003e0 ab b6 94 3e cb db 80 be 55 53 51 3d ce 11 51 bd
       0.29045615 -0.2516769 0.051104862 -0.05104237
0003f0 be a7 91 3d cb 03 55 3e 18 eb 20 bd e9 d3 0d be
       0.071120724 0.20802228 -0.039286703 -0.13850369

parameters.mlp_0_w f4 [256, 70]
000000 ce c7 48 be ef 8b 10 3d 20 a7 26 be 06 0a 74 bf
       -0.1960747 0.0352897 -0.1627469 -0.95327795
000010 80 b0 4b 3d ab 31 d1 3d 1b 2b 41 bd 5d 43 78 3e
       0.04972887 0.102145515 -0.04716025 0.24244447
000020 25 ca a1 3d d1 13 5a 3d 8d 12 2d be 2d 41 9d bf
       0.07899884 0.053241555 -0.16901608 -1.2285515
000030 1e 85 d9 bd 18 6a 30 be bb 6f 13 3e 4d 89 c4 3e
       -0.10621093 -0.17227972 0.1439809 0.38386002
000040 2d 52 94 be 3b ca 4e 3e 51 01 a1 3e 37 06 77 be
       -0.28968945 0.20194332 0.31446317 -0.24123465
000050 93 ae 21 be 20 36 84 bf 23 36 10 bf 29 b8 83 3f
       -0.15789251 -1.0329018 -0.56332606 1.0290576
000060 82 40 94 bc 9a 46 70 bc 72 fe 6c 3f 56 82 79 bd
       -0.018097166 -0.01466527 0.9257575 -0.060915314
000070 42 50 96 bd e6 ac 27 3e d9 77 9a 3d 36 36 27 3e
       -0.07339527 0.1637455 0.075423904 0.16329274
000080 48 70 9c bd 9d c7 6a 3e 6d 35 11 bd 94 dd af bc
       -0.076386034 0.22927709 -0.03545134 -0.021467961
000090 95 7c ee 3d 3d 1e 05 be 97 5a 8f be aa 5d 73 3e
       0.11644856 -0.12999816 -0.27998802 0.23766199
0000a0 c1 0f 39 be 80 e1 60 be de e8 d1 3c b8 ee 14 be
       -0.18072416 -0.21961021 0.025623735 -0.14544189
0000b0 d0 af 8a be bb 95 06 3d 69 40 c0 be 0b d7 ce 3d
       -0.2708726 0.032857638 -0.3754914 0.1009961
0000c0 38 57 8d 3e 41 dc 95 3b 1f 35 7e 3d c2 43 d3 bc
       0.27605605 0.0045733755 0.06206238 -0.025789145
0000d0 8f ee 44 be e0 e6 14 bf 57 e7 a5 3d f7 cc ab bb
       -0.19231628 -0.5816479 0.08100765 -0.0052429396
0000e0 0b a2 ca bd f5 39 fe 3d 92 8c bd 3e 7d f2 73 bc
       -0.098941885 0.12413398 0.3702131 -0.014889357
0000f0 48 e1 98 3e 25 82 46 3f 9b 06 0e 3d 3a c2 e7 bb
       0.29859376 0.77542335 0.03467427 -0.007072714
000100 07 3f 3d bb 81 9f 16 be 9a 32 13 3e 89 5a 6b be
       -0.0028876679 -0.14709283 0.14374772 -0.22983755
000110 c6 8c 59 3e 83 58 d7 3d 71 4d 16 bf a5 40 dc 3b
       0.21245107 0.10514929 -0.58711916 0.0067215734
000120 d5 21 e3 bd 90 17 23 3f ee 28 f1 bb 38 87 88 be
       -0.11090437 0.6370783 -0.0073596155 -0.26665664
000130 bc 7f b2 3e 3d d8 0b 3c e1 46 a3 be 08 1e ff bd
       0.3486308 0.008535442 -0.31890014 -0.124569
000140 1a 7f 22 be 9e b5 99 3e da 57 b7 bb d8 24 75 be
       -0.15868798 0.30021375 -0.0055951895 -0.23939836
000150 73 86 4b 3e 2e 30 26 be 73 03 5e 3d 57 2a 3a 3e
       0.19875507 -0.16229317 0.05420251 0.18180214
000160 91 f6 8e bf 66 7a 2a 3d ad 18 dc 3d da bd 04 be
       -1.1168996 0.041620634 0.10746894 -0.12963048
000170 00 10 5d 3f c5 26 d0 3d d5 8a 88 be 3d 27 ba 3e
       0.8635254 0.10163645 -0.2666842 0.3635806
000180 27 b9 ed 3d ab 18 45 bd 18 1a 48 bd d7 ce 8e be
       0.11607581 -0.04811923 -0.04885301 -0.2789218
000190 02 77 2e 3d e6 57 2e be ce 78 a5 3e c7 de e7 be
       0.042593963 -0.17025718 0.3231873 -0.45287153
0001a0 b2 33 11 bf 68 84 a5 3e de 29 0b bd 12 db 0d 3d
       -0.56719506 0.3232758 -0.033975475 0.03463275
0001b0 c5 91 a4 3e 52 ac 7d 3d b4 b2 05 be 5d af 67 be
       0.32142463 0.061931916 -0.13056451 -0.2262549
0001c0 b8 2f bc 3d c7 84 41 bb 1c b3 27 be a0 3f 50 3d
       0.09188789 -0.0029528604 -0.16376919 0.050841928
0001d0 31 df c4 3e 08 5d e4 bc 4e 8f 7c bd 5a 99 4a bd
       0.38451532 -0.027876392 -0.061660103 -0.049462654
0001e0 a3 56 89 bb b1 87 be 3c 07 0b bc bd 79 b4 10 be
       -0.004191236 0.023258062 -0.09181791 -0.14131345
0001f0 70 90 ff bb 93 f3 10 3c a5 08 ff be 99 95 96 bd
       -0.0077992007 0.008847135 -0.49811283 -0.07352752
000200 5d ff 28 be 39 1b a5 be 67 dd 55 be a3 31 0f 3f
       -0.16503663 -0.32247332 -0.2088524 0.55935115
000210 a9 6c 77 bd bc e7 19 bc 6e 78 19 3e 72 ff b2 ba
       -0.06040636 -0.009393629 0.14987347 -0.0013656451
000220 c1 cb 27 3e 7f 79 71 3e 90 1a 0a 3e d6 69 9a 3e
       0.1638632 0.23581503 0.13486695 0.3015887
000230 de 28 34 be 99 a7 d7 3e c2 af 73 be 0a a4 8e 3e
       -0.17593715 0.42120054 -0.23797515 0.27859527
000240 33 24 a0 be ad a7 4e 3e 89 83 df 3e 49 be f6 bd
       -0.31277618 0.2018115 0.4365504 -0.12048013
000250 e4 43 42 3e 3c 47 af 3e de 36 c8 be cf c1 f2 bd
       0.1897121 0.34234035 -0.3910436 -0.11853372
000260 16 eb bf be ff 6f 31 3d 63 6e ee 3a f1 1f a7 be
       -0.37484044 0.0433197 0.0018190857 -0.32641557
000270 db 61 93 bd f0 9c 3a 3f c2 6e 72 3f bb b7 39 bf
       -0.07196399 0.7289572 0.94700253 -0.72545975
000280 b3 c5 58 bc db e2 ed bd 8d 33 a7 bf b6 4d 68 3e
       -0.013230729 -0.11615535 -1.3062607 0.22685894
000290 c1 17 a3 bc 8b db 86 3f e0 3d 2d bf 9d d9 2d be
       -0.019908788 1.0535749 -0.6767254 -0.16977544
0002a0 0f 32 19 be 90 80 8a bd 5e 98 bc 3c dc f1 2a be
       -0.14960502 -0.067628026 0.023021873 -0.16693825
0002b0 76 c8 ad 3e e3 43 1a bc 45 3b ab bd ce 82 b2 be
       0.33942002 -0.0094155995 -0.08360914 -0.3486542
0002c0 a8 eb 65 3e ff 4c bf bc 08 59 db 3d a5 89 65 3d
       0.22453177 -0.023352144 0.10710341 0.05603947
0002d0 c6 fd 55 3d b4 0e 87 be 0e ef 67 be e2 f1 ad bc
       0.05224397 -0.26378405 -0.22649786 -0.021233503
0002e0 d7 15 db be 07 a1 0b be 9a 82 85 3e a4 49 cb bd
       -0.427901 -0.13635646 0.26076204 -0.09926155
0002f0 f0 fa 0c 3c 8b 8f a3 bc e2 b2 6c be 91 b1 aa bd
       0.00860475 -0.019965908 -0.23115113 -0.08334649
000300 91 df b4 3e fd 2e bc be 2c e1 8b be b5 1d 97 bd
       0.35326818 -0.367546 -0.2732023 -0.07378713
000310 6b b0 2c 3e c6 fe 9e 3d 48 18 47 3d e1 b5 2e be
       0.16864173 0.07763438 0.04860714 -0.17061569
000320 55 9c 9c 3e ce a5 4e bf dc 7f 01 be 11 c6 01 3d
       0.30588022 -0.8072175 -0.1264643 0.03168303
000330 70 d8 14 3e 26 eb fd 3b e5 47 98 be c7 cf cd be
       0.1453569 0.007748979 -0.2974235 -0.40197584
000340 c9 96 48 3d 2f 0d 56 3e cc 67 e9 be e8 e7 fe 3d
       0.048971925 0.20903467 -0.45587003 0.12446576
000350 10 13 2c be b6 f8 b2 bc 95 ef fe be 52 38 14 bf
       -0.16804147 -0.02184711 -0.49792162 -0.5789844
000360 ce 17 b9 3e a9 e7 ea 3e 14 c0 0f be 94 f4 c1 be
       0.36150974 0.45879868 -0.14038116 -0.3788191
000370 3d 47 90 bd 58 4e 2e be 51 4c 09 be 2e 51 6e bf
       -0.070448376 -0.17022073 -0.13408019 -0.9309262
000380 b0 de 08 3e 7c 9d 02 3f f1 ff 4b 3e 30 10 f4 3d
       0.13366199 0.5102155 0.19921853 0.1191715
000390 db 21 b5 3e 25 31 a6 3c f1 0f 34 3d b2 6e 1b 3f
       0.35377392 0.020287106 0.043960515 0.6071578
0003a0 2f 13 ec be c1 6f b2 be 30 71 f4 bb 88 ab 89 be
       -0.46108386 -0.34850886 -0.007459782 -0.2688868
0003b0 85 da 85 bf 11 b9 c3 bd ea ca 3e 3c 9a 23 af 3d
       -1.0457312 -0.09556783 0.011645058 0.08551712
0003c0 3e 5a 00 bd 46 ce 5b 3e 59 24 37 bf d6 74 06 bf
       -0.03133606 0.21465406 -0.7153984 -0.5252203
0003d0 74 2e 71 3e 90 84 59 3c 28 0f 29 bc 26 d4 97 3b
       0.23552877 0.013276234 -0.010318555 0.0046334444
0003e0 6f bf e6 bd 98 bb 89 bd 40 9a a9 be c1 fc 2b 3e
       -0.11266982 -0.06725234 -0.33125496 0.16795637
0003f0 63 62 97 3e e3 e5 fb 3d 1b 2e 85 be f2 9f fc bd
       0.2956725 0.12299707 -0.26011738 -0.12335195

parameters.mlp_1_b f4 [256]
000000 da 70 83 3e b0 54 d1 3e 6a 4e cc 3e cb 0b 58 3b
       0.25672036 0.40884924 0.39903575 0.0032966014
000010 c1 89 2b 3c 63 3f 06 3f 23 08 13 3e ab c2 d9 3e
       0.010469855 0.5244047 0.14358573 0.42531332
000020 16 1c 13 3c 6d a4 91 3e aa 66 2c 3e c8 94 1d 3e
       0.008978864 0.2844576 0.16836038 0.15388787
000030 66 33 43 be b6 4f 55 3e 47 99 e7 3e af 2a 06 3e
       -0.19062576 0.20831189 0.4523413 0.1310222
000040 1f e9 1d 3e 85 de 23 3c 44 98 aa bc 31 8b 89 3c
       0.1542096 0.010001783 -0.020824559 0.016790004
000050 75 a7 97 3e d5 e9 79 3c 7f e7 9d 3c 6e 04 d8 bc
       0.29619947 0.015253504 0.019275425 -0.0263693
000060 9d b8 14 3e 89 45 4d 3e e6 d4 92 bc 4e 29 d9 bc
       0.1452355 0.20046057 -0.017923784 -0.026508953
000070 7b 6d 77 3e 6e 0e 04 3d 9f 05 90 3e a8 0f 6d bc
       0.24162857 0.032240324 0.2812929 -0.014469065
000080 9a 17 2a bd 78 4b e4 3e aa 1f bf 3e cd bb 7d 3e
       -0.041526414 0.44588828 0.37328845 0.24778672
000090 26 2a 47 bc c9 44 9e 3e fb d6 2d 3e 47 68 7a bc
       -0.012156045 0.30911854 0.1697654 -0.015283651
0000a0 72 60 4e bc fa d2 11 3f 3d f8 98 bc 6c 9d a5 3d
       -0.012596237 0.5696255 -0.018673057 0.080866665
0000b0 45 4a d0 3d 33 91 58 3e 49 c3 8d bc f1 29 10 3e
       0.10170416 0.21149139 -0.017305033 0.140785
0000c0 e2 ad 6d bc 2f b3 5f 3d 07 4a 31 be 96 f5 5f 3e
       -0.014506789 0.054614242 -0.17313395 0.21871027
0000d0 ff 39 78 3e 90 c3 50 3e 8c 0a 90 3c c1 76 18 bd
       0.24240874 0.20387101 0.017583154 -0.037222628
0000e0 0c 27 86 bc 1b 0a 9d bc e0 fd bb ba 0d ad 9d 3e
       -0.01637604 -0.019169858 -0.0014342628 0.3079609
0000f0 84 fe b1 bb a7 8a f4 bc a7 89 73 bc 41 d9 91 3d
       -0.005431952 -0.02985127 -0.014864362 0.07121516
000100 df 3c 2d bd 83 82 ae 3e b1 61 e9 bc 17 16 9e bc
       -0.04229438 0.34083948 -0.028488966 -0.019297643
000110 84 00 a6 3d 33 d5 d9 bd 63 25 5e bc b0 03 80 bc
       0.08105567 -0.10636368 -0.013558718 -0.015626758
000120 37 f0 ce 3e 2d 5e ba 3e 71 c4 83 bc 2d 31 2c 3e
       0.40417644 0.36399975 -0.016084881 0.16815634
000130 c4 f9 36 be 78 fc ae 3e 76 60 8a bd 43 10 dc 3d
       -0.17868716 0.34176993 -0.0675668 0.10745289
000140 8b e8 dd 3c a0 f7 93 3e 43 b8 3f bc 50 81 5c 3e
       0.027088424 0.2889986 -0.011701646 0.21533704
000150 d8 a1 a8 bc ce 62 51 3d 8d b5 9b 3e 99 27 32 3e
       -0.020584986 0.051119618 0.3041195 0.17397918
000160 52 f5 2e 3e 9c 59 14 bc b6 c8 63 3d e4 f5 34 3f
       0.1708577 -0.009054568 0.055611335 0.706877
000170 58 4f 38 bc 68 cd 17 3f cd 07 80 3d 48 54 a8 3d
       -0.011249386 0.592978 0.06251488 0.082192004
000180 59 f8 c0 bc 9e 5c f3 bc 9f 04 46 3e e4 73 48 bd
       -0.023555921 -0.02970725 0.193377 -0.048938647
000190 a7 27 f8 bc c0 f1 d5 bc 52 fd ba bc 0f a7 04 bd
       -0.030292345 -0.026116252 -0.02282587 -0.032385882
0001a0 6d 12 5b bc f4 b7 8a 3c a8 eb 97 bc 40 85 0e bd
       -0.013371092 0.016933419 -0.018544987 -0.034795046
0001b0 d3 25 c0 bc c4 9f 9e 3d c3 99 0d 3e 56 60 d1 bb
       -0.023455536 0.077453166 0.13828187 -0.006389658
0001c0 53 fb 21 3f c1 9b 64 3d dc 24 00 3f 46 1c c3 3e
       0.63274115 0.0558126 0.5005624 0.38107508
0001d0 64 dc 06 bd 1e e8 91 bc 6f 44 73 bc 2b 02 71 3e
       -0.032925025 -0.017810877 -0.014847859 0.23535983
0001e0 c4 3d 84 3d af ff 02 3f a6 37 45 3e de 2c af bc
       0.06457093 0.5117139 0.1925951 -0.021383699
0001f0 bf 29 15 3f ab 5d 9c 3e d3 53 b0 3d 1d 3c 8e 3e
       0.58266824 0.30540213 0.08609738 0.27780238
000200 18 bd 89 3a cb 28 ae 3e ec 74 25 3e 2a 3e 8a 3c
       0.0010508625 0.34015498 0.16157883 0.016875345
000210 32 a5 23 3e d7 f4 47 bd c3 ef 38 3d 04 7b ef bc
       0.15980986 -0.04881748 0.04515053 -0.029233463
000220 c4 ba 89 bc b1 40 9e bc 4b a6 98 bd e3 2b 41 be
       -0.01681269 -0.019317957 -0.07453593 -0.18864398
000230 d4 86 c9 bc 97 b2 84 3e ee a8 03 bd 6d dd 97 bc
       -0.024600424 0.25917503 -0.032143526 -0.018538201
000240 90 ef f5 bc 1f c0 4a 3e 0d 7d c1 bc 5f db c2 3e
       -0.030021459 0.19799851 -0.0236192 0.38057992
000250 2a e1 af 3e 7e 36 8c 3e 22 cc de 3e 63 e6 9d bc
       0.34351474 0.27385324 0.43515116 -0.019274896
000260 3c 8c 2c 3e 0e 62 f4 3d e3 31 ba 3d 95 79 85 3e
       0.1685037 0.11932765 0.090915464 0.26069322
000270 4d 32 3e 3e 63 e2 a2 3e 30 80 46 3e 15 6f b7 bc
       0.18573876 0.31813344 0.19384837 -0.022391835
000280 e9 7f 07 3d 2b 3b ae 3d 8c c3 b8 bc 49 59 18 bd
       0.03308097 0.08507379 -0.022554182 -0.037194524
000290 6a 66 aa 3e 8a 36 11 3f e3 b3 c1 3d 43 44 86 bc
       0.3328126 0.56723845 0.09458139 -0.016389972
0002a0 1d 78 b9 3d 78 fc 69 bc d8 0f 61 be a6 17 7a 3e
       0.09056113 -0.014281385 -0.219787 0.24423084
0002b0 ba 03 05 bd 8f c1 fd 3d d8 36 5d 3e 84 62 c3 3c
       -0.032474257 0.12390434 0.21602952 0.023850687
0002c0 53 f1 fa 3c b8 cf c2 3e 84 d9 40 3e bd f5 bc bc
       0.03063265 0.38049102 0.18832976 -0.023066396
0002d0 14 d4 c5 bc ae 7f ba 3e 2a 93 0b 3e d4 81 a0 bc
       -0.024148978 0.36425537 0.13630357 -0.019593157
0002e0 54 e3 15 3e 6d 26 6c be 60 db 8b 3e 0f 12 e1 3b
       0.146375 -0.23061533 0.27315807 0.006868608
0002f0 56 f3 90 3c 3e 5a 14 be a4 74 c9 bc e5 e2 d1 3e
       0.017694157 -0.1448755 -0.024591751 0.4099342
000300 bf 6d 56 be cd 19 bf bc 56 a0 9c bc 1b 0a 26 3e
       -0.20940302 -0.023327732 -0.019119423 0.16214792
000310 6d b0 97 3e 3e 24 1d 3e 52 b8 88 3e ee 06 a6 bc
       0.2962679 0.15345857 0.26703125 -0.020266976
000320 9a f8 f5 bd 3e 44 a3 3e ee 9b cc 3e 72 d1 5b 3d
       -0.120103076 0.31888002 0.39962715 0.05366654
000330 5b 86 12 3f 4f e2 9b bd 7f 43 17 3c 61 84 8d bc
       0.5723626 -0.07611524 0.009232401 -0.017275037
000340 ba 71 fd 3c 0f 23 68 bc 2a b8 c8 bc 85 4e 59 3e
       0.030938018 -0.014168515 -0.024501879 0.21221359
000350 c1 73 d2 3e f1 0c 78 3d 9b 40 65 bd 0b 92 a3 bc
       0.41103938 0.060559217 -0.055969816 -0.0199671
000360 03 18 94 3e 37 18 0a bd 7b 06 d2 3c f2 59 c5 bc
       0.2892457 -0.0337145 0.025637856 -0.02409074
000370 8d 43 74 3d 61 2e 03 3e 05 ea 86 bc ac e7 de 3e
       0.059634734 0.12810661 -0.016469011 0.43536127
000380 f0 d6 cb 3c d4 b6 e5 3c dd 54 c8 3e ef 0a 9c 3d
       0.024882764 0.02804128 0.39127246 0.07619273
000390 e1 c8 cd 3e e7 11 8f 3d e4 45 ec bc 70 82 ca 3e
       0.4019232 0.069858365 -0.02884192 0.3955264
0003a0 c8 a8 98 3e 15 6f c1 3e 0d fe 7d bd a2 5d 26 bc
       0.2981627 0.3778006 -0.06200986 -0.01015416
0003b0 ba 6f c3 bd 54 70 de bd 3f 5e 61 3e 00 1c e5 bc
       -0.095427945 -0.10861269 0.22008608 -0.027967453
0003c0 49 3d b9 3e e3 f2 6a 3e e4 06 9f 3d 7a 08 30 be
       0.3617957 0.22944216 0.07764986 -0.17190734
0003d0 2b 14 8b be 3d 37 11 be 2a 28 a0 3d 75 a2 d2 3d
       -0.27163824 -0.14181228 0.07820161 0.102848925
0003e0 55 a1 38 3d 52 a9 7f bc 2d 8a 95 3e 4f 8c 75 3e
       0.045075733 -0.015604334 0.29206982 0.23979305
0003f0 53 ba b1 bc 98 9e 78 bc f6 e1 e9 bc 03 7b 5c bc
       -0.021695292 -0.01517453 -0.02855013 -0.013457063

parameters.mlp_1_w f4 [256, 256]
000000 a5 0a ae be 3f 26 aa be c1 f5 70 3e 17 0d 95 bd
       -0.33992496 -0.33232304 0.23531248 -0.07277887
000010 89 9a 07 bd 9e bf b3 be 84 0f 1f bd 9a ba 84 be
       -0.03310636 -0.3510713 -0.038833156 -0.25923616
000020 74 7f 21 be 99 67 64 3e a8 79 09 3f 00 06 36 be
       -0.15771276 0.22305144 0.5370126 -0.17775726
000030 bd 34 63 bf cd 47 d1 be 39 f1 43 be a5 0c 36 3f
       -0.8875235 -0.40875092 -0.19134988 0.71113044
000040 64 a9 a0 3e 29 1e e4 3e 3b 50 74 be 7b 50 6e bd
       0.31379235 0.4455426 -0.2385873 -0.05818222
000050 bf 4a 24 3d ba 16 20 bf e3 33 0e 3d 79 b5 99 3e
       0.040110346 -0.6253468 0.03471745 0.30021265
000060 aa 33 02 be 36 e3 72 bd 68 55 01 be 92 2e 02 bf
       -0.12715021 -0.059298716 -0.12630236 -0.5085231
000070 90 e1 32 bd 6d 2a 46 3c a0 46 ca be 7d 1d 3a 3e
       -0.043672144 0.012095076 -0.39507008 0.18175311
000080 6b ea 15 3e 5b 70 06 bf 57 d6 31 3e 94 5c 02 3e
       0.14640205 -0.5251519 0.1736692 0.12730628
000090 b7 06 d3 3d d5 87 e3 3d 6c fc 03 bf 0f 2f 1f be
       0.10304015 0.11109892 -0.5155704 -0.15545295
0000a0 b1 ff 2e 3d fa 68 79 be 00 81 49 3d 9f 0a 8b 3e
       0.042724315 -0.24356452 0.04919529 0.2715654
0000b0 97 d7 a2 be 45 6e 97 3e ea a8 d2 3e bf c5 56 bc
       -0.31805107 0.29576316 0.41144496 -0.01310867
0000c0 f7 e3 42 bf 5d 7c 2a 3e be d1 58 bd 9c 65 35 3e
       -0.76129097 0.16649003 -0.0529344 0.17714542
0000d0 d8 98 a4 3e f6 23 81 bf 32 39 5a be 60 ae 5e 3e
       0.3214786 -1.00891 -0.21310881 0.21746206
0000e0 4e 30 ca bb c4 7a 12 bf 7f 38 2d bd 3a dd 89 be
       -0.006170309 -0.57218575 -0.042290207 -0.26926595
0000f0 ad 7b b3 3d d4 7a 29 be 26 5a dc be ed d6 0a 3d
       0.08763824 -0.16550761 -0.43037528 0.033896375
000100 52 ee 72 be 91 d4 d6 bd 70 c0 2b 3b 89 cf b0 bf
       -0.23723724 -0.104897626 0.002620723 -1.3813335
000110 26 ff 7e bf 48 89 31 be 09 4b 82 3b 8b 12 63 3d
       -0.99608076 -0.17337525 0.00397623 0.055437606
000120 4f 8e 50 be 5b b1 99 be 7a 01 61 be 84 06 83 3e
       -0.20366786 -0.30018124 -0.2197322 0.2559091
000130 aa 66 88 be 70 3e 5a be 65 04 df bd a7 61 72 3d
       -0.26640826 -0.2131288 -0.1088951 0.05917516
000140 e5 e6 b5 3e 10 a8 fa 3d f4 29 2f 3e 21 33 83 3d
       0.3552772 0.12239087 0.17105848 0.064062364
000150 69 b9 41 bd a1 42 c0 bc ee d4 2f be b1 4b 7f 3e
       -0.04729596 -0.023469271 -0.1717107 0.24931218
000160 3a 92 b3 3e 17 32 db 3e a8 58 37 3d 1b 2c af be
       0.350725 0.42811653 0.044762284 -0.34213337
000170 12 3f 8a 3e d6 2e 5f 3e f9 51 06 3d 1c fa ff 3c
       0.27001244 0.2179521 0.03279302 0.031247191
000180 b2 95 d1 3b 38 da 45 3e 17 b3 92 be b3 f6 7c 3d
       0.006396019 0.19321525 -0.2865226 0.06175871
000190 18 c9 62 be 4d 24 ce 3d f0 77 7c bf 52 90 a1 bd
       -0.22147024 0.100655176 -0.9862051 -0.07888855
0001a0 92 d7 d3 3e e9 af 07 bf 8e a3 16 be 2e 49 03 3f
       0.41375405 -0.5300279 -0.14710829 0.5128354
0001b0 60 ef b3 3e 30 7e 76 be 2c aa 64 bc fe 89 01 3e
       0.35143566 -0.24071574 -0.013956588 0.12650296
0001c0 cb fa 01 3f 83 b3 88 3e 69 72 ca bd 04 5d 84 3e
       0.50773305 0.26699457 -0.09885103 0.25852215
0001d0 28 07 42 3e cd 8f cb bd 15 1b b8 3e e0 28 29 bf
       0.18948042 -0.09939537 0.35958162 -0.66077995
0001e0 0d 12 30 3d b3 37 9c be 3c 22 41 3e ea 31 f3 3e
       0.042985965 -0.30511245 0.18860716 0.4749902
0001f0 3b 94 83 3e bc 03 84 3e 26 7e 00 3e d1 3d 41 bd
       0.25699028 0.257841 0.12548122 -0.047178093
000200 2b a5 1c be e3 08 68 bf df 48 23 bd 41 36 c4 3d
       -0.15297382 -0.9063856 -0.039864417 0.095806606
000210 71 f4 65 3e 7d f0 9f 3d 4a 1d 2c bf 08 48 2a bf
       0.22456528 0.078095414 -0.6723219 -0.6651616
000220 9a 72 5a be a1 75 1d 3e 91 31 6b 3c e0 1f 2a be
       -0.2133278 0.15376903 0.014355079 -0.16613722
000230 9a ef 84 3e 21 76 f9 be 73 46 47 be a0 c4 f2 3d
       0.2596405 -0.48722938 -0.19460468 0.118539095
000240 61 18 ae be 03 d3 9a be 15 c2 d6 3e 19 0b d2 bc
       -0.34002975 -0.30239114 0.41944948 -0.025640057
000250 12 6b 23 3e 05 54 a7 3d dd f5 30 bd 1e c9 26 be
       0.15958813 0.08170322 -0.043203223 -0.16287658
000260 d8 a8 de be d3 a5 95 bd 87 5d ec 3d a8 40 06 3d
       -0.43488193 -0.07307019 0.115412764 0.032776505
000270 d2 2f da 3d a9 00 5e 3c 0f ee 02 be 80 61 23 bd
       0.10653652 0.013549962 -0.12786125 -0.039887905
000280 e6 78 e2 bd 50 65 96 3e 82 4b ba be 23 3a 14 be
       -0.11058216 0.2937417 -0.36385733 -0.14475302
000290 ac 3b 86 3e df 9a 8b bd e8 98 6b bd 86 15 87 3e
       0.262174 -0.06816649 -0.05751887 0.2638361
0002a0 37 76 a9 bd ec 45 09 3e 72 77 2e bf 12 78 81 be
       -0.08274501 0.1340558 -0.6815101 -0.2528692
0002b0 74 ac 76 3d fc c0 19 be 49 0c a3 bc 0a 3e bb be
       0.060223058 -0.15015024 -0.019903319 -0.3657077
0002c0 e6 3b c5 be af 80 24 be 94 b6 1d be 20 ab d1 3e
       -0.3852226 -0.16064714 -0.1540168 0.4095087
0002d0 a4 4c 02 3e 91 cb 09 bf f0 08 db bb 8b d7 85 3e
       0.12724549 -0.5382624 -0.006684415 0.2614101
0002e0 d3 75 93 bc 8c 67 b0 bd b5 7f 06 bf 4e f6 1f 3e
       -0.018000519 -0.086135 -0.52538615 0.15621302
0002f0 8a 3a 6f be b9 0e 47 3e db 60 0d bf 19 d3 b6 bd
       -0.23362175 0.1943921 -0.55225915 -0.089269824
000300 b3 08 17 bf 67 48 af bc e3 7f 9d 3b 03 2d 2b be
       -0.5899765 -0.021396829 0.004806505 -0.1671639
000310 69 13 80 3a 57 54 a4 be d8 bb a0 3d f6 3a 41 bb
       0.000977141 -0.32095596 0.07848328 -0.0029484606
000320 f5 16 b7 be 7b 1c d7 3e a2 74 99 bf 55 68 af bd
       -0.35759702 0.42013916 -1.1988719 -0.08564822
000330 78 ad 9f be 91 25 33 3d 83 9c 32 3e 0a f5 36 be
       -0.31187034 0.043736998 0.17442517 -0.17866912
000340 f8 91 39 bd 9c 88 8b 3d 65 f5 87 be 77 07 8a 3d
       -0.045305222 0.068131655 -0.2655441 0.06739705
000350 dd 65 2d bf f8 66 e8 bc 5a b9 2a be f2 9d bb be
       -0.67733556 -0.028369412 -0.16672269 -0.3664394
000360 0d 41 b7 3d 33 3c 53 bc c6 85 2c 3e 56 39 34 be
       0.08947954 -0.012892771 0.16847906 -0.17599997
000370 53 a6 c7 3e 6d b9 0c 3e 5e 75 7e 3d 25 0b 2e 3e
       0.38994083 0.1374261 0.06212365 0.16996439
000380 ea 8b 8e be ce 22 32 be b4 0c 82 3e e3 8a d2 be
       -0.2784112 -0.1739609 0.25400317 -0.41121587
000390 5d 4b ed 3d fb b6 13 be 56 eb 65 be b5 bc 07 3d
       0.1158664 -0.1442527 -0.22453055 0.03313895
0003a0 19 2f f5 bc 1f 03 7b bd 5a 53 1c bf 32 df 8b be
       -0.029929684 -0.061282273 -0.61064684 -0.27318722
0003b0 74 ef 7d be 3a a9 5b be 6c b8 8b be f2 c3 de be
       -0.24798375 -0.21451274 -0.2728914 -0.4350887
0003c0 85 1c 26 3d e5 c0 90 bd ae a0 c0 3e d4 19 e7 bd
       0.040554542 -0.07068042 0.3762259 -0.11284223
0003d0 1d 12 3c bf dc f2 b2 be fe c0 4e 3d 51 3a 00 3d
       -0.7346514 -0.34950912 0.05047702 0.031305615
0003e0 30 12 ed 3e 67 67 3d be 3b 1b 51 bd c3 57 8b be
       0.46302938 -0.18496476 -0.05105136 -0.27215394
0003f0 c8 c7 82 3c 1e 95 cf bd 76 3f f1 be ce 7d c2 be
       0.015964404 -0.10135864 -0.4711873 -0.37986606

parameters.mu_b f4 [8]
000000 0f 48 75 be 5c 14 11 bc 16 60 f0 3d 23 bb 12 bd
       -0.2395327 -0.008854952 0.11737077 -0.035823
000010 28 24 86 3d 58 5c ba 3c dc 1f d7 3c d0 e3 51 3e
       0.06549865 0.022749111 0.026260309 0.2049706

parameters.mu_w f4 [8, 256]
000000 8b 66 9b 3e 90 62 1f be 1e 2f 97 be b2 75 8a bd
       0.30351672 -0.15564942 -0.29528135 -0.0676073
000010 50 1a 5f bd ef a0 44 3e 9f c5 05 3f 6e 0a 2d 3e
       -0.054468453 0.19202016 0.5225467 0.1689851
000020 c8 c0 84 bc 23 55 40 be 9e db 0f 3d c9 39 41 bf
       -0.016205207 -0.18782477 0.035121553 -0.754788
000030 0a b3 80 bf 7b 52 93 be 38 ed a2 bd c8 97 3f 3f
       -1.0054638 -0.28773865 -0.07955402 0.74840975
000040 b0 af bb 3e 1f 2b 96 3f 06 71 1c bb 01 87 fe bb
       0.36657476 1.173191 -0.0023871078 -0.0077675586
000050 6a fb 07 be 65 40 9a bc e0 3d 15 bd 95 f7 c7 3c
       -0.132795 -0.018829534 -0.03643596 0.024410048
000060 69 49 44 3f 61 95 a6 3d e3 65 ef 3a c1 e3 e7 ba
       0.76674515 0.081339605 0.0018264618 -0.0017691777
000070 92 f2 84 bf ff 5b bd 3e 0c ef 4c 3f b8 4c 48 bf
       -1.0386527 0.3698425 0.80052257 -0.78242064
000080 a0 c8 99 3d d1 b2 8f bf a3 34 27 bd 78 94 8b bf
       0.07508969 -1.1226445 -0.040821683 -1.0904684
000090 1d 1c e6 3b 82 92 13 be 59 6a 8c bc 9e 6b ec 3b
       0.0070223943 -0.14411357 -0.017140554 0.0072149774
0000a0 4d 21 07 3c cf 96 ab be 0e ca 89 3c c4 2d 03 3d
       0.008247686 -0.33513495 0.01681998 0.032026067
0000b0 b1 0f 18 3f a2 4e ab 3f e3 d8 aa 3c 90 02 8e be
       0.59398943 1.3383372 0.020855373 -0.2773633
0000c0 f6 2f 08 bb 38 0a 26 bc 0f 95 9f 3d ee 44 f5 be
       -0.002078054 -0.010134272 0.077921025 -0.47904152
0000d0 70 44 96 3f 21 4e 24 3f dc 20 c2 bb 91 8e 57 bc
       1.1739635 0.64181715 -0.0059243273 -0.013156549
0000e0 a7 bb 18 bd b6 0a 98 3c 5b 52 47 3d d8 7f ef be
       -0.037288334 0.018559795 0.048662525 -0.46777225
0000f0 0b 59 9a bb a2 0c e4 3b ba 13 0a bf c8 28 27 3f
       -0.004710322 0.0069595138 -0.5393635 0.652966
000100 91 b5 ed be ee c4 23 be 46 2c d2 3c d0 33 20 bc
       -0.46427587 -0.15993091 0.025655877 -0.009777978
000110 d6 4c a2 be 0d 4c ce 3e ba 15 07 3f d1 03 91 bb
       -0.31699246 0.40292397 0.5276753 -0.004425504
000120 19 29 ab be f7 2d 85 3e b4 92 54 bc ce 1d e4 3d
       -0.33429793 0.2601163 -0.01297443 0.11138497
000130 85 46 bc bf 22 f5 8f 3e c7 63 c7 3f 8b 00 e8 3e
       -1.4709021 0.2811671 1.5577325 0.45312914
000140 3e 8e 4c bd 5b 35 af 3e c3 8a fd bc 9d 74 23 bf
       -0.04994034 0.34220394 -0.030949956 -0.6384981
000150 bf 2d 8c 3b f1 9e 04 3c 29 26 10 3f 54 fb 18 3f
       0.0042779143 0.008094535 0.5630823 0.59758496
000160 0b f0 15 be 4b 35 59 3b 7c 40 12 3f 6d fb 4b bf
       -0.1464235 0.0033143337 0.57129645 -0.7968052
000170 bc a4 f3 3b 9f ae 1c bf 51 a0 bb bc ce 7a 37 bf
       0.0074354094 -0.6120395 -0.022903593 -0.7167176
000180 59 af 72 bc 40 ff 5d bb 2e 03 08 3e 2a e3 a5 3e
       -0.014812314 -0.0033874065 0.13282463 0.32399875
000190 d0 52 17 bc ef 6c 1c 3c 49 87 71 bc cc 6a f5 38
       -0.009236053 0.009547456 -0.014741727 0.00011702403
0001a0 86 c0 22 3c 6a 25 62 3d c5 db 47 3b cb 86 bb 3c
       0.0099335965 0.055211462 0.0030495983 0.022891423
0001b0 d9 a8 91 3c 3a ce b4 3f 36 13 71 bf 55 c7 01 bc
       0.017780708 1.4125435 -0.9416994 -0.00792106
0001c0 92 ba a0 bd cc da 51 bd 72 e9 77 be 40 55 8f ba
       -0.078480855 -0.05123405 -0.24210146 -0.0010935441
0001d0 6e 09 f4 3b b3 90 24 ba e5 96 0c 3c a2 54 01 c0
       0.007447413 -0.00062776654 0.008580898 -2.0207906
0001e0 5f 4e 4d bf 1f bd aa be 12 bc f3 be 04 c1 2f 3c
       -0.8019771 -0.33347413 -0.47604424 0.010727171
0001f0 64 2c 53 bd 4b 82 fa be bf f7 b3 3d 30 8e a7 be
       -0.051556006 -0.4892753 0.08787488 -0.32725668
000200 70 08 83 bf 6e df 04 bf 30 e5 03 bf 1a 2f c7 ba
       -1.023695 -0.51903427 -0.5152159 -0.0015196532
000210 f9 04 92 be 40 16 1b 3b f6 96 d0 38 fa 0a d7 3c
       -0.2851942 0.0023664385 9.9463316e-05 0.026250351
000220 ea ec 16 bb 80 07 89 bc f1 06 0c bd 28 2d 13 bc
       -0.0023029395 -0.01672721 -0.034186307 -0.008982934
000230 ea 27 34 bc 30 1d 82 3f eb c5 a7 ba 59 94 61 bb
       -0.010995844 1.0165157 -0.0012800073 -0.0034420697
000240 b7 c4 ee 3c 3f 3f 54 be e1 77 1b 3c 9c a4 83 be
       0.029146535 -0.20727251 0.009489031 -0.25711524
000250 c9 f9 36 bf 1f dd 21 bb 46 f9 45 bf cf 90 8e 3c
       -0.7147489 -0.0024698449 -0.77333486 0.017403034
000260 74 46 37 be cd 83 77 3f 94 be 50 bf 34 fa c1 3f
       -0.1789797 0.9668549 -0.815408 1.5154481
000270 05 66 8a be 05 12 44 3e 35 cf c1 3e 3c 67 21 bf
       -0.2703096 0.19147499 0.378534 -0.6304815
000280 d9 d9 ba bc 7f 6e 22 40 82 9b 8a 3c 73 a6 60 bd
       -0.022808956 2.5379941 0.016919855 -0.05484624
000290 4d d3 be 3d 3c 5a 10 3d 3a a7 5f bd 2f 6d c2 3b
       0.09317646 0.035242304 -0.05460284 0.005933426
0002a0 2a 86 ac 3e f1 37 1f 3b 31 da 88 bd 75 0b c7 bd
       0.3369611 0.0024294818 -0.06682242 -0.09718982
0002b0 21 63 a9 ba 85 96 57 3e e7 5f eb bc 87 ce 36 bc
       -0.001292322 0.21053512 -0.028732253 -0.011157638
0002c0 25 f0 9d ba cc 1d 03 3f 4c b4 14 bf d5 b5 a0 3c
       -0.0012049718 0.5121734 -0.5808761 0.019617954
0002d0 13 62 9c 3c 71 8c 9f 3c 71 26 a8 3f a7 df a3 bc
       0.019089734 0.019476147 1.3136731 -0.020004107
0002e0 eb f3 9f be 4f 03 80 bf 7f b4 9e 3e 77 40 7e bd
       -0.31240782 -1.000101 0.30997083 -0.062073197
0002f0 06 87 b8 bc ad 6e be be dd e7 85 3c 6c c6 47 3f
       -0.022525322 -0.37193814 0.016345913 0.7803714
000300 f1 56 bb be 31 e5 82 be 26 7b fc bb 0a 31 b6 be
       -0.3658977 -0.25565484 -0.00770511 -0.3558429
000310 98 f2 6b bf b4 bd 09 bf 61 b5 33 be 4a 1d d2 3b
       -0.92167044 -0.5380509 -0.1754966 0.006412183
000320 11 78 01 3f 8a 5b ac bf d6 4f 0c 3c 8e a4 6e 3d
       0.5057383 -1.3465436 0.008563956 0.0582624
000330 03 6b 0c bf 86 d5 7a 3e 9d 85 06 bf 38 8c bc 3b
       -0.54850787 0.24495515 -0.5254763 0.00575402
000340 44 63 d0 be 54 3e 01 bb 56 39 20 3c 5e ec 1e bf
       -0.40700734 -0.0019720988 0.009779295 -0.6207942
000350 12 db 33 bf 34 75 e4 3d c7 e6 0a 3e 5b a2 82 bc
       -0.7025615 0.11155167 0.13564597 -0.015946558
000360 82 33 a9 3e 87 ea 37 bd cf 64 42 bd 13 49 a3 3c
       0.3304711 -0.044901397 -0.04745942 0.019932305
000370 33 57 1a 3e 94 ff 01 3e 5b e6 70 bb fa ff 09 c0
       0.15072326 0.12695152 -0.0036758396 -2.1562486
000380 c6 1e 33 bc 63 c4 d9 3d 4b 87 cb be 31 8e 91 3f
       -0.01093263 0.10633161 -0.39751658 1.1371518
000390 32 d7 3b 3c 03 70 d2 3e 7d 1c 19 bc 6f c6 d6 3e
       0.011464881 0.41101083 -0.009345171 0.41948268
0003a0 51 63 8e be e1 e7 51 3e 89 1b b1 3c 27 56 4e 3d
       -0.27810147 0.20498611 0.021619575 0.05037513
0003b0 40 0b 6c 3e 8e 23 fa 3e 2d 15 2c be ff af 4d bf
       0.23051167 0.4885525 -0.16804953 -0.80346674
0003c0 5e 7f be 3f b5 2e 06 3f 51 42 39 be 7d 1e 4f 3f
       1.4882619 0.5241502 -0.18091704 0.80905896
0003d0 cb 19 36 3f 7d 45 86 be 63 5d 1c 3f a6 77 6a 3e
       0.71133107 -0.2622489 0.61079997 0.22897205
0003e0 b6 b0 8e 3e 94 99 93 3c cd 6f 50 3e 71 69 86 be
       0.27869195 0.018017568 0.20355149 -0.2625232
0003f0 fb 16 ba 3a 30 6e 5a bc 69 d0 5d ba 19 3b f5 3b
       0.0014197523 -0.013331935 -0.00084615365 0.0074838516

parameters.std_b f4 [8]
000000 08 33 6d c0 fc 15 76 c0 7a ae 80 c0 87 a3 72 c0
       -3.7062397 -3.8450918 -4.0212984 -3.791231
000010 58 f3 76 c0 42 35 7b c0 ca 08 72 c0 ef c6 7a c0
       -3.8586025 -3.9251256 -3.7817864 -3.918392

parameters.std_w f4 [8, 256]
000000 03 ad 30 bd e4 eb ae bd 01 82 02 be 53 f4 88 3d
       -0.043133747 -0.08541086 -0.12744905 0.06687226
000010 9b 5d 06 3d 24 a5 ed bc ab c8 56 bd 81 9f 13 be
       0.032804113 -0.02900941 -0.052437466 -0.14416315
000020 ab da 41 3d 00 b6 fc bd cd 50 4d be 7c ba 0a be
       0.04732768 -0.12339401 -0.20050354 -0.135477
000030 f6 40 c5 3c 6d df 67 3d 62 45 a7 bc 32 c6 d7 3d
       0.024078827 0.05660956 -0.020418826 0.1053585
000040 dd 9f 52 be 81 e0 dc 3e 01 40 08 bc b0 56 c0 3c
       -0.20568796 0.43140033 -0.008316041 0.023478836
000050 3b f2 98 be 90 96 88 3c 5d a8 19 3c 80 ed 17 3c
       -0.29872307 0.016673356 0.00937852 0.009272933
000060 ce fc d5 bd 5d 1d 66 3e 87 3f 3b 3c a9 5e 19 3c
       -0.10448609 0.22472139 0.01142872 0.009360948
000070 e8 d4 41 be 2b b3 a2 be da 35 99 3e bf ad 5b 3c
       -0.18928874 -0.3177732 0.29923898 0.0134081235
000080 8a 3e dd 3d 08 18 b6 3e aa 00 ca bd d0 e8 12 3f
       0.10802944 0.3556521 -0.09863408 0.57386494
000090 1f 52 56 3a 4c 6a 1d be f5 86 4f 3d ac 70 a0 bc
       0.0008175689 -0.1537258 0.050665814 -0.019584976
0000a0 e0 e9 97 3b f2 04 15 bd 1f 5a 6d 3c f6 24 12 3c
       0.0046360344 -0.03638167 0.014486819 0.008919945
0000b0 e3 ac 19 be c8 f2 e5 bb 73 52 81 ba a4 c4 9b bd
       -0.15007357 -0.007017467 -0.0009866491 -0.076058656
0000c0 21 aa 34 3b 47 ce b7 bc 9f aa 53 be 64 c2 93 3e
       0.0027567225 -0.022437228 -0.20670556 0.28859246
0000d0 71 57 4b 3e 8d b2 8a be a9 7c 57 3d 1a ca 49 bc
       0.19857575 -0.27089348 0.05260912 -0.012316251
0000e0 24 56 b9 3c 25 ec af b9 04 44 b5 be d0 18 54 be
       0.022624083 -0.00033554542 -0.35403454 -0.2071259
0000f0 70 4f 02 3d 95 1a 31 3c db e0 07 3e 0e b0 11 3f
       0.03181404 0.01080956 0.1326937 0.56909263
000100 10 a9 96 bd 1f d9 2e 3e b4 8a 25 3c 5b e3 6d bc
       -0.07356465 0.17075013 0.01010387 -0.014519538
000110 0d 7c 64 be ce 91 61 be 22 fc e3 bd ac 86 8e 3c
       -0.22312947 -0.22028276 -0.11132075 0.0173982
000120 d1 94 ba be 5c 32 c6 3d d1 8e e4 bb e9 d1 53 be
       -0.36441663 0.09677574 -0.006975033 -0.20685543
000130 c8 31 77 3e 64 60 fa bc ac 98 19 3e ce ab e6 be
       0.24140084 -0.03056354 0.14999646 -0.45052952
000140 97 e0 33 3c 95 f9 f1 bd 6a 89 ae 3c c1 df 29 3b
       0.010978839 -0.11815182 0.021305759 0.0025920721
000150 37 ea 69 3c 70 e6 2a 3d f0 9a 0c bd 32 9b 74 bc
       0.014277033 0.04172367 -0.034327447 -0.01492958
000160 e5 61 a4 3e bc ff c1 bc e6 ef 38 3d 26 81 75 3e
       0.32105938 -0.023681514 0.04515066 0.23975047
000170 87 36 ee 3a 5f 1c 7f 3d 7f 24 19 3c c1 93 08 3d
       0.0018174209 0.062282916 0.00934708 0.033344034
000180 7b a4 13 3c 1b fb df 3b da 70 ba bd 19 ed 11 bf
       0.009011383 0.006835354 -0.09103556 -0.5700241
000190 7c cd c9 ba 69 6b e4 3b 96 c9 d3 3c e7 15 a2 3c
       -0.0015396322 0.006970812 0.02585296 0.019785834
0001a0 68 f4 16 3c be 99 42 bc 23 9f d5 3a a6 0d 3a 3c
       0.009213544 -0.011877475 0.0016298037 0.011355793
0001b0 9f b1 05 3a 54 36 cd 3d 64 8c ce 3d 13 1c 55 3c
       0.0005100015 0.10020128 0.10085371 0.013007182
0001c0 51 86 12 bd 2e de 05 3c f4 1a 52 3c fe ec 4d 3d
       -0.035772625 0.008170648 0.012823809 0.05027484
0001d0 60 4c bd 3c 49 44 bb bb e2 7e 98 bb a0 8c 48 3f
       0.023107708 -0.0057149273 -0.0046537975 0.78339577
0001e0 18 da c5 bd 8f 66 e4 3d 4b 2d 29 be 94 2e f1 3b
       -0.09660739 0.11152374 -0.16521184 0.007360289
0001f0 4d f0 b9 be 8e 30 d0 3d 87 1e 8c 3e a5 2e 0a 3e
       -0.36316147 0.10165511 0.2736704 0.13494356
000200 7b 16 b8 3d 5f d8 1b 3d 3e 6f ca bd 2e 82 ef 3c
       0.08988663 0.038048144 -0.09884499 0.02923688
000210 dd 06 3c 3d 83 93 69 bb 3c 02 53 3d a2 3c 17 3c
       0.045904983 -0.0035640902 0.051515803 0.009230765
000220 7a 4b b8 bb a9 e6 31 bc 80 e0 29 bf 17 ce 48 bf
       -0.005624232 -0.010858216 -0.66358185 -0.7843947
000230 55 61 a7 bc 40 d2 84 be 77 60 9c 3b bd ec 8f bb
       -0.020432154 -0.25941658 0.0047722417 -0.004392235
000240 3c 5e 50 3c 7e 1d ae 3e 97 96 c2 3b aa 5d de be
       0.01271778 0.34006876 0.005938362 -0.43430835
000250 1f 2e 1c be 21 e9 89 bd bc ff c8 3e e7 11 99 bc
       -0.15251969 -0.06733919 0.3925761 -0.018685294
000260 b0 bf ba be 34 c2 41 3e af 55 00 be 6f bf c9 3e
       -0.3647437 0.18921739 -0.12532686 0.39403865
000270 9e ea c8 3d ad 87 f3 bd be 62 30 be b6 51 10 bb
       0.09810375 -0.118911125 -0.17225167 -0.002202136
000280 db 53 08 3d 1d 44 aa 3f d1 50 06 3c 7a 5b 43 bd
       0.033283096 1.3302037 0.008197979 -0.04769466
000290 6f 48 55 ba 77 ad 35 be c1 e7 35 bd b5 71 67 bb
       -0.00081360986 -0.17741953 -0.04441047 -0.0035315577
0002a0 08 1d b5 3d e6 af 28 bc 7d d1 c3 3e 44 d1 85 be
       0.08843428 -0.010295844 0.38245764 -0.2613622
0002b0 18 bb 4a 3a 96 7a df bc 09 b4 e3 be ab 50 8d 3d
       0.00077335676 -0.027280133 -0.44473293 0.06900152
0002c0 51 e2 bf 3c b2 cb 96 3c d1 a6 a4 3e 11 30 10 bc
       0.023423346 0.018407676 0.3215852 -0.008800522
0002d0 21 44 6b 3c d4 91 db be 34 40 14 3c bb ac ae 3e
       0.014359505 -0.42884696 0.00904851 0.34116158
0002e0 de 84 6e 3e 17 05 7a 3e 29 dc 10 be 27 f7 32 be
       0.23292872 0.24416004 -0.14146484 -0.17477094
0002f0 4e 0b ca 3c 20 b8 df 3e bb 48 68 3c c9 11 b6 be
       0.024663594 0.43695164 0.014177497 -0.35560444
000300 24 e4 05 bf 0d 77 02 3d ae 45 a3 3c ce a5 2a 3d
       -0.5230124 0.031851817 0.019930687 0.04166203
000310 c3 eb a6 3e 6d 8d 02 3d ab f9 44 3e d3 8a 1d 3c
       0.32601747 0.031873155 0.19235866 0.009615618
000320 0c 8d f9 3e b0 53 38 3f cf 96 f9 bd d5 d9 38 be
       0.48740423 0.72002697 -0.121869676 -0.18051846
000330 7e fb cc 3d 49 19 a6 be 2c 68 7f 3d f6 fa 6e 3c
       0.10008906 -0.32441166 0.062355205 0.014586201
000340 ca 85 99 be 9e f4 d3 bb db 09 0c 3c 3e f2 cf bc
       -0.29984885 -0.0064683696 0.008547272 -0.025384065
000350 92 cb b0 3d 71 2c 87 bb b1 12 39 be 56 7f ac bb
       0.08632578 -0.004125171 -0.18073536 -0.005264203
000360 bd a6 ad 3d 83 bf f2 3b 7d e2 f0 3c 59 d2 7a 3d
       0.084790684 0.007408084 0.029404873 0.06123576
000370 f0 0b 5d 3e e1 df 55 be 7a 76 79 bc de b0 8f 3f
       0.21586585 -0.20886184 -0.015226001 1.122585
000380 24 ca 63 3d ec 3d 5f be 04 cf 3f be 32 b3 76 3e
       0.0556127 -0.21800965 -0.18731314 0.24091795
000390 60 86 f4 3e d1 c3 ce bd ca 1a 33 bb 0a 61 47 3d
       0.4775877 -0.10095943 -0.00273292 0.048676528
0003a0 29 b0 cb be 1b 60 52 be 84 f3 02 ba 7d 73 fa bc
       -0.39782837 -0.20544474 -0.0004995393 -0.030572647
0003b0 f0 57 a7 be 20 0a ef 3d c6 26 42 be 22 23 14 bf
       -0.32684278 0.11671853 -0.18960103 -0.5786611
0003c0 9f 4e 1f 3e 4b 64 57 be 76 f2 37 bd 8f 84 60 3e
       0.15557335 -0.21034352 -0.044908963 0.21925567
0003d0 9f 3c d9 be 49 96 d8 bd df a5 5a be 83 52 a0 3f
       -0.42429063 -0.105755396 -0.21352337 1.252518
0003e0 70 dc 03 3d 29 69 0d 3c 2c c8 48 3e 89 da c4 be
       0.032192647 0.008631029 0.1960761 -0.3844798
0003f0 a9 26 c5 3c 7e ab c4 3c 5b c1 96 3c 5f 7c b2 39
       0.024066286 0.024007555 0.018402746 0.0003404347
