notebook/result/weights/sac_snapbot/episode_550.pth (torch, 355440 bytes, 8 tensors)

parameters.mlp_0_b f4 [256]
0.13001841 -0.199231 -0.0030774763 -0.06574722 0.40046272 -0.16495678 -0.20441256 -0.092591606
-0.20444329 -0.044760194 0.00015845986 -0.06762746 -0.020662293 0.15325476 -0.08591247 0.5168202
-0.12345442 -0.22406378 -0.1076689 -0.08115031 0.046395697 -0.102042 -0.10080811 0.05729745
-0.1864942 -0.022863075 0.083292715 -0.111773826 -0.16729863 -0.04726436 -0.09993823 -0.21942446
-0.06520496 0.10251581 -0.012451093 -0.1998527 0.10609987 0.13778482 -0.16060802 -0.13403481
-0.15210868 -0.24588248 -0.036171198 -0.18247992 -0.078792624 0.13273251 -0.05942763 -0.17686994
-0.059876855 0.14116067 -0.24401896 -0.014459558 -0.15312852 -0.23751128 0.2151579 -0.06798879
-0.16673566 -0.25428307 -0.11812465 -0.24879211 -0.18218486 -0.011419366 -0.023873037 -0.18312971
-0.15932168 -0.33445662 -0.102515556 0.15984938 -0.24116682 -0.3017857 0.14879772 -0.25948033
-0.20831743 -0.046897534 -0.16845967 -0.04921762 0.05685306 -0.16522904 -0.015619692 -0.29971975
-0.20551133 0.0015724234 -0.032349944 -0.12739679 0.14782791 -0.17086595 -0.2939571 -0.20855798
0.11342585 0.22888897 -0.117248334 0.15219308 0.051197574 -0.0061891787 -0.03385208 -0.29559675
-0.053474665 -0.02693911 -0.11247295 -0.11316224 0.035286352 0.00029632467 -0.0018461223 -0.096424304
-0.1697028 -0.046746917 -0.15665194 0.20345666 -0.2224731 -0.16735929 -0.14686343 0.021141363
-0.09345181 -0.15555784 0.06548352 -0.09365384 0.016176006 -0.06048226 0.09580499 -0.18458703
0.10809134 -0.18724123 -0.104696676 0.23934606 -0.041753724 0.016256874 -0.080685064 -0.029470507
-0.12509847 0.18491332 -0.11715971 -0.012602839 -0.31250843 -0.26199824 -0.15015778 0.08717365
0.1774792 -0.093086235 -0.07982127 -0.0065972856 0.035422284 0.09110146 -0.21548887 -0.12925865
-0.13876607 0.02368336 -0.12465668 -0.24399096 -0.24667856 -0.14946671 -0.03340563 -0.20940815
-0.15847613 -0.28895253 0.0069159414 -0.036596816 -0.22917052 -0.13524605 -0.17801955 -0.30501673
0.035139404 -0.081175126 -0.29850754 -0.06023214 -0.023123998 -0.14589028 0.1674323 -0.019195095
-0.25160593 -0.24415062 0.026108326 0.024814146 0.081197985 -0.012310763 0.008498824 -0.0596292
-0.06234673 0.22615324 -0.1801814 -0.187201 -0.1464641 -0.22937019 -0.24863553 -0.15257195
-0.19504997 -0.13550645 -0.17016554 -0.21028551 0.064753234 0.15705957 -0.13688871 -0.10444074
-0.056914575 0.096390806 0.0960054 0.0028370104 -0.08537145 0.0612956 -0.1645411 0.027394285
0.11185057 -0.16319107 0.07269529 -0.05001048 -0.00992143 -0.06291183 0.06917534 -0.13050015
-0.16236049 -0.0967829 -0.19040595 -0.0879644 0.4735705 -0.15653293 -0.0752771 0.16874735
-0.054654557 0.08967262 -0.19934168 -0.09446929 -0.2183411 -0.17646478 0.06514471 -0.12906298
-0.23215404 -0.07374611 -0.04285201 -0.12538244 -0.22148357 -0.025815792 -0.015895924 0.46958444
-0.0959334 0.21730155 -0.0013415333 -0.12725538 0.013291114 -0.09135088 -0.16212037 -0.13156593
0.1982603 0.16594401 -0.19394931 -0.08159404 0.1459332 -0.048652213 -0.023833986 0.100487866
-0.0334066 -0.17565016 0.14361027 -0.073064774 -0.021182515 0.092363365 -0.07488935 -0.10815881
00000000: 8c23 053e 3603 4cbe 7caf 49bb 7aa6 86bd
00000010: 7309 cd3e 6eea 28be 8751 51be aba0 bdbd
00000020: 9559 51be 7756 37bd 3f28 2639 4480 8abd
00000030: f843 a9bc d1ee 1c3e e1f2 afbd 544e 043f
00000040: acd5 fcbd fa70 65be 8381 dcbd 2232 a6bd
00000050: 6a09 3e3d 65fb d0bd 7b74 cebd bbb0 6a3d
00000060: 56f8 3ebe 584b bbbc 5f95 aa3d ade9 e4bd
00000070: 5550 2bbe 4698 41bd 6aac ccbd ceb0 60be
00000080: 2e8a 85bd cff3 d13d abff 4bbc 30a6 4cbe
00000090: e34a d93d 7717 0d3e 6e76 24be 6c40 09be
000000a0: 61c2 1bbe 9ec8 7bbe 4028 14bd 04dc 3abe
000000b0: 075e a1bd 08eb 073e 636a 73bd 651d 35be
000000c0: 6f41 75bd 6c8c 103e 1be0 79be c8e7 6cbc
000000d0: b9cd 1cbe 2836 73be 5a52 5c3e b53d 8bbd
000000e0: c1bc 2abe 6431 82be 56eb f1bd 5cc3 7ebe
000000f0: ab8e 3abe 4b18 3bbc 6391 c3bc 5b86 3bbe
00000100: 3925 23be e63d abbe adf3 d1bd 8eaf 233e
00000110: 6ff4 76be a883 9abe 6e5e 183e 9bda 84be
00000120: 2a51 55be a117 40bd b180 2cbe 6a98 49bd
00000130: c1de 683d cd31 29be bde9 7fbc de74 99be
00000140: 9071 52be c619 ce3a 6081 04bd 4e74 02be
00000150: 3360 173e 7cf7 2ebe 8c81 96be 3990 55be
00000160: d04b e83d df61 6a3e e51f f0bd 81d8 1b3e
00000170: 8cb4 513d 98ce cabb 7ba8 0abd 7558 97be
00000180: 4008 5bbd 69af dcbc 3858 e6bd 9bc1 e7bd
00000190: 6c88 103d 065c 9b39 96f9 f1ba 1b7a c5bd
000001a0: 92c6 2dbe b279 3fbd 5e69 20be f156 503e
000001b0: fdcf 63be 3c60 2bbe 5e63 16be a730 ad3c
000001c0: aa63 bfbd 8e4a 1fbe 391c 863d 96cd bfbd
000001d0: 8b83 843c 3fbc 77bd 6835 c43d 6204 3dbe
000001e0: fe5e dd3d 2abc 3fbe 366b d6bd 2217 753e
000001f0: f405 2bbd 232d 853c 363e a5bd 226c f1bc
00000200: d019 00be eb59 3d3e 6ef1 efbd 237c 4ebc
00000210: 1b01 a0be a224 86be f6c2 19be 1988 b23d
00000220: 1bbd 353e ffa3 bebd 5679 a3bd 0b2e d8bb
00000230: f516 113d 6793 ba3d 1da9 5cbe 615c 04be
00000240: b118 0ebe 9b03 c23c 004c ffbd c4d8 79be
00000250: 4e99 7cbe cd0d 19be 58d4 08bd 176f 56be
00000260: 9147 22be 96f1 93be 1f9f e23b 8be6 15bd
00000270: adab 6abe f17d 0abe c24a 36be 272b 9cbe
00000280: 56ee 0f3d 253f a6bd fbd5 98be fab5 76bd
00000290: 8a6e bdbc 4364 15be 5f73 2b3e 083f 9dbc
000002a0: 7ed2 80be 9f02 7abe 21e1 d53c 0947 cb3c
000002b0: 214b a63d 15b3 49bc a73e 0b3c bf3d 74bd
000002c0: 495f 7fbd b794 673e 7981 38be 9eb1 3fbe
000002d0: affa 15be 05e0 6abe 509a 7ebe d23b 1cbe
000002e0: 2ebb 47be 34c2 0abe e03f 2ebe 1655 57be
000002f0: 589d 843d 39d4 203e 8e2c 0cbe 07e5 d5bd
00000300: 421f 69bd 8b68 c53d 7b9e c43d 23ed 393b
00000310: 3ad7 aebd 1811 7b3d 767d 28be fb69 e03c
00000320: e911 e53d 8f1b 27be 45e1 943d cad7 4cbd
00000330: 7e8d 22bc ebd7 80bd cdab 8d3d d5a1 05be
00000340: d441 26be 1d36 c6bd c7f9 42be ae26 b4bd
00000350: d577 f23e 2b4a 20be e12a 9abd 1bcc 2c3e
00000360: 75dd 5fbd 47a6 b73d 3a20 4cbe 1d79 c1bd
00000370: cf94 5fbe 2fb3 34be 976a 853d 1629 04be
00000380: cab9 6dbe 3308 97bd 9785 2fbd 4164 00be
00000390: 97cc 62be a47b d3bc 2b38 82bc 5f6d f03e
000003a0: bb78 c4bd 4c84 5e3e 63d6 afba 3c4f 02be
000003b0: f9c2 593c 2c16 bbbd e202 26be 38b9 06be
000003c0: c004 4b3e 3aed 293e a69a 46be c71a a7bd
000003d0: 836f 153e 8b47 47bd 7e3f c3bc 95cc cd3d
000003e0: 5cd5 08bd a3dd 33be 920e 133e fca2 95bd
000003f0: f486 adbc 0129 bd3d 965f 99bd 5e82 ddbd

parameters.mlp_0_w f4 [256, 70]
-0.12596768 -0.032539926 -0.23306298 -0.61093277 -0.11155172 -0.08416898 0.05149147 -0.0047234423
0.0836493 -0.27441248 -0.25325486 -0.74731237 0.020230904 0.3550498 -0.07856653 0.45910883
-0.14457493 -0.140004 0.08424689 0.09783153 -0.10465909 -0.48265877 -0.16985495 0.33519056
0.058056638 -0.01575415 0.55252707 0.09507083 -0.032230977 -0.036270108 -0.11050517 0.18739587
-0.07506074 0.2946517 0.06410765 -0.067323886 0.12744954 0.06813198 -0.30511546 0.21574874
-0.23769465 -0.03949994 -0.061965592 -0.21411508 -0.059283983 -0.0145250615 -0.29213023 0.009987211
-0.015076063 -0.15418123 -0.014272491 -0.08370301 -0.30282456 -0.47131452 0.29419684 -0.09884165
-0.011898743 0.21361467 -0.15734199 0.019341936 0.12284909 0.48480326 -0.0030679856 -0.07829429
-0.032011885 -0.0948006 -0.06615475 0.15267505 -0.026606807 0.068225235 -0.34296995 -0.028690482
-0.12207896 0.19013631 0.059433855 -0.23508799 0.20511146 0.07453121 -0.37012056 -0.30837083
-0.21382502 -0.06473422 -0.25470516 -0.42334288 0.002226039 -0.2534383 0.012868678 -0.18937151
-0.710204 0.2348617 0.023265194 -0.30861178 0.6101738 -0.083803415 -0.27726263 0.06729248
-0.03214532 -0.09229253 0.04993413 -0.07787685 0.10013254 -0.2825388 0.04082279 0.06960253
-0.13405491 0.05002181 -0.12785962 0.1853588 0.093947485 0.10709734 -0.15205187 -0.06026089
0.045368634 0.007583499 0.09793426 -0.14130731 0.2856334 -0.060939915 0.012623297 0.25829354
0.18178667 0.035251588 0.086012036 -0.2917867 -0.10821716 0.0632338 -0.08131667 0.19521448
0.23093377 -0.28513888 0.031897813 0.08170516 -0.13628326 -0.043464843 -0.0048928224 0.06477176
0.051406357 -0.14552563 0.025314467 0.15416771 0.1455168 0.27384183 -0.0720261 0.12654142
-0.2724424 0.12363703 0.28121576 -0.19097261 0.3862445 0.22700869 0.26734868 -0.14206396
-0.30459014 0.09642629 0.27654654 -0.22257164 -0.103862286 0.60829294 0.7202268 -0.58946466
-0.076821335 0.22730935 -0.9869685 0.21355258 -0.033429902 0.67428774 -0.25531304 -0.15453222
-0.0538102 0.025968123 0.09933524 -0.1466065 -0.18980953 -0.32011428 0.20921277 -0.20724261
0.22384623 -0.07331543 0.078634895 -0.09061827 0.033312246 -0.20224243 -0.16293138 0.09450991
-0.22714944 -0.13777381 0.071298614 0.031231644 0.2911543 -0.028334118 0.09406612 -0.15854388
0.38785857 0.4294285 -0.31434697 -0.15763992 -0.42289022 -0.655701 0.6015059 -0.13355495
0.0958791 -0.43976963 -0.031657636 -0.021746 -0.06701021 0.11645726 0.09521232 -0.3684323
-0.08763187 -0.050507374 -0.022450961 0.09187565 -0.102697186 0.21100534 -0.1629356 -0.19479527
0.034226663 0.5767493 -0.19319862 -0.046795662 -0.19395801 0.28510797 -0.18754828 -0.83678746
0.11140222 0.17048366 0.12690157 -0.3263511 0.028533658 0.35506952 0.07419171 0.13560346
-0.030237958 0.037344787 -0.03167344 0.051036566 -1.1211996 -0.06449853 0.12483417 -0.14738424
0.044283804 -0.28352612 -0.67002434 0.267898 0.08450421 0.19675143 -0.09122393 -0.12879704
0.111343466 -0.07126918 -0.0035834012 0.197335 0.3272428 -0.028842669 -0.089932054 0.01943184
00000000: acfd 00be 9648 05bd 10a8 6ebe 1766 1cbf
00000010: 3a75 e4bd c960 acbd b8e8 523d 1bc7 9abb
00000020: 5350 ab3d cb7f 8cbe 9faa 81be dd4f 3fbf
00000030: 48bb a53c 16c9 b53e 7de7 a0bd 5010 eb3e
00000040: 730b 14be 355d 0fbe a289 ac3d e65b c83d
00000050: 8157 d6bd 0d1f f7be 75ee 2dbe 199e ab3e
00000060: cccc 6d3d d90e 81bc 6a72 0d3f 7fb4 c23d
00000070: a104 04bd f78f 14bd 8950 e2bd b4e4 3f3e
00000080: 72b9 99bd 96dc 963e df4a 833d 1be1 89bd
00000090: 2282 023e c888 8b3d 1838 9cbe 3ded 5c3e
000000a0: 3a66 73be b0ca 21bd a2cf 7dbd fc40 5bbe
000000b0: c3d3 72bd 86fa 6dbc 1892 95be 66a1 233c
000000c0: 9701 77bc afe1 1dbe 2bd7 69bc 7c6c abbd
000000d0: d20b 9bbe 2350 f1be f8a0 963e 7e6d cabd
000000e0: f2f2 42bc cebd 5a3e 421e 21be fb72 9e3c
000000f0: 4e98 fb3d 2238 f83e 4210 49bb c258 a0bd
00000100: e51e 03bd d126 c2bd 247c 87bd d956 1c3e
00000110: 85f6 d9bc acb9 8b3d c299 afbe 4d08 ebbc
00000120: 8904 fabd 18b3 423e ea70 733d e8ba 70be
00000130: bd08 523e d2a3 983d 7180 bdbe c8e2 9dbe
00000140: f2f4 5abe 6093 84bd b768 82be 66c0 d8be
00000150: bde2 113b aac2 81be 26d7 523c 9bea 41be
00000160: eecf 35bf 967f 703e a696 be3c 5d02 9ebe
00000170: 5a34 1c3f 20a1 abbd 5ef5 8dbe a4d0 893d
00000180: d0aa 03bd de03 bdbd bb87 4c3d e67d 9fbd
00000190: 4a12 cd3d eda8 90be cc35 273d c58b 8e3d
000001a0: b145 09be abe3 4c3d a2ed 02be b3ce 3d3e
000001b0: 8a67 c03d da55 db3d 7cb3 1bbe 1fd4 76bd
000001c0: 76d4 393d 007f f83b c291 c83d ddb2 10be
000001d0: 8a3e 923e 229c 79bd f2d1 4e3c 0d3f 843e
000001e0: 4926 3a3e f863 103d 1427 b03d 1165 95be
000001f0: f5a0 ddbd b980 813d 5b89 a6bd 4ee6 473e
00000200: e779 6c3e b9fd 91be 48a7 023d 0955 a73d
00000210: d78d 0bbe 3108 32bd f853 a0bb 0ea7 843d
00000220: 798f 523d ac04 15be 4960 cf3c 24de 1d3e
00000230: 5b02 153e ff34 8c3e 6b82 93bd 1394 013e
00000240: 927d 8bbe 6935 fd3d 83fb 8f3e 538e 43be
00000250: d7c1 c53e f774 683e ede1 883e 3779 11be
00000260: 3df3 9bbe 267b c53d 8297 8d3e d2e9 63be
00000270: c0b5 d4bd 16b9 1b3f c960 383f 28e7 16bf
00000280: 8154 9dbd c8c3 683e f8a9 7cbf 87ad 5a3e
00000290: cbed 08bd 1f9e 2c3f 64b8 82be b23d 1ebe
000002a0: 1668 5cbd 1abb d43c 4670 cb3d 0420 16be
000002b0: 6e5d 42be 05e6 a3be df3b 563e 6837 54be
000002c0: f237 653e 6626 96bd 550b a13d 1296 b9bd
000002d0: 6c72 083d a418 4fbe 7cd7 26be 698e c13d
000002e0: dd99 68be 9414 0dbe 0205 923d 81d9 ff3c
000002f0: 2d12 953e f41c e8bc bda5 c03d 5459 22be
00000300: 6695 c63e 0dde db3e 16f2 a0be 5c6c 21be
00000310: 1185 d8be 05dc 27bf 4afc 193f a1c2 08be
00000320: 435c c43d 7c29 e1be 70ab 01bd ab24 b2bc
00000330: a63c 89bd 2581 ee3d adfe c23d 29a3 bcbe
00000340: 5678 b3bd d2e0 4ebd 14eb b7bc 4d29 bc3d
00000350: e752 d2bd c911 583e 97d8 26be 6978 47be
00000360: 4231 0c3d d8a5 133f dcd5 45be cfac 3fbd
00000370: ee9c 46be acf9 913e a80c 40be b437 56bf
00000380: d926 e43d 4593 2e3e 7cf2 013e 7e17 a7be
00000390: 6bbf e93c accb b53e d3f1 973d a2db 0a3e
000003a0: 98b5 f7bc d9f6 183d 02bc 01bd b80b 513d
000003b0: 7883 8fbf ce17 84bd 0fa9 ff3d e5eb 16be
000003c0: ef62 353d 562a 91be b786 2bbf ed29 893e
000003d0: 8b10 ad3d 3579 493e 9dd3 babd 5fe3 03be
000003e0: 0b08 e43d 93f5 91bd 7fd7 6abb 3012 4a3e
000003f0: 5e8c a73e 7647 ecbc 4c2e b8bd 862f 9f3c

parameters.mlp_1_b f4 [256]
0.03746307 0.22758333 0.3678186 -0.0044049434 0.010469855 0.35413522 0.107970625 0.037795894
0.008978864 0.2832079 0.047881544 0.10374772 -0.19764143 0.049481682 0.40478787 0.23645034
0.104227915 -0.10680515 -0.020824559 0.016790004 0.2699901 0.015253504 0.019275425 -0.0263693
0.060023796 0.031308595 -0.017923784 -0.026508953 0.12355848 0.08977136 0.2861988 0.07371709
-0.041526414 0.19269218 0.10358888 0.035813645 -0.012156045 0.10938307 -0.013722661 -0.015283651
-0.012596237 0.26316163 -0.018673057 0.05061517 0.08678237 0.14734931 -0.017305033 0.09231708
-0.014506789 0.054614242 0.05887316 0.14545403 0.24562372 0.12728634 0.017583154 -0.037222628
-0.01637604 -0.019169858 0.09761774 0.11074279 -0.002548508 -0.02985127 0.29869866 0.051297072
0.10633892 0.27334332 -0.028488966 -0.019297643 0.15581207 -0.0018495964 0.09399708 -0.015626758
0.28915322 0.45547062 -0.016084881 0.16328311 -0.07983671 0.25130343 0.0550337 -0.05601306
0.027088424 0.13055687 -0.011701646 -0.07339254 -0.020584986 0.051119618 0.32188535 0.13838743
0.1627518 -0.009054568 0.039502162 0.30440137 -0.011249386 0.2943341 0.06251488 0.092442475
-0.023555921 -0.014515932 0.2355932 0.0026954392 -0.030292345 -0.026116252 -0.02282587 -0.032385882
-0.013371092 0.031719837 -0.018544987 -0.034795046 -0.023455536 -0.031956427 0.10856713 -0.006389658
0.3923012 0.0558126 0.2997629 0.18445534 -0.032925025 -0.017810877 -0.014847859 -0.080450445
0.31386185 0.25311399 0.22074251 -0.021383699 0.48275015 0.092937246 0.11105314 0.14181067
0.20263268 0.2706282 0.034065843 0.016875345 0.15217234 -0.011883635 0.04515053 -0.029233463
-0.01681269 -0.019317957 -0.10656408 -0.025113605 -0.024600424 0.15838937 -0.032143526 -0.013872703
-0.030021459 0.018242333 -0.0236192 0.25751758 0.08862237 0.26572388 0.106783815 -0.019274896
0.07376297 0.14148897 0.1861213 0.055174958 0.16389261 0.12553757 0.058216956 0.022182567
0.03308097 0.19313858 -0.022554182 -0.029913688 0.26357925 0.2354825 0.11344548 -0.016389972
0.052471854 -0.014281385 -0.14158078 0.028799579 -0.016897188 0.23072727 0.25130028 0.023850687
0.04618894 0.21261682 0.21442412 -0.023066396 -0.024148978 0.16917929 0.11148911 -0.0039999275
0.1291215 -0.022692412 0.22578336 0.030295627 0.017694157 -0.17732982 -0.024591751 0.4421065
-0.061993353 0.099349596 -0.019119423 0.13856862 0.0063544204 0.14989066 0.26514328 -0.020266976
-0.052047327 0.27808744 0.13798955 0.0055410094 0.2954934 -0.11716771 0.052942548 -0.017275037
0.07181985 -0.014168515 -0.024501879 0.14262904 0.14939399 0.060559217 0.23076549 -0.0199671
0.1777744 -0.0337145 0.038996756 -0.02409074 0.14002346 0.22737117 -0.016469011 0.23834075
0.024882764 0.07003235 0.29325753 0.05750563 0.19753745 0.079973735 -0.02884192 0.05547695
0.16055883 0.29010633 -0.046178356 -0.0158974 0.020125909 -0.09280056 0.19417316 0.052136112
0.2713633 0.36405027 0.10475143 0.027240528 -0.042847294 -0.050146494 0.058869384 0.10854013
0.12142944 -0.015604334 0.33136278 0.3341194 -0.021695292 -0.01517453 -0.02855013 -0.013457063
00000000: e072 193d 9b0b 693e b852 bc3e 5857 90bb
00000010: c189 2b3c 3651 b53e b41f dd3d decf 1a3d
00000020: 161c 133c a000 913e 701f 443d af79 d43d
00000030: 8462 4abe 4ead 4a3d 5b40 cf3e 0a20 723e
00000040: 7275 d53d a9bc dabd 4498 aabc 318b 893c
00000050: 243c 8a3e d5e9 793c 7fe7 9d3c 6e04 d8bc
00000060: 83db 753d 713d 003d e6d4 92bc 4e29 d9bc
00000070: 3a0c fd3d 0cda b73d a688 923e fcf8 963d
00000080: 9a17 2abd 1951 453e 6826 d43d 54b1 123d
00000090: 262a 47bc 3b04 e03d 03d5 60bc 4768 7abc
000000a0: 7260 4ebc 1fbd 863e 3df8 98bc da51 4f3d
000000b0: f5ba b13d bde2 163e 49c3 8dbc bd10 bd3d
000000c0: e2ad 6dbc 2fb3 5f3d fc24 713d e7f1 143e
000000d0: c984 7b3e 5a57 023e 8c0a 903c c176 18bd
000000e0: 0c27 86bc 1b0a 9dbc cfeb c73d 1ecd e23d
000000f0: df04 27bb a78a f4bc 08ef 983e e11c 523d
00000100: 38c8 d93d a8f3 8b3e b161 e9bc 1716 9ebc
00000110: 338d 1f3e 286e f2ba 8b81 c03d b003 80bc
00000120: e40b 943e 7233 e93e 71c4 83bc b033 273e
00000130: 6e81 a3bd d8aa 803e 046b 613d f36d 65bd
00000140: 8be8 dd3c b3b0 053e 43b8 3fbc d44e 96bd
00000150: d8a1 a8bc ce62 513d 28ce a43e 6fb5 0d3e
00000160: 68a8 263e 9c59 14bc 05cd 213d 7fda 9b3e
00000170: 584f 38bc f6b2 963e cd07 803d 7b52 bd3d
00000180: 59f8 c0bc 3bd4 6dbc 583f 713e f7a5 303b
00000190: a727 f8bc c0f1 d5bc 52fd babc 0fa7 04bd
000001a0: 6d12 5bbc a9ec 013d a8eb 97bc 4085 0ebd
000001b0: d325 c0bc bee4 02bd 7258 de3d 5660 d1bb
000001c0: b4db c83e c19b 643d 867a 993e dce1 3c3e
000001d0: 64dc 06bd 1ee8 91bc 6f44 73bc 34c3 a4bd
000001e0: 80b2 a03e 2898 813e 530a 623e de2c afbc
000001f0: 072b f73e e255 be3d d46f e33d d136 113e
00000200: f17e 4f3e c88f 8a3e a088 0b3d 2a3e 8a3c
00000210: 11d3 1b3e 94b3 42bc c3ef 383d 047b efbc
00000220: c4ba 89bc b140 9ebc 453e dabd 0cbb cdbc
00000230: d486 c9bc d330 223e eea8 03bd 554a 63bc
00000240: 90ef f5bc f270 953c 0d7d c1bc 58d9 833e
00000250: a57f b53d f60c 883e 79b1 da3d 63e6 9dbc
00000260: 0a11 973d 7ce2 103e 9596 3e3e 23ff 613d
00000270: 77d3 273e ec8c 003e e774 6e3d 37b8 b53c
00000280: e97f 073d 1fc6 453e 8cc3 b8bc 8d0d f5bc
00000290: dcf3 863e 5322 713e 1b56 e83d 4344 86bc
000002a0: baec 563d 78fc 69bc 8dfa 10be 18ed eb3c
000002b0: f96b 8abc c543 6c3e 6eaa 803e 8462 c33c
000002c0: 9d30 3d3d 39b8 593e ff91 5b3e bdf5 bcbc
000002d0: 14d4 c5bc 563d 2d3e 6754 e43d d311 83bb
000002e0: 6d38 043e 70e5 b9bc c133 673e 892e f83c
000002f0: 56f3 903c f395 35be a474 c9bc c85b e23e
00000300: beec 7dbd cd77 cb3d 56a0 9cbc efe4 0d3e
00000310: be38 d03b f07c 193e dcc0 873e ee06 a6bc
00000320: 942f 55bd 7a61 8e3e 224d 0d3e 5b91 b53b
00000330: e94a 973e a0f5 efbd 49da 583d 6184 8dbc
00000340: 4916 933d 0f23 68bc 2ab8 c8bc 590d 123e
00000350: bdfa 183e f10c 783d ca4d 6c3e 0b92 a3bc
00000360: 7e0a 363e 3718 0abd 10bb 1f3d f259 c5bc
00000370: 4f62 0f3e fdd3 683e 05ea 86bc 990f 743e
00000380: f0d6 cb3c 1f6d 8f3d da25 963e 068b 6b3d
00000390: 4247 4a3e 45c9 a33d e445 ecbc cc3b 633d
000003a0: 8969 243e d188 943e 8425 3dbd 443b 82bc
000003b0: 17df a43c 380e bebd 54d5 463e ad8c 553d
000003c0: 21f0 8a3e cc64 ba3e eb87 d63d 8727 df3c
000003d0: a580 2fbd 6966 4dbd 0621 713d 4a4a de3d
000003e0: 00b0 f83d 52a9 7fbc 62a8 a93e b311 ab3e
000003f0: 53ba b1bc 989e 78bc f6e1 e9bc 037b 5cbc

parameters.mlp_1_w f4 [256, 256]
-0.201045 -0.0041105147 0.089454845 -0.18935542 0.096716456 -0.08519014 -0.11498003 -0.13638788
-0.32275042 0.17868224 0.20305821 -0.23859534 -0.20649424 -0.5201936 -0.38109174 0.17438693
0.06280132 0.130501 -0.040130828 -0.050269466 -0.059811898 -0.5365732 -0.08486829 -0.16857682
0.27108836 0.05742425 -0.3275986 0.09597013 0.12413537 -0.2426279 0.099589065 -0.22853577
-0.14242496 0.17605093 0.013119861 0.057850353 -0.3901452 -0.13440931 0.18132676 0.11535738
0.07033796 -0.35370186 0.08037757 0.10020243 0.040429596 0.11902067 0.3021659 0.14899893
-0.15046977 0.09489537 -0.08912106 0.1225046 0.16758753 -0.4525815 -0.14749427 -0.15336291
-0.010186111 -0.054906316 0.004195826 -0.30546227 0.16639768 0.13938631 0.1481301 0.012832732
0.007043744 0.08865171 0.06160695 -0.13825591 -0.24767302 -0.07943657 0.16776323 -0.21901366
0.07512685 -0.06225806 -0.11102318 0.40267116 -0.14827155 -0.06545602 -0.3482468 0.15104145
0.34439886 0.14138778 0.10026701 -0.099937335 0.030921038 0.27594095 -0.029095724 0.14207199
0.19887166 -0.096185304 -0.056191795 -0.18238825 -0.22478753 -0.0010572294 0.020518009 0.13361149
0.13763481 0.029754404 -0.13212314 0.07716346 -0.13136643 -0.004438325 -0.18175136 0.004998348
0.17839247 -0.05441431 -0.23966233 0.07931445 -0.12996139 0.0038873323 -0.048965063 0.07225128
0.14326204 -0.26406986 0.23231302 -0.14680919 0.032199923 -0.2772855 0.0950245 0.014360649
-0.22114477 -0.22822936 -0.047559496 0.040948447 0.25582838 0.14604999 0.11231742 -0.040758617
0.12215261 -0.33190122 0.038402926 -0.099945635 0.2584427 0.0649637 -0.07972095 -0.17857061
-0.27151757 0.041354753 0.03690452 0.31587017 0.29308152 -0.12595709 0.042042576 -0.12039425
-0.36675903 0.14980829 0.24449493 0.02163925 -0.24541022 0.1849179 -0.0993711 0.3545769
-0.27883902 -0.023439324 0.05659129 -0.2657997 -0.15018494 -0.098347746 0.06057529 0.10538161
-0.24741855 -0.27058634 -0.1982256 -0.023612037 0.00911056 -0.06530787 -0.024060322 0.09868391
-0.2584193 0.098424785 -0.505351 -0.33274823 0.13477986 0.12445151 -0.066084266 -0.11485516
-0.0018952241 0.24056739 -0.4403757 0.03314112 0.19060406 -0.047880013 -0.084105186 -0.04449327
0.073452674 -0.128581 -0.27520487 -0.043400075 -0.18918416 0.07645264 -0.36660415 -0.0865581
-0.29326355 -0.088193476 0.09424199 -0.0050993743 -0.10432041 -0.14894268 0.05429488 -0.08233512
-0.21503562 -0.063055664 -0.10888705 -0.124120176 -0.41348302 0.10333834 0.17466861 0.14411369
0.0010685356 -0.13699257 -0.08115921 -0.071457356 -0.22137807 0.15507089 -0.34981918 -0.13646008
0.068753146 -0.10907381 0.08302361 0.00469039 0.20873798 -0.18803315 -0.23884133 0.19649297
-0.100271165 0.093005285 -0.0865765 -0.3926138 0.09496285 0.02608601 0.008948973 -0.014738655
-0.08459714 0.197851 -0.48836735 0.08549985 -0.16859928 -0.13722764 -0.36184567 -0.1629472
0.09306285 -0.05416876 0.18745854 -0.30400124 -0.3158203 -0.29529876 0.14001854 -0.3194044
-0.06414254 -0.27375856 -0.045311637 -0.08998401 -0.03594306 -0.07292757 -0.12498506 -0.05821569
00000000: bede 4dbe 7fb1 86bb 1a34 b73d 63e6 41be
00000010: 4713 c63d 2b78 aebd a67a ebbd 44a9 0bbe
00000020: 8b3f a5be 7af8 363e 7eee 4f3e 5652 74be
00000030: 3a73 53be 682b 05bf 751e c3be 7d92 323e
00000040: fa9d 803d 0ea2 053e 3960 24bd 5be7 4dbd
00000050: 52fd 74bd dc5c 09bf 6dcf adbd 679f 2cbe
00000060: 18cc 8a3e b135 6b3d 01bb a7be fd8b c43d
00000070: af3a fe3d 7373 78be 5af5 cb3d 4805 6abe
00000080: d9d7 11be b246 343e aff4 563c 7ef4 6c3d
00000090: 1dc1 c7be 98a2 09be b9ad 393e 7d40 ec3d
000000a0: 590d 903d 6918 b5be ff9c a43d ee36 cd3d
000000b0: 8199 253d 1cc1 f33d 7db5 9a3e 2d93 183e
000000c0: bf14 1abe 8158 c23d 1a85 b6bd b1e3 fa3d
000000d0: 119c 2b3e c3b8 e7be bd08 17be 2b0b 1dbe
000000e0: a5e3 26bc 72e5 60bd 247d 893b 8d65 9cbe
000000f0: 2764 2a3e 49bb 0e3e 6baf 173e 6140 523c
00000100: 35cf e63b 078f b53d 9257 7c3d f592 0dbe
00000110: ff9d 7dbe a4af a2bd 20ca 2b3e 1e45 60be
00000120: 1bdc 993d 4f02 7fbd 1f60 e3bd ea2a ce3e
00000130: 7fd4 17be ce0d 86bd 684d b2be 9caa 1a3e
00000140: 0c55 b03e f5c7 103e ca58 cd3d f2ab ccbd
00000150: 1e4e fd3c 2248 8d3e 285a eebc 527b 113e
00000160: 03a5 4b3e cdfc c4bd 5e29 66bd fcc3 3abe
00000170: b42e 66be bb92 8aba 6215 a83c 73d1 083e
00000180: 24f0 0c3e 82bf f33c 4a4b 07be e007 9e3d
00000190: ec84 06be 5e6f 91bb 071d 3abe 2fc9 a33b
000001a0: 84ac 363e 8ae1 5ebd 0b6a 75be 9d6f a23d
000001b0: 9914 05be 9dc2 7e3b 978f 48bd 7bf8 933d
000001c0: 49b3 123e 2a34 87be 77e3 6d3e 2655 16be
000001d0: 11e4 033d 5df8 8dbe 349c c23d ed48 6b3c
000001e0: c673 62be f5b4 69be bfcd 42bd 8fb9 273d
000001f0: f0fb 823e 218e 153e ad06 e63d 82f2 26bd
00000200: 262b fa3d f5ee a9be 634c 1d3d 4cb0 ccbd
00000210: 9a52 843e b00b 853d bd44 a3bd 37db 36be
00000220: 5a04 8bbe 9a63 293d 3229 173d bcb9 a13e
00000230: c80e 963e e5fa 00be d634 2c3d 4391 f6bd
00000240: d7c7 bbbe 5867 193e e15c 7a3e cc44 b13c
00000250: d14c 7bbe 1e5b 3d3e 1383 cbbd 1a8b b53e
00000260: fdc3 8ebe d303 c0bc 45cc 673d e616 88be
00000270: 15ca 19be 8b6a c9bd cc1d 783d 50d2 d73d
00000280: 4a5b 7dbe 4b8a 8abe a7fb 4abe 086e c1bc
00000290: 7544 153c 22c0 85bd 271a c5bc ca1a ca3d
000002a0: 894f 84be ef92 c93d af5e 01bf fa5d aabe
000002b0: bb03 0a3e 6fe0 fe3d 3057 87bd 2f39 ebbd
000002c0: 2b69 f8ba 4c57 763e ec78 e1be fcbe 073d
000002d0: b62d 433e d51d 44bd 573f acbd 933e 36bd
000002e0: 5b6e 963d bdaa 03be a7e7 8cbe 47c4 31bd
000002f0: 7eb9 41be 3493 9c3d 8ab3 bbbe 6045 b1bd
00000300: a426 96be c89e b4bd f201 c13d a718 a7bb
00000310: f0a5 d5bd 6e84 18be 4f64 5e3d 519f a8bd
00000320: 4c32 5cbe 5423 81bd 2c00 dfbd b832 febd
00000330: 0cb4 d3be 0da3 d33d 54dc 323e 8a92 133e
00000340: 1b0e 8c3a c847 0cbe cd36 a6bd 3c58 92bd
00000350: efb0 62be e7ca 1e3e 801b b3be 31bc 0bbe
00000360: 73ce 8c3d 1762 dfbd 4808 aa3d d8b1 993b
00000370: 69bf 553e c38b 40be d292 74be 7435 493e
00000380: f85a cdbd 8e79 be3d 054f b1bd ad04 c9be
00000390: e27b c23d 54b2 d53c b79e 123c 667a 71bc
000003a0: 4441 adbd 7499 4a3e 490b fabe 8c1a af3d
000003b0: 4aa5 2cbe 6785 0cbe d643 b9be a1db 26be
000003c0: bc97 be3d 10e0 5dbd 22f5 3f3e 0da6 9bbe
000003d0: 33b3 a1be 6631 97be 0561 0f3e f988 a3be
000003e0: 2a5d 83bd 152a 8cbe b298 39bd 8949 b8bd
000003f0: 0839 13bd 0d5b 95bd 2bf8 ffbd 9373 6ebd

parameters.mu_b f4 [8]
0.036580466 -0.029162321 0.16953364 0.13218899 -0.015366475 -0.046174273 -0.07480071 -0.047797002
00000000: 66d5 153d d2e5 eebc 3a9a 2d3e 8d5c 073e
00000010: abc3 7bbc 3c21 3dbd 1d31 99bd cac6 43bd

parameters.mu_w f4 [8, 256]
0.45212516 -0.23974262 -0.07813673 0.1082656 -0.054468453 0.47626185 -0.012560138 0.025450235
-0.016205207 -0.31070352 0.18780509 -0.23618 -0.08463826 0.302592 -0.48665643 0.23489688
0.28752372 0.07057104 -0.0023871078 -0.0077675586 0.340314 -0.018829534 -0.03643596 0.024410048
0.20573941 0.058526665 0.0018264618 -0.0017691777 -0.46243852 0.14803553 0.7356951 -0.0296158
0.07508969 -0.6520334 0.20644796 -0.7144407 0.0070223943 -0.3162362 0.15517284 0.0072149774
0.008247686 -0.2288264 0.01681998 -0.051717676 -0.05086495 0.4554433 0.020855373 0.17700481
-0.002078054 -0.010134272 0.11807659 0.31737155 -0.18840782 0.13472229 -0.0059243273 -0.013156549
-0.037288334 0.018559795 0.15491998 -0.14495713 0.013685721 0.0069595138 -0.2597709 0.064307176
-0.28382403 -0.16743134 0.025655877 -0.009777978 -0.21195844 0.024303943 -0.09720886 -0.004425504
-0.075613566 0.4084454 -0.01297443 0.13495316 -0.32900602 0.06906682 0.7158297 0.47565863
-0.04994034 0.012836563 -0.030949956 -0.1290975 0.0042779143 0.008094535 0.31022736 0.18654354
-0.19746046 0.0033143337 0.6028896 -0.8517355 0.0074354094 -0.26645193 -0.022903593 -0.059864346
-0.014812314 -0.0037414772 -0.15333007 -0.11798836 -0.009236053 0.009547456 -0.014741727 0.00011702403
0.0099335965 0.067959115 0.0030495983 0.022891423 0.017780708 1.3136628 -0.5198468 -0.00792106
-0.18269001 -0.05123405 -0.6057516 0.869935 0.007447413 -0.00062776654 0.008580898 -1.2218552
-0.5759259 -0.07395815 0.49883118 0.010727171 -0.26802993 -0.18222345 -0.72791576 0.22294746
-0.15915844 -1.1620127 0.042903684 -0.0015196532 0.62638074 0.016650515 9.9463316e-05 0.026250351
-0.0023029395 -0.01672721 -0.19648363 -0.11347406 -0.010995844 0.7169823 -0.0012800073 0.014408681
0.029146535 0.120392635 0.009489031 -0.52256066 -0.5779079 -0.0028227603 -1.1538812 0.017403034
-0.06342879 0.6695416 -0.31626388 0.7155995 -0.86985874 0.3879468 0.09062943 -0.119563095
-0.022808956 2.712588 0.016919855 -0.060375992 0.067654364 -0.20000726 0.06104171 0.005933426
1.0044832 0.0024294818 -0.08373813 -0.1875627 -0.0012942671 0.17955926 0.048760198 -0.011157638
-0.0012265327 0.1052895 -0.57439613 0.019617954 0.019089734 -0.16984361 0.30167082 -0.019886235
-0.42421696 -0.83967817 0.37659162 -0.002989565 -0.022525322 0.40624315 0.016345913 0.4462449
0.018411882 -0.336594 -0.00770511 0.45932811 -0.7464429 -0.5334867 -0.3701286 0.006412183
0.5179015 -0.96524847 -0.06942223 -0.53483915 -0.18049273 -0.09553743 -0.99431115 0.00575402
-0.4315079 -0.0019720988 0.009779295 -1.3045675 -0.31774136 0.11155167 0.33008072 -0.015946558
0.08123511 -0.044901397 -0.02763562 0.019932305 0.2992655 0.21213984 -0.0036758396 -0.9010229
-0.01093263 0.545357 -0.10059297 0.8711071 -0.89867723 0.97298 -0.009345171 0.013023202
0.2441854 -0.47062916 0.015803272 0.0015904289 0.860913 0.48666424 -0.25270218 -0.2633143
1.5360885 0.56682825 0.06741441 0.7321381 0.5013553 -0.1756686 0.2221086 0.26763254
0.85475624 0.018017568 0.15065151 0.03489961 0.0014197523 -0.013331935 -0.00084615365 0.0074838516
00000000: f37c e73e 177f 75be 2606 a0bd 5bba dd3d
00000010: 501a 5fbd 98d8 f33e 09c9 4dbc 037d d03c
00000020: c8c0 84bc 8814 9fbe fa4f 403e 2bd9 71be
00000030: d356 adbd 57ed 9a3e 082b f9be cf88 703e
00000040: 4f36 933e 8d87 903d 0671 1cbb 0187 febb
00000050: a33d ae3e 6540 9abc e03d 15bd 95f7 c73c
00000060: 5aad 523e a8b9 6f3d e365 ef3a c1e3 e7ba
00000070: bec4 ecbe a096 173e 8456 3c3f d69c f2bc
00000080: a0c8 993d a9eb 26bf 1867 533e 96e5 36bf
00000090: 1d1c e63b b6e9 a1be a1e5 1e3e 9e6b ec3b
000000a0: 4d21 073c 7851 6abe 0eca 893c ead5 53bd
000000b0: c457 50bd dd2f e93e e3d8 aa3c c040 353e
000000c0: f62f 08bb 380a 26bc 24d2 f13d 867e a23e
000000d0: fbed 40be a4f4 093e dc20 c2bb 918e 57bc
000000e0: a7bb 18bd b60a 983c 58a3 1e3e a46f 14be
000000f0: 133a 603c a20c e43b b100 85be 7bb3 833d
00000100: 6251 91be 1f73 2bbe 462c d23c d033 20bc
00000110: a20b 59be 1019 c73c 7015 c7bd d103 91bb
00000120: 49db 9abd c11f d13e b492 54bc 2931 0a3e
00000130: 7a73 a8be e872 8d3d 9d40 373f 8789 f33e
00000140: 3e8e 4cbd 7350 523c c38a fdbc 2332 04be
00000150: bf2d 8c3b f19e 043c 1fd6 9e3e 4505 3f3e
00000160: 1333 4abe 4b35 593b f956 1a3f 560b 5abf
00000170: bca4 f33b 636c 88be 51a0 bbbc 5134 75bd
00000180: 59af 72bc 9233 75bb 8f02 1dbe e2a3 f1bd
00000190: d052 17bc ef6c 1c3c 4987 71bc cc6a f538
000001a0: 86c0 223c 262e 8b3d c5db 473b cb86 bb3c
000001b0: d9a8 913c 1a26 a83f ae14 05bf 55c7 01bc
000001c0: 1713 3bbe ccda 51bd 8912 1bbf 0fb4 5e3f
000001d0: 6e09 f43b b390 24ba e596 0c3c c065 9cbf
000001e0: e16f 13bf 5f77 97bd cd66 ff3e 04c1 2f3c
000001f0: 383b 89be c998 3abe b058 3abf 574c 643e
00000200: 6efa 22be d5bc 94bf c6bb 2f3d 1a2f c7ba
00000210: 7d5a 203f a966 883c f696 d038 fa0a d73c
00000220: eaec 16bb 8007 89bc 0133 49be 1765 e8bd
00000230: ea27 34bc 278c 373f ebc5 a7ba 6312 6c3c
00000240: b7c4 ee3c 6a90 f63d e177 1b3c 89c6 05bf
00000250: c6f1 13bf 0ffe 38bb 61b2 93bf cf90 8e3c
00000260: f4e6 81bd 1467 2b3f 57ed a1be 8731 373f
00000270: 10af 5ebf f7a0 c63e ec9b b93d 7fdd f4bd
00000280: d9d9 babc 0b9b 2d40 829b 8a3c d14c 77bd
00000290: 5f8e 8a3d b4ce 4cbe df06 7a3d 2f6d c23b
000002a0: e892 803f f137 1f3b e67e abbd 7010 40be
000002b0: 66a4 a9ba 62de 373e c6b8 473d 87ce 36bc
000002c0: 9cc3 a0ba 05a2 d73d a00b 13bf d5b5 a03c
000002d0: 1362 9c3c 7ceb 2dbe 9974 9a3e 75e8 a2bc
000002e0: f732 d9be 26f5 56bf 9ed0 c03e 94ec 43bb
000002f0: 0687 b8bc 1aff cf3e dde7 853c 367a e43e
00000300: 84d4 963c 0c56 acbe 267b fcbb 0e2d eb3e
00000310: e216 3fbf 9692 08bf 7f81 bdbe 4a1d d23b
00000320: 3195 043f 861a 77bf 3e2d 8ebd 38eb 08bf
00000330: 16d3 38be 21a9 c3bd 2d8b 7ebf 388c bc3b
00000340: 9aee dcbe 543e 01bb 5639 203c 11fc a6bf
00000350: ffae a2be 3475 e43d 5700 a93e 5ba2 82bc
00000360: 985e a63d 87ea 37bd 1964 e2bc 1349 a33c
00000370: 5439 993e 303b 593e 5be6 70bb 70a9 66bf
00000380: c61e 33bc 849c 0b3f b003 cebd e000 5f3f
00000390: b60f 66bf 3815 793f 7d1c 19bc 455f 553c
000003a0: bd0b 7a3e 4ef6 f0be dd75 813c f075 d03a
000003b0: cb64 5c3f 0e2c f93e 2e62 81be 22d1 86be
000003c0: 8c9e c43f a81b 113f 9110 8a3d 676d 3b3f
000003d0: d258 003f 78e2 33be 7070 633e 2207 893e
000003e0: 4ed1 5a3f 9499 933c 6444 1a3e e5f2 0e3d
000003f0: fb16 ba3a 306e 5abc 69d0 5dba 193b f53b

parameters.std_b f4 [8]
-3.0744221 -3.1914244 -3.2090082 -3.2124152 -3.0836232 -3.273877 -3.021704 -3.0856621
00000000: 55c3 44c0 4c40 4cc0 6460 4dc0 3698 4dc0
00000010: 155a 45c0 3387 51c0 9963 41c0 7d7b 45c0

parameters.std_w f4 [8, 256]
0.088892564 -0.37689242 -0.3434545 -0.13296476 0.032804113 -0.31394368 -0.18852916 -0.002909892
0.04732768 -0.188175 -0.18133867 -0.15677401 0.04021341 -0.053523537 -0.103650115 -0.014408731
-0.13269489 0.25450286 -0.008316041 0.023478836 -0.33357728 0.016673356 0.00937852 0.009272933
-0.23150359 -0.13304192 0.01142872 0.009360948 0.043100826 -0.23641743 0.47901028 -0.025847519
0.10802944 0.029078893 -0.06861972 0.10544383 0.0008175689 -0.19018798 -0.27317104 -0.019584976
0.0046360344 -0.3231727 0.014486819 0.019493904 0.11241814 -0.058761 -0.0009866491 -0.0010913351
0.0027567225 -0.022437228 -0.5588698 0.10067111 0.002734325 -0.030419465 0.05260912 -0.012316251
0.022624083 -0.00033554542 -0.41758627 -0.14889789 0.03171486 0.01080956 -0.30499995 0.8035785
-0.29156655 -0.13476256 0.01010387 -0.014519538 -0.488283 -0.22447903 -0.06750921 0.0173982
-0.026873585 0.12790039 -0.006975033 -0.15350464 0.025735267 -0.2924932 0.06741522 -0.23240487
0.010978839 -0.066700205 0.021305759 -0.035104163 0.014277033 0.04172367 0.101118565 -0.00064800057
0.013693837 -0.023681514 -0.20815851 0.20487806 0.0018174209 -0.17375189 0.00934708 0.051180612
0.009011383 0.0068354867 -0.13665262 -0.15571074 -0.0015396322 0.006970812 0.02585296 0.019785834
0.009213544 -0.011770872 0.0016298037 0.011355793 0.0005100015 0.14176898 0.007884672 0.013007182
-0.1667496 0.008170648 -0.19492637 -0.2226267 0.023107708 -0.0057149273 -0.0046537975 0.66523314
-0.09751052 -0.048760258 -0.2963849 0.007360289 -0.44103333 0.0856115 0.0065877484 -0.03039922
-0.11883041 0.124600805 0.058148846 0.02923688 -0.011269377 0.009902601 0.051515803 0.009230765
-0.005624232 -0.010858216 -0.5256577 -0.56610864 -0.020432154 -0.41234064 0.0047722417 -0.0031627323
0.01271778 0.1165303 0.005938362 -0.63581973 -0.15302378 -0.32719582 0.19873184 -0.018685294
-0.05096127 0.1697571 -0.09055781 0.15609571 -0.1562411 -0.12480273 0.08863318 0.02706595
0.033283096 0.85008115 0.008197979 -0.048897956 0.07391432 -0.30051214 0.009755198 -0.0035315577
0.13539344 -0.010295844 0.38222227 0.033552088 0.00077334896 -0.044350997 -0.4831662 0.06900152
0.023423344 -0.24945587 0.22066316 -0.008800522 0.014359505 -0.41578305 -0.065218076 0.34115943
0.058206968 0.02041571 -0.24850126 -0.22363536 0.024663594 0.4253415 0.014177497 -0.16960067
-0.41368717 -0.32079953 0.019930687 0.14489761 0.61187077 -0.029366286 -0.004714245 0.009615618
0.48685625 0.5076917 -0.25012532 -0.0005525064 -0.12997176 -0.050117854 0.13557003 0.014586201
0.17859039 -0.0064683696 0.008547272 -0.124428704 -0.03502604 -0.004125171 -0.16198891 -0.005264203
-0.18082072 0.007408084 0.012070492 0.06123576 0.06242337 -0.42927963 -0.015226001 0.15577294
0.0556127 -0.24967849 -0.2812955 0.04143971 0.15265265 0.019721214 -0.00273292 0.032645576
-0.12305855 -0.311472 -0.0004973975 0.00503924 -0.45493087 0.1167199 -0.19368054 -0.4125687
0.21438257 -0.21656862 -0.23003043 0.11365298 -0.24284194 0.13464305 -0.32817677 1.2525637
-0.20385538 0.008631029 0.05475191 -0.61148894 0.024066286 0.024007555 0.018402746 0.0003404347
00000000: 4e0d b63d 0bf8 c0be 45d9 afbe ea27 08be
00000010: 9b5d 063d 3abd a0be ca0d 41be e3b3 3ebb
00000020: abda 413d f2b0 40be d8b0 39be 5e89 20be
00000030: d1b6 243d 7f3b 5bbd 8346 d4bd 9912 6cbc
00000040: 2be1 07be 334e 823e 0140 08bc b056 c03c
00000050: a4ca aabe 9096 883c 5da8 193c 80ed 173c
00000060: 470f 6dbe 243c 08be 873f 3b3c a95e 193c
00000070: 7e8a 303d 6917 72be d640 f53e 2dbe d3bc
00000080: 8a3e dd3d dc36 ee3c 7f88 8cbd eff2 d73d
00000090: 1f52 563a a3c0 42be 13dd 8bbe ac70 a0bc
000000a0: e0e9 973b e476 a5be 1f5a 6d3c aeb1 9f3c
000000b0: 7b3b e63d 60af 70bd 7352 81ba 210b 8fba
000000c0: 21aa 343b 47ce b7bc 1712 0fbf a82c ce3d
000000d0: 5c32 333b 3e32 f9bc a97c 573d 1aca 49bc
000000e0: 2456 b93c 25ec afb9 decd d5be b078 18be
000000f0: 71e7 013d 951a 313c f428 9cbe 52b7 4d3f
00000100: 3648 95be 32ff 09be b48a 253c 5be3 6dbc
00000110: 3b00 fabe d5dd 65be 4542 8abd ac86 8e3c
00000120: fe25 dcbc 52f8 023e d18e e4bb 5230 1dbe
00000130: c4d2 d23c abc1 95be fe10 8a3d 8bfb 6dbe
00000140: 97e0 333c 1e9a 88bd 6a89 ae3c 62c9 0fbd
00000150: 37ea 693c 70e6 2a3d 4017 cf3d 95de 29ba
00000160: 1e5c 603c bcff c1bc 8127 55be 8ecb 513e
00000170: 8736 ee3a 04ec 31be 7f24 193c c3a2 513d
00000180: 7ba4 133c 38fc df3b aaee 0bbe a372 1fbe
00000190: 7ccd c9ba 696b e43b 96c9 d33c e715 a23c
000001a0: 68f4 163c 9eda 40bc 239f d53a a60d 3a3c
000001b0: 9fb1 053a e32b 113e b62e 013c 131c 553c
000001c0: 68c0 2abe 2ede 053c c79a 47be 41f8 63be
000001d0: 604c bd3c 4944 bbbb e27e 98bb b84c 2a3f
000001e0: 98b3 c7bd d6b8 47bd c3bf 97be 942e f13b
000001f0: 1fcf e1be 1555 af3d 0ade d73b c907 f9bc
00000200: 5c5d f3bd b52e ff3d 7c2d 6e3d 2e82 ef3c
00000210: 31a3 38bc 853e 223c 3c02 533d a23c 173c
00000220: 7a4b b8bb a9e6 31bc 8191 06bf 7fec 10bf
00000230: 5561 a7bc 501e d3be 7760 9c3b d845 4fbb
00000240: 3c5e 503c 70a7 ee3d 9796 c23b 15c5 22bf
00000250: 44b2 1cbe 3686 a7be 5c80 4b3e e711 99bc
00000260: c4bc 50bd ced4 2d3e 6076 b9bd 8ed7 1f3e
00000270: abfd 1fbe 9398 ffbd 5085 b53d 69b9 dd3c
00000280: db53 083d eb9e 593f d150 063c 3949 48bd
00000290: 6460 973d badc 99be 44d4 1f3c b571 67bb
000002a0: 94a4 0a3e e6af 28bc a3b2 c33e ea6d 093d
000002b0: 92ba 4a3a 64a9 35bd 8f61 f7be ab50 8d3d
000002c0: 50e2 bf3c 5c71 7fbe 86f5 613e 1130 10bc
000002d0: 2144 6b3c 84e1 d4be 0e91 85bd 73ac ae3e
000002e0: 6e6a 6e3d d93e a73c 1d77 7ebe ab00 65be
000002f0: 4e0b ca3c 5cc6 d93e bb48 683c ccab 2dbe
00000300: cece d3be d63f a4be ae45 a33c 0a60 143e
00000310: 90a3 1c3f 9191 f0bc f479 9abb d38a 1d3c
00000320: 3945 f93e 15f8 013f 6d10 80be 14d6 10ba
00000330: 5117 05be 6148 4dbd dfd2 0a3e f6fa 6e3c
00000340: 66e0 363e 9ef4 d3bb db09 0c3c 7ad4 febd
00000350: 7777 0fbd 712c 87bb 6ce0 25be 567f acbb
00000360: 1129 39be 83bf f23b 50c3 453c 59d2 7a3d
00000370: a6af 7f3d 8aca dbbe 7a76 79bc f182 1f3e
00000380: 24ca 633d b8ab 7fbe f705 90be afbc 293d
00000390: fa50 1c3e 628e a13c ca1a 33bb 5eb7 053d
000003a0: 1f06 fcbd 4279 9fbe c863 02ba 3520 a53b
000003b0: b3ec e8be d80a ef3d 3154 46be 343c d3be
000003c0: 1b87 5b3e 2ac4 5dbe 198d 6bbe e5c2 e83d
000003d0: 8fab 78be dedf 093e c906 a8be 0254 a03f
000003e0: 77bf 50be 2969 0d3c 8a43 603d 8a8a 1cbf
000003f0: a926 c53c 7eab c43c 5bc1 963c 5f7c b239
