notebook/result/weights/sac_snapbot/episode_50.pth (torch, 355428 bytes, 8 tensors)

parameters.mlp_0_b f4 [256]
00000000: c583 0a3d 39f8 5e3d ad52 283d 5f6b 8fbb
00000010: 867a 243e 4d92 de3c 9039 293d 1792 153d
00000020: 8d54 1e3d 28bc 633d 1e14 213d a198 083d
00000030: 7cea 9c3c e08a 443d 41e5 513d 15ed 9c3d
00000040: ace6 4b3d 04e2 203d e2f1 2d3d d429 303d
00000050: af04 3b3d dce1 493d 0171 ed3d bf57 383c
00000060: 809a dd3c c673 bd3c ddf9 5d3d 3247 5b3d
00000070: acdf 2d3d 0df4 1e3d 15f6 3b3d 081c 473d
00000080: 2282 d23c 09aa 3a3d 152c 823d 3d4f 543d
00000090: 3cac 183d 741f 963c 0335 4d3d 1ce3 733d
000000a0: ed20 253d 56c7 463d e5a6 403d 3c60 4d3d
000000b0: 98fb 033d a5a7 373d f633 4d3d fcf5 573d
000000c0: b2bf f93c 40f6 1e3d 5fba c33c 882e e73d
000000d0: 0393 de3c d2b9 f93c 525a 2f3d e9a0 3f3d
000000e0: beac 3b3d 002f b53c 32e4 0f3d 75eb 133d
000000f0: 43eb 033d 7ce9 903d a096 743d bbe7 2d3d
00000100: d496 d73c ac97 0f3d b72f 323d 94c1 1a3d
00000110: d649 4b3d cc3f 303d 1d9b 1d3d e004 423d
00000120: 7244 833c aa79 ee3c 7371 373d 65d9 283d
00000130: 693b 063d 2d52 4a3d 7519 493d 1142 fb3c
00000140: b70b db3c d407 1f3d 27b0 343d c7ce 243d
00000150: 9aa6 b53c 8467 413d df9e 2e3d 8adc 2d3d
00000160: 78b7 743d a3ad 283d 2a8f 573d 75cb 803d
00000170: adc0 433d b2ac 233c 8983 303d 4031 143d
00000180: 9d01 893d f48e 5d3d ca2a 0c3d 87b5 483d
00000190: d1f5 a33d 3a74 483d 21de 403d 6b43 4d3d
000001a0: 0ba6 403d faea 2d3d 7d6f 313d 1526 2d3d
000001b0: c3fd 303d cfda da3c fee2 7c3d 3c6e 003d
000001c0: 85c0 453d 7626 483d b8a7 143d 7116 973d
000001d0: 88bf 933d 55c3 2f3d e1c0 813d a3a5 2c3d
000001e0: 6038 113d df6b 5b3d 43e9 2c3d b197 c83d
000001f0: 55b5 3a3d 68e1 263d e92a 283d 4f4a 223d
00000200: 6c0c 813b 6b07 eb3c 9015 1c3d 7ecb 493d
00000210: 90fb 2e3d 24d2 203d b784 543d d7e4 f53c
00000220: 2c91 0e3d b5ce 163d 1962 373d 4c33 c03d
00000230: e772 223d 943d 733c 806a 403d ddc7 043d
00000240: 600e 703d 1e8f 043e bf8f 413d 2323 0a3d
00000250: c796 233d ce7e 5e3d 35e6 fc3c aa5e 363d
00000260: 3b1d 3a3d 99d2 403d 4472 0e3d 2f32 8e3d
00000270: 4fce 113d 5789 243d 084c f03c dc44 3f3d
00000280: 55ee f73c 4b2c 813d d1c7 c83d d0ef 3d3d
00000290: 3ed2 473d b562 133d f6b1 b63c b8ac 6b3d
000002a0: fd87 243d d36e 833d 5f55 023d 5f03 1b3d
000002b0: dd61 173d aaa3 1c3d d982 673d 4151 893d
000002c0: 3c22 4d3d c8ec 363e 092c 063d 0adc 323d
000002d0: cb9e 103d 8b15 433d 1491 823d ba72 443d
000002e0: 04e1 2f3d 08c3 d63c 6f6a 3a3d ae30 1c3d
000002f0: e478 6b3d 1900 1e3d 975a 143d 1f79 133d
00000300: 72ff 543d d20b 963c 50f1 043d a40d 8a3c
00000310: 8f7d 463d 2c32 143d bba9 863c 423c 513d
00000320: 4a19 0c3e fba8 143d c4bc 4f3d dc99 123d
00000330: 98f0 b63c 88ce 843d 60b4 123d f050 1f3d
00000340: 3835 053d 134b ca3c 6bdc 133d 4a52 443d
00000350: b72d 043d 7400 303d a0b9 1f3d 809f 3f3d
00000360: b1dd df3c 6e02 843d d86d 143d 3020 4c3d
00000370: a815 3f3d fe4e 383d 987d 1c3d 5ee6 123d
00000380: f5f9 323d 46f3 f23c 8a1c ba3c bb5a 133d
00000390: ee75 7f3d 99af 3f3d d8bd ea3c c23e 403d
000003a0: 66dd 163e cd6c e33d 8d9b 523d f108 8cbb
000003b0: b084 343d fd5c cc3c df74 9f3d 5e20 ee3c
000003c0: 7ecd 623d 72f6 393d a3fc 5a3d d3ac 183d
000003d0: b861 823d 7918 083d 5620 643d fa8f 4a3d
000003e0: 572e 1f3d 69dd ee3c ad7b bf3c 7a27 393d
000003f0: c821 473d 593d e73d 6b72 783d 2bd4 453d
0.03381707 0.054435942 0.04109447 -0.0043768133 0.16062364 0.027169371 0.04131466 0.036516275
0.038654853 0.05559936 0.039325826 0.033348683 0.01915478 0.047984004 0.051244024 0.07662407
0.049780533 0.039278045 0.042467006 0.04300864 0.045658763 0.049287662 0.115938194 0.011251389
0.02705121 0.023126494 0.054193366 0.053534694 0.04244964 0.038806964 0.04588898 0.048610717
0.025696818 0.045572314 0.06356064 0.05183338 0.03727363 0.018325545 0.050099384 0.05954276
0.040314604 0.048529945 0.047034163 0.050140604 0.03222236 0.044837613 0.050098382 0.052724823
0.030486915 0.03880906 0.02389258 0.11288172 0.02716971 0.030484114 0.042810746 0.046784315
0.045819037 0.022117138 0.035129733 0.03611322 0.032206785 0.070757836 0.05971396 0.042457324
0.026317038 0.035056755 0.043502536 0.037782267 0.049630962 0.04302959 0.038478006 0.04736793
0.016023848 0.029110748 0.044785928 0.04122295 0.0327715 0.049394775 0.049096543 0.030671151
0.026738985 0.038825825 0.044113304 0.04023626 0.022174168 0.04721786 0.04263198 0.04244665
0.059745282 0.041181218 0.052626766 0.06288806 0.04779117 0.009989904 0.04309419 0.03617978
0.06689761 0.05409141 0.034220494 0.049001243 0.0800587 0.048938967 0.04708684 0.050113123
0.04703335 0.04246042 0.043319214 0.042272646 0.043210756 0.026715664 0.061739914 0.031355128
0.048279304 0.048864804 0.03629276 0.07377327 0.07214266 0.042910893 0.06335617 0.04215015
0.035454154 0.05356967 0.042214643 0.09794558 0.045583088 0.040742308 0.041056547 0.039621647
0.0039382484 0.02869006 0.0381065 0.04926633 0.042720377 0.039262906 0.05188438 0.030016346
0.034806415 0.036818225 0.044771288 0.09384784 0.03966036 0.014846224 0.046976566 0.032417167
0.05860746 0.1294522 0.047256228 0.033724915 0.039938714 0.05432015 0.03087149 0.044523872
0.045438033 0.04707584 0.03477694 0.069431655 0.03559714 0.04017004 0.02933313 0.04669653
0.030265013 0.06307276 0.09803737 0.04637128 0.048784487 0.035982806 0.022301655 0.057537764
0.04016875 0.064176224 0.031819697 0.03784501 0.036958564 0.03824202 0.05652127 0.06704951
0.050081477 0.17863762 0.03275684 0.043666877 0.035307687 0.047627967 0.06375328 0.047960974
0.0429392 0.026216045 0.04551166 0.038132362 0.057488337 0.038574312 0.036219206 0.036004182
0.052001424 0.018316183 0.032456696 0.016852207 0.048459586 0.03618066 0.016438356 0.051082857
0.13681522 0.036293965 0.05071713 0.035791263 0.02233152 0.06484705 0.03581655 0.038895547
0.032521456 0.024694001 0.03609888 0.04793004 0.03227016 0.042969182 0.038995385 0.04678297
0.02732739 0.06445776 0.036237568 0.049835384 0.046651512 0.044997208 0.038205713 0.035864227
0.04369541 0.029657017 0.022718687 0.0359752 0.062368326 0.046798322 0.028654978 0.04693485
0.14732894 0.111047365 0.051417876 -0.004273527 0.044071853 0.024946684 0.07785963 0.029068168
0.055371754 0.045401044 0.05346359 0.037274193 0.063662946 0.033226464 0.0556949 0.049453713
0.038862552 0.029158311 0.023374403 0.045203663 0.0486162 0.11290998 0.060655992 0.048298042

parameters.mlp_0_w f4 [256, 70]
00000000: fc0e a43d cea4 053b 15f8 0ebc a6d9 09bd
00000010: ab7d 0a3d f1c8 91bc 03ce a0bd 47fa 3ebd
00000020: fff2 e33d 8053 cd3c 9fc3 00bd 942f ccbd
00000030: 1362 453d 7d42 d1bd 594b f8bd 3c3e d7bc
00000040: 23fb 16bc acfe d13c 6a3e 87bd 2165 99bb
00000050: a1fc 0639 d6c1 7fbd 65c6 983d b759 db3d
00000060: 3e45 9ebc 5bd6 e63c 00c9 333d 4365 ba3c
00000070: e5ac 223c ac94 03bc cac3 af3c ffbc b0bc
00000080: dbcf bc3c 83e6 3abc ad35 ec3c d492 3b3d
00000090: 9dd3 5e3a 796a 463c 445c e9bb 043f e2bc
000000a0: 5139 84bc 94f9 9dbb 3efd 0bbd 1df0 143d
000000b0: 6ac2 75bc 80be c7bc 8819 54bc 0482 f23c
000000c0: 07d3 9b3d 4f0b 47bd 403e e83c 3613 69bc
000000d0: 5617 3a3c fe86 47bd ecd8 b8b9 526c 1ebd
000000e0: bbb4 62bd ce41 5d3d a7bb 993d 3f41 c7bc
000000f0: 51d0 bfbb 97ac 9e3c 6a24 bfbb 4f50 83bc
00000100: 6363 08bd fb53 113c efb3 0fbd e937 67bc
00000110: cb4d 203d a192 6fbd 4952 303d 9964 73bd
00000120: dffe 693d 5596 92ba 46e8 593d a420 b5bc
00000130: 1d69 a8bc aab9 9e3d 39df c5bd aea2 f63c
00000140: ee5c 7bbd 14b1 f83d d2ae e9bd b7e8 093d
00000150: 9ba7 793d ad38 b13d 9cb6 9cbb 8037 dabc
00000160: 318a f93d 0131 9d3c 736e 833b 591b 4cbd
00000170: ba2e 0bbe c370 82bd 9907 8f3c ba86 cabc
00000180: d1c7 893c dda5 91bd ca40 26bc a282 34bd
00000190: b9c0 483c e0f5 ca3b 549e 8fbd 8cb1 f4bc
000001a0: d415 fdbb 2581 913d a57b b6bd 5ae6 1c3d
000001b0: e735 0abd 59da 123e baa0 78bc 252a 55bc
000001c0: 27ae 723d 5e0b 2fbd 25c3 a03c 3909 77bc
000001d0: b376 813d e312 90bd d924 debd 3c41 1ebd
000001e0: 1562 89bc dc95 07bd c1e6 5fbc 3aa1 9a3d
000001f0: 8940 463c 2b94 24bd 8c57 afbd 8e95 83bd
00000200: f244 c23c 3fcd 1bbd d502 71bd f8d2 193d
00000210: 1855 76bc d818 b9bc 02c0 49bd 3b95 f1bc
00000220: bdb0 7b3c 5559 88bd c725 85bd 3804 7cbd
00000230: e34e 453c 7cbd 973b 4c21 01bc f08a 5dbc
00000240: 98ad 173c 0a54 eebb ccc3 17bc c175 85bb
00000250: db35 b5bc fa29 b03b 9139 bd3a 99ad beba
00000260: ba97 933b 1ec4 ea3b 2d44 46bc 9092 7dbc
00000270: 8d55 083c db4e 95bc bd84 993b 175c 633c
00000280: 78de 423c 2b01 003c 7752 94bc f9ab 0ebc
00000290: a569 6b3b c2b4 f13c 78f4 133c d366 84bb
000002a0: 110f c4bc b117 6c3c 7b8c dd3b c1ed 3e3c
000002b0: f319 863c 56b5 343c 36d0 b13b 925d 853c
000002c0: 2cc8 3ebc 0085 9cbc d92d 4ebc e077 c0bb
000002d0: 23dd 5b3c 87f0 a93a 7441 ea3a 0129 0cbc
000002e0: 9840 b53b 0fb0 b03c f949 68bb ac46 173c
000002f0: 0b8b af3b fa08 84bc 3205 95bb fb59 4f3c
00000300: 22ed 44bc 4e4c dfbb a377 003d e4bb 003c
00000310: 7624 a339 2b6c bc3b 8e8c f4bb 7e14 01bc
00000320: 2e2b c13b 6f0b 253b 1610 f6bb def2 c03a
00000330: 1bf6 1abc 3274 acbb 7abe 9a3a 96b0 f3b9
00000340: 4960 a33b c83d f33a bef7 583c 9297 d8bb
00000350: 54ed 0f3c 94c8 78bb 664a e13b 29bc 993a
00000360: f874 813b c92f 693c e8d7 acbc dc11 18bc
00000370: 0a9f 9ebb 9ec3 0c3c 2886 813a cdb1 a6bb
00000380: eef8 bdbb df87 873c f967 dcbb f03b c53b
00000390: 5032 b53b 8b6d a13b 119d bdbc 828f 3bbb
000003a0: d70e 94bb 0131 61bb f554 74bb 13d2 4f39
000003b0: 1ea7 5fbc 0fc8 dabb 9c76 26bc 7f92 063b
000003c0: 70dc 213b e09e 073c c5d0 173c 1e52 4bbc
000003d0: 4f0c aa3b a736 64bb 3be3 883a 5c19 8e3b
000003e0: 8330 a63a 4757 9abb f2b0 5d3c afd8 87bc
000003f0: 32e2 95bb d820 6b3b 9ecd 98bc 76c9 3abc
0.080106705 0.002039242 -0.00872614 -0.03365483 0.033811253 -0.017796012 -0.078517936 -0.0466254
0.11130332 0.02506423 -0.03143656 -0.09970012 0.048189234 -0.1021776 -0.121237464 -0.026274793
-0.009215149 0.025634132 -0.066037014 -0.004681245 0.00012873347 -0.062440716 0.07459716 0.10710471
-0.019320127 0.028178385 0.04389286 0.022753363 0.009928917 -0.008031052 0.021455664 -0.021574495
0.023048332 -0.011407497 0.028834188 0.045794323 0.0008500161 0.012110346 -0.0071215946 -0.027617939
-0.016140612 -0.004821012 -0.034177057 0.036361802 -0.014999965 -0.02438283 -0.01294554 0.029603012
0.0760861 -0.04859477 0.028349996 -0.014225772 0.011358103 -0.048712723 -0.00035256834 -0.03867752
-0.05534814 0.054017834 0.07506495 -0.024323104 -0.0058536907 0.019369407 -0.0058331983 -0.016029505
-0.033297908 0.00887012 -0.035083707 -0.014112451 0.03913669 -0.058489446 0.043047223 -0.05942211
0.05712783 -0.0011183718 0.05320003 -0.02211029 -0.020557934 0.07750256 -0.09661717 0.030106869
-0.06136792 0.1214315 -0.114102975 0.0336692 0.060950857 0.08653388 -0.004782511 -0.026637793
0.12184561 0.019188406 0.0040109693 -0.04983077 -0.13592044 -0.06369164 0.017459678 -0.024722446
0.016818913 -0.07111714 -0.010147283 -0.044069894 0.01225298 0.0061938614 -0.070126206 -0.029869817
-0.0077235494 0.071047105 -0.08910302 0.038305618 -0.03374281 0.14341106 -0.015175039 -0.013010536
0.059248116 -0.04273545 0.019624302 -0.015077882 0.06321468 -0.07034852 -0.10846872 -0.03863643
-0.016770402 -0.0331019 -0.013665856 0.07550283 0.012100347 -0.040180366 -0.0856162 -0.0642501
0.023714516 -0.038037535 -0.05884059 0.03755471 -0.015034936 -0.022594854 -0.04925538 -0.029490104
0.015361962 -0.06657664 -0.06501346 -0.06152746 0.012042734 0.0046307426 -0.007881474 -0.013521895
0.009257697 -0.007273202 -0.00926299 -0.0040728753 -0.022120407 0.0053760977 0.0014436712 -0.0014547586
0.004504171 0.0071644923 -0.012101215 -0.015476838 0.008321178 -0.018226078 0.004685013 0.013876936
0.011893861 0.007812778 -0.018105729 -0.008707994 0.0035921123 0.029505137 0.009030454 -0.004040578
-0.023932965 0.014409945 0.0067611313 0.011653365 0.016369795 0.011029562 0.005426432 0.01627997
-0.011644404 -0.019106388 -0.012584173 -0.005873665 0.013419422 0.001296536 0.001787229 -0.008554698
0.005531382 0.021568326 -0.0035444482 0.009233158 0.0053571514 -0.016117562 -0.0045477385 0.01265573
-0.0120194275 -0.006814516 0.031364094 0.007857297 0.00031116948 0.0057501993 -0.0074630445 -0.007878421
0.00589504 0.0025183817 -0.007509242 0.0014720818 -0.00945809 -0.005262875 0.0011806034 -0.0004648014
0.0049858433 0.0018557841 0.01324266 -0.0066098655 0.008784611 -0.003796135 0.006875324 0.001172905
0.0039507113 0.014232584 -0.021099046 -0.009281602 -0.0048407363 0.008591561 0.0009881901 -0.0050871135
-0.005797497 0.01654428 -0.0067262617 0.006019108 0.0055296794 0.0049263886 -0.023146184 -0.0028619473
-0.0045183706 -0.0034361484 -0.0037282084 0.00019819317 -0.013650684 -0.006676681 -0.010160115 0.0020534096
0.0024698041 0.008277625 0.009266083 -0.012409715 0.0051894556 -0.0034822614 0.0010443697 0.004336519
0.0012679253 -0.0047101113 0.013530957 -0.016582815 -0.0045740837 0.003587773 -0.018652733 -0.011400571

parameters.mlp_1_b f4 [256]
00000000: 4dad 9b3d 92ba a73d fe21 b33d f64e 783d
00000010: 9e6b 843d b267 ad3d 2cd1 513d 0fc7 843d
00000020: c3ba d93c 7a14 97bb 4fe7 923d c791 983d
00000030: 57b5 41bd 1eec 57bb d84a 1c3d 4179 d23d
00000040: c07a 833d 89ff 9f3d 5107 81bb 39bb dd3c
00000050: df93 ac3d a4d1 3f3c eb7e 933d a297 d7bc
00000060: fa83 b7b9 1bd4 903d 7a60 45bb 178c 4dbb
00000070: 5fd4 b33d 97b0 d33d c846 793b 6077 7d3d
00000080: 1565 9bbb 3840 a13d c100 9c3d 18e6 8f3d
00000090: f386 a9bb 9306 a3bb 4fdd b43d 5cc3 91bb
000000a0: 7260 4ebc 007b a63d a753 90bb 6239 b53d
000000b0: 2b76 a13d c595 93bb 3875 7abb eee4 d6bb
000000c0: 2406 54bb 9ae5 883d 5e86 80bb 52ce d63d
000000d0: 1577 bb3d 6ce1 3e3d 3212 393d a4d5 44bc
000000e0: 2057 8cbb c1b3 5dbb 27bd a23d ebb7 b73d
000000f0: 7404 263a 8506 7ebb c234 5a3c c79a c93d
00000100: 67ce 803b 468e a73d af90 99bb 16e5 83bb
00000110: 9409 843d def4 ab3d 5bb7 903d 9811 2d3c
00000120: 9a9c b23d 7a07 8b3d 9bf5 90bb a22a 8cbb
00000130: 0d88 84bb a708 b53d 61d6 80bb 6e7b 0c3c
00000140: ca1e 743d f170 573d a77d 40bc 5057 9c3d
00000150: aeb9 56bb 4e46 953d 2196 a03d 0407 853d
00000160: 283a 5c3d 9235 9939 5fad ad3d b447 023d
00000170: 6f7d 8cbb 690f a83d b584 d23d e140 c43d
00000180: 01bb 82bb b72a 8638 6efd d03d 0639 883d
00000190: a6db a0bb 4381 87bb 4f6e a4bb 3cba 94bb
000001a0: 0c3c 94bb 8845 9d3d 2723 8ebb e3df 86bb
000001b0: 9409 3bbc a4d2 733d ca7e 8b3d bcff 9f3b
000001c0: 6a43 693d 4c49 9f3d 7cc2 c33d c87c 853d
000001d0: d25e 92bb 1ee8 91bc 8b1c 85bb 2500 8e3d
000001e0: fc25 be3d d1a2 a03d a59a ae3d a30c 6abb
000001f0: 0879 2dbb 0f90 483c 06a5 a93d e10f 933d
00000200: cdab 933d 7f79 343c fc1d 8a3d b390 033d
00000210: 28c7 a93d 922f a9bb 867e 9f3d 098e 53bb
00000220: 5717 81bb 9b27 8cbb 78b1 1a3d e081 833b
00000230: 1da7 aebb 07ef 483d baf4 8cbb 5598 53bb
00000240: d72c 88bb 00dd 80bb c8b5 22bc f536 433d
00000250: fb83 83bb e99a b1bb ce7d 8f3d ffe3 51bb
00000260: a4c9 733d 2113 a43d de90 8a3d de13 b13d
00000270: daba c13d 5b98 e93d 88de a73d 489f 8abb
00000280: 5772 9c3d 1581 d83b 8cc3 b8bc a526 843d
00000290: 5040 7b3d 2817 96bb 5909 de3c 1649 5bbb
000002a0: a2e0 9c3d 98a6 84bb 702e 88bb 57e2 a53d
000002b0: 6c68 80bb 302f 383d f8a3 b33d 25f1 5d3d
000002c0: 049b 8d3d 6807 8d3d 62d0 b03d 74aa 8ebb
000002d0: f515 81bb 14c9 973d d852 993d 2a70 493d
000002e0: 2170 b33d a1e5 c23d a66c 9d3d 6ed0 bd3d
000002f0: 56f3 903c f563 43bb 15d9 71bb ee85 883d
00000300: a9c7 8f3d 706f 083d bc91 20bb c247 8e3d
00000310: 757a 7e3d 8404 a33d cc6a 1d3d 4787 3cbb
00000320: 11b5 53bc 3a76 a03d 9374 90bb 5ea7 7e3d
00000330: 4efa a23d fcb5 65bb 4ba3 2c3d 0c1a a6bb
00000340: 6363 353d e1a8 67bb 8504 28bc 4eb5 bdbb
00000350: c766 fe3a a09a af3d ed27 6ebb e8d0 91bb
00000360: 1ef4 b13d 12a4 0c3c e1c0 783d 81ff 5ebb
00000370: f2ad a1bc ceeb 853d bc15 61bb b7fb 883d
00000380: 6709 253d 18df 2b3d 09b7 ba3d 3070 89bb
00000390: d446 563d 29b9 883d 295c 21bb 6a48 a73d
000003a0: 9b8c bc3d afb8 713d 806e 8dbb 00aa a8bb
000003b0: 0761 c73d 9391 7e3d 833b 1c3d 3c4c 87bb
000003c0: 0b86 e83c 9e03 963c 7fce 573d 8515 ba3d
000003d0: 82c6 7ebb 27b2 863d 4407 993d 8cd2 e93d
000003e0: 541b 9abb 7a5a bf3b ab7f 783d 1a40 90bb
000003f0: ae92 6cbb c6db 74bb a266 6cbb 0f8f 79bb
0.07601414 0.08189882 0.08746718 0.060622178 0.06465839 0.08467044 0.051224872 0.0648328
0.026578313 -0.0046105953 0.07173025 0.0744968 -0.04729208 -0.0032947133 0.038157314 0.102770336
0.06419897 0.07812411 -0.0039376398 0.027066814 0.08426642 0.011707697 0.07201942 -0.026317421
-0.0003500281 0.07071706 -0.003011732 -0.0031364018 0.08780741 0.10336416 0.0038036574 0.061881423
-0.0047422745 0.07873577 0.07617331 0.07026309 -0.005173558 -0.004975149 0.08831274 -0.0044483375
-0.012596237 0.08128929 -0.0044045034 0.088488355 0.07883867 -0.004503938 -0.003821684 -0.0065580523
-0.0032352293 0.06684418 -0.003922268 0.10488571 0.091535725 0.046601698 0.045183368 -0.0120138265
-0.004282847 -0.0033829066 0.07946234 0.089706264 0.0006333061 -0.003876121 0.0133182425 0.098439746
0.003930855 0.081814334 -0.004686437 -0.004025112 0.064471394 0.08396314 0.07066222 0.010563277
0.08721276 0.067885354 -0.0044238097 -0.004277543 -0.004044539 0.08839541 -0.003931806 0.00857435
0.059599675 0.052597944 -0.011748708 0.07633841 -0.0032764482 0.072888 0.07841135 0.06495479
0.0537664 0.00029222347 0.084803335 0.031806663 -0.004287414 0.08206064 0.10279218 0.09582687
-0.0039895778 6.397574e-05 0.10204588 0.06651501 -0.0049089966 -0.0041352822 -0.0050180326 -0.0045388024
-0.0045237597 0.07679278 -0.0043376866 -0.004116045 -0.011415858 0.059527054 0.068112925 0.004882781
0.056949057 0.07777652 0.09558579 0.06517941 -0.00446687 -0.017810877 -0.0040622405 0.06933621
0.09284589 0.07843555 0.0852559 -0.0035713098 -0.0026469845 0.0122413775 0.08283429 0.07180763
0.07210503 0.011015295 0.06744 0.032120418 0.08289939 -0.0051631415 0.07787804 -0.0032280704
-0.00393955 -0.0042771823 0.037766904 0.004013285 -0.00532998 0.04905608 -0.0043016346 -0.0032286842
-0.004155736 -0.0039325953 -0.009931035 0.047659833 -0.004013536 -0.005420078 0.07006417 -0.0032026765
0.05951847 0.08011461 0.067659125 0.086463675 0.09459467 0.114060126 0.08196741 -0.0042304136
0.07638996 0.0066071847 -0.022554182 0.06452683 0.06134063 -0.004580397 0.027104067 -0.003346031
0.07660033 -0.00404818 -0.0041559264 0.080998115 -0.003918698 0.044966877 0.08771509 0.05418505
0.069143325 0.06886178 0.08633496 -0.0043538157 -0.003939385 0.074113995 0.07486504 0.049179234
0.08761621 0.095164545 0.07686739 0.092682704 0.017694157 -0.0029814218 -0.0036903073 0.0666617
0.07020504 0.0333094 -0.0024500927 0.069472805 0.062128503 0.07959846 0.038431928 -0.0028767155
-0.012921588 0.0783505 -0.004408428 0.062171333 0.07957898 -0.0035051098 0.042147916 -0.005069023
0.044284236 -0.0035348462 -0.010254984 -0.0057894355 0.0019409292 0.08574414 -0.0036339716 -0.0044499524
0.0868914 0.008584039 0.06073082 -0.0034026804 -0.019736264 0.06539117 -0.003434523 0.06688636
0.04029217 0.041960806 0.091169424 -0.004194282 0.05231364 0.066759415 -0.0024621582 0.08168109
0.09206506 0.05901402 -0.004316151 -0.0051472187 0.09735303 0.06215055 0.038142692 -0.004128961
0.02838423 0.018312272 0.052687164 0.09086136 -0.0038875644 0.065769486 0.07472089 0.11417112
-0.004702965 0.005839643 0.06066863 -0.0044021728 -0.003609817 -0.003736244 -0.0036071916 -0.0038079654

parameters.mlp_1_w f4 [256, 256]
00000000: 782e 96bd cf10 fd3c 0feb b43c d8ff 3ebc
00000010: df38 123e cfb1 63bb fb02 01bd b66b f4bb
00000020: 88d9 adbc 9b67 0abb 8688 2d3d f62f 1cba
00000030: e942 73bd 4014 b83c e548 3b3d c355 6b3d
00000040: 2ba4 bb3c d705 a33b a956 6e3c 1e90 1cbc
00000050: 7143 943c 3894 223b d905 163d 28db 68bd
00000060: cb8c 7dbc cfa0 3ebd 09e9 7f3b bbf5 83bb
00000070: 6f75 55bb aacc b53a c93b a03c b56b 79bc
00000080: e382 693c 0113 3dbc a687 283d b609 923c
00000090: 96fd 61bb 6266 09bd f74a 393c 8f0d df3c
000000a0: ff90 3d3c 4df4 8b3c 752a 663c a338 b73c
000000b0: 13bf a6bc e940 f33b 610b 073d 1d82 0c3d
000000c0: e0ae 7dba dd57 3bbc dc72 80ba ec96 273c
000000d0: 6114 49bd 268d d23c 8df1 1a3c bed2 79bc
000000e0: 48cd a3bc f1a7 8bbd 9851 e73b 7f5a a5bc
000000f0: 09f1 b9bc 7f82 c1bc 267e 473c 9138 b43c
00000100: 53e0 223c 6b64 813c 8dcf a6bc 51a5 9ebc
00000110: 9d28 8a3b 3220 d3bc e9eb 55bc c916 1a3d
00000120: c6a4 20bd d334 96bc d94d ae3c 5998 103d
00000130: feef 3abd fc43 d83c 7681 4e3b 5abd 1e3c
00000140: fb1f 18bc 928f 4c3c 3a36 85bb 92a8 5eba
00000150: 00a4 07bd 7052 a43c 3674 42bc f802 df3a
00000160: 20e3 093d 9d91 c93c d2aa a93b cddf d1bb
00000170: 3b72 fa3c 6dd4 fabc 184a 36bd 3451 223c
00000180: 972b 043d 93e3 be3b 333e 04bc 0421 4d3d
00000190: d60f eb3c 9b8a e93b 2802 b73c abaa 4dbb
000001a0: eb6a 2d3c de09 d23b c76c 343c 3096 19bc
000001b0: e563 cc3c 4082 24bd bbd3 2a3d 9dad c5bc
000001c0: b72f 193d 279a fe3a dbe2 f33b c000 303d
000001d0: f650 863d a663 0f3c 3e4e fa3b 14b0 58ba
000001e0: af52 153b fd74 58bc b76b 643c 9e6c 7ebc
000001f0: dea8 683d ad5f 3ebc 73bb 7d3c 9396 053b
00000200: b474 28bd 42de fbbb f932 b7bc fc8d a63c
00000210: 0ce4 cf3c b4be 003c a8a5 003b ca25 3cbd
00000220: 64eb 2b3c 4d72 00bd c1c4 843c 16d8 6c3d
00000230: b1a1 8b3b e6fc e8bc a894 80bb d221 33bc
00000240: 80af ec3b 858e cd3d 75e6 103d 6d1d ab3c
00000250: 9f7e cf3c dfc4 5a3c 1dc1 8ebc 8683 303c
00000260: f001 933c 39ee c8bb d6c0 8e3c fd27 8b3c
00000270: 4ade 47bb b48e 813c a31c 4fbd a573 473b
00000280: 5001 d63b aa5a e63c 6c44 11bd 46f3 15bb
00000290: 36de 0bbd 839d 1dbd fef4 11bd a854 b23c
000002a0: 01f4 94bb 5ca9 90ba 3086 31bd 363a 8fbc
000002b0: 9040 93bc dbf9 95bb 35cb e33c 78b3 343d
000002c0: 94dc 653c 4eb1 0b3e e7ef 343c 6593 e03c
000002d0: 07b4 8b3b afff d03a dd7c 5ebc 67cd 633b
000002e0: aaf2 953c 1d17 793c a8ab b6bb 51d0 b3bb
000002f0: 2645 1e3c 4ab8 403c b4a9 5bbc 6b8f 61bd
00000300: f96a fe3b 6ccc 1ebd a3cb 3bbd c819 50bd
00000310: 2cdc 013c 54c9 acbb 5897 e9bb 5f00 093b
00000320: 9c29 c53c 4ee9 e33b 2adc 67bc 1f52 0dbd
00000330: 165c a3bc 1977 173d e2ad 15ba 6295 bf3c
00000340: 48c5 133c 3bb4 c9bc c4ea 41bb f6e1 ceba
00000350: bdc6 55bc 0824 243b 36dc 87ba 0d69 e73c
00000360: 14d2 fabc 2a78 5e3d 5ebf 333c c52e f93c
00000370: 54e7 9a3c 7aab efba 7e18 0cbb 8282 92bc
00000380: 89e7 c43c 0771 29bc 8a60 eaba e613 08bc
00000390: 1728 003d 25df e73b 6374 93bc 9db0 253d
000003a0: a772 843d 1034 b53d 739c dbbb 8622 05bd
000003b0: 8883 2ebc a821 7fbc 59b6 113d 1797 9f3c
000003c0: af94 123d d84c 6f3c 056f 563d 4c09 0cbc
000003d0: c31c 94bd 9aa2 863c 1d67 6b3c e1e6 05bb
000003e0: 3508 683c f6d3 cbbc 13d2 08bd 3a04 223d
000003f0: 9834 453a 7721 98bb 718b fb3c cae1 d43b
-0.07333082 0.030891804 0.02208474 -0.011657678 0.14279507 -0.0034743433 -0.031496983 -0.007459129
-0.021221891 -0.0021118883 0.042366527 -0.00059580745 -0.059389982 0.022470593 0.045723815 0.057454836
0.02290543 0.0049750614 0.014547029 -0.009555845 0.018098565 0.0024807584 0.03662667 -0.05684963
-0.015475462 -0.046540078 0.0039048812 -0.004027096 -0.0032571217 0.0013870199 0.019559758 -0.015223433
0.014252397 -0.011540175 0.04114499 0.017826896 -0.0034483424 -0.033544905 0.011309377 0.027228145
0.011570214 0.017084265 0.0140482085 0.022365874 -0.020354783 0.0074235094 0.032969836 0.034303773
-0.00096772425 -0.011434522 -0.0009799856 0.010228854 -0.0490917 0.02570207 0.009457004 -0.015247999
-0.019995347 -0.06819142 0.0070592873 -0.020184753 -0.022697942 -0.023621796 0.012176072 0.02199963
0.009941178 0.015794953 -0.02036264 -0.019365938 0.0042162673 -0.025772188 -0.013056734 0.037619386
-0.03921964 -0.018335735 0.021277355 0.03530154 -0.04563903 0.026399605 0.003151027 0.0096887
-0.0092849685 0.012485402 -0.004065302 -0.0008493747 -0.033115387 0.02005884 -0.011868527 0.0017014435
0.03366387 0.024605567 0.005177834 -0.006404853 0.030572047 -0.03061887 -0.044504255 0.009907056
0.032268133 0.005825469 -0.00807147 0.050080314 0.028694075 0.0071271188 0.022339895 -0.0031382244
0.010584573 0.0064098677 0.011012263 -0.009374186 0.024949977 -0.04016328 0.04170583 -0.024130637
0.03739902 0.0019424603 0.0074428148 0.042969465 0.06558411 0.008751785 0.0076387217 -0.0008265984
0.002278488 -0.013211486 0.013941697 -0.015528826 0.05680167 -0.011619491 0.015486586 0.0020383939
-0.04112692 -0.0076864073 -0.022363173 0.020331375 0.025377296 0.007857967 0.0019629989 -0.045934476
0.010493133 -0.031359006 0.0162071 0.057823263 0.0042612185 -0.028440904 -0.003923971 -0.010933356
0.0072230697 0.10036949 0.03537603 0.020888055 0.025328932 0.013352602 -0.017426068 0.010773545
0.01794526 -0.006131914 0.017425936 0.016986841 -0.0030497485 0.015815116 -0.05056442 0.003043392
0.006530918 0.028119404 -0.035465643 -0.0022880598 -0.034147464 -0.038480293 -0.035634033 0.021768883
-0.004545689 -0.0011036801 -0.04334086 -0.017483812 -0.017975122 -0.0045769042 0.027806858 0.044116467
0.014029641 0.13641855 0.011043525 0.027414033 0.0042634043 0.001594534 -0.013579574 0.003475988
0.018304188 0.015203265 -0.0055746622 -0.0054874797 0.009660041 0.011762688 -0.01340716 -0.055068415
0.007764217 -0.03876917 -0.0458485 -0.050805837 0.007926028 -0.0052730236 -0.0071286373 0.0020904762
0.024067692 0.0069553023 -0.014151612 -0.034502145 -0.019941371 0.036978815 -0.00057098095 0.023386661
0.0090192035 -0.024622073 -0.0029589394 -0.0015783894 -0.013047871 0.002504589 -0.0010365311 0.028248334
-0.030617751 0.054313816 0.010970918 0.03041781 0.018909134 -0.0018285357 -0.0021376903 -0.017884497
0.024036186 -0.010341889 -0.0017881554 -0.008305525 0.031288233 0.0070761614 -0.017999833 0.040451635
0.06467181 0.08847821 -0.006702 -0.032503627 -0.010651477 -0.015571989 0.03557429 0.019481225
0.035786327 0.014605723 0.05235197 -0.008547138 -0.07232048 0.016434956 0.014367846 -0.0020431804
0.014162113 -0.024881344 -0.033403467 0.039554812 0.00075227907 -0.004642661 0.03070614 0.0064966427

parameters.mu_b f4 [8]
00000000: 2ae1 0bbe ee68 19bd 28db d8ba 206d 41bc
00000010: 62e2 cb3d 7115 d83c 428a 243e 37ce 14bd
-0.13660112 -0.037453584 -0.0016544806 -0.011805803 0.099552885 0.026377412 0.16068366 -0.036329474

parameters.mu_w f4 [8, 256]
00000000: cf14 91bc 894d d7bc 3386 96bd 5dbf b5bc
00000010: 5a18 b2bc 6107 d2bc 627c 51bd 4ea9 05bd
00000020: 82d5 92bc e96b d8bb 8b25 30bd 8212 ccbc
00000030: 869a 0aba ec32 d6bb 9cac a1bc 3bb9 b9bd
00000040: 9562 1ebd e4f5 64bd 494d 4abc 6b58 10bc
00000050: da16 e3bc b9e1 9a3a c72f 8cbd cda4 c73c
00000060: d575 e2bb e689 7fbd 8f85 c9b8 db4d 883b
00000070: 84a7 90bd 6ae8 91bd b3fd b7bb 26f6 e9bb
00000080: e7d4 46bb de88 83bd 334b a8bd 5737 55bc
00000090: 3261 d83b 3152 433c 8787 ffbc 217e 3abb
000000a0: 4d21 073c 4d58 49bd e460 e03c 4ae2 87bd
000000b0: 5729 cabc a221 d1bb f348 bb3c 0c4f a3bb
000000c0: 6a74 e6bb 05d6 88bd 294e 67ba 4603 c2bd
000000d0: c5e1 8cbd eca4 7ebc 660e 4dbc 5247 c1bb
000000e0: 371d 33bc 3f4d 043c b314 70bd 7ae5 9abd
000000f0: f8c4 543c bf15 16bb 5df3 a938 ecca babd
00000100: 4165 123c 286e 5bbd a155 6d3c 3ee9 0bbc
00000110: ff17 f3bc 2568 75bd 38aa 59bd 4260 88bc
00000120: 2393 84bd 710a 58bd 9794 8abc 8294 b83a
00000130: 715e 85ba 5a56 aebd 83ee 0abc 2383 173c
00000140: ef07 36bd 1b50 d3bc e78c fdbc def0 02bd
00000150: 374e f03b ea07 bfbc fb7a 53bd c33f 89bc
00000160: a76d e1bc ea7c 293c 0caa 95bd 14d2 1fbd
00000170: 9f4f ee3b f258 2fbd b3b4 9bbd e2ca afbd
00000180: f5f7 2abc d5f2 88bb dbf2 b0bd 3c91 92bc
00000190: 88f4 a5bc 1c66 d1bb b488 373c e86a 3dbb
000001a0: 476a 123c d1e8 72bc 93c9 7a3b 4951 e83b
000001b0: 0b08 8e3c 3108 b8bc 244b a6bc c806 22bc
000001c0: 6214 70bd 5c6f 4dbd b48f babd 5242 e4bb
000001d0: 4287 f339 b390 24ba 0aff be3c 2cf3 1dbd
000001e0: b467 92bd 301c a4bd 6778 d0bc d53d b23b
000001f0: a77a 7e3b 494b 92bb 52a0 10bd 20e6 0abd
00000200: 8a18 8bbc 5681 d5bc 811d e9bb ae06 e0bb
00000210: 25c7 8ebd 524e 873c 21b6 d7bc 753d 553c
00000220: 45ac 47bb 37fe 05bc 9478 49bd 4b32 49bd
00000230: e15d 8bbc 5659 8dbc 541b c1bb 6ec1 663c
00000240: b292 2b3b 3472 04bb 4a8d b8bb 3139 57bd
00000250: 1278 7cbb 7b5c 91bc a05a c7bd b0eb f53b
00000260: 1f24 3cbc 75e6 9bbd eda1 81bd ebfb 6bbd
00000270: cfab 89bd 5e5c c6bd 478d 74bd c5ef 9bb9
00000280: 99ff 35bd b5eb 883b 829b 8a3c cfbc 1cbd
00000290: d21a a4bc 0876 993b 2dc0 dbbb 7188 773c
000002a0: 439a a5bc 82a3 693c ec00 29bb 758c 29bd
000002b0: 137f 803b 31c2 a1b9 1931 6dbd 958a debc
000002c0: e00a 67bc 1ee7 67bd 843c e1bc 3283 1e3c
000002d0: a557 993c 9ddd e1bc 6a2c 18bd 05f1 75bd
000002e0: 87b4 6ebd d24d b7bd 495f 86bd 850b afbd
000002f0: 0687 b8bc 1bd2 013c 81f3 303a 93d2 50bb
00000300: 8ccc e2bc 538d d9bc 700c 86bb c912 ecbc
00000310: 54f7 69bd f8d5 46bd e953 96bd 1dab 47bc
00000320: 742a 0938 a1b9 19bd 4a8a 013b 3bba aabc
00000330: 5542 3fbd 1c3f 08bc a2f7 26bb 9344 e8bb
00000340: ba96 34bc b934 b13b 43c4 1f3c 97e5 923c
00000350: 44e2 543c 99e0 97bc 3ee9 223c eade a5ba
00000360: d2d3 a7bd 64fa 103b 714d 81bc 3f23 423c
00000370: 065f b9b9 a0af 2fbd 33d1 80bc 6ce3 55bd
00000380: b716 52bc adae 2cbc 087c 64bd 39a8 8cbc
00000390: 1098 62bc 454b 1ebd 0f02 e43b 880d e4bc
000003a0: 0eba 8ebd 01b6 35bd ea71 debb 3d84 24bb
000003b0: 612a abbd 78bb 59bc aef7 d63b eabf bb3c
000003c0: ea11 0dbd e810 1fbd a99e 02bd 7829 a5bc
000003d0: fe88 9dbb b46c 42bd 38b5 68bd 6811 c1bd
000003e0: 8903 94bb d32c e7bb 7381 d5bd 2c96 3c3c
000003f0: e5a6 243c 05cb 293c 8fef 36bc d903 523a
-0.017710118 -0.026282089 -0.07349815 -0.022185976 -0.021740127 -0.025638284 -0.05114401 -0.032632165
-0.017924074 -0.006604661 -0.043004554 -0.024911169 -0.0005287308 -0.006536832 -0.019735627 -0.09068533
-0.038668234 -0.055898562 -0.012347528 -0.008810143 -0.027720857 0.0011816538 -0.0684505 0.024370575
-0.0069110193 -0.06238737 -9.609304e-05 0.0041596717 -0.07063201 -0.071244076 -0.00561496 -0.007139939
-0.0030339302 -0.0642259 -0.08217468 -0.013013682 0.0066033835 0.011921451 -0.031192554 -0.0028456526
0.008247686 -0.049156476 0.027389951 -0.06634958 -0.024677915 -0.006382183 0.022861933 -0.0049837884
-0.0070329206 -0.06681446 -0.00088235975 -0.094732806 -0.068789996 -0.01554225 -0.01251564 -0.0058983946
-0.010932258 0.0080750575 -0.05861349 -0.075633004 0.012986414 -0.0022901145 8.103878e-05 -0.091207355
0.008935274 -0.05357185 0.014485748 -0.008539496 -0.029674528 -0.059913773 -0.05314085 -0.016647462
-0.064733766 -0.052744333 -0.016916556 0.0014082345 -0.001017524 -0.08512564 -0.008479717 0.009247574
-0.04444116 -0.025795033 -0.030950977 -0.03196799 0.0073335427 -0.023319203 -0.051630955 -0.016754037
-0.027518107 0.010344723 -0.073078245 -0.039018705 0.007272675 -0.042809434 -0.07602825 -0.08583619
-0.010435094 -0.0041793385 -0.08640071 -0.017891519 -0.020258203 -0.006390346 0.011202026 -0.0028902832
0.008936471 -0.014826016 0.003826712 0.007089768 0.01733782 -0.022464843 -0.020299502 -0.009889312
-0.05861319 -0.05015503 -0.091094404 -0.006965914 0.00046449347 -0.00062776654 0.023314971 -0.038561985
-0.07148686 -0.08013189 -0.025448037 0.0054395 0.003883043 -0.004464541 -0.035309143 -0.03391087
-0.016979475 -0.026062649 -0.007114113 -0.006836734 -0.069715776 0.016516838 -0.026331963 0.013015141
-0.003046767 -0.008178285 -0.049187258 -0.04912023 -0.017012538 -0.017254513 -0.0058931503 0.014084203
0.0026179967 -0.0020209672 -0.0056320773 -0.052544776 -0.0038523716 -0.017744293 -0.09734082 0.007504903
-0.011483221 -0.076123156 -0.06329713 -0.057613295 -0.06722223 -0.096855864 -0.059705045 -0.00029742546
-0.04443321 0.004178489 0.016919855 -0.038266 -0.02003232 0.00468326 -0.0067062587 0.015108214
-0.02021516 0.014260175 -0.0025787903 -0.041393716 0.0039213984 -0.00030852997 -0.05790815 -0.02716569
-0.014101714 -0.056616895 -0.027494676 0.009674834 0.01871855 -0.027571494 -0.03715173 -0.060044307
-0.058277633 -0.0895039 -0.06561143 -0.08547119 -0.022525322 0.007923628 0.0006750152 -0.0031863793
-0.027685426 -0.026556646 -0.004090838 -0.028817551 -0.057120636 -0.0485439 -0.07340223 -0.012186793
3.2702883e-05 -0.037530545 0.0019766265 -0.020840755 -0.04669412 -0.008315828 -0.002547719 -0.007088253
-0.011022264 0.0054078964 0.009751382 0.017931743 0.012993399 -0.018539714 0.009943305 -0.0012654935
-0.081946984 0.00221219 -0.015783997 0.011849224 -0.00035356748 -0.0428921 -0.015724754 -0.05221884
-0.012822798 -0.010539693 -0.055782348 -0.017170059 -0.0138302 -0.038646 0.006958253 -0.027838483
-0.06969081 -0.044363026 -0.006788482 -0.0025103234 -0.083576925 -0.013289325 0.0065602874 0.02291866
-0.034440912 -0.038834482 -0.03188959 -0.020161375 -0.0048075905 -0.04746695 -0.05681345 -0.09427148
-0.004517023 -0.007054904 -0.10425081 0.011510413 0.010049556 0.010363345 -0.011165514 0.00080114376

parameters.std_b f4 [8]
00000000: 5541 293c 05c8 2a3d 7440 503d da3a bc3c
00000010: 9167 493d 761c 663c 77a8 17bc fb79 a33d
0.010330518 0.04169466 0.050842717 0.022977281 0.049171034 0.014044872 -0.009256474 0.0798225

parameters.std_w f4 [8, 256]
00000000: c668 a03c f701 553d 9d4b 873c b7d6 303c
00000010: bd07 fc3c f9f5 b83d 2562 793c 32c6 d6bb
00000020: 8dbd 4e3d e48b f2b9 78ba 823c 12fd 8e3d
00000030: 13fb 523c 3e6f 643c a6ca 67bc dde2 963c
00000040: 3aec 00ba 4687 53bb da0d fcbb 1d5b c23c
00000050: 0612 0f3d a6b8 013d 1094 82bc 1318 173c
00000060: 3141 4f3c 9f9b e83b 2a9b 243c b1d2 233c
00000070: dd50 d6bb 1d91 713b e86a af3c 2d25 333d
00000080: 92cd 40bc 1522 183c 60c3 8a3c fe59 9f3d
00000090: 888b 2c3a 60ee 0f3b 46a7 453d cae2 aabc
000000a0: e0e9 973b 502f 373c b606 863c 67b4 273c
000000b0: cc9b 053d 6664 603c b44b c6ba ee7f 753c
000000c0: 8c2b ac3a 134a b63b 9bbd edb9 a0f4 553a
000000d0: 72b0 cf3c d003 413d bf9a 5e3d 87ee 1d3b
000000e0: d828 943b 21bf be39 8248 b73a 86bf a23c
000000f0: b39c 003d 5371 443c 6ea4 8b3c a19e eabb
00000100: fe2c 2bbc d08d d73a e01b 193c 5003 73bc
00000110: 1b27 bd3c 0575 67bc 6ae2 883a 2258 483c
00000120: bb3f 70bb f565 113b 5d2b e8bb b288 97b9
00000130: e04b 1a3b e3e7 2fbc f98f d7bc 5020 da3c
00000140: 94e7 a33b 1f93 d83c c387 ae3c 5f1f ab3b
00000150: 5969 6e3c 64ae 043d c0f4 9d3c 1a02 113d
00000160: 9d67 213c f131 5937 bd2c 9f3c 8b8a 793c
00000170: 45d0 ed3a 3719 5d3b 3e57 843b 9cba 573b
00000180: f888 9e3b fd65 dc3b 53a7 7abb ce9f 633c
00000190: 8464 52bb 4c9f a43b 6cde 9dba 9762 f33c
000001a0: 513c 153c db82 3a3d fbba 873a ee34 103c
000001b0: c0ee 013a de84 553c 1111 1b3c 1af5 7d3c
000001c0: b70c 72bc 9487 be3c bf0a 47bc 3112 6b3d
000001d0: 82e7 b13c 4944 bbbb cb20 63bc 25fb a9bb
000001e0: 9dfd b23c 6a5a 09bc f49d 403d 5bfe f73b
000001f0: c785 d53b 5cf9 a03c 4b35 363d b926 3a3d
00000200: 2125 3b3d 2773 afbb 836e 913d 9292 f03c
00000210: 438e 3ebb 206a 213c 6f61 2d3d 24a6 ad3a
00000220: 6fab bfbb 6db3 30bc 140c e3bb 898b 2ebc
00000230: 8898 1ebb f75c a4bb b6e6 9f3b 75c8 87bb
00000240: 99dc 103c e682 3f3b cd1b 79bb 172d 963b
00000250: 0af9 3a3c 43c8 cdb9 e502 80bc 651b aabb
00000260: e1f7 8f3c 8348 233b 9413 41bc d373 743c
00000270: 1956 5b3b 43da 31bc 53ad 723c c3c5 c33c
00000280: 828d d03c beb2 223d d150 063c 3780 213b
00000290: 5a23 473c 4bbf 433c a920 4c3c 25d9 063c
000002a0: 202a 943c 64a7 1c3c 5dbf ccba 553b 033b
000002b0: ac35 523a f55d 9abb abf1 a43c 3cf2 853d
000002c0: d979 9e3c 548a e33c 697d 053d 23f7 11bc
000002d0: adb1 b73c 47f4 803c e42e 933c 6068 06bc
000002e0: 32bf ba3c 1c96 b63a 6b0b 9a3c a7ae af3a
000002f0: 4e0b ca3c d2dc 91bb 22c0 a1bb 9dd6 6f3d
00000300: 26c3 453d 2b09 54bc 53ab a03c 79d2 963c
00000310: 3c34 113c cece cc3c f8c6 d639 e78f 8f3c
00000320: 302c 9a3c 2704 c03c 8a2e 1bbb 6f18 013d
00000330: 639d 0a3d f0c0 f03b dc13 f43c 8e83 a93b
00000340: 0f53 f83b 55c1 00bc 2752 0a3c a90d f43c
00000350: b82a 633c d545 6d3d 6e3b 333c 99b4 923b
00000360: 7061 cbb8 ef23 ce3c 360c 073d ae3f ae3c
00000370: 1cf4 d8bb 629c a83a 348c a7bb 39e2 473c
00000380: 56cf 633d 777e 263c 774d 8d3b c2b9 a93b
00000390: d3ce 2f3b a40a 453c d772 5f3b 5f3e 053d
000003a0: afff 19bc 52b7 41bb fa22 a4bb 2e88 873b
000003b0: f248 a53c ba4a 4eba 3213 5f3c 2530 53bc
000003c0: 02dc a93a efa6 e63b e578 dcb9 6916 853d
000003d0: 6301 8fbc cf9f 8c3c adaf 803c 458a 8e3c
000003e0: 103e 813b 1024 853c de9f a6bc 37a5 393b
000003f0: c0da c43c 2741 31bc e115 993c 0889 ee3a
0.01958121 0.052003827 0.016515547 0.0107933795 0.030765409 0.090312906 0.015221153 -0.0065543884
0.05047374 -0.00046262064 0.015958056 0.06981863 0.012877244 0.013942538 -0.014147436 0.018418724
-0.0004918013 -0.0032276674 -0.007692081 0.023725087 0.034929298 0.031670235 -0.015939742 0.009222048
0.01264982 0.0070986296 0.01004676 0.009998963 -0.0065404014 0.0036860176 0.021413282 0.043736625
-0.011767762 0.00928547 0.016938865 0.077808365 0.0006582071 0.002196215 0.048255228 -0.020860095
0.0046360344 0.011180714 0.016360622 0.010235882 0.032619283 0.013695812 -0.0015128762 0.014984114
0.0013135537 0.0055630296 -0.0004534543 0.0008161757 0.02535269 0.047122777 0.054346796 0.0024098472
0.0045214705 0.00036382026 0.0013983401 0.019866716 0.03139944 0.011989909 0.01704618 -0.0071600233
-0.010447739 0.0016445462 0.009345025 -0.014832333 0.023089936 -0.014127021 0.0010443453 0.012228044
-0.003665908 0.0022186015 -0.0070852474 -0.0002890281 0.002354376 -0.010736438 -0.026313769 0.026626736
0.0050019715 0.02643734 0.02130497 0.0052222456 0.014551484 0.032392874 0.019281745 0.035402395
0.0098513635 1.2945836e-05 0.019430513 0.015230785 0.0018143734 0.0033736953 0.0040387204 0.0032917624
0.0048381053 0.006726025 -0.0038246706 0.013893081 -0.003210337 0.0050238725 -0.0012044436 0.029710097
0.009108619 0.04553495 0.0010355407 0.008801682 0.0004956536 0.013032166 0.009464518 0.015500331
-0.014773539 0.023258008 -0.012148558 0.057390396 0.021716837 -0.0057149273 -0.013862799 -0.0051874095
0.021849448 -0.008383373 0.047025636 0.0075681633 0.0065161916 0.019650154 0.044484418 0.045447085
0.045689706 -0.0053543034 0.071011566 0.029366765 -0.0029076494 0.009851962 0.042329248 0.0013248366
-0.005849294 -0.010784966 -0.00692893 -0.010653385 -0.0024199802 -0.005015965 0.004879798 -0.0041437694
0.008841657 0.0029222309 -0.0038010955 0.004583012 0.011411915 -0.00039249854 -0.01562638 -0.005191254
0.017574253 0.0024915047 -0.011784453 0.014920193 0.0033468066 -0.01085526 0.0148118315 0.023898011
0.025458101 0.039721243 0.008197979 0.0024643072 0.012154425 0.011947463 0.012458959 0.008230482
0.018086493 0.009561393 -0.0015620996 0.0020024378 0.0008018862 -0.0047109076 0.020134768 0.06540343
0.01934521 0.02777592 0.032590304 -0.00890902 0.02242359 0.01574148 0.017966695 -0.008203596
0.022796247 0.0013930234 0.018804273 0.0013403491 0.024663594 -0.0044513727 -0.004936234 0.05855428
0.04828181 -0.012941639 0.019612944 0.018410908 0.008862551 0.025000956 0.00040965504 0.017524673
0.018819898 0.02343948 -0.0023678862 0.031517442 0.033841502 0.0073472187 0.029794626 0.0051731532
0.0075782607 -0.007858594 0.008442438 0.02979167 0.013865165 0.057927925 0.010939462 0.0044770953
-9.6979435e-05 0.025163619 0.03297063 0.0212706 -0.006620897 0.0012863989 -0.005113149 0.012199932
0.055617653 0.0101619875 0.004312213 0.0051796148 0.0026826158 0.012026463 0.003409555 0.032530185
-0.009399339 -0.002955873 -0.0050090523 0.004136107 0.020176385 -0.00078694115 0.013615416 -0.0128898965
0.0012959244 0.007038943 -0.00042051743 0.06498415 -0.017456716 0.017166046 0.015708769 0.017399916
0.003944166 0.016252548 -0.020339902 0.0028327235 0.02403009 -0.010818756 0.01868719 0.0018198797
