notebook/result/weights/sac_snapbot/episode_900.pth (torch, 355440 bytes, 8 tensors)

parameters.mlp_0_b f4 [256]
00000000: 9516 7d3d 18c6 36be d578 483d af4e 00be
00000010: 3bce b33e ea67 88be 562f 9fbe 597e 19be
00000020: 2f8e 65be 20fd 66bd 57a9 f03d d702 debd
00000030: 134c aabd ff6c 943d de27 97bd bf91 043f
00000040: 03d8 24be 396f a7be 3737 31be 27fd 0dbe
00000050: ec95 febb c7f5 bcbd 9ed7 00bd 67a9 4e3c
00000060: 1feb 6bbe 04d5 9dbb 1780 a53d 0061 fbbd
00000070: 298f 42be 2aa8 8fbc e69c 5dbe 3227 6ebe
00000080: bade 1cbe 8e15 f23d 8d09 c6bd e453 41be
00000090: 4601 48bc 5cbe 903d f25d b0bd 602e cdbd
000000a0: eccb 74be a268 9ebe ff2b 12be bd33 67be
000000b0: 0118 a5bd 870a 733e 6460 103e c336 40be
000000c0: 5689 f3bc 7301 0ebc c376 b7bd ea10 c9bd
000000d0: d3db c7bd b05a 79be f6bb 473e 9d13 cebd
000000e0: eed5 1abe b076 a2be 4aaf 2ebe af03 afbe
000000f0: fe2c aebd 0a14 bfbd 69e9 e3bd ab9a 48be
00000100: a772 cabd e2ad c3be 5b7d efbd 4ef7 e03d
00000110: 4e18 87be ac7b b0be cff5 cc3d a2dd 55be
00000120: fd42 37be 4fe2 41bc ee61 debd a557 7abd
00000130: 660c 713d 3c00 04be da7a 80bd ad44 9bbe
00000140: 9ce1 12be 8c62 a1bd e6fe 2bbd 2dc2 09be
00000150: 17b9 a9bc 0757 8fbe 1905 79be ca5b 5cbe
00000160: 7a54 373d 0748 9b3e 0487 aebd 10f1 093e
00000170: 5fde 373d dea6 39bb 44db 01be 6aae 9dbe
00000180: 6100 88bd 4d8f d3bd a7a6 14be 8342 12be
00000190: 0ac3 a9bd b3bc 51bc 4097 cdbc 5369 2fbe
000001a0: 3e30 9cbe 77cf 0dbe 4eb1 47be 2022 ad3e
000001b0: 1036 96be 8d36 23be af14 4dbe e989 d4bc
000001c0: 2639 14be 95f4 36be 4430 063e 2ac2 1ebe
000001d0: 8d1e 4ebd 2996 cdbd 9127 143e 9622 57be
000001e0: c021 253e c437 85be 28ad e8bd a71a 9c3e
000001f0: 7b74 2aba e689 463a 5034 8bbd b610 b6bd
00000200: 4479 20be c6ff ef3d 6f85 fabd bff3 a5bd
00000210: 2c7c a8be 9bd3 96be f7d0 fcbd a2c2 2b3d
00000220: 2def e73e d0fd 45be 1628 5bbe 068f 073d
00000230: 907b 97bd 9844 b6ba 6059 f0bd d274 43be
00000240: 1a10 8ebe 8fd2 5b3c ba3b 46be 4910 9cbe
00000250: 4c61 3fbe c34f 69be e272 8ebd 91b5 7abe
00000260: cb74 67be 179c 96be c33a fe3c ebe3 333e
00000270: f89d 8ebe c649 14be b328 77be 9c88 6abe
00000280: 7c1e e9bb 48ce b4bd 07c1 9abe 8151 fbbd
00000290: d8b9 04be dec8 4fbe 4dad 7e3e b083 f1bd
000002a0: 3433 9dbe 8a85 5cbe dc2b d5bc 76ed 3f3d
000002b0: 998f 833d 1349 c8bd 0b43 7cbd 137e 8cbd
000002c0: 24e9 8f3b 519d 6f3e c0cf 2abe 81a4 35be
000002d0: ce8a 15be 33e6 b0be d1fe 5fbe f5aa 1abe
000002e0: 6650 6fbe 952f 27be 1206 37be fe0e 81bd
000002f0: 19e4 2a3b 89f0 113e 380b 52be 7788 babc
00000300: 1ee8 f0bc 7b31 9a3d fba3 8a3e be02 c4ba
00000310: 3614 e0bd 1a9b 893d 2654 f0bd 967d 063e
00000320: 9b3d 463e 4c61 87be 8b9c 4abd d3a1 44bb
00000330: 9cc6 b3bd 7cd2 2cbd 56c5 783d e762 44be
00000340: d206 51be 812e 3abe 83bd f4bd b7c5 19bd
00000350: f3ec 3a3f 36ca 8bbe 2ad2 8fbb cc67 023f
00000360: 2ab1 e5bd 8d81 003e 2053 74be b8c2 41be
00000370: a867 5bbe a701 6abe ab86 0b3e f295 eabd
00000380: 3878 55be 57db afbd 937f 84bd 32c4 87bd
00000390: 61c4 68be 9dc2 f9bc acfe 1b3e f05f 203f
000003a0: 6e41 33be c0fe 723e 552b 23bd de1b 62be
000003b0: 31b5 efbd 514c 1d3e 1c56 30be ba04 0abe
000003c0: b542 f63d 143f bc3e 7bb9 47be 85bb 20be
000003d0: f6cf 1c3e 580c ebbd 4187 0bbe 4206 903d
000003e0: 1a25 683e 3153 7ebe 3e0a db3c 72cc 7cbd
000003f0: 85cb ac3d cadb 593e db8a 1dbd 16e7 1ebe
0.061789114 -0.17849004 0.04894336 -0.12530015 0.3511828 -0.2664178 -0.31090802 -0.14989604
-0.2241752 -0.056393743 0.11751049 -0.108403854 -0.08315291 0.07247352 -0.07380651 0.5178489
-0.16098027 -0.32702044 -0.17306219 -0.13866101 -0.007769337 -0.09226566 -0.03145563 0.012613631
-0.2303891 -0.004816653 0.08081072 -0.12274361 -0.18999924 -0.017536242 -0.21641883 -0.2325714
-0.15319338 0.118205175 -0.096697904 -0.18879658 -0.012207335 0.07067558 -0.08611669 -0.10018611
-0.23905915 -0.30939204 -0.14274596 -0.2257833 -0.08061219 0.23734485 0.1409927 -0.1877089
-0.029728573 -0.008667338 -0.08958199 -0.09817679 -0.09758725 -0.24351001 0.19505295 -0.10062335
-0.1512067 -0.31731176 -0.17059055 -0.34182498 -0.08504675 -0.09329994 -0.11128504 -0.19590251
-0.098851494 -0.382186 -0.116938315 0.109846696 -0.2638573 -0.34469354 0.10007822 -0.20885327
-0.17896648 -0.011833741 -0.10858522 -0.06111874 0.058849715 -0.12890714 -0.06273432 -0.30325833
-0.14343876 -0.078801244 -0.041991137 -0.13452978 -0.02071814 -0.27996084 -0.24318351 -0.2151939
0.044758298 0.3032839 -0.08521846 0.13470864 0.044889804 -0.002832822 -0.126813 -0.3079713
-0.06640697 -0.10330067 -0.14516698 -0.14283185 -0.08289154 -0.012801337 -0.025096536 -0.17130022
-0.30505556 -0.13848673 -0.1950123 0.33815098 -0.2933812 -0.15938778 -0.20027421 -0.025944667
-0.14474925 -0.17866738 0.1310435 -0.15503755 -0.050322104 -0.100384064 0.14468218 -0.21009287
0.16126156 -0.26019108 -0.11361152 0.30489084 -0.00065023423 0.0007573649 -0.06797087 -0.08889906
-0.15671259 0.11718707 -0.12232482 -0.081031315 -0.32907236 -0.29458317 -0.123445444 0.041933663
0.45299664 -0.19335103 -0.2140201 0.033095382 -0.073966146 -0.001390594 -0.11735797 -0.19087532
-0.2774666 0.0134169 -0.19358721 -0.30481175 -0.1868946 -0.22784333 -0.06955506 -0.24483325
-0.22603147 -0.29415962 0.03103388 0.17567413 -0.27854896 -0.14481267 -0.2413662 -0.22903675
-0.0071142297 -0.088284075 -0.30225393 -0.12271405 -0.12961519 -0.20291469 0.24870797 -0.117926955
-0.30703127 -0.21535316 -0.02602189 0.04685732 0.064238735 -0.09779563 -0.061587375 -0.06859984
0.004391806 0.23399855 -0.16680813 -0.17738535 -0.14603731 -0.34550628 -0.21874548 -0.15104277
-0.23370513 -0.16326745 -0.1787341 -0.06301688 0.0026075898 0.14251913 -0.20512092 -0.02277015
-0.029407557 0.07528969 0.27078232 -0.001495443 -0.10941355 0.067190364 -0.117348 0.13133845
0.19359438 -0.2644142 -0.049465697 -0.0030003681 -0.08778116 -0.04219292 0.06073507 -0.19178353
-0.20412758 -0.18181802 -0.11950209 -0.03754207 0.73017806 -0.27302712 -0.004389067 0.5093963
-0.11215432 0.1254942 -0.23859835 -0.18921936 -0.2142626 -0.22852193 0.1362559 -0.11454381
-0.20846641 -0.08586758 -0.06469645 -0.06629218 -0.22731163 -0.030488307 0.15233868 0.6264639
-0.17505428 0.23729992 -0.039836247 -0.22080943 -0.117044814 0.15361144 -0.17220348 -0.13478366
0.12024442 0.36766875 -0.19504349 -0.15696533 0.15313706 -0.11476964 -0.13625814 0.070324436
0.22670403 -0.24836423 0.026738282 -0.06171841 0.08437256 0.21275249 -0.0384625 -0.1551784

parameters.mlp_0_w f4 [256, 70]
00000000: 65c6 7dbd 545a 733d cb66 36be 5524 62bf
00000010: edda e53c 404f ae3d 65ae dc3c 89d3 a63e
00000020: 1262 9d3d 6e13 93bc f3d6 58be baab 85bf
00000030: f0fd 83bd 3430 52bd 5d7e 5a3e e2fd b83e
00000040: d48b 88be 33bf 643e 8995 a93e 9b6c 79be
00000050: 111a 1ebe 6f4d 89bf be09 0bbf e02f 763f
00000060: 0d78 3d3c 4cac 863c 0948 903f f436 11bc
00000070: d97e 74bb ba4b 943c 0cd0 c93d ef2a 033d
00000080: ff4a 2fbd 408b 4e3e 6e6c 1fbc c433 5e3c
00000090: 5c22 633e ce12 50be 3d7c 8dbe 1214 393e
000000a0: 155c 6cbe 6f82 1dbe 062a 143e 1b8a 1fbe
000000b0: ed01 98be f424 f6bb a88b c7be 6395 263e
000000c0: 7079 8d3e deff c3ba 7159 543e 4aa1 c4bb
000000d0: 6593 2bbe 2013 15bf f9c1 033e c8d3 113b
000000e0: 582b 4b3e a26c 223e 2561 0f3e 6c07 ff3c
000000f0: 2cde ce3e b1a3 6d3f b5a6 90bb bb87 443d
00000100: ac76 c5ba 3977 03be 1e69 a03e c0af 06be
00000110: 9e68 833d d0b9 52bd 1d25 ffbe 9b06 d33c
00000120: 6f8a f2bd dcfa fa3e bce2 5fbc 3845 7bbe
00000130: 2c33 ac3e 2240 013d a142 b6be 0e61 73bd
00000140: 50bd d4bd 394a 7f3e 65ff 67bc 4752 b2be
00000150: 298e 993e adf0 e4bd 8833 fd3c 569f 1c3e
00000160: ed12 84bf abcc 363d be48 803d 2d5a b6be
00000170: ee35 513f 70df dd3d affa 8fbe 6fd8 b63e
00000180: e058 033e 54e4 b93c a337 8cbc f303 b4be
00000190: dfbb 9d3d c967 67be 9e67 7b3e ed86 ccbe
000001a0: 5b05 eabe 53d5 a43e 473f 80bd 9ab6 213d
000001b0: f140 903e fdc5 d23d 0acb d9bd 3671 48be
000001c0: 766c 8f3d 5d39 10bc 3d7a 56be af5c d2bb
000001d0: e6da a43e 76b9 2a3b 08a8 b4bd 90be 063d
000001e0: 14cb 073d 9b40 34bb 0b1d 8abb bf39 33be
000001f0: ea05 1fbd c95f a0bc 93ba efbe 8a0f d1bc
00000200: baae 22be 2778 b5be ff84 6ebe 4836 c83e
00000210: a2c8 24be 46ea 693d 5300 a1bc 475b 96ba
00000220: 7d7b 7f3e a258 d53b e71a 293b 6f9d 563e
00000230: 1bbc 26be 893f e63e 649e 98be b62a ae3e
00000240: 05d8 99be a27b de3d 0739 073f b775 c8bd
00000250: 20c4 053e ba35 f53e ad19 abbe d390 16be
00000260: 5cc0 85be 5be0 253e 8bf7 023e 6d94 8bbe
00000270: 27ac c7bd 0633 3d3f 938e 793f 1132 3abf
00000280: b1c1 1ebd 2128 3cbe 0cfd a5bf 565e 1a3e
00000290: 8b73 06bd be46 743f 427c d9be 0790 f1bd
000002a0: da27 dfbd 18ba a13c 82dd b53c 57f5 3f3c
000002b0: 1a6a a13e cf2d 853d 62d5 ba3d 8771 a8be
000002c0: fae9 813e 033b 12be a504 713e abb6 b03c
000002d0: aad7 20b9 b1fc 48be fef8 00be 095c 05bd
000002e0: c805 d6be a3a4 32be e7c7 543e 5106 a9bc
000002f0: 3933 3ebe 14b2 323d 6ed6 8abd 2481 93bd
00000300: aa54 bb3e 0296 27be 0bb9 a6be 0405 a8bd
00000310: 4c02 b2bd 7917 05be 58a0 673e 3a0f 14be
00000320: 9f46 693e fe7f 1bbf 3de4 a9bd 71ed bcbd
00000330: cb88 f63c 64e5 553d a83c f7be 85cd 6dbe
00000340: ef1b dcbd 2b4b 753e 7550 09bf 79f4 763e
00000350: 5374 b0bd f880 fbbd 2674 ebbe f2ff 14bf
00000360: 0bd6 a83e 873c 023f 80e3 edbd f446 93be
00000370: e47c 88bd 3745 9cbe cc2c 25be d1cb 7cbf
00000380: 9b24 b13d e23d 093f 4560 3c3e 02ff 053e
00000390: bf78 333e a35a 243c 6762 6f3d 00c6 043f
000003a0: 08f2 80be a82f afbe eb70 89bc 357a 11be
000003b0: a08a 4ebf 66d5 74bb cbc9 f9bc cad3 e5bb
000003c0: 6b4d 123d c22c 3b3e 4cbe bebe 3086 04bf
000003d0: 1ec2 b33d 939f 973d a0ac 2f3d 38bd c23c
000003e0: 22db bbbd d7b7 63bd 19e1 6bbe d960 ac3d
000003f0: ad1d c13e 69d4 bc3d d6f3 9e3d 075c 2fbe
-0.061956782 0.059412315 -0.1781265 -0.8833669 0.028058494 0.085112095 0.026938627 0.32583264
0.07684721 -0.0179536 -0.21175747 -1.0443032 -0.06444919 -0.0513155 0.21337266 0.36131197
-0.2666918 0.22338562 0.331219 -0.24357836 -0.15439631 -1.0726756 -0.5431174 0.961668
0.011564267 0.01643958 1.1271983 -0.0088631995 -0.0037307052 0.018102515 0.09854135 0.032023367
-0.04279613 0.20170307 -0.0097304415 0.013562147 0.22181076 -0.20319673 -0.2763385 0.18074062
-0.23082002 -0.15381788 0.14469156 -0.15580027 -0.2968897 -0.0075117294 -0.38973737 0.16267924
0.27631712 -0.0014953574 0.20737244 -0.0060006725 -0.16755445 -0.5823231 0.12866963 0.0022251476
0.19840753 0.15861753 0.14001901 0.031131469 0.4040388 0.928279 -0.0044144043 0.047981005
-0.0015065274 -0.12838449 0.31330198 -0.13152981 0.064164385 -0.051446736 -0.49833003 0.025759986
-0.1184281 0.49019516 -0.0136648975 -0.24538124 0.3363279 0.031555302 -0.3559771 -0.05941873
-0.10387671 0.24930657 -0.014160012 -0.34828398 0.29991272 -0.11178718 0.030908361 0.15295157
-1.0318276 0.04462878 0.062638745 -0.35615674 0.81722915 0.10833633 -0.28120944 0.35712
0.12826872 0.022691883 -0.017116373 -0.35159263 0.07701849 -0.22598185 0.24551246 -0.3994669
-0.4570721 0.32194003 -0.06262069 0.039480783 0.28174546 0.102916695 -0.1063443 -0.19574437
0.07003109 -0.008802739 -0.20945068 -0.00641974 0.32198256 0.0026050485 -0.08821112 0.03289658
0.033152655 -0.0027504328 -0.004214888 -0.17502497 -0.038824 -0.019576924 -0.46822032 -0.025520105
-0.15886965 -0.3544323 -0.23292921 0.39103913 -0.1609216 0.057108186 -0.019653475 -0.0011471295
0.24949451 0.00651081 0.0025803389 0.20958494 -0.16282694 0.44970348 -0.29808342 0.3401696
-0.30047622 0.10863425 0.5282139 -0.09788077 0.13063097 0.47892553 -0.33418027 -0.14703684
-0.2612332 0.16198866 0.12789743 -0.27261677 -0.09749632 0.7390598 0.97483176 -0.72732645
-0.038758937 -0.18374683 -1.2967849 0.15075049 -0.032825034 0.95420444 -0.42477614 -0.11795049
-0.10896273 0.019742057 0.02220035 0.011716208 0.31526262 0.06502878 0.09122731 -0.32899114
0.25373822 -0.14280324 0.23536928 0.021571478 -0.0001533913 -0.19627644 -0.12594983 -0.032558475
-0.41801286 -0.17445616 0.20779382 -0.020632895 -0.18574227 0.04362686 -0.067791805 -0.07202366
0.3658803 -0.16365817 -0.32563052 -0.08204082 -0.08691844 -0.12997235 0.2261976 -0.14458933
0.22780846 -0.60742176 -0.08295486 -0.09224976 0.030094525 0.052220717 -0.48288465 -0.2322293
-0.107475154 0.23954456 -0.5363839 0.24116696 -0.08615937 -0.12280458 -0.45987052 -0.5820304
0.32975802 0.5087361 -0.11615658 -0.2876507 -0.06664446 -0.30521557 -0.1613037 -0.987485
0.0864956 0.5361005 0.18396099 0.13085559 0.1752653 0.010031375 0.058443453 0.51864624
-0.25184655 -0.34216046 -0.016777476 -0.14206775 -0.80680275 -0.003735864 -0.03049173 -0.0070137726
0.035718363 0.18278793 -0.3725456 -0.51767254 0.08777259 0.07403483 0.042889237 0.023771867
-0.09172656 -0.055595245 -0.23035087 0.0841691 0.37717953 0.092202015 0.07761352 -0.1712495

parameters.mlp_1_b f4 [256]
00000000: 75ef 4e3e 6725 db3e 15cc f13e 0a57 963c
00000010: c189 2b3c 147b d83e 5798 923d 5484 cf3e
00000020: 161c 133c de8d aa3e dbf9 043e c6f3 2c3e
00000030: f16e b1bd bfc3 093e 447e e13e 5a6a 283e
00000040: 9a08 453e 9bde ea3d 4498 aabc 318b 893c
00000050: 0e50 903e d5e9 793c 7fe7 9d3c 6e04 d8bc
00000060: a174 893d 18b9 4a3e e6d4 92bc 4e29 d9bc
00000070: 08f5 483e f6ac c5bb f77c 8e3e 238b 05bc
00000080: 9a17 2abd 0739 da3e 9bf3 973e 6d16 873e
00000090: 262a 47bc 2dc1 893e ed6e bd3d 4768 7abc
000000a0: 7260 4ebc 9112 033f 3df8 98bc da51 4f3d
000000b0: f7db f23d c801 313e 49c3 8dbc ff60 113e
000000c0: e2ad 6dbc 2fb3 5f3d 61b1 cebd c438 763e
000000d0: ce2a 413e a8f8 343e 8c0a 903c c176 18bd
000000e0: 0c27 86bc 1b0a 9dbc 77c5 88bc 4429 5e3e
000000f0: 84fe b1bb a78a f4bc 31f8 eb3d a8ba 533d
00000100: ca1e bbbd 0921 a63e b161 e9bc 1716 9ebc
00000110: 6f95 fd3d 2bf4 95bd 92b0 c23c b003 80bc
00000120: 0a48 c13e 0797 9d3e 71c4 83bc 81d1 163e
00000130: e415 afbd b2f0 8f3e 45e4 bebd 9f7b dc3d
00000140: 8be8 dd3c 8a81 863e 43b8 3fbc 5163 203e
00000150: d8a1 a8bc ce62 513d b65c b23e a78b 353e
00000160: fc68 4b3e 9c59 14bc 4aa4 583c 17f0 2b3f
00000170: 584f 38bc 39cc 003f cd07 803d 37d0 233c
00000180: 59f8 c0bc 9e5c f3bc 551c 523e 8e45 10bd
00000190: a727 f8bc c0f1 d5bc 52fd babc 0fa7 04bd
000001a0: 6d12 5bbc f4b7 8a3c a8eb 97bc 4085 0ebd
000001b0: d325 c0bc 8159 e53c 9be1 413e 5660 d1bb
000001c0: e9ca 1a3f c19b 643d 8b00 ea3e 96c0 9d3e
000001d0: 64dc 06bd 1ee8 91bc 6f44 73bc 5f4f 513e
000001e0: 36ee e73d 0e64 f73e 0d41 6e3e de2c afbc
000001f0: f9c6 063f f3a3 923e 5182 153e 12a8 673e
00000200: 55ef c43d 7656 923e 00f0 c23d 2a3e 8a3c
00000210: a243 233e d7f4 47bd c3ef 383d 047b efbc
00000220: c4ba 89bc b140 9ebc 7061 22be f76f 43be
00000230: d486 c9bc 8817 4d3e eea8 03bd 6ddd 97bc
00000240: 90ef f5bc 37f8 133e 0d7d c1bc b130 c63e
00000250: eb03 973e 0240 993e 5f6d d53e 63e6 9dbc
00000260: 6810 433e 6986 283e 61a0 3e3d 2148 053e
00000270: 0d11 423e 4e39 803e ef2f 5f3e b836 173c
00000280: e97f 073d 883a 9a3d 8cc3 b8bc 4959 18bd
00000290: e262 a43e 5f25 063f d772 af3d 4344 86bc
000002a0: a66a 043e 78fc 69bc 05f8 50be 676a 643e
000002b0: ba03 05bd caf4 f43d 8c5d 883e 8462 c33c
000002c0: 9d30 3d3d eb5e ad3e aa4e 483e bdf5 bcbc
000002d0: 14d4 c5bc 778c 923e 7e7b 213e d481 a0bc
000002e0: ad4e 523e f1cc 3fbe 4585 6f3e e80a 643c
000002f0: 56f3 903c bbeb 37be a474 c9bc 358f c53e
00000300: 26ec 04be 22e4 cb3b 56a0 9cbc 92be fc3d
00000310: 5ce8 7c3e e1a3 123e c46f 9f3e ee06 a6bc
00000320: 9af8 f5bd febd 913e 8db4 a13e 0961 703c
00000330: 8358 003f 201e debd cbd5 433d 6184 8dbc
00000340: 2c26 853d 0f23 68bc 2ab8 c8bc 11bf 5d3e
00000350: bd27 d83e f10c 783d a0fe d73b 0b92 a3bc
00000360: 8fcb 933e 3718 0abd 10bb 1f3d f259 c5bc
00000370: 41a7 963d 05cf 463e 05ea 86bc f299 bd3e
00000380: f0d6 cb3c cd67 24bd d3c2 bb3e a7d7 a03c
00000390: 743c d13e 36c2 4e3d e445 ecbc b70e ca3e
000003a0: bda9 513e c9cf d13e 0dfe 7dbd 528f 83bd
000003b0: 4a74 29be 5470 debd 2d69 2d3e 0c88 60bb
000003c0: 4909 873e 8a82 783e c703 b33d ec22 0ebe
000003d0: 0c03 38be 341a febd d717 093e 75a2 d23d
000003e0: 6f02 b63d 52a9 7fbc 1709 873e 6aeb 823e
000003f0: 53ba b1bc 989e 78bc f6e1 e9bc 037b 5cbc
0.20208533 0.42801973 0.47226015 0.01835205 0.010469855 0.422814 0.07157963 0.40530646
0.008978864 0.3331136 0.12985937 0.16889867 -0.086637385 0.13453577 0.44041646 0.1644682
0.19241562 0.1146824 -0.020824559 0.016790004 0.28186077 0.015253504 0.019275425 -0.0263693
0.06711698 0.1979717 -0.017923784 -0.026508953 0.19624722 -0.0060325814 0.27829716 -0.008150849
-0.041526414 0.42621633 0.29678044 0.26384297 -0.012156045 0.26905194 0.09249673 -0.015283651
-0.012596237 0.51200205 -0.018673057 0.05061517 0.11858361 0.17285836 -0.017305033 0.14197157
-0.014506789 0.054614242 -0.10092426 0.24045092 0.18863985 0.1767298 0.017583154 -0.037222628
-0.01637604 -0.019169858 -0.016695721 0.21695429 -0.005431952 -0.02985127 0.11521948 0.05169168
-0.09136732 0.3244708 -0.028488966 -0.019297643 0.12382018 -0.07321962 0.023765836 -0.015626758
0.37750274 0.30779287 -0.016084881 0.14728357 -0.08549097 0.28113323 -0.09320883 0.10765766
0.027088424 0.26270705 -0.011701646 0.15662886 -0.020584986 0.051119618 0.34836358 0.17729054
0.19864267 -0.009054568 0.013222763 0.67163223 -0.011249386 0.5031162 0.06251488 0.009998373
-0.023555921 -0.02970725 0.2051862 -0.035222583 -0.030292345 -0.026116252 -0.02282587 -0.032385882
-0.013371092 0.016933419 -0.018544987 -0.034795046 -0.023455536 0.02799678 0.18933718 -0.006389658
0.60465866 0.0558126 0.4570354 0.30810994 -0.032925025 -0.017810877 -0.014847859 0.20440434
0.11324732 0.48318523 0.23267002 -0.021383699 0.5264736 0.28640708 0.14600493 0.22622707
0.096159615 0.2858159 0.095184326 0.016875345 0.15943769 -0.04881748 0.04515053 -0.029233463
-0.01681269 -0.019317957 -0.15857482 -0.1908568 -0.024600424 0.20028508 -0.032143526 -0.018538201
-0.030021459 0.14450155 -0.0236192 0.38709024 0.29495177 0.29931647 0.41685006 -0.019274896
0.19049227 0.16457523 0.046539668 0.13015796 0.18951817 0.2504372 0.21795629 0.009229355
0.03308097 0.07530695 -0.022554182 -0.037194524 0.32106692 0.52400774 0.08566826 -0.016389972
0.12931308 -0.014281385 -0.20407112 0.22306214 -0.032474257 0.11960752 0.2663387 0.023850687
0.04618894 0.3386148 0.19561258 -0.023066396 -0.024148978 0.2862279 0.15769765 -0.019593157
0.20537825 -0.18730523 0.23390682 0.013918616 0.017694157 -0.17961018 -0.024591751 0.3858582
-0.12980708 0.006222264 -0.019119423 0.12341036 0.24698013 0.14320327 0.31139958 -0.020266976
-0.120103076 0.28465265 0.31583062 0.0146715725 0.5013506 -0.1084559 0.04781131 -0.017275037
0.06501421 -0.014168515 -0.024501879 0.21654917 0.42217818 0.060559217 0.006591633 -0.0199671
0.2886624 -0.0337145 0.038996756 -0.02409074 0.0735612 0.19414909 -0.016469011 0.37031513
0.024882764 -0.040138055 0.36672077 0.019634081 0.40866435 0.050478183 -0.02884192 0.39464352
0.20474906 0.4097884 -0.06200986 -0.064238206 -0.16548267 -0.10861269 0.16934653 -0.0034260778
0.26374272 0.24268547 0.08740955 -0.13880509 -0.17969912 -0.124073416 0.13388 0.102848925
0.08887183 -0.015604334 0.26374123 0.25570232 -0.021695292 -0.01517453 -0.02855013 -0.013457063

parameters.mlp_1_w f4 [256, 256]
00000000: 426b bcbe 37fb a6be 48fb b03d db5f e5bc
00000010: bcb0 f3bc 3106 51be 7b3f 0abe a61f cdbe
00000020: ad5c f6bc 415d 4b3e 0180 353f e71a 83be
00000030: 4caa 3cbf 36ac a5bd 4692 9cbc 60bd 013f
00000040: f3d3 8c3e ca18 863d b99b 99bd 3e72 50be
00000050: c8ad 833d 8304 00bf 0cd2 013e 1657 383e
00000060: 6a80 b73c 0ecd bb3d 81cd 3abd e94f b4be
00000070: b19b 7b3d 8b8a 943d 818c 90be 699d 863c
00000080: 6c95 b23d 06e6 0bbf 9f9b 233e 0992 0f3e
00000090: 7465 d23d df8a 1c3d a225 b2be 923e 113e
000000a0: d79e 1b3d 8f83 69be 7a19 34be cc6a 133e
000000b0: 6d07 95be cca0 0e3d f45b c03e 81f2 90bd
000000c0: faae 3dbf 4d49 a23e 0f35 023e 791c 583e
000000d0: 7d6c 823e 812b 88bf 61bd a6bd 2788 ab3d
000000e0: bd68 32be 4447 2ebf 2769 0f3d a1b4 99be
000000f0: c88f 6b3e 06b4 00bd 54c4 adbe edaf 7c3d
00000100: 0c25 bebe b09a 16be 2ac3 063e 964c 8ebf
00000110: 7c94 4dbf 96f1 3fbe c041 883d c30b cb3d
00000120: 9362 f9bd 3f0b 87be 63b9 fabc 9bb7 933e
00000130: cb8d 63be 1f7d 53bd 7ae5 113e 363e 633e
00000140: f6e8 103f 8f03 ee3d 6495 733c 80f1 bc3d
00000150: 6186 9f3d a62e 833e 1d13 90be 2608 623e
00000160: 359c 713e 12ea 453e 8833 b93d 98d7 28be
00000170: 1025 b33e 6aae db3d 3679 8a3d a283 9b3a
00000180: 0122 bdbd 6be1 5d3b cfc5 b1be a9ae d23b
00000190: a8f2 d8be 5227 923d 4c22 62bf 491d ff3c
000001a0: 8778 9e3e d888 bcbe cb99 163e c870 ae3e
000001b0: 1b18 413d 9714 73be 94b3 3fbd b52c 8e3e
000001c0: 9f70 8c3e 1f28 b23e 3a1a 193e bfd3 90bc
000001d0: 309a ec3b dd16 65be 77ed d73e b460 3bbf
000001e0: c011 b4be 780d 9ebe ea49 3e3e 7f49 b83e
000001f0: 457d 773e 61e2 7a3e 5423 b03e bbe5 f7bd
00000200: af06 36bd 390d 35bf fd4c e73c 7ca3 713e
00000210: 9528 0c3f 5eb8 40bd 0a00 cabe a108 99be
00000220: 5707 36bd 2344 4f3d 47a5 f5bd 1fb7 0abd
00000230: 317f c63e c20a 66be 6ed8 1ebe 2cde 6f3e
00000240: 3383 91be 5a59 983d cc06 cd3e 63ea 7f39
00000250: bcee ed3d bb71 62be 0108 65be 5b27 26be
00000260: 7b75 11bf dfc0 c6bc ca78 5b3d b463 05bd
00000270: 8aa3 f03d 8153 69bb ca51 01be 6d88 ed3d
00000280: 604a 073e b67b 37bd 748a a2be 9d8d c0bc
00000290: 6cc6 ed3d 0118 8d3d 4002 28bd 8070 9d3e
000002a0: 40f0 bcbe 8609 eb3d dc7e 60bf 3455 edbe
000002b0: dc2c 473d a539 dfbd 993d d63b 0945 bdbe
000002c0: c57d 8abe 1d01 2dbe b1f8 54be 7a03 703e
000002d0: 2205 1f3d c116 ebbe 1e41 8c3d d634 883d
000002e0: 9aa7 9fbd 030d a83d ee8e e1be ef86 3a3d
000002f0: ebce 75be 695f 5e3e 5fdd e4be da7b 43be
00000300: b49e 08bf 4a66 76bd 2f58 233e 2097 7bbe
00000310: 1ede 1dbc c000 91be beea 063d a969 4fbd
00000320: f7ce adbe fcad d53e 1b9e 71bf b468 45be
00000330: aa38 92be 85f9 013d ebcb 883e 2215 873d
00000340: 8faa 71bd 6ee1 d43c 3059 d33d 254d b43c
00000350: 1e99 26bf 06a9 5a3d aad3 79be 1b3a 0fbf
00000360: c14c 293e cec6 5b3e 1233 a93d 2e5f aabc
00000370: aca0 b63e f712 963e b5c8 5fbb 562f de3d
00000380: 0edf 63bd 1e6a cebd 6ecf 313e 8e3a 1fbf
00000390: 3aed c53d df55 fdb9 f28c 81be a974 8ebd
000003a0: 48d5 76bc e52b 823d 5fda 1abf 5795 37be
000003b0: 5c3c b4bd 561f 58bd 826a 0fbe 5a71 dcbe
000003c0: c131 a9bd aba3 6bbd 2d59 123f 8f1c b7bd
000003d0: 99c0 b4be 90fd abbe 4516 d93d 3668 683d
000003e0: 315f 073f 88fa 0abe 203b b4be 2fe1 cfbe
000003f0: 5c26 bcbd 3961 803d 80b1 26bd bccb aebe
-0.3680058 -0.32613537 0.08641678 -0.027999809 -0.02974736 -0.20412518 -0.13500778 -0.40063208
-0.030073488 0.19859792 0.70898443 -0.25606462 -0.7369735 -0.08089487 -0.019112717 0.5067959
0.27505454 0.06547697 -0.07500405 -0.2035608 0.064296305 -0.50006884 0.12677783 0.1800197
0.0224001 0.091699705 -0.04560614 -0.35217217 0.061427776 0.072529875 -0.28232196 0.01643248
0.08719906 -0.5464786 0.15977333 0.14020552 0.10273257 0.038218375 -0.34794337 0.14184025
0.03799328 -0.22804092 -0.17587844 0.14396209 -0.29107228 0.034821317 0.37570155 -0.07077504
-0.7409512 0.3169655 0.12715553 0.21104611 0.25473395 -1.0638276 -0.0814159 0.083755784
-0.17422767 -0.6807749 0.03501239 -0.3002062 0.23004067 -0.031421684 -0.3393885 0.061691213
-0.3713764 -0.14707446 0.13160387 -1.1117122 -0.80304694 -0.18744501 0.06653166 0.09914353
-0.12177005 -0.26375768 -0.030605977 0.28851017 -0.22222058 -0.051632997 0.14247695 0.221917
0.5660547 0.116217725 0.0148671605 0.0922575 0.077893026 0.25621527 -0.28139582 0.22073421
0.23594745 0.19327572 0.09043032 -0.16488492 0.34989214 0.10726626 0.067614004 0.0011864791
-0.09235001 0.0033856283 -0.34721228 0.0064295125 -0.42372632 0.07136406 -0.8833358 0.031141894
0.3095133 -0.36823153 0.14707105 0.3407042 0.04714213 -0.23738323 -0.04680212 0.27768484
0.27429673 0.34796235 0.14951411 -0.017679093 0.007220529 -0.22372003 0.4217336 -0.7319443
-0.35169792 -0.3086965 0.18582883 0.35993573 0.2416888 0.24500419 0.34401953 -0.121043645
-0.044439968 -0.707233 0.028234953 0.2359752 0.54749423 -0.047050826 -0.39453155 -0.29889396
-0.044440594 0.05060209 -0.11994415 -0.033866044 0.38768914 -0.22465041 -0.15512249 0.23424596
-0.2842041 0.074389175 0.40044248 0.00024406011 0.116178006 -0.22113697 -0.22366334 -0.1622595
-0.56819886 -0.02426189 0.05358199 -0.032565787 0.117499426 -0.003560275 -0.12628856 0.11598287
0.13211966 -0.044795714 -0.31746256 -0.023505026 0.116101116 0.06889344 -0.04101777 0.30749893
-0.36902046 0.11476426 -0.8769357 -0.46354067 0.048626766 -0.10899667 0.0065381047 -0.36966732
-0.2704908 -0.16894956 -0.20797993 0.23438826 0.038823254 -0.45915797 0.068483576 0.06650703
-0.07795639 0.08205607 -0.4405436 0.04553884 -0.24004714 0.21716084 -0.44700143 -0.19090214
-0.5336716 -0.060156144 0.15951608 -0.24569368 -0.009635476 -0.28320885 0.03293871 -0.050637875
-0.33946964 0.41734302 -0.94381875 -0.19278222 -0.28558856 0.0317321 0.26718077 0.06595828
-0.059000548 0.0259864 0.103197455 0.022009442 -0.6507739 0.05338385 -0.2439715 -0.55948037
0.16533186 0.21462557 0.08261694 -0.020797338 0.35669458 0.29311344 -0.003414673 0.10848872
-0.055632643 -0.10078834 0.17364284 -0.6219872 0.09664388 -0.000483199 -0.25302845 -0.06955845
-0.015065499 0.063560285 -0.6048946 -0.17928062 -0.08800575 -0.05276426 -0.14005473 -0.4305523
-0.08261443 -0.057529133 0.5716732 -0.08940994 -0.3530319 -0.3359189 0.10599951 0.05674001
0.52879626 -0.13572133 -0.3520136 -0.4060149 -0.09187004 0.06268544 -0.04069662 -0.34139812

parameters.mu_b f4 [8]
00000000: 9d2d e8bd 1811 ec3d 8c95 183e 767e 40bd
00000010: 9448 13b9 e0f6 5cbd 6844 083e d24f 483d
-0.11336825 0.11526698 0.14900798 -0.046995603 -0.0001404605 -0.053946376 0.13307345 0.048904248

parameters.mu_w f4 [8, 256]
00000000: 894b 923e 0631 1dbe 3ec8 8cbe c748 ad3b
00000010: 501a 5fbd 20fb d73d b615 ae3e 24e6 d33b
00000020: c8c0 84bc 6c6b 50be c868 193e d773 cebe
00000030: 0766 1bbf 7c8d d83a c88d 99be 6726 2f3f
00000040: b5e0 9d3e 79d4 793f 0671 1cbb 0187 febb
00000050: bc71 8bbd 6540 9abc e03d 15bd 95f7 c73c
00000060: 9bd0 283f c758 a3bc e365 ef3a c1e3 e7ba
00000070: 0ee8 71bf b09e 8c3e 44ed 0c3f b999 54bf
00000080: a0c8 993d 79c0 5abf 2a7c dabd 1176 3abf
00000090: 1d1c e63b 024c dbbd d05a b5be 9e6b ec3b
000000a0: 4d21 073c 92d1 15be 0eca 893c ead5 53bd
000000b0: d9b8 f13e 62d5 553f e3d8 aa3c 67d1 9f3b
000000c0: f62f 08bb 380a 26bc 2df7 a6bd 9bb8 c0be
000000d0: ddca f53e ee3d 513f dc20 c2bb 918e 57bc
000000e0: a7bb 18bd b60a 983c 80d2 fc3e de6b a5be
000000f0: 0b59 9abb a20c e43b 3169 1ebf 6a27 143f
00000100: a39e 81be fb52 68bd 462c d23c d033 20bc
00000110: d02c 08bf 3808 413e 39da c73e d103 91bb
00000120: 223b f4bd ab21 a23e b492 54bc 86d0 933d
00000130: 4b65 86bf 5fd7 543e 6bd7 9a3f fc32 373e
00000140: 3e8e 4cbd 7e08 ab3e c38a fdbc 1b77 ddbe
00000150: bf2d 8c3b f19e 043c 5802 5a3e ba38 953e
00000160: 650a 7cbf 4b35 593b 6bc8 3d3f c9ad 3fbe
00000170: bca4 f33b 3197 f6be 51a0 bbbc 8ebe 85be
00000180: 59af 72bc 40ff 5dbb 36b9 a63c 1e08 6e3e
00000190: d052 17bc ef6c 1c3c 4987 71bc cc6a f538
000001a0: 86c0 223c 6a25 623d c5db 473b cb86 bb3c
000001b0: d9a8 913c 7cbc b53f 70cd 74bf 55c7 01bc
000001c0: 1b94 2fbc ccda 51bd baa8 7bbe 24d1 ddbc
000001d0: 6e09 f43b b390 24ba e596 0c3c 2a48 06c0
000001e0: 0a7f 58bf e545 95be be60 aebe 04c1 2f3c
000001f0: 7ff8 a33c b575 e0be b231 7ebe 3d60 b4bd
00000200: 327a 3bbf b143 c9be fe19 3dbe 1a2f c7ba
00000210: c824 a8bd 4016 1b3b f696 d038 fa0a d73c
00000220: eaec 16bb 8007 89bc 49f1 483c 037f fe3d
00000230: ea27 34bc 6c78 7a3f ebc5 a7ba 5994 61bb
00000240: b7c4 ee3c b0e6 a1be e177 1b3c 4558 3ebe
00000250: b631 95be 11df ae3d b574 38bf cf90 8e3c
00000260: f1e4 06be ace6 333f 10ed 06bf 08b9 8d3f
00000270: 2d23 81be da0d 673e 5207 933e 86d5 23bf
00000280: d9d9 babc 1065 2840 829b 8a3c 73a6 60bd
00000290: 4dea dc3d 17ee 04be 18d8 533d 2f6d c23b
000002a0: 37c7 093f f137 1f3b 31da 88bd ddf4 28be
000002b0: 2163 a9ba 6eb9 953d ff10 34be 87ce 36bc
000002c0: 9cc3 a0ba 2898 c53e 27e8 03bf d5b5 a03c
000002d0: 1362 9c3c 2833 0dbd 948a 953f a7df a3bc
000002e0: dcbd debe c44b 6dbf ac41 883e 2a2c f5bc
000002f0: 0687 b8bc fc4f dabe dde7 853c 4452 283f
00000300: 0ed5 6ebe 93cd 18bf 267b fcbb 0a8e dabd
00000310: 373f 5ebf 36bc 07bf ff51 e2be 4a1d d23b
00000320: 1178 013f eda0 8fbf 0f3b ddbc 5522 96be
00000330: e17e fcbe 12e6 cd3d 133d b03e 388c bc3b
00000340: dac2 a9be 543e 01bb 5639 203c 4d99 b7be
00000350: 9f93 58bf 3475 e43d 2692 2d3d 5ba2 82bc
00000360: f266 6e3d 87ea 37bd 1964 e2bc 1349 a33c
00000370: 2e29 4cbb 4521 0d3e 5be6 70bb b1ac edbf
00000380: c61e 33bc 8609 e03d 4124 10be aba0 713f
00000390: a05c d3be 117f f33e 7d1c 19bc 0f85 193e
000003a0: d494 62be ca6d 883c 891b b13c cd6e cf3d
000003b0: ece0 aa3e 8e23 fa3e 8a83 30bd ed8d e5be
000003c0: f131 bc3f 2994 113f 1b8d 7fbe 163d 373f
000003d0: 0c97 053f 4f2e 85be eec6 033f a677 6a3e
000003e0: 91c5 ee3e 9499 933c dcf8 e1bd f6ae 22be
000003f0: fb16 ba3a 306e 5abc 69d0 5dba 193b f53b
0.28573254 -0.15350732 -0.27496523 0.0052882168 -0.054468453 0.10545945 0.3400094 0.006466644
-0.016205207 -0.20353478 0.14981377 -0.40322754 -0.60702556 0.0016521658 -0.29990983 0.6841797
0.308355 0.9758983 -0.0023871078 -0.0077675586 -0.068088025 -0.018829534 -0.03643596 0.024410048
0.65943307 -0.019939793 0.0018264618 -0.0017691777 -0.9449471 0.2746482 0.5504954 -0.8304706
0.07508969 -0.8544994 -0.10668214 -0.72836405 0.0070223943 -0.10707857 -0.35420847 0.0072149774
0.008247686 -0.14630726 0.01681998 -0.051717676 0.4721134 0.8352872 0.020855373 0.0048772576
-0.002078054 -0.010134272 -0.08152614 -0.37640843 0.48006335 0.8173512 -0.0059243273 -0.013156549
-0.037288334 0.018559795 0.4937935 -0.3230886 -0.004710322 0.0069595138 -0.6187926 0.5787264
-0.25316343 -0.05671976 0.025655877 -0.009777978 -0.5319338 0.18850791 0.39033678 -0.004425504
-0.11925341 0.31666312 -0.01297443 0.07217507 -1.0499662 0.20785283 1.209699 0.17890543
-0.04994034 0.33404917 -0.030949956 -0.43254933 0.0042779143 0.008094535 0.21289957 0.2914484
-0.9845336 0.0033143337 0.7413394 -0.18718638 0.0074354094 -0.48162225 -0.022903593 -0.26121944
-0.014812314 -0.0033874065 0.020351987 0.23245284 -0.009236053 0.009547456 -0.014741727 0.00011702403
0.0099335965 0.055211462 0.0030495983 0.022891423 0.017780708 1.4198146 -0.9562597 -0.00792106
-0.010716463 -0.05123405 -0.24576083 -0.027077265 0.007447413 -0.00062776654 0.008580898 -2.0981545
-0.84568846 -0.29154888 -0.34058183 0.010727171 0.020015953 -0.43839803 -0.24823645 -0.088074185
-0.7323333 -0.39309457 -0.18466946 -0.0015196532 -0.082101405 0.0023664385 9.9463316e-05 0.026250351
-0.0023029395 -0.01672721 0.012264558 0.12426569 -0.010995844 0.9784 -0.0012800073 -0.0034420697
0.029146535 -0.31621313 0.009489031 -0.1858836 -0.2913949 0.0853864 -0.7205308 0.017403034
-0.13173272 0.7027385 -0.5270548 1.1072092 -0.2522215 0.22563878 0.28716522 -0.63997686
-0.022808956 2.6311684 0.016919855 -0.05484624 0.10786877 -0.12981449 0.051719755 0.005933426
0.538196 0.0024294818 -0.06682242 -0.16499658 -0.001292322 0.073107585 -0.17584608 -0.011157638
-0.0012265327 0.38592649 -0.5152611 0.019617954 0.019089734 -0.034472615 1.1682916 -0.020004107
-0.43504226 -0.92693734 0.26612604 -0.029928286 -0.022525322 -0.42639148 0.016345913 0.6575053
-0.23323461 -0.5968868 -0.00770511 -0.10671623 -0.8681521 -0.5302156 -0.44203183 0.006412183
0.5057383 -1.1220986 -0.0270057 -0.29323068 -0.4931555 0.10053648 0.34421596 0.00575402
-0.33156472 -0.0019720988 0.009779295 -0.35859147 -0.8460025 0.11155167 0.042375706 -0.015946558
0.058203645 -0.044901397 -0.02763562 0.019932305 -0.0031152475 0.13782223 -0.0036758396 -1.8568326
-0.01093263 0.109393165 -0.1407633 0.94385785 -0.41281605 0.4755788 -0.009345171 0.14992164
-0.22127086 0.016653914 0.021619575 0.101285554 0.33374727 0.4885525 -0.043094195 -0.44834843
1.4702741 0.568667 -0.24956171 0.71577585 0.52183604 -0.26011893 0.5147542 0.22897205
0.46635106 0.018017568 -0.11033794 -0.15887055 0.0014197523 -0.013331935 -0.00084615365 0.0074838516

parameters.std_b f4 [8]
00000000: 3182 6ac0 2c50 6dc0 6d06 7bc0 9f50 68c0
00000010: d9ab 6dc0 c1ae 73c0 bfcd 67c0 0fe6 6ec0
-3.6641963 -3.7080183 -3.9222672 -3.6299207 -3.7136137 -3.8075411 -3.6219327 -3.7327917

parameters.std_w f4 [8, 256]
00000000: f2fc 523d 11ec 90bc 02d8 71be f30f 19bc
00000010: 9b5d 063d 6a64 a8bc 1beb a5bd d9cc 04be
00000020: abda 413d 63d4 8ebe 4ca7 48be 84a1 75be
00000030: 3f0f 82bd 8128 31bd 5a25 56bd f836 1f3e
00000040: d6cf 59be 4bd2 b33e 0140 08bc b056 c03c
00000050: 081a d4be 9096 883c 5da8 193c 80ed 173c
00000060: fc05 7fbd 0bba 2b3e 873f 3b3c a95e 193c
00000070: 272c c8bd 63bc 9dbe 2002 943e b3fc d9bc
00000080: 8a3e dd3d c872 b93e 407c d8bd a515 ba3e
00000090: 1f52 563a 29a8 b6bd 04ee 573c ac70 a0bc
000000a0: e0e9 973b 1612 7fbd 1f5a 6d3c aeb1 9f3c
000000b0: a7ce cfbd 09e9 37bd 7352 81ba 80cc 773c
000000c0: 21aa 343b 47ce b7bc d971 70be cdea b63e
000000d0: 2a20 283e 8f67 95be a97c 573d 1aca 49bc
000000e0: 2456 b93c 25ec afb9 e4d6 d7be c0c5 59be
000000f0: 704f 023d 951a 313c e2cd 523d 6b34 083f
00000100: 8d74 08be 875b 8a3b b48a 253c 5be3 6dbc
00000110: b64d 80be fef4 21be 6545 0dbe ac86 8e3c
00000120: be92 abbe 5d93 c93c d18e e4bb eb21 58be
00000130: 8be8 283e ce41 12be 9854 253e afa5 fcbe
00000140: 97e0 333c febd 49be 6a89 ae3c 4ce3 043e
00000150: 37ea 693c 70e6 2a3d 0e15 43be 8493 bc3d
00000160: 9c4a 5e3e bcff c1bc 7734 9bba c012 8a3e
00000170: 8736 ee3a 34ff 83bd 7f24 193c 190b 1b3d
00000180: 7ba4 133c 1bfb df3b 0108 fabc 5453 d2be
00000190: 7ccd c9ba 696b e43b 96c9 d33c e715 a23c
000001a0: 68f4 163c be99 42bc 239f d53a a60d 3a3c
000001b0: 9fb1 053a aebe 0a3e dd36 523d 131c 553c
000001c0: f6db ef3b 2ede 053c 25cc 76bd 3fee 823b
000001d0: 604c bd3c 4944 bbbb e27e 98bb 1ffb 5f3f
000001e0: 35f5 9cbd ec2d 0e3e c29f 36be 942e f13b
000001f0: e1d2 0fbf 6ba3 2a3d 9348 5d3e 2294 5f3d
00000200: 325b 513d e259 603d 470e 7b3b 2e82 ef3c
00000210: 130b 083e 8393 69bb 3c02 533d a23c 173c
00000220: 7a4b b8bb a9e6 31bc 556a 11bf c0e3 41bf
00000230: 5561 a7bc f2af 2ebe 7760 9c3b bdec 8fbb
00000240: 3c5e 503c 6747 693e 9796 c23b 5934 f1be
00000250: 9739 32bd 6180 31be 8975 213e e711 99bc
00000260: 1483 97be 0da5 423e d388 18bd 4e88 8e3e
00000270: 860b cc3d c3e7 84bd 6252 6abd 1e0e d5bc
00000280: db53 083d 67f8 8b3f d150 063c 7a5b 43bd
00000290: 46ff 86bd 25c3 bbbd 06bf 3dbd b571 67bb
000002a0: 8117 903d e6af 28bc 2ed1 c33e f8d8 80be
000002b0: 18bb 4a3a e6bb bfbd bc61 a7be ab50 8d3d
000002c0: 50e2 bf3c ff32 5a3d f038 893e 1130 10bc
000002d0: 2144 6b3c dc77 eabe d9a4 1fbd bbac ae3e
000002e0: 561c 1e3e fd77 843e 7d29 d3bd 6604 a2be
000002f0: 4e0b ca3c 9dab f23e bb48 683c 1ed2 40be
00000300: f83d f4be e3cb c8bd ae45 a33c e816 b23b
00000310: 354c d13e cdfa 9f3d 9c97 b63d d38a 1d3c
00000320: 0c8d f93e 8eed 323f 0f5a 15be 1a8e e0bd
00000330: 71fb 4a3d 95be b0be 7656 ce3d f6fa 6e3c
00000340: 37f9 65be 9ef4 d3bb db09 0c3c ed63 2c3d
00000350: 199e b23d 712c 87bb a540 3abe 567f acbb
00000360: ee03 083e 83bf f23b 50c3 453c 59d2 7a3d
00000370: 5633 613e f11b afbe 7a76 79bc ac9b 233f
00000380: 24ca 633d 1876 99be fd64 96be e525 1c3e
00000390: bf74 bc3e 3b2f 20be ca1a 33bb 3238 9b3d
000003a0: 8a78 b6be 7f83 75be 84f3 02ba 7a39 b8bd
000003b0: efe3 c1be 200a ef3d 7ed7 92be 0bd6 09bf
000003c0: d2a0 b13e c16e 34be f5e5 19bd ebe5 6e3e
000003d0: 31ea e3be 2e51 273c bd94 63be 8352 a03f
000003e0: ecbc b9bd 2969 0d3c 3850 733e a645 d6be
000003f0: a926 c53c 7eab c43c 5bc1 963c 5f7c b239
0.05151076 -0.01769069 -0.23617557 -0.0093421815 0.032804113 -0.020555694 -0.081014834 -0.12968768
0.04732768 -0.27896413 -0.19595069 -0.23987395 -0.06350564 -0.04325152 -0.052281715 0.15548313
-0.2127069 0.35121378 -0.008316041 0.023478836 -0.4142611 0.016673356 0.00937852 0.009272933
-0.062261567 0.16770189 0.01142872 0.009360948 -0.097740464 -0.3080779 0.2890787 -0.026609754
0.10802944 0.36220384 -0.10570574 0.36344638 0.0008175689 -0.08918793 0.013179306 -0.019584976
0.0046360344 -0.062273107 0.014486819 0.019493904 -0.10146838 -0.044899974 -0.0009866491 0.01512444
0.0027567225 -0.022437228 -0.2348093 0.35726014 0.1641852 -0.2918057 0.05260912 -0.012316251
0.022624083 -0.00033554542 -0.42156136 -0.21266842 0.03181404 0.01080956 0.051465876 0.53204983
-0.1332571 0.0042223367 0.01010387 -0.014519538 -0.2505929 -0.15816113 -0.13796003 0.0173982
-0.33510393 0.024606401 -0.006975033 -0.21106689 0.16494958 -0.14282915 0.16145551 -0.49345157
0.010978839 -0.19701383 0.021305759 0.12977332 0.014277033 0.04172367 -0.19051 0.09207824
0.21708149 -0.023681514 -0.0011841197 0.2696743 0.0018174209 -0.064451605 0.00934708 0.03785238
0.009011383 0.006835354 -0.030521395 -0.410792 -0.0015396322 0.006970812 0.02585296 0.019785834
0.009213544 -0.011877475 0.0016298037 0.011355793 0.0005100015 0.13549301 0.051321853 0.013007182
0.0073199226 0.008170648 -0.06025328 0.0039956863 0.023107708 -0.0057149273 -0.0046537975 0.87492555
-0.07663957 0.13884705 -0.1783438 0.007360289 -0.5618115 0.041659754 0.21609716 0.05458463
0.05111236 0.05477322 0.003830807 0.02923688 0.13285474 -0.0035640902 0.051515803 0.009230765
-0.005624232 -0.010858216 -0.56802875 -0.75738144 -0.020432154 -0.17059305 0.0047722417 -0.004392235
0.01271778 0.22781144 0.005938362 -0.4711025 -0.043511953 -0.17334129 0.15767492 -0.018685294
-0.29592192 0.19008274 -0.03723986 0.27838367 0.099631354 -0.064895175 -0.057207473 -0.026007708
0.033283096 1.0935181 0.008197979 -0.04769466 -0.06591658 -0.0916808 -0.046324752 -0.0035315577
0.07035733 -0.010295844 0.3824553 -0.25165534 0.00077335676 -0.09362011 -0.32691753 0.06900152
0.023423344 0.05327129 0.26801252 -0.008800522 0.014359505 -0.4579457 -0.03897557 0.34116158
0.15440497 0.25872794 -0.10310648 -0.3164398 0.024663594 0.47396556 0.014177497 -0.18830153
-0.47703528 -0.09804513 0.019930687 0.0054348595 0.40878454 0.07811508 0.08915636 0.009615618
0.48740423 0.6989373 -0.14585136 -0.10964604 0.0495562 -0.34520403 0.10075085 0.014586201
-0.22458349 -0.0064683696 0.008547272 0.042087484 0.08721561 -0.004125171 -0.18188722 -0.005264203
0.13282749 0.007408084 0.012070492 0.06123576 0.2199224 -0.34201005 -0.015226001 0.6390941
0.0556127 -0.2997291 -0.29373923 0.1524883 0.3680782 -0.15643017 -0.00273292 0.07579078
-0.3563884 -0.23975943 -0.0004995393 -0.08995338 -0.37869212 0.11671853 -0.28680032 -0.5384223
0.3469301 -0.17620374 -0.03757282 0.23329894 -0.4451461 0.010212226 -0.22224708 1.252518
-0.09069237 0.008631029 0.2376107 -0.41850013 0.024066286 0.024007555 0.018402746 0.0003404347
