notebook/result/weights/sac_snapbot/episode_200.pth (torch, 355440 bytes, 8 tensors)

parameters.mlp_0_b f4 [256]
0	0x3e7b706e	0.24554607
1	0xbc604d99	-0.013690376
2	0xbc5229bb	-0.012827332
3	0xbca54add	-0.0201773
4	0x3e6646bf	0.22487925
5	0xbc11bfce	-0.008895827
6	0xbd467454	-0.048450783
7	0xbe05b3c0	-0.1305685
8	0xbe240791	-0.16018511
9	0xbc9ce5c0	-0.019152522
10	0xbde20ef6	-0.1103801
11	0x3d3fd881	0.046837334
12	0x3d9fc863	0.078018926
13	0x3e31ffb4	0.17382699
14	0xbdbbac18	-0.09163684
15	0x3ee21705	0.44158188
16	0x3dc6afac	0.097014755
17	0xbd99c255	-0.07507769
18	0xbd77a9db	-0.06046472
19	0xbb94403b	-0.0045242584
20	0x3dece3bf	0.115668766
21	0x3bcfed0c	0.006345397
22	0xbd2835f3	-0.041067075
23	0x3dfe7993	0.12425532
24	0xba30babe	-0.0006741694
25	0xba50bbab	-0.0007962535
26	0xbcce9eaa	-0.025222141
27	0xbd1bcaf6	-0.038035356
28	0x3d3e9094	0.0465246
29	0xbdf6460c	-0.12025079
30	0x3b731971	0.0037094022
31	0xbdcebfd2	-0.100951806
32	0xbe1108a7	-0.14163457
33	0x3e438d9c	0.19096988
34	0xbd0f3d7a	-0.034970738
35	0x3cc1aeb7	0.02364288
36	0xbdbfcc98	-0.09365195
37	0x3cf8b1d0	0.030358225
38	0xbdb99248	-0.09061104
39	0xbd72d06d	-0.0592808
40	0x3d4324ef	0.047642644
41	0xbe16635f	-0.14686345
42	0x3e7ea37e	0.24867055
43	0xbdaa81fc	-0.08325574
44	0x3d389ed9	0.045073364
45	0x3e2bc257	0.16773354
46	0xbd2f8f28	-0.042861134
47	0xbdd21bc1	-0.102592
48	0xbe0f25b6	-0.1397923
49	0x3e2cd86e	0.16879436
50	0xbd718486	-0.058964275
51	0xbc2b426d	-0.010452849
52	0xbccc3d0d	-0.024931455
53	0xbd3ce508	-0.04611686
54	0x3e950798	0.29107356
55	0xbd737696	-0.059439264
56	0xbca880c2	-0.020569209
57	0xbe48ed7d	-0.19621845
58	0xbcd974fc	-0.02654504
59	0xbd857fb0	-0.06518495
60	0xbd21cdc2	-0.039502867
61	0x3dfdead3	0.12398305
62	0x3d979722	0.07401873
63	0x3dd22b25	0.102621354
64	0xbd4617a3	-0.048362385
65	0xbe94785c	-0.28998077
66	0xbde70460	-0.11280131
67	0x3da67992	0.081286564
68	0x3cff631e	0.031175192
69	0xbe3b8314	-0.18311721
70	0x3e4da997	0.20084225
71	0xbe4962c9	-0.1966659
72	0xbe6b6b0d	-0.22990055
73	0x3d56e91b	0.0524684
74	0xbdf09a1c	-0.11748144
75	0xbd2dbe3c	-0.04241775
76	0x3e002cfe	0.12517163
77	0xbe2d39fe	-0.16916654
78	0x3d42c890	0.047554553
79	0xbe1595da	-0.14607945
80	0xbe399b80	-0.18125725
81	0xbd79b273	-0.060961198
82	0xbb9e27fb	-0.0048265434
83	0xbc601d1b	-0.013678814
84	0x3e7d7cf4	0.24754697
85	0x3d9c4750	0.07630789
86	0xbe128c07	-0.14311229
87	0xbe04e321	-0.12977268
88	0x3e0cdb8c	0.13755625
89	0x3e2c2eac	0.16814679
90	0xbd31bb1b	-0.04339133
91	0x3e1855ac	0.14876431
92	0xbd4176f9	-0.0472326
93	0x3e1e2a2e	0.15445778
94	0x3bf5eac2	0.007504792
95	0xbea504ed	-0.3223032
96	0x3cde36d3	0.027125752
97	0xbd6069c5	-0.05478837
98	0xbb9dd71e	-0.0048169037
99	0x3da03f32	0.078245535
100	0x3e1d2b9b	0.15348665
101	0x3e136e47	0.14397536
102	0x3dbd3fa3	0.09240653
103	0xbccf32d3	-0.02529279
104	0x3da912cf	0.082555406
105	0xbccacefa	-0.024756897
106	0x3c76ac58	0.015055738
107	0x3e2fbc2b	0.17161624
108	0xbda10702	-0.07862665
109	0xbd722245	-0.059114713
110	0xbdc8bb01	-0.09801293
111	0xbcc0eda9	-0.023550825
112	0x3d30655e	0.04306542
113	0xbdd9fb2c	-0.1064361
114	0xbdcbbd2e	-0.099481925
115	0xbd659562	-0.056050666
116	0x3d94eff5	0.07272331
117	0x3d1767a1	0.036964063
118	0x3e3ef3f9	0.18647756
119	0x3b5a12fe	0.003327548
120	0x3e0175ff	0.12642668
121	0xbdf176a8	-0.1179021
122	0xbcb3e940	-0.021961808
123	0x3e64fa5d	0.22361131
124	0x3c470878	0.012148015
125	0x3db277d5	0.087142624
126	0xbdf3144c	-0.11869106
127	0x3d1a9e00	0.037748337
128	0x3dd3a5f8	0.103343904
129	0x3e4690a5	0.19391115
130	0xbddb9f05	-0.1072369
131	0x3dbf01eb	0.09326538
132	0xbe15ebb0	-0.14640689
133	0xbe31fe97	-0.17382275
134	0xba8e8848	-0.0010874355
135	0x3dc17154	0.09445444
136	0x3dd9abd2	0.10628475
137	0x3d07f576	0.033193074
138	0x3e09abc3	0.13444428
139	0x3e288024	0.16455132
140	0x3e0650d2	0.13116768
141	0x3dfec32e	0.12439571
142	0xbe42ecad	-0.19035597
143	0x3df672a3	0.12033584
144	0x3daeeeb1	0.085416205
145	0x3e4b9d24	0.19884163
146	0x3e022c49	0.12712206
147	0xbdc05fdb	-0.09393283
148	0xbea75c19	-0.32687452
149	0xbc82ce20	-0.015967429
150	0x3c562173	0.013069498
151	0xbded70d3	-0.11593785
152	0xbdec7236	-0.115452215
153	0xbe39affa	-0.18133536
154	0x3d804f75	0.06265155
155	0xbddc437d	-0.1075506
156	0xbdc87632	-0.09788169
157	0xbd00d58e	-0.03145366
158	0xbcd146cb	-0.025546452
159	0xbe085bdf	-0.13316296
160	0x3e0fa0e4	0.14026219
161	0xbdf9f27c	-0.12204453
162	0xbe0bd4db	-0.13655417
163	0x3d745759	0.059653614
164	0x3dcf1fc6	0.10113482
165	0x3c8835d6	0.016627233
166	0x3e45ddbb	0.19322865
167	0x3dea4424	0.11438778
168	0xbe09b584	-0.13448149
169	0x3bdacb2a	0.006677051
170	0xbd9698e6	-0.07353382
171	0x3d27b1af	0.040940937
172	0x3e22563d	0.1585321
173	0x3dc97299	0.09836311
174	0x3db57923	0.088609956
175	0x3d64121e	0.05568134
176	0x39e525b4	0.00043706375
177	0x3eb34026	0.3500988
178	0xbdecac75	-0.11556331
179	0xbdaf93b6	-0.085730955
180	0x3db19b66	0.08672218
181	0xbc36a0a2	-0.011146696
182	0xbdc470cc	-0.09591827
183	0xbdbbc6fb	-0.09168812
184	0xbbfd0698	-0.0077217333
185	0x3d8d7c84	0.06908515
186	0xbd27734a	-0.040881433
187	0xbd964d9b	-0.07339021
188	0xbd8d8f21	-0.06912065
189	0x3e7e2d1c	0.24821895
190	0xbce3291d	-0.027729565
191	0xbd8f91ff	-0.070102684
192	0xbccb4e04	-0.024817474
193	0x3dc48313	0.09595313
194	0x3e6902ed	0.22755022
195	0x3c090107	0.008362061
196	0xbd23e974	-0.04001756
197	0x3d8c9e9d	0.068661906
198	0xbd68c035	-0.056823928
199	0x3e201c7a	0.15635863
200	0x3e00a204	0.12561804
201	0xbe309283	-0.1724339
202	0xbc3a4ec6	-0.01137132
203	0xbda3ca83	-0.079976104
204	0x3db33fa7	0.08752375
205	0x3ca5f441	0.02025807
206	0x3d39d106	0.045365356
207	0xbd24fcdb	-0.040280204
208	0xbd796bce	-0.060893826
209	0x3cfc1d92	0.030775819
210	0xbd45da42	-0.04830385
211	0xbc2e0b13	-0.0106227575
212	0x3e29f9a3	0.16599135
213	0xbd83c1af	-0.064334266
214	0xbd4722f6	-0.048617326
215	0x3e084048	0.13305771
216	0x3d6cd9ee	0.05782502
217	0x3e24101b	0.16021769
218	0xbaebd2ba	-0.0017991879
219	0xbdd90d88	-0.10598284
220	0xbdcf0135	-0.10107652
221	0xbd8aeea4	-0.06783798
222	0x3d573bc3	0.052547228
223	0xbdb24d3c	-0.087061375
224	0xbdcc7da1	-0.09984899
225	0xbd35915d	-0.044328082
226	0x3daeebad	0.08541045
227	0xbe001256	-0.12506995
228	0xbdafca64	-0.08583525
229	0xbe26a817	-0.16275059
230	0x3d3dbe4c	0.04632406
231	0x3ec8798e	0.3915524
232	0xbc187794	-0.009305853
233	0x3e30262a	0.17202058
234	0x3dc27a2d	0.094959594
235	0xbd812891	-0.063065656
236	0x3e0342af	0.12818407
237	0xbaf9e224	-0.0019064588
238	0x3d4fdc02	0.050746925
239	0x3d8c865c	0.068615645
240	0x3e869784	0.26287472
241	0x3e99558e	0.29948086
242	0xbe4bcb08	-0.19901669
243	0xbd445922	-0.047936566
244	0x3d8a375a	0.06748839
245	0x3dbfc216	0.09363191
246	0xbcb6ec46	-0.02232946
247	0x3d49aaba	0.049235083
248	0x3d7ebeb4	0.062193587
249	0xbdd4ffa1	-0.1040032
250	0x3e48dd49	0.19615664
251	0x3cd4ecfa	0.025991905
252	0x3d922368	0.071356595
253	0x3e05e71c	0.13076442
254	0xbd2d545d	-0.042316783
255	0x3d680184	0.05664207

parameters.mlp_0_w f4 [256, 70]
0	0xbd562310	-0.052279532
1	0xbe1e7945	-0.15475948
2	0xbef63f8f	-0.48095366
3	0xbeb92270	-0.36159086
4	0x3e4100d1	0.18847968
5	0xbd4e724f	-0.050401982
6	0xbe3c71c8	-0.18402779
7	0xbd0acc5b	-0.033886295
8	0x3e009002	0.12554935
9	0x3bd64c08	0.0065398254
10	0xbe8ae55b	-0.2712811
11	0xbea2d7d7	-0.31805298
12	0x3e812c11	0.25228932
13	0xbdbdbd14	-0.092645794
14	0xbdc07591	-0.09397424
15	0xbdaea2e9	-0.085271664
16	0x3da53bea	0.08068068
17	0xbd3669a7	-0.04453435
18	0x3d575118	0.05256757
19	0x3d61642f	0.055027183
20	0x3dd53e1f	0.10412239
21	0xbed25561	-0.41080764
22	0x3df9a38f	0.121893995
23	0x3eb4dd0e	0.353249
24	0x3e2d6c23	0.16935782
25	0x3df090b1	0.11746348
26	0x3ea7bfa0	0.32763386
27	0xbd5547bc	-0.052070364
28	0xbcdcb988	-0.026943937
29	0x3d6776b3	0.056509685
30	0x3be851b4	0.007089818
31	0x3dcef5fc	0.101055115
32	0x3c11545b	0.00887021
33	0x3db2ffb0	0.08740175
34	0xbc1ca16a	-0.0095599685
35	0xbde9e9ba	-0.11421533
36	0xbdf4d623	-0.11954906
37	0xbe5b5bbb	-0.21421711
38	0xbe807b35	-0.25094
39	0x3d8d1004	0.0688782
40	0xbd698305	-0.057009716
41	0xbce1db2c	-0.02757033
42	0xbcdd9f57	-0.027053518
43	0x3e243374	0.16035253
44	0x3c162a6c	0.009165388
45	0xbe113299	-0.14179458
46	0xbe1207ef	-0.14260839
47	0xbcce8e7a	-0.025214422
48	0xbd9582f4	-0.07300368
49	0x3cd62f51	0.02614561
50	0x3e23610e	0.15954992
51	0x3da9a177	0.0828275
52	0xbe232a3e	-0.15934083
53	0xbe2ee235	-0.17078479
54	0x3e287dbb	0.16454212
55	0x3d8887e4	0.06666544
56	0xbe8cae15	-0.27476564
57	0x3e741224	0.23835045
58	0x3d589b17	0.05288228
59	0x3e283ba7	0.16429006
60	0x3dd096de	0.10185026
61	0x3e8a81c1	0.2705212
62	0x3a539242	0.00080708053
63	0xbd6bba19	-0.057550523
64	0x3d82fc77	0.0639581
65	0xbd81aeea	-0.0633219
66	0x3e239820	0.15976
67	0x3df09af9	0.11748309
68	0x3dad252a	0.08454354
69	0x3d1755d8	0.0369471
70	0xbe9f79e4	-0.31147683
71	0xbc9a29c0	-0.018818736
72	0xbdb1551f	-0.08658814
73	0xbe084783	-0.1330853
74	0xbd5a0d09	-0.053235088
75	0xbec82b31	-0.39095452
76	0xbdc6310b	-0.09677323
77	0xbd029495	-0.03187998
78	0xbe30d544	-0.17268854
79	0xbedd4b99	-0.4322174
80	0xbe12331c	-0.14277309
81	0xbe31aa96	-0.1735023
82	0x3d8f6e38	0.070034444
83	0xbe8cc0c4	-0.27490819
84	0xbcaa422c	-0.020783506
85	0xbe7fb75e	-0.24972293
86	0xb99fb423	-0.00030461056
87	0xbe658a0d	-0.22415943
88	0xbe665b1d	-0.22495694
89	0x3e663fe5	0.22485311
90	0xbbccfd9e	-0.0062558195
91	0xbe15fb49	-0.14646639
92	0x3e37c554	0.17946368
93	0x3d236cfb	0.039898854
94	0xbdab723e	-0.08371399
95	0xbd7ef934	-0.062249377
96	0xbc051734	-0.008123208
97	0xbd9a7f60	-0.07543826
98	0x3da3322e	0.079685554
99	0xbe10da19	-0.14145698
100	0x3e28a46b	0.1646897
101	0xbe24a0d3	-0.16076975
102	0xbde00f0b	-0.10940369
103	0x3dd13297	0.10214727
104	0x3dac58a5	0.08415345
105	0xbe100682	-0.14064983
106	0x3b2d4265	0.002643728
107	0x3c1941b7	0.009354047
108	0xbd9de801	-0.07710267
109	0xbdd5a04e	-0.10430966
110	0xbe9a8485	-0.3017923
111	0xbda467d0	-0.08027613
112	0xbd3b4276	-0.04571768
113	0xbbb820bf	-0.005619138
114	0xbe41a0bc	-0.18908972
115	0xbc722372	-0.014778959
116	0xbddfee50	-0.109341264
117	0x3d5e81d7	0.054323044
118	0xbe698046	-0.22802839
119	0xbdd662e8	-0.104680836
120	0x3debc96a	0.11513026
121	0xbe010db0	-0.12602878
122	0xbe15b54c	-0.1461994
123	0xbddf955c	-0.1091716
124	0x3e1c8283	0.15284161
125	0xbe1c4294	-0.15259773
126	0x3d05d58f	0.03267437
127	0x3d13f51c	0.036122426
128	0x3d9fd97b	0.07805153
129	0xbe60d635	-0.21956713
130	0xbe6ef94c	-0.23337287
131	0x3d7413ce	0.0595892
132	0xbd70ef1c	-0.058821782
133	0xbd0e301d	-0.034713853
134	0xbe176c3d	-0.14787383
135	0x3cb49c3f	0.02204716
136	0xbe0a7905	-0.13522728
137	0xbe3df0df	-0.18548916
138	0xbcb050cb	-0.0215229
139	0x3e29778a	0.16549507
140	0x3d5247b7	0.051337924
141	0x3e9472fa	0.2899397
142	0x3e08251e	0.13295409
143	0x3ea8a87d	0.32941046
144	0xbe9a08ac	-0.3008474
145	0x3e0c848c	0.13722438
146	0x3da7c13c	0.081911534
147	0x3e49ed0d	0.19719334
148	0x3e87a2b8	0.26491332
149	0x3cc043c4	0.023469813
150	0x3eb42242	0.35182387
151	0x3ed1626d	0.40895405
152	0xbecf9c77	-0.4054906
153	0xbe11b40e	-0.14228842
154	0x3dc262f0	0.09491527
155	0xbe1218c4	-0.1426726
156	0xbd8026a0	-0.06257367
157	0xbdab8ced	-0.08376489
158	0x3e609f4b	0.21935765
159	0x3d9851ad	0.074374534
160	0xbd7f902b	-0.06239335
161	0x3ee8a802	0.4544068
162	0xbe869e19	-0.26292494
163	0xbe37a332	-0.17933348
164	0xbce1951b	-0.02753692
165	0x3e300b33	0.17191772
166	0xbeef8d05	-0.46787277
167	0xbde62b0c	-0.11238679
168	0xbd965e79	-0.07342238
169	0xbe14dc51	-0.14537169
170	0xbeae579d	-0.3405122
171	0xbe588f7d	-0.21148486
172	0xbe2cd7c7	-0.16879188
173	0xbd10a1f5	-0.035310704
174	0xbc72c8a9	-0.014818349
175	0xbe2002af	-0.15626024
176	0x3e8d7882	0.27631003
177	0xbdcd6d11	-0.100305684
178	0x3e262450	0.1622479
179	0xbd9c7ae6	-0.076406285
180	0x3e3cfded	0.1845624
181	0xbe22ea1e	-0.15909621
182	0x3e46cf20	0.1941495
183	0x3c66052a	0.014039317
184	0xbda01e17	-0.07818239
185	0xbe2d96df	-0.16952084
186	0x3e516558	0.20448816
187	0xbe3d3eaa	-0.18480936
188	0xbdc90e2e	-0.09817158
189	0x3de021af	0.10943925
190	0x3e540df9	0.20708455
191	0xbe0ddece	-0.13854524
192	0xbd6187aa	-0.05506102
193	0x3e8a4bd9	0.27010992
194	0x3d92995b	0.071581565
195	0xbe13ac52	-0.14421204
196	0x3e24a32a	0.16077867
197	0xbe9f715a	-0.31141168
198	0xbe7657de	-0.24056956
199	0xbe000551	-0.12502028
200	0xbb7a6b03	-0.0038210757
201	0xbef97f79	-0.48730066
202	0xbdbf2b16	-0.0933439
203	0xbdfa7463	-0.1222923
204	0xbd47f7d8	-0.048820347
205	0xbea61cc2	-0.32443815
206	0xbe90d5fd	-0.2828826
207	0xbe91fb38	-0.28511977
208	0x3e324b83	0.17411618
209	0x3e069662	0.13143304
210	0xbd2a2ee6	-0.041548632
211	0x3cfa16bf	0.030528424
212	0xbcd91f1e	-0.026504096
213	0xbe23187e	-0.15927312
214	0xbe3a47d4	-0.18191463
215	0xbe80a205	-0.2512361
216	0xbd02e2ad	-0.031954456
217	0x3e8b3a50	0.27192926
218	0xbea7e9ec	-0.32795656
219	0x3d687d37	0.05676004
220	0x3da43823	0.0801852
221	0x3edc5f9e	0.430417
222	0xbe69ede5	-0.22844656
223	0xbeafa4c5	-0.34305397
224	0x3da697fb	0.08134457
225	0xbe7a99e8	-0.24472773
226	0x3c967c0b	0.018369695
227	0xbdaf3692	-0.0855533
228	0x3d9b2507	0.07575422
229	0x3e02f467	0.12788545
230	0x3b01c4d8	0.0019801166
231	0x3e097b97	0.13426052
232	0x3d3052b1	0.04304761
233	0x3dd35367	0.10318642
234	0xbd0ee15d	-0.034882892
235	0x3d90fe08	0.070797026
236	0xbf07dd44	-0.53072
237	0xbd810ac4	-0.063008815
238	0x3d741492	0.05958993
239	0xbc299c6f	-0.010352238
240	0x3c555ee9	0.013023117
241	0xbe39b9fd	-0.18137355
242	0xbe1e2f66	-0.15447769
243	0xbe5d6bcb	-0.21623151
244	0xbe6b5ccc	-0.22984618
245	0x39528326	0.00020076017
246	0x3cc3687d	0.023853535
247	0xbe29b108	-0.16571438
248	0xbe72f309	-0.23725523
249	0xbcf65271	-0.030068608
250	0xbe1b68c7	-0.15176688
251	0xbd5e1d41	-0.054227117
252	0x3e8c132f	0.27358386
253	0x3d50ff64	0.05102481
254	0xbd2cbe25	-0.042173523
255	0xbca88269	-0.020569997

parameters.mlp_1_b f4 [256]
0	0x3d814369	0.063116856
1	0x3e0c11c4	0.13678652
2	0x3e0abfd8	0.13549745
3	0x3ccd9b41	0.025098445
4	0x3cd29a4a	0.025708336
5	0x3e884695	0.2661635
6	0x3da63c3f	0.0811696
7	0x3de8bef3	0.11364546
8	0x3cc83ad3	0.024442112
9	0x3dcf8b43	0.10133984
10	0x3d6d978a	0.058005847
11	0x3e14ef58	0.14544427
12	0xbe0afd18	-0.1357311
13	0x3d674a2d	0.056467224
14	0x3e86f719	0.26360396
15	0x3db9eef2	0.09078778
16	0x3ded8fdc	0.115997046
17	0x3cc13ba3	0.023588007
18	0xbbc8f6e4	-0.0061329473
19	0x3c898b31	0.016790004
20	0x3d91d215	0.07120148
21	0x3c79e9d5	0.015253504
22	0x3d4e4a26	0.050363682
23	0xbcd8046e	-0.0263693
24	0x3dbe0016	0.0927736
25	0x3d411c38	0.047146052
26	0xbc92d4e6	-0.017923784
27	0xbc82c164	-0.015961356
28	0x3d2c9bb7	0.04214069
29	0x3da79654	0.0818297
30	0x3e224028	0.15844786
31	0x3d211885	0.039330024
32	0xbd2a179a	-0.041526414
33	0x3e38b75d	0.18038698
34	0x3d3eed7e	0.04661321
35	0x3dd2bab1	0.10289515
36	0xbc472a26	-0.012156045
37	0xbbe4fb12	-0.0069879377
38	0x3e1475b2	0.14498022
39	0xbb98d64f	-0.0046642195
40	0xbc4e6072	-0.012596237
41	0x3df9a4e3	0.12189653
42	0xbc98f83d	-0.018673057
43	0x3d9ebd72	0.077509776
44	0x3d88d15a	0.06680556
45	0x3e72e32f	0.23719476
46	0xbc8dc349	-0.017305033
47	0xbbd6e4ee	-0.0065580523
48	0xbc6dade2	-0.014506789
49	0x3d904b8a	0.07045658
50	0x3dbe4a2d	0.09291492
51	0x3e2bb6db	0.16768973
52	0x3d597e25	0.053098816
53	0x3d3fe45c	0.04684864
54	0x3d0825ae	0.03323906
55	0xbc44d64b	-0.012013982
56	0xbc86270c	-0.01637604
57	0xbb93142b	-0.004488488
58	0x3e73da7a	0.23813811
59	0x3da22427	0.07917052
60	0xbb2704df	-0.002548508
61	0xbc6ed4f9	-0.014577144
62	0x3e47bcbb	0.19505589
63	0x3e28bcf1	0.16478325
64	0x3d7dcb75	0.06196161
65	0x3d7fd361	0.062457446
66	0xbc92ad5b	-0.017904928
67	0xbb83e516	-0.004025112
68	0x3e4c739a	0.19965973
69	0x3def60ca	0.11688383
70	0x3d8cff46	0.06884627
71	0x36cc830d	6.09493e-06
72	0x3d9cfde4	0.07665613
73	0x3e8833bb	0.26601967
74	0xbc83c471	-0.016084881
75	0x3d0365df	0.032079574
76	0xbc41f2a7	-0.011837638
77	0x3eb3d9cc	0.35127103
78	0xbd3254cc	-0.0435379
79	0xbcfb4168	-0.030670837
80	0x3d2f7aa0	0.042841554
81	0x3d8b76c9	0.06809766
82	0xbc3fb843	-0.011701646
83	0xbcf03f56	-0.029327076
84	0xbbb5ad70	-0.005544357
85	0x3d88f042	0.066864505
86	0x3e7c6122	0.24646428
87	0x3d689f0d	0.056792308
88	0x3d56b6f4	0.05242057
89	0xbc14599c	-0.009054568
90	0x3dfddae6	0.12395267
91	0x3dc9e731	0.098585494
92	0xbc384f58	-0.011249386
93	0x3d9bf178	0.07614416
94	0x3ddd5ae0	0.10808349
95	0x3e2ddad1	0.16978003
96	0xbcc0f859	-0.023555921
97	0xbc6dd43b	-0.014515932
98	0x3d3ffdcc	0.0468729
99	0x3d0b5fea	0.034027018
100	0xbc846f8e	-0.016166475
101	0xbcd5f1c0	-0.026116252
102	0xbbcc2ed4	-0.0062311683
103	0xbc8ae5b3	-0.016955232
104	0xbc5b126d	-0.013371092
105	0x3d4e9d8a	0.05044321
106	0xbc97eba8	-0.018544987
107	0xbd0e8540	-0.034795046
108	0xbc3b0eac	-0.011417072
109	0x3d9922dc	0.07477352
110	0x3cc4007c	0.023926012
111	0xbbd16056	-0.006389658
112	0x3e923523	0.28556165
113	0x3d92943c	0.0715718
114	0x3e7c468d	0.24636288
115	0x3d461580	0.048360348
116	0xbca01910	-0.0195432
117	0xbc91e81e	-0.017810877
118	0xbc73446f	-0.014847859
119	0x3c9bbbef	0.019010512
120	0x3eb190a4	0.34680665
121	0x3ddcbd43	0.10778286
122	0x3d54f07a	0.05198715
123	0xbbd6eb3c	-0.006558804
124	0x3eaf6165	0.34253994
125	0x3c3825e4	0.011239503
126	0x3e072c0c	0.13200396
127	0xbd1717e6	-0.036888026
128	0x3deddd8b	0.116145216
129	0x3df30d62	0.11867787
130	0x3d4a566d	0.04939883
131	0x3cfd6ee5	0.030936668
132	0x3da6b88c	0.08140668
133	0xbba92f92	-0.0051631415
134	0x3d77f396	0.060535036
135	0xbcef7b04	-0.029233463
136	0xbc89bac4	-0.01681269
137	0xbbbea9b1	-0.0058185686
138	0xbd2f5511	-0.042805735
139	0x3dc56d52	0.09639992
140	0xbcc986d4	-0.024600424
141	0x3db2f3f8	0.087379396
142	0xbc46dc22	-0.012137445
143	0xbc634a55	-0.013872703
144	0xbcf5ef90	-0.030021459
145	0x3d981186	0.07425217
146	0xbcc17d0d	-0.0236192
147	0x3e4d1928	0.20029128
148	0xbcaecf46	-0.02133907
149	0x3e255e6f	0.16149305
150	0x3e28d922	0.1648908
151	0xbc9de663	-0.019274896
152	0x3d425328	0.047442585
153	0x3e757a17	0.23972355
154	0x3d36aa91	0.04459626
155	0x3e2bede3	0.16789965
156	0x3db2176a	0.08695872
157	0x3db9228f	0.09039795
158	0x3da4e178	0.08050817
159	0x3dabbff6	0.08386223
160	0x3d834b1a	0.06410809
161	0x3ea2133e	0.31655306
162	0xbcb8c38c	-0.022554182
163	0x3cdbe052	0.026840363
164	0x3e36aed8	0.17840135
165	0x3c8f8816	0.017520946
166	0x3cec3803	0.028835302
167	0xbc864443	-0.016389972
168	0x3d681065	0.05665626
169	0xbc69fc78	-0.014281385
170	0x3b8d7623	0.0043170615
171	0x3d9256a6	0.07145433
172	0xbc8a6bf9	-0.016897188
173	0x3e16a900	0.14712906
174	0x3da522d4	0.080632836
175	0x3d226c2f	0.039653953
176	0x3d77bc0f	0.06048208
177	0x3ca0f000	0.01964569
178	0x3e5ba080	0.21447945
179	0xbc110141	-0.008850397
180	0xbc5a6d93	-0.013331789
181	0x3db7a4ed	0.08967004
182	0x3d33ab01	0.043864254
183	0xbb8311d3	-0.0039999275
184	0x3d1312dc	0.035906658
185	0x3dd2df88	0.102965415
186	0x3de718a8	0.11284
187	0x3e2539fa	0.16135398
188	0x3c90f356	0.017694157
189	0xbd15a488	-0.036533862
190	0xbcc974a4	-0.024591751
191	0x3f01c900	0.50697327
192	0x3cc16f23	0.023612564
193	0x3d91e01b	0.07122823
194	0xbbb70abd	-0.005585997
195	0x3d679d57	0.056546535
196	0x3dbec465	0.09314803
197	0x3d192933	0.037392806
198	0x3e2cbd58	0.16869104
199	0xbca606ee	-0.020266976
200	0x3dc6703d	0.096893765
201	0x3e0cf5c0	0.13765621
202	0xbd5e5459	-0.05427966
203	0x3d55a8c6	0.052162908
204	0x3d888a2c	0.06666979
205	0x3d79f8ce	0.061028294
206	0xbe001a5d	-0.12510057
207	0xbc8d8461	-0.017275037
208	0xbd153896	-0.036430918
209	0xbc68230f	-0.014168515
210	0xbcc8b82a	-0.024501879
211	0x3d8114af	0.06302773
212	0x3cbaea1e	0.022816714
213	0x3dbc862b	0.09205278
214	0x3daf5f7c	0.08563134
215	0xbca3920b	-0.0199671
216	0x3d922dce	0.07137643
217	0xbb52526c	-0.0032092584
218	0x3d1fbb10	0.038996756
219	0xbcc559f2	-0.02409074
220	0x3e1b1e2d	0.1514823
221	0x3e683474	0.2267626
222	0xbc86ea05	-0.016469011
223	0x3d64b5f6	0.055837594
224	0x3d250967	0.04029217
225	0x3c21b3ec	0.009869557
226	0x3da4469c	0.0802128
227	0x3d817f65	0.06323127
228	0x3cd0d461	0.025491895
229	0x3d1778e8	0.03698054
230	0xbc5b2dc4	-0.013377611
231	0x3d91b05d	0.07113717
232	0x3c89368a	0.016749639
233	0x3ccc3929	0.0249296
234	0xbd3d2584	-0.046178356
235	0xbc823b44	-0.0158974
236	0x3de0a887	0.10969644
237	0xbd9da68b	-0.07697781
238	0x3b2fafe0	0.002680771
239	0xbc773eac	-0.015090626
240	0x3e830603	0.25590524
241	0x3e25a7d2	0.161773
242	0x3bc93b4b	0.0061411015
243	0x3e3583b8	0.17726028
244	0xbb7ec682	-0.0038875644
245	0xbd7a4fb0	-0.061111152
246	0x3e255c66	0.16148528
247	0x3e310ddf	0.17290448
248	0x3cafc2e6	0.02145524
249	0xbc2801ce	-0.0102543365
250	0x3dd6063e	0.10450409
251	0x3e2ab298	0.1666969
252	0xbcb1ba53	-0.021695292
253	0xbc3a5707	-0.011373288
254	0xbce9e1f6	-0.02855013
255	0xbc5c7b03	-0.013457063

parameters.mlp_1_w f4 [256, 256]
0	0xbdca41c2	-0.098758236
1	0x3c9a9cc5	0.018873582
2	0x3c677e8a	0.01412929
3	0xbc3effd8	-0.011657678
4	0x3d8c8297	0.068608455
5	0xbc27f78f	-0.010251894
6	0xbd081758	-0.033225387
7	0xbcff14bb	-0.031137815
8	0xbd6d7755	-0.057975132
9	0xbc7c2374	-0.015389312
10	0x3d17a68a	0.03702406
11	0xbd1a60f9	-0.037690137
12	0xbdb5dc14	-0.08879867
13	0x3be4fd60	0.0069882125
14	0x3caba47e	0.02095246
15	0x3c9b0103	0.01892138
16	0x3c929e3a	0.017897714
17	0xbcaccb55	-0.02109305
18	0x3b6bd781	0.0035986605
19	0xbcfeb92a	-0.031094152
20	0x3b61ebb9	0.0034472777
21	0xbc1cd129	-0.009571352
22	0x3b55cf7b	0.0032624889
23	0xbd99a029	-0.07501251
24	0xbd0f7bb1	-0.03503007
25	0xbd978ba2	-0.0739968
26	0xbbb6fe62	-0.005584524
27	0xbcd4b8f1	-0.025967093
28	0xbc8b7b43	-0.01702655
29	0xbd00bb8b	-0.031428855
30	0x3c2e8450	0.010651663
31	0xbcf27ff0	-0.029602021
32	0xbbb9cd19	-0.0056702015
33	0xbcf93684	-0.030421503
34	0x3ce59564	0.028025337
35	0xba0105b5	-0.000492181
36	0xbc5df41e	-0.013546972
37	0xbd855645	-0.06510595
38	0xbc260b32	-0.010134505
39	0xbb551d0c	-0.0032518534
40	0xbca3e9bd	-0.020008916
41	0xbc1ffecc	-0.009765338
42	0x39afbe70	0.00033520488
43	0xbcd0214b	-0.0254065
44	0xbd160430	-0.036625087
45	0x3a775d3d	0.0009436196
46	0x3cc8fec3	0.024535542
47	0x3cc8ef72	0.024528239
48	0xbc064d37	-0.00819712
49	0xbd1d95d0	-0.03847295
50	0xbd1cc8e9	-0.03827754
51	0xbca4144e	-0.020029213
52	0xbd6df652	-0.058096237
53	0x3c2c6719	0.010522627
54	0xbc5fa842	-0.013650956
55	0xbc951903	-0.018200403
56	0xbd11c8ba	-0.03559182
57	0xbd9c8b77	-0.07643788
58	0x3b2edc29	0.0026681519
59	0xbd4aaccc	-0.0494812
60	0xbd034faa	-0.032058395
61	0xbd602256	-0.054720245
62	0x3b437c22	0.0029828628
63	0xbb013e05	-0.0019720804
64	0xbb8edc29	-0.004359741
65	0x3baa5172	0.0051976973
66	0xbd11f98d	-0.03563838
67	0xbd524800	-0.051338196
68	0xbc635203	-0.013874534
69	0xbd2ba208	-0.041902572
70	0xbc7b32a0	-0.015331894
71	0x3cd59f38	0.026076898
72	0xbd387ddd	-0.045041908
73	0xbcd15065	-0.02555103
74	0x3b119789	0.0022215566
75	0x3cc6c177	0.024262173
76	0xbd58b859	-0.052910183
77	0x3c88b097	0.016685767
78	0xbb6876ee	-0.0035471278
79	0x3bacad2c	0.005269667
80	0xbc3d9bc5	-0.011572783
81	0x3bca8ed2	0.0061815763
82	0xbcb2bc81	-0.021818401
83	0xbc5ab2cd	-0.0133482935
84	0xbd3b674e	-0.045752816
85	0x3cac1f42	0.021010999
86	0xbcddf71e	-0.027095374
87	0xbbf97366	-0.0076126335
88	0x3cad7ed4	0.02117864
89	0xbcbe52fb	-0.023232928
90	0xbb1bd36e	-0.0023777145
91	0xbd8c99c3	-0.06865265
92	0x3cb02fd8	0.021507189
93	0xbcfab09c	-0.030601792
94	0xbd892a14	-0.06697479
95	0xba5b2abb	-0.00083605543
96	0x3cbca77e	0.023029085
97	0xbb8af06f	-0.0042400877
98	0xbc968202	-0.01837254
99	0xbb93e1f7	-0.004513021
100	0xbb34e87d	-0.0027604394
101	0xba8a45d8	-0.001054938
102	0x3c87f6dc	0.016597204
103	0xbc369832	-0.011144685
104	0x3b7b8ad6	0.0038382313
105	0x3a3796bc	0.0007003357
106	0xb8bb2723	-8.924145e-05
107	0xbcac0cf3	-0.021002268
108	0x3c9818bb	0.01856648
109	0xbd879ea3	-0.066220544
110	0x3c9750d3	0.018471157
111	0xbd417e5b	-0.047239643
112	0x3ce45f05	0.02787734
113	0xbbf58768	-0.0074929483
114	0xb9e9bd92	-0.00044582464
115	0x3ccd5286	0.025063764
116	0x3d1bf854	0.03807862
117	0x3bdbca96	0.0067074997
118	0xbd3c8711	-0.046027247
119	0xbc9cbc79	-0.01913284
120	0xbd3ab1ef	-0.045579847
121	0xbd838cd3	-0.064233445
122	0x3bcfb5a6	0.006338793
123	0xbd494214	-0.049135283
124	0xbd075e70	-0.033049047
125	0xbcc3752b	-0.023859581
126	0x3c317104	0.010830168
127	0xbd2d568c	-0.042318866
128	0xbd2ad1c6	-0.04170396
129	0x3c707a49	0.014677593
130	0xbd038870	-0.03211254
131	0xbcb20c16	-0.021734279
132	0x3c361d23	0.011115345
133	0xbbb6b85c	-0.0055761766
134	0xbc81b8f6	-0.015835267
135	0xbd888183	-0.066653274
136	0xb9450866	-0.00018790513
137	0xbd4cbe80	-0.049986362
138	0xbb24b878	-0.0025134366
139	0x3cfc0ade	0.0307669
140	0xbc3c5e12	-0.0114970375
141	0xbcd7b80d	-0.02633288
142	0xbca1b324	-0.019738741
143	0xbc300938	-0.010744385
144	0xbc0bc28d	-0.008530271
145	0x3d48011c	0.048829183
146	0x3ce0924c	0.02741351
147	0x3c99cb42	0.018773679
148	0x3c88ff82	0.016723398
149	0xbabecca8	-0.0014556842
150	0xbd1029bf	-0.035196062
151	0x3a951218	0.001137319
152	0x3b824cdf	0.003976449
153	0xbd66a62b	-0.056310814
154	0x3b917447	0.00443891
155	0xbba46bca	-0.0050177323
156	0xbd1098b7	-0.03530189
157	0xb9a0fde3	-0.00030706738
158	0xbd8d495f	-0.0689876
159	0xbc189034	-0.009311724
160	0xbc78288c	-0.015146386
161	0xbd88e883	-0.06684973
162	0xbd882c93	-0.06649127
163	0xbca46ee3	-0.020072406
164	0xbd51f1fc	-0.051256165
165	0xbd2c398a	-0.04204706
166	0xbd3a0dde	-0.04542338
167	0x3b9ae1da	0.0047266306
168	0xbc7b172f	-0.015325352
169	0xbcf435ab	-0.029810747
170	0xbd66dba0	-0.056361794
171	0xbd161d44	-0.036649004
172	0xbcd7e40e	-0.026353862
173	0xbc142ae8	-0.009043433
174	0x39118d93	0.00013881018
175	0x3beffa52	0.0073235417
176	0x3b747af3	0.0037304729
177	0x3df8072e	0.121107444
178	0xbc01253e	-0.007882414
179	0x3cc58f0c	0.024116062
180	0xba010ae3	-0.0004922582
181	0xbc8b060e	-0.01697066
182	0xbd589117	-0.052872743
183	0xbbe8e9dc	-0.0071079563
184	0x3c336ca0	0.010951191
185	0x3b45c90e	0.0030179652
186	0xbc873798	-0.016506001
187	0xbc610404	-0.013733868
188	0xbcad9b6d	-0.021192277
189	0xbcbf0246	-0.023316514
190	0xbd5ab073	-0.05339093
191	0xbd8af3b8	-0.06784767
192	0x3b974f13	0.0046175807
193	0xbd5efcd0	-0.05444032
194	0xbd924c0e	-0.071434125
195	0xbd656f1b	-0.05601416
196	0xbc1fb6b8	-0.009748153
197	0xbd154a0c	-0.03644757
198	0xbcb04e64	-0.021521755
199	0xbca33b1f	-0.019925652
200	0x3b3b9681	0.0028623643
201	0xbc013118	-0.00788524
202	0xbcdd66d3	-0.02702657
203	0xbd3bee72	-0.045881696
204	0xbd32d522	-0.04366029
205	0x3c0fd3ce	0.0087785255
206	0xbc819625	-0.015818665
207	0x3b863ca7	0.004096586
208	0xbcd3e4be	-0.025865909
209	0xbcff0ec0	-0.031134963
210	0xbc95b124	-0.018272944
211	0xbca2aa6e	-0.019856658
212	0xbd061ad9	-0.032740448
213	0xbcaebbd4	-0.021329798
214	0xbc95abd5	-0.018270412
215	0x3c7bfc5b	0.01537999
216	0xbd329644	-0.043600336
217	0x3cdabf68	0.026702598
218	0xbb36d264	-0.0027896399
219	0x3c0551eb	0.008137207
220	0x3a4ed063	0.00078893284
221	0xbc0241db	-0.0079502715
222	0xbc8bae01	-0.017050745
223	0xbccd8d7e	-0.025091883
224	0x3c5066ad	0.012719792
225	0xbc633582	-0.013867738
226	0xbc513817	-0.0127697205
227	0xbcc58184	-0.02410961
228	0xba255f01	-0.0006308407
229	0xbc2ebfa9	-0.0106658125
230	0xbc89a7e6	-0.016803693
231	0x3cec615f	0.028855024
232	0x3d27379a	0.04082451
233	0x3d006740	0.031348467
234	0xbcd30a9a	-0.025761891
235	0xbca92e86	-0.020652067
236	0xbd15afb4	-0.036544517
237	0xbca61560	-0.020273864
238	0xbc0e05ca	-0.008668372
239	0x3cc9c73a	0.024631131
240	0xbca38848	-0.019962445
241	0xbc808961	-0.015690507
242	0x3d0e2547	0.03470352
243	0xbd796615	-0.06088837
244	0xbdcd89f2	-0.100360766
245	0xb9b9a78c	-0.00035410782
246	0x3bf0605a	0.0073357048
247	0xbc8bc402	-0.017061237
248	0x3c402d24	0.011729512
249	0xbd011232	-0.031511493
250	0xbd3907a6	-0.04517331
251	0x3c7cd078	0.015430562
252	0xbc78fb2d	-0.015196604
253	0xbd35f61d	-0.044424165
254	0x3c82a82d	0.015949333
255	0xbbbc678d	-0.005749649

parameters.mu_b f4 [8]
0	0xbc42e106	-0.01189447
1	0xbe2c5d46	-0.16832456
2	0x3e062133	0.13098602
3	0x3e8aa44d	0.27078477
4	0x3cdac422	0.026704852
5	0x3c8930d6	0.01674692
6	0x3e02d9cf	0.127784
7	0xbb1f79b6	-0.002433402

parameters.mu_w f4 [8, 256]
0	0x3c6a813d	0.014313039
1	0xbc41a26e	-0.011818511
2	0x3e6181e3	0.22022204
3	0x3d96601b	0.073425494
4	0xbd876cf5	-0.06612579
5	0x3ef689ca	0.48152
6	0x3d2d961c	0.042379484
7	0x3d075a15	0.033044893
8	0xbc8ac85f	-0.016941248
9	0x3de31da4	0.11089638
10	0xbdb0bcf0	-0.08629787
11	0x3dbc8697	0.092053585
12	0xbdad2020	-0.08453393
13	0xbec5332f	-0.38515612
14	0xbee87018	-0.4539802
15	0x3e760243	0.240243
16	0xbd8de8c6	-0.06929164
17	0xbec1cb88	-0.37850595
18	0xbc4504b8	-0.012025051
19	0xbbfe8701	-0.0077675586
20	0x3c95429f	0.018220244
21	0xbc9a4065	-0.018829534
22	0xbcc70478	-0.024294123
23	0x3cc7f795	0.024410048
24	0xbc7bc868	-0.015367605
25	0x3c10f663	0.008847806
26	0x3aef65e3	0.0018264618
27	0x3b430a17	0.0029760653
28	0x3ddb0289	0.10693843
29	0xbd653bb7	-0.05596515
30	0x3ecc4480	0.3989601
31	0xbb3f2f46	-0.0029172464
32	0x3d99c8a0	0.07508969
33	0xbec1cdb6	-0.37852257
34	0x3c3d2d75	0.011546482
35	0x3ea988e5	0.33112255
36	0x3be61c1d	0.0070223943
37	0x3c474558	0.012162529
38	0xbd4cc20e	-0.049989752
39	0xbbde8272	-0.0067904526
40	0x3c07214d	0.008247686
41	0x3d239f2e	0.039946727
42	0x3c89ca0e	0.01681998
43	0xbd801bb7	-0.06255286
44	0xbc4ae49b	-0.012383605
45	0xbe8b3709	-0.27190426
46	0x3caad8e3	0.020855373
47	0xbba34f0c	-0.0049837884
48	0xbb082ff6	-0.002078054
49	0xbbc03fe0	-0.0058669895
50	0x3d6615da	0.056173183
51	0xbe8d1e5f	-0.27562234
52	0xbcc1ed23	-0.023672646
53	0xbc7eab54	-0.0155437775
54	0xbc4a7d88	-0.012359031
55	0xbbc1473f	-0.005898386
56	0xbd18bba7	-0.037288334
57	0x3c296e1e	0.010341195
58	0x3cf88660	0.030337512
59	0xbd7f3893	-0.062309813
60	0x3c603a13	0.013685721
61	0x3bea3718	0.007147681
62	0x3d2674ca	0.040638722
63	0xbf03ed45	-0.5153392
64	0x3e330417	0.17482029
65	0xbd6261e1	-0.055269126
66	0x3c7eeba9	0.015559115
67	0xbc0be93e	-0.008539496
68	0x3e848adf	0.258872
69	0xbd9e73ac	-0.077369064
70	0xbd77805f	-0.06042516
71	0xbb8dc192	-0.004326054
72	0xbd4b960c	-0.049703643
73	0x3d823783	0.06358244
74	0xbc5492b4	-0.01297443
75	0x3dea4dfb	0.11440655
76	0xbc275877	-0.010213963
77	0xbe414959	-0.18875636
78	0x3c17013e	0.009216605
79	0x3f0400ce	0.5156373
80	0xbd4ecbea	-0.050487436
81	0x3d8c9239	0.06863827
82	0xbcfd8ac3	-0.030949956
83	0xbe0983c8	-0.13429177
84	0x3b888f86	0.0041675
85	0xbb658d9f	-0.003502704
86	0x3d9dce36	0.07705347
87	0xbbf93e2e	-0.0076062893
88	0xbceaa0be	-0.028641101
89	0x3b59354b	0.0033143337
90	0x3e3c2170	0.1837213
91	0xbd9b68e0	-0.07588363
92	0x3bf3a4bc	0.0074354094
93	0xbd10175c	-0.035178527
94	0xbce641ca	-0.028107543
95	0xbf07c74c	-0.5303848
96	0xbc72af59	-0.014812314
97	0xbb753392	-0.0037414772
98	0xbe79346e	-0.24336407
99	0xbd66e80f	-0.056373652
100	0xbc86ff27	-0.016479088
101	0x3c1c6cef	0.009547456
102	0x3bf45993	0.007456967
103	0xbbcee618	-0.0063140504
104	0x3c22c086	0.0099335965
105	0x3d2d2c7e	0.04227876
106	0x3b47dbc5	0.0030495983
107	0x3cbb86cb	0.022891423
108	0x3c8e0980	0.017338514
109	0x3e0e0310	0.13868356
110	0xbd3a71ec	-0.0455188
111	0xbc01c755	-0.00792106
112	0xbdd39b31	-0.10332335
113	0xbd876a53	-0.066120766
114	0xbec58e9e	-0.3858537
115	0xbbce8f98	-0.006303739
116	0x3bf3fa9d	0.007445647
117	0xba2490b3	-0.00062776654
118	0x3c0c96e5	0.008580898
119	0xbe78fa51	-0.24314238
120	0xbeebd8f5	-0.46063963
121	0x3dae8332	0.08521117
122	0x3dcf682a	0.101272896
123	0x3b2b3a93	0.0026127442
124	0xbde85c43	-0.113457225
125	0xbbb3397a	-0.005469498
126	0xbeb07386	-0.34463137
127	0x3ca7fed0	0.020507246
128	0x3e0ad614	0.13558227
129	0xbd9a1d3a	-0.07525106
130	0x3cff44df	0.03116077
131	0xbbdfb845	-0.0068273866
132	0xbd4620a0	-0.048370957
133	0x3c874e52	0.016516838
134	0xbc00f6e1	-0.0078713605
135	0x3cd70afa	0.026250351
136	0xbb16ecea	-0.0023029395
137	0xbc037cac	-0.00802533
138	0xbd63c137	-0.055604186
139	0xbe7bc58c	-0.24587077
140	0xbc3427ea	-0.010995844
141	0x3e99adf2	0.30015522
142	0xbb99fbab	-0.0046991906
143	0x3c6c1263	0.014408681
144	0x3ceec4b7	0.029146535
145	0x3ddb2985	0.107012786
146	0x3c1b77e1	0.009489031
147	0xbe31aa96	-0.1735023
148	0xbcd4acf3	-0.025961375
149	0x3df10823	0.1176913
150	0xbeabfc03	-0.33590707
151	0x3c8e90cf	0.017403034
152	0xbc0e928c	-0.008701932
153	0x3b8a8e45	0.0042283856
154	0x3e254048	0.16137803
155	0xbb5c4047	-0.0033607648
156	0xbd664858	-0.056221336
157	0x3d9f7ccb	0.07787474
158	0xbd481270	-0.04884571
159	0xbdfbb936	-0.122911856
160	0xbd083f5f	-0.03326356
161	0x3f3785db	0.7168862
162	0x3c8a9b82	0.016919855
163	0xbe0df0a2	-0.13861325
164	0xbd6449b5	-0.055734355
165	0xbe4d4082	-0.20044139
166	0xbe9ea5a8	-0.3098576
167	0x3bc26d2f	0.005933426
168	0x3e136a0a	0.1439592
169	0x3b1f37f1	0.0024294818
170	0xbdb55f0c	-0.088560194
171	0xbce2b70a	-0.02767517
172	0xbaa9a466	-0.0012942671
173	0x3e5157ef	0.204437
174	0xbd3b9c89	-0.04580358
175	0xbcc5e413	-0.024156606
176	0xbb1e252f	-0.002413105
177	0xbe10a439	-0.14125146
178	0xbc1a4ed1	-0.009418205
179	0x3c188a04	0.009310249
180	0x3cef3faf	0.029205171
181	0xbd8c296f	-0.0684384
182	0xbd1bc153	-0.038026165
183	0xbca2e875	-0.019886235
184	0x3d96a7de	0.07356237
185	0xbebdf2c5	-0.3709928
186	0x3e7d9c72	0.2476671
187	0xbe578728	-0.21047652
188	0xbcb88706	-0.022525322
189	0x3edfd8b5	0.43720022
190	0x3c85e7dd	0.016345913
191	0x3ee1325b	0.4398373
192	0xbc99ac1a	-0.018758822
193	0x3edddbf1	0.43331864
194	0xbb701898	-0.0036635753
195	0x3a058c4f	0.0005094455
196	0xbe5485b0	-0.20754123
197	0x3d149e33	0.036283683
198	0xbceb22cf	-0.028703121
199	0x3bd21d4a	0.006412183
200	0x3eab94f3	0.33512077
201	0xbf48c5ce	-0.78426826
202	0x3cb7f520	0.022455752
203	0xbc83cdf0	-0.01608941
204	0xbd0ff086	-0.03514149
205	0xbe31b540	-0.17354298
206	0xbe720b46	-0.23637113
207	0x3bbc8c38	0.00575402
208	0xbe42498f	-0.18973373
209	0xbb013e54	-0.0019720988
210	0x3c203956	0.009779295
211	0x3d5db94c	0.05413179
212	0xbe094ecd	-0.13408966
213	0x3dfc1fe7	0.123107724
214	0x3e5bdaf5	0.21470244
215	0xbc82a25b	-0.015946558
216	0x3dee01ee	0.11621462
217	0xbc4a22a5	-0.012337361
218	0xbce26419	-0.02763562
219	0x3ca34913	0.019932305
220	0xbd762828	-0.06009689
221	0x3e6988ba	0.22806063
222	0xbb70e65b	-0.0036758396
223	0xbd2d5982	-0.04232169
224	0xbc5216b7	-0.012822798
225	0x3e0807bf	0.13284205
226	0xbd45dbfe	-0.048305504
227	0xbf0c377b	-0.54772156
228	0xbec45185	-0.38343444
229	0xbcfa1f93	-0.030532634
230	0xbc0332e0	-0.008007735
231	0x3bd311ed	0.006441346
232	0x3d91a3f8	0.07111353
233	0xbdfa020a	-0.1220742
234	0x3c8175dd	0.015803272
235	0x3ad075f0	0.0015904289
236	0x3e3acd47	0.1824237
237	0x3efed350	0.49770594
238	0xbc2f0f6a	-0.010684827
239	0x3c13d618	0.009023212
240	0xbd5ee0c2	-0.054413565
241	0x3e62e736	0.22158512
242	0x3d3bcd06	0.045849822
243	0x3f073740	0.5281868
244	0xbb9d88fe	-0.0048075905
245	0xbd858375	-0.06519214
246	0xbe7a6809	-0.24453749
247	0x3f4dc6e8	0.8038163
248	0xbc99f814	-0.01879505
249	0xbbebb9ee	-0.0071937954
250	0x3cb6bea9	0.02230771
251	0x3e05ced9	0.13067187
252	0x3aba16fb	0.0014197523
253	0x3bff9b7b	0.007800517
254	0xba5dd069	-0.00084615365
255	0x3bf53b19	0.0074838516

parameters.std_b f4 [8]
0	0xbf83f074	-1.0307755
1	0xbf88bd43	-1.0682758
2	0xbf91cc87	-1.1390542
3	0xbf712857	-0.9420218
4	0xbf8db61f	-1.1071204
5	0xbf72f43b	-0.94903916
6	0xbf7c2365	-0.9849151
7	0xbf468c2c	-0.77557635

parameters.std_w f4 [8, 256]
0	0x3caac25d	0.020844633
1	0x3d6737c7	0.056449678
2	0xbe6ecd51	-0.2332051
3	0x3db46949	0.08809144
4	0x3d0893c8	0.03334406
5	0x3dbf579c	0.09342882
6	0xbd15401a	-0.036438085
7	0xbb45b99a	-0.0030170442
8	0x3d41dd84	0.047330394
9	0xbe35c6a5	-0.17751558
10	0xbc24f5c4	-0.010068361
11	0xbdfb9482	-0.12284185
12	0x3d695bdf	0.05697238
13	0x3eb52f7a	0.35387784
14	0x3df53ac4	0.11974099
15	0x3de9300e	0.11386119
16	0x3b54eddc	0.0032490408
17	0x3e277ed8	0.16356981
18	0xbbfb872b	-0.0076760254
19	0x3cc056b0	0.023478836
20	0x3d24cdb3	0.040235233
21	0x3c889690	0.016673356
22	0x3c118c06	0.008883482
23	0x3c17ed80	0.009272933
24	0xbd1373c2	-0.035999067
25	0xbd11d84d	-0.03560667
26	0x3c3b3f87	0.01142872
27	0x3c1e10f8	0.0096476
28	0xbdaa6498	-0.08319968
29	0x3c91390f	0.017727403
30	0x3eb74d3b	0.3580111
31	0x3d430707	0.047614124
32	0x3ddd3e8a	0.10802944
33	0x3ebfd3c7	0.3746626
34	0xbd2daa84	-0.042398944
35	0xbd09cd16	-0.03364285
36	0x3a56521f	0.0008175689
37	0x3b172066	0.0023060082
38	0x3bff0c6c	0.007783463
39	0xbcab86a2	-0.020938221
40	0x3b97e9e0	0.0046360344
41	0xbc372848	-0.011179037
42	0x3c6d5a1f	0.014486819
43	0x3c9e01de	0.019288
44	0x3d2dd405	0.042438526
45	0xbdf3b3e6	-0.11899547
46	0xba815273	-0.0009866491
47	0x3c757fee	0.014984114
48	0x3b34aa21	0.0027567225
49	0xbcb8094c	-0.02246537
50	0xbe8e802a	-0.27832156
51	0x3d8c2988	0.06843859
52	0x3cb0f7e7	0.021602584
53	0x3d40fea5	0.047117848
54	0x3d57bcbe	0.052670233
55	0x3b1dee90	0.0024098493
56	0x3cb95624	0.022624083
57	0xb93a5b27	-0.00017772299
58	0xbe240c7c	-0.16020387
59	0x3d140dd1	0.03614599
60	0x3d01e771	0.03171486
61	0x3c30deff	0.010795354
62	0xbd40a313	-0.04703052
63	0x3f12a295	0.5727933
64	0xbd93a5e9	-0.07209379
65	0x3c641968	0.013922073
66	0x3c1f5cf7	0.009726754
67	0xbc730350	-0.014832333
68	0xbe445319	-0.19172324
69	0xbe1d23cd	-0.15345688
70	0xba878055	-0.0010337929
71	0x3c8e8563	0.017397588
72	0x3c2512e3	0.010075304
73	0xbe3353ce	-0.17512438
74	0xbbe48ed1	-0.006975033
75	0xbdd3c750	-0.1034075
76	0xba846bf0	-0.0010102969
77	0xbd597f2f	-0.053099807
78	0x3cd8a89d	0.026447589
79	0xbe3405df	-0.17580365
80	0x3c33d9e7	0.010977245
81	0xbb7c5238	-0.0038501155
82	0x3cae896a	0.021305759
83	0xbd08f1f0	-0.033433855
84	0x3c69d565	0.014272069
85	0x3d29ebcc	0.04148464
86	0xbe0f623b	-0.14002316
87	0x3d2983e3	0.041385543
88	0x3be7aecb	0.0070703975
89	0xbcc1ffbc	-0.023681514
90	0xbdb4fa36	-0.088367864
91	0x3c784d51	0.015155152
92	0x3aee3687	0.0018174209
93	0x3c717ea9	0.014739671
94	0x3c119b4a	0.008887121
95	0x3e6cae6c	0.23113412
96	0x3c13a47b	0.009011383
97	0x3bdffc38	0.0068354867
98	0x3e2a2f06	0.166195
99	0xba2b2c3c	-0.0006529724
100	0xbac80a5b	-0.0015261875
101	0x3be46b69	0.006970812
102	0xbaa48b67	-0.0012553752
103	0x3ca11a4d	0.019665862
104	0x3c16f468	0.009213544
105	0xbc498a23	-0.012301001
106	0x3ad59f23	0.0016298037
107	0x3c3a0da6	0.011355793
108	0x3a01f470	0.00049573835
109	0xbda7f629	-0.08201248
110	0x3ce9c80c	0.028537773
111	0x3c551c13	0.013007182
112	0xbe2a56ac	-0.16634625
113	0x3b2e6ec4	0.0026616314
114	0xbec0c111	-0.37647298
115	0x3d649803	0.055809032
116	0x3cbd4bf3	0.023107504
117	0xbbbb4449	-0.0057149273
118	0xbb987ee2	-0.0046537975
119	0x3e3d6e2a	0.18499056
120	0x3d58639d	0.052829374
121	0xbe4cc9c9	-0.1999885
122	0xbe280c54	-0.16410953
123	0x3bf484ab	0.0074621043
124	0xbed1775d	-0.4091138
125	0x3d1e664f	0.038671788
126	0x3e2854e6	0.16438636
127	0x3df8ba10	0.121448636
128	0xbc5eba68	-0.013594247
129	0x3d16fc15	0.036861498
130	0x3d6d2ffd	0.057907093
131	0x3cf08a12	0.029362712
132	0x3c9a59e4	0.018841691
133	0x3c216a20	0.009851962
134	0x3d537b45	0.05163123
135	0x3c173ca2	0.009230765
136	0xbbb84b7a	-0.005624232
137	0xbc3022d5	-0.010750492
138	0xbe3e8241	-0.18604375
139	0x3d89e0b8	0.06732315
140	0xbca76155	-0.020432154
141	0x3d204b14	0.0391341
142	0x3b9bd3e1	0.0047554825
143	0xbb4f45d8	-0.0031627323
144	0x3c505e3c	0.01271778
145	0x3c0a7237	0.0084500825
146	0x3bc29697	0.005938362
147	0x3e0f347d	0.13984866
148	0x3e0c73fb	0.13716118
149	0xbe24aa48	-0.16080582
150	0xbe4799a8	-0.19492209
151	0xbc9911e7	-0.018685294
152	0xbd56fba4	-0.052486077
153	0x3cb1ed84	0.021719702
154	0x3d2c1df2	0.042020746
155	0xbca73709	-0.020411985
156	0x3c703865	0.014661883
157	0x3ce0e625	0.027453491
158	0x3cd7be21	0.026335778
159	0x3ce6ea37	0.028187854
160	0x3d0849ec	0.033273622
161	0x3e9723c2	0.2951947
162	0x3c0650d1	0.008197979
163	0xbd46a1c6	-0.048494123
164	0xbe2c9b00	-0.16856003
165	0xbdbbc5a4	-0.09168556
166	0x38abd382	8.193312e-05
167	0xbb6771b5	-0.0035315577
168	0xbb2c422a	-0.0026284554
169	0xbc28afe6	-0.010295844
170	0x3df4bc73	0.11950006
171	0x3c454799	0.012040996
172	0x3a4aba92	0.00077334896
173	0x3dbfa878	0.09358305
174	0x3d0946dd	0.033514846
175	0x3d8cff39	0.06884617
176	0x3cbfa763	0.023395246
177	0x3df7a7db	0.12092563
178	0xbdca1d72	-0.098688975
179	0xbc10367f	-0.008802055
180	0x3c795490	0.015217915
181	0xbcad2bb7	-0.021139009
182	0x3c41bf8a	0.011825452
183	0x3eaeac73	0.34115943
184	0x3c14b109	0.009075412
185	0x3ea6e9d6	0.32600278
186	0x3a643e2e	0.0008706775
187	0x3e37d972	0.17954043
188	0x3cca0b4e	0.024663594
189	0xbe55dde0	-0.2088542
190	0x3c6848bb	0.014177497
191	0xbe2fe425	-0.17176874
192	0xbc57a597	-0.013162038
193	0xbe4bba66	-0.19895324
194	0x3ca2fd75	0.019896248
195	0x3cd0bc36	0.025480371
196	0x3e35c678	0.17751491
197	0x3e0062dd	0.12537713
198	0xbe6e2867	-0.232576
199	0x3c1d8ad3	0.009615618
200	0x3dbf1cb2	0.09331645
201	0x3f1d5536	0.61458147
202	0xbd2a901b	-0.041641336
203	0x3d14f0ae	0.036362343
204	0x3d46d562	0.04854334
205	0x3dbac8af	0.091203086
206	0x3d550374	0.052005246
207	0x3c6efaf6	0.014586201
208	0x3d111192	0.035417147
209	0xbbd3f49e	-0.0064683696
210	0x3c0c09db	0.008547272
211	0x3d088c6b	0.033337038
212	0x3e052f17	0.13006245
213	0xbb31a7fa	-0.0027108178
214	0xbe5194d2	-0.20466927
215	0xbbac7f56	-0.005264203
216	0xbe0dd51b	-0.13850825
217	0x3c746492	0.014916556
218	0x3c45c350	0.012070492
219	0x3d7ad259	0.06123576
220	0x3d5e7f02	0.054320343
221	0xbde64812	-0.11244215
222	0xbc79767a	-0.015226001
223	0x3cf19b2b	0.029492935
224	0x3d63cf56	0.055617653
225	0xbd9fd011	-0.078033574
226	0x3c51b1b1	0.012798713
227	0x3f036f64	0.51341844
228	0x3e28b2c0	0.16474438
229	0x3c193cce	0.009352876
230	0xbb336605	-0.002737404
231	0x3d05d09e	0.032669656
232	0x3dd95751	0.106123574
233	0x3cf98eac	0.030463539
234	0xba0263c8	-0.0004973975
235	0x3ba52035	0.00503924
236	0xbca0d7b6	-0.019634109
237	0x3deff56f	0.117167346
238	0x3a0b68e7	0.0005318061
239	0xbc982f7e	-0.018577334
240	0x3e39bf44	0.18139368
241	0x3d26e086	0.040741466
242	0xbe0e0b61	-0.13871528
243	0x3e097a58	0.13425577
244	0xbc8f0163	-0.017456716
245	0x3d9e9290	0.07742798
246	0x3e29f811	0.16598536
247	0x3e6f69b8	0.23380172
248	0xbd922e28	-0.0713771
249	0x3c818ea9	0.015815096
250	0x3d926804	0.07148746
251	0xbe80daaf	-0.25166842
252	0x3cc526a9	0.024066286
253	0xbc381ce3	-0.011237356
254	0x3c96c15b	0.018402746
255	0x39b27c5f	0.0003404347
