notebook/result/weights/sac_snapbot/episode_700.pth (torch, 355440 bytes, 8 tensors)

parameters.mlp_0_b f4 [256]
0	0x3d9741c8	0.07385594
1	0xbe31ec6b	-0.17375343
2	0x3dac5efb	0.084165536
3	0xbd8dbe12	-0.06921019
4	0x3ea2cbe3	0.31796178
5	0xbe5f98d1	-0.21835639
6	0xbe8a23d4	-0.2698046
7	0xbe07ecd8	-0.13273942
8	0xbe5422b8	-0.20716369
9	0xbd5aa724	-0.053382054
10	0x3d31a405	0.04336931
11	0xbdc6550d	-0.09684191
12	0xbdab794d	-0.08372746
13	0x3dc01dbd	0.09380672
14	0xbdcd8015	-0.10034195
15	0x3efb11db	0.4903706
16	0xbe16cea5	-0.14727266
17	0xbe8ddf6e	-0.27709526
18	0xbe148dc5	-0.14507206
19	0xbde025cb	-0.109447084
20	0xbca5ff45	-0.020263324
21	0xbd9c0042	-0.07617237
22	0xbd8c1e1e	-0.06841682
23	0x3ddd98a3	0.10820129
24	0xbe4eb70c	-0.20187014
25	0xbc937b13	-0.018003022
26	0x3d9568ed	0.07295404
27	0xbdc187f9	-0.09449763
28	0xbe4d58f7	-0.20053469
29	0xbcd0e14d	-0.025498057
30	0xbe499c42	-0.19688514
31	0xbe8b3f2a	-0.27196628
32	0xbd963571	-0.07334412
33	0x3dd0a3f8	0.101875246
34	0xbdbf5ae8	-0.09343511
35	0xbe46711d	-0.19379087
36	0x3e4d6c05	0.20060737
37	0x3dbf44de	0.09339307
38	0xbdada11c	-0.08477995
39	0xbe0a206a	-0.13488927
40	0xbe47d4a0	-0.19514704
41	0xbe8c947d	-0.27457038
42	0xbdf8629a	-0.12128182
43	0xbe71e680	-0.23623085
44	0xbde5f5dd	-0.11228535
45	0x3e32c6e3	0.17458682
46	0x3d8308f3	0.06398191
47	0xbe31dead	-0.173701
48	0xbd86341e	-0.06552909
49	0x3da0662d	0.078319885
50	0xbe0e6e86	-0.13909349
51	0xbd3e4a09	-0.046457324
52	0xbdc365e6	-0.0954092
53	0xbe8f3724	-0.27971756
54	0x3e45998a	0.19296852
55	0xbdb312cd	-0.0874382
56	0xbe54e3fc	-0.20790094
57	0xbe782fbc	-0.24236959
58	0xbe24ca1e	-0.16092727
59	0xbea7ffe8	-0.32812428
60	0xbe008909	-0.12552275
61	0xbde6c3de	-0.112678275
62	0xbd63f501	-0.055653576
63	0xbe23fd8b	-0.16014688
64	0xbe44c338	-0.19215095
65	0xbebf488c	-0.37360036
66	0xbd74aa55	-0.059732754
67	0x3de3d40c	0.11124429
68	0xbe9aa073	-0.30200538
69	0xbea81e82	-0.32835776
70	0x3e1bf5d9	0.15230502
71	0xbe8638d7	-0.2621524
72	0xbe59910a	-0.21246734
73	0xbc7971d4	-0.015224893
74	0xbe099920	-0.13437319
75	0xbd7c942a	-0.061664738
76	0x3d283126	0.041062497
77	0xbe2af1a6	-0.16693744
78	0xbd1ee77e	-0.038794987
79	0xbeb1a0df	-0.34693047
80	0xbe0b06da	-0.13576832
81	0xbd7b7201	-0.06138802
82	0xbc81fc6b	-0.015867433
83	0xbe2113de	-0.15730235
84	0x3cdea4da	0.027178217
85	0xbe6a9bc6	-0.22910985
86	0xbe866744	-0.2625066
87	0xbe47a996	-0.19498286
88	0x3d87a57a	0.06623359
89	0x3e578a0f	0.21048759
90	0xbdb9a12f	-0.090639465
91	0x3dd009e3	0.10158136
92	0x3ce01610	0.02735427
93	0xbc26e8df	-0.010187357
94	0xbda49c4c	-0.08037624
95	0xbe94b8b3	-0.29047164
96	0xbdaf38ea	-0.08555777
97	0xbd1fdc30	-0.039028347
98	0xbe18ea1f	-0.1493306
99	0xbdfc95de	-0.123332724
100	0xbc0f0137	-0.008728317
101	0xbcbf4833	-0.023349857
102	0xbcb71eaf	-0.022353498
103	0xbdf3d4d7	-0.1190583
104	0xbe7e893b	-0.24857037
105	0xbdaf3a49	-0.08556039
106	0xbe274a4f	-0.1633694
107	0x3ea3628e	0.3191113
108	0xbe94c3cf	-0.2905564
109	0xbe3d8c59	-0.1851057
110	0xbe53bfd3	-0.20678644
111	0xbd77dd85	-0.06051399
112	0xbe03a21d	-0.1285481
113	0xbe2c5596	-0.16829523
114	0x3e10b8b2	0.14132956
115	0xbded14bc	-0.115762204
116	0x3ad307bf	0.0016100331
117	0xbde1d29c	-0.11026499
118	0x3e06bd5b	0.13158171
119	0xbe577aff	-0.21043013
120	0x3dd87e90	0.10571015
121	0xbe7cfba6	-0.24705371
122	0xbe05e753	-0.13076524
123	0x3e6b7c7f	0.2299671
124	0x3d810d95	0.06301419
125	0x3bfda16b	0.00774019
126	0xbcde96c0	-0.027171493
127	0xbcf60cb1	-0.030035349
128	0xbe36bd33	-0.17845611
129	0x3ddb1d2f	0.10698926
130	0xbdf1f65e	-0.11814569
131	0xbd1ed2fa	-0.03877542
132	0xbe9a94c7	-0.30191633
133	0xbe9bf9a1	-0.3046389
134	0xbe07211b	-0.13196222
135	0x3d975883	0.07389929
136	0x3ec06de8	0.37583852
137	0xbdd5a354	-0.10431543
138	0xbe38bf1c	-0.18041652
139	0xbd390898	-0.04517421
140	0xb7829590	-1.5566853e-05
141	0x3dc284ea	0.094980076
142	0xbe3548df	-0.1770358
143	0xbe023c61	-0.12718345
144	0xbe47dc92	-0.19517735
145	0x3cc36dcd	0.023856068
146	0xbe348fc2	-0.17632964
147	0xbeac9d83	-0.33713922
148	0xbe825e55	-0.25462595
149	0xbe235692	-0.15950993
150	0xbbfa489b	-0.00763805
151	0xbe827122	-0.25476938
152	0xbe3559db	-0.17710058
153	0xbe87f232	-0.26551968
154	0xbbacfa67	-0.0052788737
155	0x3decb3a5	0.11557702
156	0xbe963599	-0.29337767
157	0xbdd0c89e	-0.10194515
158	0xbe4d8192	-0.20068958
159	0xbe92699a	-0.28596193
160	0x3d091be0	0.03347385
161	0xbdba2a60	-0.09090114
162	0xbea0d4a7	-0.3141224
163	0xbda5f7dd	-0.08103917
164	0xbdc6d9f1	-0.09709538
165	0xbe579716	-0.21053728
166	0x3e549aa8	0.20762122
167	0xbd861841	-0.06547595
168	0xbe83c74d	-0.25737992
169	0xbe7e3d18	-0.24827993
170	0x3d66fe14	0.05639465
171	0xba5572bf	-0.00081424037
172	0x3dc82a24	0.09773663
173	0xbcf77355	-0.030206362
174	0xbc757944	-0.014982525
175	0xbd236169	-0.03988782
176	0xbc3e3494	-0.011609215
177	0x3e43d72b	0.19125049
178	0xbe783629	-0.2423941
179	0xbe5ca0d7	-0.2154573
180	0xbe09452c	-0.13405293
181	0xbe6c57fe	-0.23080441
182	0xbe804b49	-0.25057438
183	0xbdf6c616	-0.12049501
184	0xbe4d41f2	-0.20044687
185	0xbe24d099	-0.16095199
186	0xbe214f47	-0.15752898
187	0xbe048f08	-0.12945187
188	0x3c8a791e	0.016903456
189	0x3e1322d8	0.1436876
190	0xbe29eea3	-0.16594939
191	0xbd590074	-0.052978948
192	0xbd37874e	-0.04480677
193	0x3debe3fc	0.11518094
194	0x3e5f6968	0.21817553
195	0x3c59f399	0.013302707
196	0xbd86a206	-0.06573872
197	0x3d939887	0.07206827
198	0xbe1af37d	-0.15131946
199	0x3d97da2c	0.0741466
200	0x3e38d311	0.18049265
201	0xbe7546f8	-0.23952854
202	0xbd330c57	-0.04371294
203	0xbd43af51	-0.047774617
204	0xbd8e4663	-0.06947019
205	0xbd9068f9	-0.07051272
206	0x3d5c8cf9	0.05384538
207	0xbe034b51	-0.128217
208	0xbe48aa46	-0.19596204
209	0xbe4313c1	-0.19050504
210	0xbe1ac798	-0.15115201
211	0xbdc66b16	-0.09688394
212	0x3f09fc1c	0.53900313
213	0xbe446eda	-0.19182912
214	0xbc938729	-0.018008785
215	0x3e8b98ff	0.27265164
216	0xbe16ca01	-0.14725496
217	0xbc7a36a5	-0.015271817
218	0xbe79a318	-0.24378622
219	0xbded9e72	-0.11602487
220	0xbe4b935e	-0.19880435
221	0xbe5dcf07	-0.21661006
222	0x3e333dd3	0.17504053
223	0xbe2f1336	-0.17097172
224	0xbe6f7d57	-0.23387657
225	0xbdc3b975	-0.095568575
226	0xbd457cc7	-0.0482147
227	0xbe2dbbe3	-0.16966204
228	0xbe5b4d18	-0.21416128
229	0xbd5d413e	-0.054017298
230	0x3e192d60	0.14958715
231	0x3f0bb241	0.5456887
232	0xbdeebb6e	-0.11656843
233	0x3e807c1b	0.25094685
234	0xbd254e85	-0.040358085
235	0xbe1b9581	-0.1519375
236	0xbd6d9422	-0.0580026
237	0xbd83188b	-0.064011656
238	0xbe2b6192	-0.16736439
239	0xbdfcde1f	-0.12347054
240	0x3dbd6ab7	0.0924887
241	0x3e9c223f	0.30494878
242	0xbe22f20c	-0.15912646
243	0xbe254c7e	-0.1614246
244	0x3e189a7e	0.14902684
245	0xbd9105eb	-0.07081207
246	0xbdaaf990	-0.083483815
247	0x3dbe440c	0.09290323
248	0x3e3d68c2	0.18496993
249	0xbe3cfa25	-0.18454798
250	0x3d653101	0.055954937
251	0xbd90b9e5	-0.070667066
252	0x3d2f9d5b	0.042874675
253	0x3e441e82	0.19152263
254	0xbad2833e	-0.0016060842
255	0xbe01fa92	-0.12693241

parameters.mlp_0_w f4 [256, 70]
0	0xbe02a69f	-0.12758873
1	0x3e1fe43f	0.15614413
2	0xbe5c236d	-0.21497889
3	0xbf486c5f	-0.7829036
4	0xbde37b97	-0.11107557
5	0xbda248d8	-0.0792405
6	0x3c71d251	0.014759616
7	0x3db93f39	0.09045262
8	0x3de4d404	0.11173251
9	0x3d2bbc23	0.041927468
10	0xbe62873f	-0.22121905
11	0xbf7bbacd	-0.9833191
12	0x3d15cc95	0.036572058
13	0xbd921d6b	-0.07134517
14	0xbc8d786b	-0.017269334
15	0x3f1ba671	0.60800844
16	0xbe6963cb	-0.22791974
17	0x3db30d39	0.087427564
18	0x3e95192f	0.29120776
19	0xbe312b83	-0.17301755
20	0xbe061e8f	-0.13097595
21	0xbf18830e	-0.59574974
22	0xbee25f23	-0.4421321
23	0x3f0398fd	0.51405317
24	0xbbf60263	-0.0075076087
25	0x3bf602d6	0.0075076623
26	0x3f8428c4	1.0324941
27	0x3dabd898	0.08390921
28	0xbd860942	-0.065447345
29	0x3db23bfc	0.08702847
30	0xbe2a1d4f	-0.16612743
31	0x3e28a78b	0.16470163
32	0xbdbc4768	-0.09193307
33	0x3d4de340	0.05026555
34	0x3d1c7a46	0.038202547
35	0xbe77a397	-0.24183498
36	0x3e7af7ab	0.2450854
37	0x3d90450b	0.07044419
38	0xbeac1691	-0.33610967
39	0x3dfc6b61	0.123251684
40	0xbe505e93	-0.20348577
41	0xbe1be8ce	-0.15225527
42	0xbca8685d	-0.020557577
43	0xbd55a65b	-0.052160602
44	0x3d9f0a0c	0.07765588
45	0xbd2ae002	-0.041717537
46	0xbeb67592	-0.35636574
47	0x3d9933ff	0.074806206
48	0x3c2ff326	0.010739123
49	0xb9bec790	-0.0003638831
50	0xbd692f90	-0.056930125
51	0xbca8350e	-0.020533111
52	0xbcceb18a	-0.025231142
53	0xbf11b7f3	-0.5692131
54	0x3cb61daf	0.022230951
55	0xbcbb2c99	-0.022848414
56	0x3e09df6c	0.13464135
57	0x3e9f4637	0.31108257
58	0xbdb90dd2	-0.09035839
59	0xbb4ca175	-0.0031224166
60	0x3e9a8437	0.30178997
61	0x3f61220b	0.8794257
62	0x3a8ded3a	0.0010828145
63	0x3d98c5d9	0.074596114
64	0x3b29ea39	0.002592696
65	0x3d4a0798	0.04932365
66	0x3b839482	0.0040155062
67	0x3e0b45ed	0.13600893
68	0xbd2f9c40	-0.04287362
69	0x3d926d12	0.0714971
70	0xbec0465a	-0.37553674
71	0x3e25bd48	0.16185486
72	0x3b9a0873	0.0047007143
73	0x3e9ea3ab	0.30984244
74	0xbc4cea3d	-0.012507019
75	0xbea62030	-0.32446432
76	0x3e688c29	0.22709717
77	0x3a99db0d	0.0011738256
78	0xbeb00361	-0.34377578
79	0xbe24d7b8	-0.16097915
80	0xbded4f5e	-0.11587404
81	0x3dabf826	0.0839694
82	0xbe8b31f9	-0.27186564
83	0xbf1acb82	-0.6046678
84	0x3dc907ba	0.09815927
85	0xbee41204	-0.44544995
86	0xbd24965a	-0.04018245
87	0xbe202296	-0.15638193
88	0xbf54e346	-0.8315929
89	0x3e8ca570	0.2746997
90	0xbc180bd4	-0.009280164
91	0xbe82469f	-0.25444505
92	0x3f348102	0.7050935
93	0xbd8f1d19	-0.06987972
94	0xbe92cbf4	-0.2867123
95	0x3e75b68e	0.2399542
96	0x3ca29f13	0.019851243
97	0xbdc78268	-0.0974167
98	0x3d83847a	0.06421752
99	0x3c019766	0.007909631
100	0xbe28ef5d	-0.1649756
101	0xbf041743	-0.51597995
102	0x3e982c36	0.2972123
103	0xbd16f255	-0.0368522
104	0xbdef4b71	-0.11684311
105	0x3eb07965	0.34467617
106	0xbc14faa2	-0.009092959
107	0x3db0b3a5	0.086280145
108	0x3e2fce36	0.17168507
109	0x3d80a119	0.06280727
110	0xbe654b1c	-0.22391933
111	0xbe0836ef	-0.13302206
112	0x3ba25c3b	0.0049548424
113	0x3caf1548	0.021372452
114	0x3e3379be	0.1752691
115	0xbdb32047	-0.08746391
116	0x3e2a0c8d	0.1660635
117	0xbdfb27ad	-0.12263427
118	0x3e8ca58a	0.27470046
119	0x3db548d8	0.088517845
120	0x3d61d80e	0.055137686
121	0x3c4378f7	0.011930696
122	0x3e81bc67	0.25339052
123	0xbe60794d	-0.21921273
124	0xbe94b1c7	-0.29041883
125	0x3cb2b8ba	0.0218166
126	0xbd352739	-0.04422686
127	0x3def24a8	0.116769135
128	0x3db25d4d	0.08709202
129	0xbe937884	-0.28802884
130	0xbc7ecf73	-0.015552389
131	0x3d9d6a24	0.0768626
132	0xbe0a5c50	-0.13511777
133	0xbd287511	-0.04112727
134	0xbd825bdf	-0.06365179
135	0x3e059694	0.13045722
136	0x3e90cad7	0.28279755
137	0xbde5b2db	-0.112157546
138	0x3ec61aad	0.38692227
139	0x3c197262	0.00936565
140	0xbde020cd	-0.10943756
141	0x3e912660	0.2834959
142	0xbe364d4d	-0.17802925
143	0x3e87cb28	0.26522183
144	0xbeb69d20	-0.35666752
145	0x3bff05fd	0.0077826963
146	0x3f261101	0.64869696
147	0xbe4dc970	-0.20096374
148	0x3e33818f	0.17529891
149	0x3f0163d1	0.5054293
150	0xbd540209	-0.051759753
151	0xbe2e29cd	-0.17008133
152	0xbe62396d	-0.22092219
153	0xbdf79974	-0.12089816
154	0x3e457c8b	0.1928579
155	0xbe3d8be0	-0.1851039
156	0xbd52961c	-0.051412687
157	0x3f3dfc61	0.74213225
158	0x3f75f5ca	0.9607817
159	0xbf2c6429	-0.6734033
160	0xbcca96e9	-0.024730163
161	0x3e1e01b9	0.15430345
162	0xbf9323f0	-1.1495342
163	0x3d8a5027	0.06753569
164	0xbcba2f13	-0.022727525
165	0x3f527bc0	0.8222008
166	0xbeb5f0e6	-0.35535353
167	0xbd2e1225	-0.042497773
168	0xbd86c692	-0.06580843
169	0x3c289da0	0.010291487
170	0xbde1b33e	-0.11020516
171	0xbd31ccf3	-0.043408345
172	0x3d91873b	0.07105871
173	0xbe4fb4b0	-0.2028377
174	0xbcefd03e	-0.029274102
175	0xbe8052db	-0.25063214
176	0x3e1902a6	0.14942417
177	0x3d1494c0	0.03627467
178	0x3e2b4195	0.16724236
179	0xbdbe23e6	-0.09284191
180	0x3d466970	0.048440397
181	0xbe5952fd	-0.21223064
182	0xbdcbc764	-0.0995014
183	0x3ddec180	0.10876751
184	0xbeb77646	-0.35832423
185	0xbd2331cf	-0.039842423
186	0xbc06d290	-0.008228913
187	0xbbfdeb61	-0.0077490066
188	0xbe00f395	-0.12592919
189	0x3e15452c	0.14577168
190	0xbe82c694	-0.25542128
191	0xbd51ddc5	-0.051236887
192	0x3ead2b23	0.33821973
193	0x3c87f2b0	0.016595215
194	0xbe8995a1	-0.2687197
195	0xbd777639	-0.06041548
196	0xbec104d9	-0.3769901
197	0xbe8844f4	-0.26615107
198	0x3f3826b1	0.7193404
199	0xbdef51e3	-0.116855405
200	0x3e493994	0.1965087
201	0xbf1466a6	-0.5796913
202	0xbce3f208	-0.02782537
203	0x3d0cc70f	0.034369525
204	0x3cfa06d8	0.030520841
205	0xbc4f8bad	-0.012667579
206	0x3c4ccd93	0.012500185
207	0x3ce2b5fc	0.027674668
208	0xbe7919fa	-0.24326316
209	0x3e355823	0.17709403
210	0xbe087c1c	-0.13328594
211	0x3ecb4693	0.3970228
212	0xbd53f540	-0.05174756
213	0x3d020687	0.031744506
214	0xbee13d9c	-0.43992317
215	0xbebdc912	-0.37067467
216	0x3e94d6ce	0.29070133
217	0x3f218c3a	0.63104594
218	0xbddfcb79	-0.10927481
219	0x3dd7d506	0.10538678
220	0xbd9bf22d	-0.07614551
221	0xbcf843b3	-0.030305719
222	0xbdc94e46	-0.098293826
223	0xbf88a119	-1.0674163
224	0x3d1c1434	0.038105205
225	0x3ecd07d2	0.4004503
226	0x3e23963f	0.15975283
227	0xbe10d2bf	-0.14142893
228	0xbd1f27b4	-0.038856223
229	0x3e2795ac	0.16365689
230	0x3dcb8adb	0.09938594
231	0x3eafdfa4	0.34350312
232	0xbd06f317	-0.032946672
233	0xbdf2704c	-0.11837825
234	0xbcbd271a	-0.023089934
235	0x3c79b1a9	0.015240111
236	0xbf53acba	-0.82685435
237	0xbdd24d8b	-0.102686964
238	0xbcd77c9e	-0.02630454
239	0xbd6d08a6	-0.057869576
240	0xbe31671a	-0.17324486
241	0xbe243ab0	-0.16038013
242	0xbebffda0	-0.37498188
243	0xbeb171ec	-0.34657228
244	0x3dc07164	0.093966275
245	0x3e6246e2	0.22097352
246	0x3da03882	0.07823278
247	0xbd418dfe	-0.047254555
248	0xbc46f34d	-0.012142968
249	0xbeab9759	-0.33513907
250	0xbd6ed59d	-0.058309186
251	0x3e7532e6	0.23945197
252	0x3ecc36d0	0.3988557
253	0x3de00d83	0.10940077
254	0x3e1a6684	0.15078169
255	0xbdbc4ea8	-0.0919469

parameters.mlp_1_b f4 [256]
0	0x3df468a2	0.119340196
1	0x3eca7a8e	0.39546627
2	0x3f039b3f	0.5140876
3	0x3d8252ec	0.06363472
4	0x3c2b89c1	0.010469855
5	0x3ec65a1f	0.38740632
6	0x3e10b637	0.1413201
7	0x3e244725	0.16042764
8	0x3c131c16	0.008978864
9	0x3e94199b	0.28925785
10	0x3dc170a6	0.09445314
11	0x3e061d1b	0.1309704
12	0xbe42e313	-0.19031934
13	0x3db18176	0.08667271
14	0x3ed958a4	0.4245044
15	0x3df94571	0.12171448
16	0x3d198558	0.037480682
17	0x3d42568a	0.04744581
18	0xbcaa9844	-0.020824559
19	0x3c898b31	0.016790004
20	0x3e8bccf2	0.27304798
21	0x3c79e9d5	0.015253504
22	0x3c9de77f	0.019275425
23	0xbcd8046e	-0.0263693
24	0xbcb43afa	-0.022000778
25	0x3dc7535d	0.09732697
26	0xbc92d4e6	-0.017923784
27	0xbcd9294e	-0.026508953
28	0x3d8b6689	0.068066664
29	0xbd512840	-0.051063776
30	0x3e6b4d5b	0.22978728
31	0x3d032fea	0.032028116
32	0xbd2a179a	-0.041526414
33	0x3eb8495d	0.35993472
34	0x3e0199b2	0.12656286
35	0x3d9d4574	0.07679263
36	0xbc472a26	-0.012156045
37	0x3db1e63b	0.08686491
38	0xbb9bd101	-0.00475514
39	0xbc7a6847	-0.015283651
40	0xbc4e6072	-0.012596237
41	0x3eb9589f	0.36200425
42	0xbc98f83d	-0.018673057
43	0x3d4f51da	0.05061517
44	0x3e2900f0	0.16504264
45	0x3e18b974	0.14914495
46	0xbc8dc349	-0.017305033
47	0x3dafe8e4	0.08589342
48	0xbc6dade2	-0.014506789
49	0x3d5fb32f	0.054614242
50	0xbd06a039	-0.032867644
51	0x3e004226	0.12525234
52	0x3e5451ad	0.20734282
53	0x3d1e40f8	0.038636178
54	0x3c900a8c	0.017583154
55	0xbd1876c1	-0.037222628
56	0xbc86270c	-0.01637604
57	0xbc9d0a1b	-0.019169858
58	0x3d14361d	0.03618442
59	0x3e5c2a52	0.21500519
60	0xbbb1fe84	-0.005431952
61	0xbcf48aa7	-0.02985127
62	0x3e75bcfb	0.23997872
63	0x3bdf66f6	0.006817694
64	0xbd8515b1	-0.06498278
65	0x3e9fb6f7	0.3119428
66	0xbce961b1	-0.028488966
67	0xbc9e1617	-0.019297643
68	0x3e1d7782	0.1537762
69	0xbe152ff8	-0.1456908
70	0x3e34ff66	0.17675552
71	0xbc8003b0	-0.015626758
72	0x3eb45bbc	0.35226238
73	0x3ee55e61	0.44798568
74	0xbc83c471	-0.016084881
75	0x3cbf445a	0.023348022
76	0xbdda9ad2	-0.10674061
77	0x3e9a4416	0.3013007
78	0xbd060b98	-0.0327259
79	0xbd2040dc	-0.039124355
80	0x3cdde88b	0.027088424
81	0x3dfb9b9a	0.12285538
82	0xbc3fb843	-0.011701646
83	0x3d18dd08	0.037320167
84	0xbca8a1d8	-0.020584986
85	0x3d5162ce	0.051119618
86	0x3eae2a2e	0.34016556
87	0x3e3b290c	0.18277377
88	0x3e6bb0e3	0.23016696
89	0xbc14599c	-0.009054568
90	0x3dfbd2a3	0.12296035
91	0x3ede3904	0.43402874
92	0xbc384f58	-0.011249386
93	0x3e93dedf	0.28880975
94	0x3d8007cd	0.06251488
95	0xbdafe9b9	-0.08589501
96	0xbcc0f859	-0.023555921
97	0xbcf35c9e	-0.02970725
98	0x3de705a5	0.112803735
99	0x3c0fe9d3	0.008783775
100	0xbcf827a7	-0.030292345
101	0xbcd5f1c0	-0.026116252
102	0xbcbafd52	-0.02282587
103	0xbd04a70f	-0.032385882
104	0xbc5b126d	-0.013371092
105	0x3d01eca9	0.031719837
106	0xbc97eba8	-0.018544987
107	0xbd0e8540	-0.034795046
108	0xbcc025d3	-0.023455536
109	0x3bccbd4c	0.006248152
110	0x3e011412	0.12605312
111	0xbbd16056	-0.006389658
112	0x3ee83bde	0.45358175
113	0x3d649bc1	0.0558126
114	0x3eb27d23	0.34861097
115	0x3e7da384	0.24769408
116	0xbd06dc64	-0.032925025
117	0xbc91e81e	-0.017810877
118	0xbc73446f	-0.014847859
119	0x3e32a44b	0.17445485
120	0x3e905402	0.28189093
121	0x3eb70bbb	0.35751137
122	0x3e9c0e70	0.30479765
123	0xbcaf2cde	-0.021383699
124	0x3f032bfa	0.5123898
125	0x3e24c401	0.16090395
126	0x3e1da2c2	0.15394118
127	0x3e35cff2	0.17755106
128	0x3e4b57f6	0.19857773
129	0x3e934500	0.2876358
130	0x3d0b88a0	0.034065843
131	0x3c8a3e2a	0.016875345
132	0x3e28c671	0.1648195
133	0xbd47f4d7	-0.04881748
134	0x3d38efc3	0.04515053
135	0xbcef7b04	-0.029233463
136	0xbc89bac4	-0.01681269
137	0xbc9e40b1	-0.019317957
138	0xbe3f99fc	-0.18711084
139	0xbdaeb6ec	-0.08530983
140	0xbcc986d4	-0.024600424
141	0x3ddbd2d4	0.10733572
142	0xbd03a8ee	-0.032143526
143	0xbc97dd6d	-0.018538201
144	0xbcf5ef90	-0.030021459
145	0x3d303ded	0.043027807
146	0xbcc17d0d	-0.0236192
147	0x3e8ffcc6	0.28122538
148	0x3e43b5a8	0.19112265
149	0x3e7e729d	0.24848409
150	0x3e89328b	0.26796374
151	0xbc9de663	-0.019274896
152	0x3d83d5b8	0.06437248
153	0x3e525e67	0.20543824
154	0xbd647a32	-0.055780597
155	0x3e8624e2	0.26200014
156	0x3e2997c5	0.16561802
157	0x3e36513f	0.1780443
158	0x3e05200f	0.1300051
159	0x3cb5b837	0.022182567
160	0x3d077fe9	0.03308097
161	0x3de9d5fa	0.11417766
162	0xbcb8c38c	-0.022554182
163	0xbd185949	-0.037194524
164	0x3e741626	0.23836574
165	0x3eaf508f	0.3424115
166	0x3da4ec3a	0.08052869
167	0xbc864443	-0.016389972
168	0x3e285ed7	0.16442429
169	0xbc69fc78	-0.014281385
170	0xbe213bb6	-0.15745434
171	0x3d24aeda	0.040205814
172	0xbc8a6bf9	-0.016897188
173	0x3e1f27f7	0.15542589
174	0x3e9ac8b2	0.30231243
175	0x3cc36284	0.023850687
176	0x3d3d309d	0.04618894
177	0x3e94f564	0.29093468
178	0x3e73a269	0.23792423
179	0xbcbcf5bd	-0.023066396
180	0xbcc5d414	-0.024148978
181	0x3e38993d	0.18027206
182	0x3e494c7b	0.19658081
183	0xbca081d4	-0.019593157
184	0x3e20a78e	0.15688917
185	0xbe142704	-0.14468008
186	0x3e850904	0.2598344
187	0x3cf77800	0.030208588
188	0x3c90f356	0.017694157
189	0xbe4353db	-0.19074957
190	0xbcc974a4	-0.024591751
191	0x3ed53540	0.4164219
192	0xbd957ea8	-0.072995484
193	0xbbc0ac28	-0.0058798976
194	0xbc9ca056	-0.019119423
195	0x3da56ddc	0.08077595
196	0x3e157e56	0.14598975
197	0x3e4b5728	0.19857466
198	0x3e4e0082	0.20117381
199	0xbca606ee	-0.020266976
200	0xbdb4fbf0	-0.08837116
201	0x3e37480d	0.17898579
202	0x3e8b1356	0.2716319
203	0xbc0f2872	-0.00873767
204	0x3ef8e2f4	0.48610651
205	0xbe344e23	-0.17607932
206	0x3d292c6a	0.041302122
207	0xbc8d8461	-0.017275037
208	0x39c03eb4	0.0003666781
209	0xbc68230f	-0.014168515
210	0xbcc8b82a	-0.024501879
211	0x3b307b09	0.0026928803
212	0x3ec00262	0.37501818
213	0x3d780cf1	0.060559217
214	0x3db5ee34	0.08883324
215	0xbca3920b	-0.0199671
216	0x3e8c29f9	0.27375773
217	0xbd0a1837	-0.0337145
218	0x3d1fbb10	0.038996756
219	0xbcc559f2	-0.02409074
220	0x3d9aba67	0.07555085
221	0x3e450546	0.19240293
222	0xbc86ea05	-0.016469011
223	0x3e8ab7cb	0.27093348
224	0x3ccbd6f0	0.024882764
225	0xbe3a0d6b	-0.18169181
226	0x3ea1c3a0	0.31594563
227	0x3d72d2a9	0.059282932
228	0x3ec13929	0.37738922
229	0x3c802dd8	0.01564686
230	0xbcec45e4	-0.02884192
231	0x3e7eee0c	0.24895495
232	0x3e6db9a1	0.23215343
233	0x3edd972e	0.43279403
234	0xbd7dfe0d	-0.06200986
235	0xbce3b3b1	-0.027795644
236	0xbdb3e65c	-0.08784172
237	0xbdbe0e38	-0.09280056
238	0x3e3b5c80	0.18297005
239	0x3e0703c8	0.13185036
240	0x3e8cd102	0.2750321
241	0x3e7ff361	0.24995185
242	0x3e04df5a	0.12975827
243	0xbd590b38	-0.052989215
244	0xbd9f681c	-0.07783529
245	0xbdcb3435	-0.09922067
246	0x3d0cd7a9	0.034385357
247	0x3dd2a275	0.102848925
248	0x3df79ec8	0.12090832
249	0xbc7fa952	-0.015604334
250	0x3eaa8eff	0.33312222
251	0x3ea6ab49	0.32552555
252	0xbcb1ba53	-0.021695292
253	0xbc789e98	-0.01517453
254	0xbce9e1f6	-0.02855013
255	0xbc5c7b03	-0.013457063

parameters.mlp_1_w f4 [256, 256]
0	0xbe9e10cc	-0.3087219
1	0xbe4a9716	-0.19784197
2	0xbd033a73	-0.032038163
3	0xbd3ca2a5	-0.046053547
4	0xbd14619f	-0.03622591
5	0xbe7ebd3d	-0.24876876
6	0x3d99bcf5	0.07506744
7	0xbe7e035a	-0.24805966
8	0xbe4b9d2f	-0.1988418
9	0x3e108dda	0.14116612
10	0x3ed2fbb0	0.41207647
11	0xbda0e887	-0.07856851
12	0xbec9ace9	-0.39389732
13	0xbe8364fe	-0.25662988
14	0xbeb5b241	-0.3548756
15	0x3e9fcd67	0.31211397
16	0x3e44a386	0.19203004
17	0x3ed776b6	0.42082757
18	0xbe761233	-0.2403038
19	0xbdfec720	-0.12440324
20	0x3bc9b257	0.006155293
21	0xbeddf5fb	-0.4335173
22	0x3c98b745	0.018642077
23	0x3e054ead	0.13018294
24	0x3e47e08d	0.19519253
25	0xbc925b91	-0.017865928
26	0xbd8cf420	-0.06882501
27	0x3dbc1673	0.09183969
28	0x3d9e99c8	0.07744175
29	0xbe6861eb	-0.22693603
30	0xbd51b56f	-0.05119842
31	0xbe7af841	-0.24508764
32	0xbe13e5fe	-0.14443204
33	0xbe2d532f	-0.16926263
34	0x3d914865	0.07093886
35	0x3e4893ad	0.19587584
36	0xbef398ec	-0.47577608
37	0x3c9c0294	0.019044198
38	0xbe3ea79d	-0.18618627
39	0x3e3951f7	0.18097673
40	0xbda2595d	-0.07927201
41	0xbe9b082d	-0.30279675
42	0x3d078dad	0.033094097
43	0x3da8d036	0.08242838
44	0xbe456744	-0.19277674
45	0x3e3b2d97	0.1827911
46	0x3ea94fc4	0.3306867
47	0xbd67202c	-0.056427166
48	0xbe942061	-0.28930953
49	0x3e8753ec	0.26431215
50	0xbd908f9d	-0.07058642
51	0x3e11fa94	0.14255744
52	0xbd8535ea	-0.06504424
53	0xbf56d40d	-0.83917314
54	0xbe4ba0f0	-0.19885612
55	0x3e9d8259	0.3076351
56	0xbdae48a1	-0.085099466
57	0xbd55142c	-0.05202119
58	0x387d9fee	6.0468847e-05
59	0xbeb0aefb	-0.345085
60	0x3ebab779	0.36468104
61	0x3dcae55a	0.099070266
62	0xbe3137fe	-0.17306516
63	0x3d179513	0.037007403
64	0xbef47076	-0.4774205
65	0x3e431643	0.19051461
66	0x3b7eed2c	0.003889869
67	0xbe653118	-0.22382009
68	0xbf29f3a2	-0.6638738
69	0xbd4f7499	-0.050648306
70	0x3c4bf716	0.012449047
71	0xbde4bb6b	-0.1116856
72	0xbe0d5e51	-0.1380551
73	0x3deab366	0.11459999
74	0x3dc07c47	0.09398704
75	0x3ce4ea78	0.027943835
76	0xbd5af00b	-0.05345158
77	0xbd1e7fae	-0.038695984
78	0xbdb31346	-0.087439105
79	0x3e4e2e79	0.20134915
80	0x3eb5d101	0.3551102
81	0x3dd9b0a7	0.10629397
82	0x3e067b14	0.13132888
83	0x3d85b34b	0.06528338
84	0xbd7d7919	-0.061883066
85	0x3e4bfdb5	0.19921
86	0xbedca717	-0.4309623
87	0x3dd3316a	0.10312159
88	0x3e3280bc	0.17431921
89	0x3d7692ba	0.060198523
90	0x3d5e39bb	0.054254275
91	0xbe436159	-0.19080104
92	0x3eaaefa9	0.3338597
93	0xbdfc1948	-0.123095095
94	0xbdec2594	-0.11530605
95	0x3e0807c3	0.13284211
96	0xbebfb130	-0.3743987
97	0xbd418056	-0.04724153
98	0xbe7ef5a2	-0.24898389
99	0x3cf45084	0.02982355
100	0xbe594850	-0.21218991
101	0xbc9c5654	-0.019084133
102	0xbf4840ef	-0.7822408
103	0xbd2e1229	-0.042497788
104	0x3de2eb70	0.110800624
105	0xbe7da81b	-0.24771158
106	0x3e910422	0.28323466
107	0x3dec0f89	0.115264006
108	0xbe829982	-0.25507742
109	0xbd9eadb9	-0.07747979
110	0x3cbab81d	0.02279287
111	0x3e301181	0.17194177
112	0x3dbe7b3d	0.093008496
113	0x3e5bc370	0.21461272
114	0xbcb4b052	-0.022056732
115	0xbd354cab	-0.04426257
116	0x3e034c42	0.12822059
117	0xbd90c8b2	-0.070695296
118	0x3ea123fb	0.31472763
119	0x3cea0640	0.028567433
120	0xbf153115	-0.5827802
121	0xbe349b37	-0.17637335
122	0x3d54f361	0.051989917
123	0xbdb95bf7	-0.09050744
124	0x3edb84c7	0.4287474
125	0x3e9865ca	0.2976516
126	0x3e49662b	0.1966788
127	0x3dc38764	0.09547308
128	0xbe36c023	-0.17846732
129	0xbec96f56	-0.39342755
130	0x3d9ea075	0.077454485
131	0xbc1a0439	-0.009400421
132	0x3f07dac0	0.5306816
133	0x3d8b1376	0.06790821
134	0xbe126f00	-0.14300156
135	0xbd3f3863	-0.046684634
136	0xbdf3c1ac	-0.11902174
137	0xbd278db2	-0.040906616
138	0xbba51dc1	-0.0050389473
139	0x3e07b6d9	0.13253345
140	0x3eb1b8c9	0.34711292
141	0xbe6a4779	-0.22878827
142	0xbe9a7fd3	-0.30175647
143	0x3d4eb09d	0.0504614
144	0xbecda79e	-0.40166944
145	0x3e00dfd9	0.12585391
146	0x3e913163	0.28357992
147	0xbdb0d0f9	-0.08633608
148	0xbdcc76ef	-0.09983622
149	0x3e1db170	0.15399718
150	0x3dc0dd9c	0.09417269
151	0x3dd770d1	0.10519565
152	0xbe335913	-0.17514448
153	0xbc90cf77	-0.017677052
154	0x3e51848b	0.20460717
155	0xbd8917f4	-0.06694022
156	0x3e1fd709	0.15609373
157	0xbb9630a0	-0.0045834333
158	0x3d0a1e79	0.033720467
159	0xbd6275e2	-0.055288203
160	0x3d7721c2	0.06033493
161	0xbd9ed701	-0.077558525
162	0xbf0ec935	-0.5577577
163	0xbf0cb38d	-0.5496147
164	0x3c954475	0.01822112
165	0xbe2a2005	-0.16613777
166	0xbd388958	-0.045052856
167	0x3e343f14	0.17602187
168	0xbeca7a7a	-0.39546567
169	0x3e35602e	0.17712471
170	0xbf46603d	-0.774906
171	0xbebd95b6	-0.37028283
172	0x3e329151	0.17438246
173	0xbd9d3983	-0.07676985
174	0x3c77eea1	0.015132577
175	0xbec2a4a0	-0.38016224
176	0xbe194965	-0.14969404
177	0x3b7c965e	0.0038541774
178	0xbe2d3f57	-0.16918693
179	0x3e2d0e1d	0.16899915
180	0x3e653840	0.22384739
181	0xbf1c5b07	-0.61076397
182	0xbe3e8039	-0.186036
183	0x3d072615	0.032995302
184	0xbd6ecea0	-0.05830252
185	0x3c7a099e	0.015261082
186	0xbee47103	-0.4461747
187	0x3e252488	0.16127217
188	0xbdf0a16a	-0.11749537
189	0xbddc7d12	-0.10766043
190	0xbedebea7	-0.4350483
191	0xbbab1ee3	-0.005222188
192	0xbf0db77f	-0.5535812
193	0xbe25f022	-0.16204885
194	0x3e57da5f	0.21079396
195	0x3dcca085	0.09991554
196	0xbbdd5049	-0.0067539555
197	0xbebbec1b	-0.36703572
198	0xbd6d380a	-0.05791477
199	0xbe768f54	-0.24078113
200	0xbe5bd69b	-0.21468584
201	0x3eca20c8	0.39478135
202	0xbeacafb0	-0.3372779
203	0xbebc8996	-0.3682372
204	0xbe9b5d20	-0.30344486
205	0x3cd22cee	0.02565619
206	0x3e85e72b	0.2615293
207	0x3da8bf70	0.08239639
208	0xbe4a8588	-0.197775
209	0x3c877851	0.016536864
210	0xbd88071d	-0.06641982
211	0xbde43146	-0.11142211
212	0xbde07b81	-0.109610565
213	0xbc7bcf31	-0.0153692225
214	0xbdf16fb6	-0.11788885
215	0xbf5c6e46	-0.86105764
216	0x3e347a67	0.17624818
217	0x3e2cbc52	0.16868713
218	0x3eef9f4d	0.46801224
219	0xb9d9806a	-0.0004148514
220	0x3ec24f0c	0.37950933
221	0x3d2a73ed	0.04161446
222	0xbe323a4a	-0.17405048
223	0x3cb83e53	0.022490656
224	0xbc102255	-0.008797248
225	0x3e473ca6	0.1945673
226	0xbe905709	-0.28191403
227	0xbf02de2f	-0.51120275
228	0xbe9ebbe6	-0.3100273
229	0x3e9bc7c5	0.3042585
230	0xbe483818	-0.19552648
231	0xbe024438	-0.12721336
232	0xbbba1728	-0.00567903
233	0x3ca0aca4	0.019613571
234	0xbf3b0db2	-0.7306777
235	0xbc8fed19	-0.017569112
236	0xbe8e70d1	-0.27820447
237	0xbe8f1563	-0.27946004
238	0xbecdcfa3	-0.40197477
239	0xbda59bda	-0.08086367
240	0x3cda932e	0.026681509
241	0xbe0744ce	-0.1320984
242	0x3ee17ae4	0.4403907
243	0xbe1f23a0	-0.15540934
244	0xbef61e40	-0.48069954
245	0xbf114831	-0.5675078
246	0x3bce5585	0.006296816
247	0xbde8fe02	-0.11376573
248	0x3e5728fc	0.21011728
249	0xbe3a2e8f	-0.18181823
250	0xbe304e17	-0.17217289
251	0xbe9f1140	-0.31067848
252	0x3da7017d	0.08154581
253	0x3d198353	0.037478756
254	0x3d7aa459	0.06119189
255	0xbd7d00c0	-0.061768293

parameters.mu_b f4 [8]
0	0xbe105742	-0.14095786
1	0x3e7d2d1f	0.24724244
2	0x3e7c7ce7	0.24657021
3	0x3c6088e6	0.013704514
4	0x3cee944b	0.029123446
5	0xbe131d68	-0.14366686
6	0x3d9396c1	0.072064884
7	0xbcbdd731	-0.0231739

parameters.mu_w f4 [8, 256]
0	0x3dba8093	0.09106555
1	0xbe6e880e	-0.23294088
2	0x3d899b3b	0.06719061
3	0x3e2611df	0.16217755
4	0xbd5f1a50	-0.054468453
5	0x3e931796	0.28728932
6	0xbda857a4	-0.08219841
7	0x3dfc1047	0.12307792
8	0xbc84c0c8	-0.016205207
9	0xbe37ee80	-0.17962074
10	0x3e7c4f33	0.24639587
11	0xbee700d4	-0.4511782
12	0xbf0c81de	-0.5488566
13	0x3eb7ebbb	0.35922036
14	0xbea0dce4	-0.31418526
15	0x3f239144	0.6389353
16	0x3e74bffb	0.2390136
17	0x3f3cd6a2	0.73765004
18	0xbb1c7106	-0.0023871078
19	0xbbfe8701	-0.0077675586
20	0x3eacfcdb	0.33786663
21	0xbc9a4065	-0.018829534
22	0xbd153de0	-0.03643596
23	0x3cc7f795	0.024410048
24	0x3f30e59f	0.69100374
25	0x3cd18e11	0.025580438
26	0x3aef65e3	0.0018264618
27	0xbae7e3c1	-0.0017691777
28	0xbf47fed9	-0.7812324
29	0x3e6e9af7	0.23301302
30	0x3f76ea98	0.9645171
31	0xbf1b557a	-0.606773
32	0x3d99c8a0	0.07508969
33	0xbf45b5d8	-0.77230597
34	0x3c34eb3f	0.011042415
35	0xbeafecc9	-0.3436034
36	0x3be61c1d	0.0070223943
37	0xbe2435b0	-0.16036105
38	0xbda0fd08	-0.07860762
39	0x3bec6b9e	0.0072149774
40	0x3c07214d	0.008247686
41	0xbd3733b0	-0.044727027
42	0x3c89ca0e	0.01681998
43	0xbd53d5ea	-0.051717676
44	0x3d6fe5f8	0.058568925
45	0x3f9d150f	1.2272052
46	0x3caad8e3	0.020855373
47	0x3f0ac8ed	0.5421284
48	0xbb082ff6	-0.002078054
49	0xbc260a38	-0.010134272
50	0x3cb75906	0.022381317
51	0x3e150b9f	0.14555214
52	0xbda2f46d	-0.07956777
53	0x3f0a897c	0.54116035
54	0xbbc220dc	-0.0059243273
55	0xbc578e91	-0.013156549
56	0xbd18bba7	-0.037288334
57	0x3c980ab6	0.018559795
58	0x3dd503a1	0.10401083
59	0xbeb070fc	-0.344612
60	0xbb9a590b	-0.004710322
61	0x3be40ca2	0.0069595138
62	0xbeac0c3f	-0.33603093
63	0x3f0b4eca	0.544171
64	0xbe3dc246	-0.1853114
65	0x3e09eb13	0.1346858
66	0x3cd22c46	0.025655877
67	0xbc2033d0	-0.009777978
68	0xbf075202	-0.5285951
69	0x3e5025f6	0.20326981
70	0x3de07fd5	0.10961882
71	0xbb9103d1	-0.004425504
72	0xbe649d19	-0.22325553
73	0x3ea1d77f	0.31609723
74	0xbc5492b4	-0.01297443
75	0x3c3204a5	0.010865365
76	0xbf07eb8b	-0.53093785
77	0x3e405188	0.18781102
78	0x3fc85b80	1.5652924
79	0x3e56cc29	0.20976318
80	0xbd4c8e3e	-0.04994034
81	0x3dee7cdb	0.11644908
82	0xbcfd8ac3	-0.030949956
83	0x3ddd2db3	0.10799732
84	0x3b8c2dbf	0.0042779143
85	0x3c049ef1	0.008094535
86	0x3dfe3c31	0.12413824
87	0x3e36d1e1	0.178535
88	0xbee4ab54	-0.44661963
89	0x3b59354b	0.0033143337
90	0x3f4f8fa6	0.81078565
91	0xbec49d79	-0.38401392
92	0x3bf3a4bc	0.0074354094
93	0xbe9f80b5	-0.31152883
94	0xbcbba051	-0.022903593
95	0xbeb4da54	-0.3532282
96	0xbc72af59	-0.014812314
97	0xbb5dff40	-0.0033874065
98	0xbd864399	-0.06555862
99	0x3e4b8202	0.19873813
100	0xbc1752d0	-0.009236053
101	0x3c1c6cef	0.009547456
102	0xbc718749	-0.014741727
103	0x38f56acc	0.00011702403
104	0x3c22c086	0.0099335965
105	0x3d8b2e26	0.067959115
106	0x3b47dbc5	0.0030495983
107	0x3cbb86cb	0.022891423
108	0x3c91a8d9	0.017780708
109	0x3ffdc894	1.9826837
110	0xbf847728	-1.0348864
111	0xbc01c755	-0.00792106
112	0xbe1c05b7	-0.15236555
113	0xbd51dacc	-0.05123405
114	0xbea2fd47	-0.3183386
115	0x3e8dbd9c	0.27683723
116	0x3bf4096e	0.007447413
117	0xba2490b3	-0.00062776654
118	0x3c0c96e5	0.008580898
119	0xbff98e91	-1.9496633
120	0xbecd8017	-0.40136787
121	0xbdeec99c	-0.11659548
122	0xbe2a9f08	-0.16662228
123	0x3c2fc104	0.010727171
124	0xbda69814	-0.08134475
125	0xbef684d7	-0.48148224
126	0xbf7c12e1	-0.98466307
127	0x3e4a806a	0.19775549
128	0xbebad5a0	-0.36491108
129	0xbf5303df	-0.8242778
130	0x3d2fbbc6	0.042903684
131	0xbac72f1a	-0.0015196532
132	0x3dea2a83	0.1143389
133	0x3b1b1640	0.0023664385
134	0x38d096f6	9.9463316e-05
135	0x3cd70afa	0.026250351
136	0xbb16ecea	-0.0023029395
137	0xbc890780	-0.01672721
138	0xbd06cdfa	-0.03291128
139	0xbdf338e7	-0.11876088
140	0xbc3427ea	-0.010995844
141	0x3f880bb2	1.0628569
142	0xbaa7c5eb	-0.0012800073
143	0xbb619459	-0.0034420697
144	0x3ceec4b7	0.029146535
145	0x39514871	0.0001995878
146	0x3c1b77e1	0.009489031
147	0xbe6636e0	-0.2248187
148	0xbe762b74	-0.24040014
149	0xbd0f93e0	-0.035053134
150	0xbf7c786b	-0.98621243
151	0x3c8e90cf	0.017403034
152	0x3d8c93d1	0.06864131
153	0x3f79f19c	0.9763429
154	0xbf090c3c	-0.53534293
155	0x3f87633d	1.057716
156	0xbf16e0ad	-0.5893658
157	0x3d304807	0.04303744
158	0x3e6b85d3	0.23000269
159	0xbdf4dd7f	-0.119563095
160	0xbcbad9d9	-0.022808956
161	0x40267b60	2.6012802
162	0x3c8a9b82	0.016919855
163	0xbd60a673	-0.05484624
164	0x3d77c6e2	0.060492404
165	0xbdce90f2	-0.1008624
166	0x3e92966d	0.2863039
167	0x3bc26d2f	0.005933426
168	0x3f639e24	0.8891318
169	0x3b1f37f1	0.0024294818
170	0xbdb8f6af	-0.09031426
171	0xbdace5fd	-0.08442304
172	0xbaa9a466	-0.0012942671
173	0x3e172f35	0.14764102
174	0xbec6ff33	-0.38866577
175	0xbc36ce87	-0.011157638
176	0xbaa0c39c	-0.0012265327
177	0x3da4066c	0.080090374
178	0xbe507787	-0.20358096
179	0x3ca0b5d5	0.019617954
180	0x3c9c6213	0.019089734
181	0x3cf78bea	0.030218083
182	0x3f8e38e1	1.1111108
183	0xbca3dfa7	-0.020004107
184	0x3e0b7d28	0.13621962
185	0xbf90c87c	-1.1311183
186	0x3e4c87a7	0.19973622
187	0xbd1c1163	-0.03810252
188	0xbcb88706	-0.022525322
189	0x3e29970d	0.16561528
190	0x3c85e7dd	0.016345913
191	0x3f2a0048	0.6640668
192	0xbdc47d8d	-0.095942594
193	0xbef0a889	-0.47003582
194	0xbbfc7b26	-0.00770511
195	0xbbb4ce6b	-0.005517771
196	0xbf342f30	-0.703845
197	0xbe88f4c9	-0.26749256
198	0xbeb1e2cf	-0.34743354
199	0x3bd21d4a	0.006412183
200	0x3f018628	0.5059533
201	0xbf5f99c2	-0.8734399
202	0x3c6e422f	0.014542147
203	0xbed33760	-0.41253185
204	0xbdb8078f	-0.08985817
205	0x3c8ee344	0.017442353
206	0xbc8fa3b5	-0.017534116
207	0x3bbc8c38	0.00575402
208	0xbebefe19	-0.37303236
209	0xbb013e54	-0.0019720988
210	0x3c203956	0.009779295
211	0xbf5b1807	-0.8558354
212	0xbf3547db	-0.7081277
213	0x3de47534	0.11155167
214	0x3ea5a8bc	0.32355297
215	0xbc82a25b	-0.015946558
216	0xbe909737	-0.28240368
217	0xbd37ea87	-0.044901397
218	0xbce26419	-0.02763562
219	0x3ca34913	0.019932305
220	0x3dd10585	0.10206131
221	0x3df09a0a	0.117481306
222	0xbb70e65b	-0.0036758396
223	0xbfb7a59d	-1.4347416
224	0xbc331ec6	-0.01093263
225	0x3e233d47	0.15941344
226	0xbd9cc2e2	-0.076543584
227	0x3fa101bc	1.2578654
228	0xbf41cb9d	-0.75701314
229	0x3f06adc8	0.5260892
230	0xbc191c7d	-0.009345171
231	0xbad5ca56	-0.0016310911
232	0x3c25cdda	0.01011988
233	0xbd7628e4	-0.06009759
234	0x3cb11b89	0.021619575
235	0xbd63de17	-0.055631723
236	0x3f300c44	0.68768716
237	0x3ef92c0e	0.48666424
238	0xbe13a741	-0.14419271
239	0xbe73dd86	-0.23814973
240	0x3fbeca05	1.4905401
241	0x3f3f65cb	0.747647
242	0xbd8a56db	-0.067548476
243	0x3f79a571	0.9751807
244	0x3f1e0680	0.6172867
245	0x3e28be23	0.16478781
246	0x3e9b51e5	0.30335918
247	0x3e6a77a6	0.22897205
248	0x3f171efc	0.59031653
249	0x3c939994	0.018017568
250	0x3ee1c611	0.44096425
251	0xbcb3c1df	-0.02194303
252	0x3aba16fb	0.0014197523
253	0xbc5a6e30	-0.013331935
254	0xba5dd069	-0.00084615365
255	0x3bf53b19	0.0074838516

parameters.std_b f4 [8]
0	0xc0531a75	-3.2984898
1	0xc05b0019	-3.421881
2	0xc063b394	-3.5578356
3	0xc05b5d01	-3.4275515
4	0xc057da7a	-3.3727098
5	0xc05f2c12	-3.4870648
6	0xc057b37f	-3.3703306
7	0xc056b1db	-3.3546054

parameters.std_w f4 [8, 256]
0	0x3d905121	0.07046724
1	0xbe6d6647	-0.23183547
2	0xbed6ef8a	-0.4197963
3	0xbcdeecdd	-0.027212555
4	0x3d065d9b	0.032804113
5	0xbe82d510	-0.2555318
6	0xbe5ac714	-0.21365005
7	0x3d6458a0	0.055748582
8	0x3d41daab	0.04732768
9	0xbe8917ce	-0.26775974
10	0xbe242300	-0.16028976
11	0xbe858006	-0.26074237
12	0x3ccd8dac	0.025091968
13	0xbdf10127	-0.11767798
14	0xbe6f4e80	-0.23369789
15	0x3cdf273e	0.027240392
16	0xbe4d2f56	-0.20037588
17	0x3e85d46b	0.26138625
18	0xbc084001	-0.008316041
19	0x3cc056b0	0.023478836
20	0xbed1fd63	-0.4101363
21	0x3c889690	0.016673356
22	0x3c19a85d	0.00937852
23	0x3c17ed80	0.009272933
24	0xbe817ccb	-0.25290522
25	0x3b3ca010	0.0028781928
26	0x3c3b3f87	0.01142872
27	0x3c195ea9	0.009360948
28	0x3d85ccd6	0.0653321
29	0xbe97f191	-0.29676488
30	0x3eaf3923	0.3422328
31	0x3c64f1d9	0.013973677
32	0x3ddd3e8a	0.10802944
33	0x3dea22b4	0.114324
34	0xbdcfddec	-0.1014975
35	0x3e27266f	0.16323255
36	0x3a56521f	0.0008175689
37	0xbe5ef277	-0.2177218
38	0xbe5132e1	-0.20429565
39	0xbca070ac	-0.019584976
40	0x3b97e9e0	0.0046360344
41	0xbe873daf	-0.26414248
42	0x3c6d5a1f	0.014486819
43	0x3c9fb1ae	0.019493904
44	0x3e2a879e	0.16653296
45	0xbd440256	-0.04785379
46	0xba815273	-0.0009866491
47	0xbdce1893	-0.10063281
48	0x3b34aa21	0.0027567225
49	0xbcb7ce47	-0.022437228
50	0xbf10d1d1	-0.56570154
51	0x3e281da3	0.16417556
52	0x3e124e20	0.14287615
53	0xbc9227e6	-0.01784129
54	0x3d577ca9	0.05260912
55	0xbc49ca1a	-0.012316251
56	0x3cb95624	0.022624083
57	0xb9afec25	-0.00033554542
58	0xbed3c190	-0.41358614
59	0xbe66b4f2	-0.22529963
60	0x3d024f70	0.03181404
61	0x3c311a95	0.01080956
62	0xbe986b52	-0.2976938
63	0x3f36ff91	0.71483713
64	0xbe307b5f	-0.17234562
65	0xbdf632c2	-0.120214
66	0x3c258ab4	0.01010387
67	0xbc6de35b	-0.014519538
68	0xbf08c748	-0.5342908
69	0xbe13912a	-0.14410844
70	0xbe1ab4b1	-0.15107991
71	0x3c8e86ac	0.0173982
72	0xbe696f9a	-0.22796479
73	0xbc016487	-0.007897503
74	0xbbe48ed1	-0.006975033
75	0xbe5f86ac	-0.21828717
76	0x3dd11abe	0.10210179
77	0xbdff2c25	-0.12459592
78	0x3d8f0b7a	0.06984611
79	0xbef6121e	-0.48060697
80	0x3c33e097	0.010978839
81	0xbdc13bcd	-0.09435234
82	0x3cae896a	0.021305759
83	0xbd6f233d	-0.058383215
84	0x3c69ea37	0.014277033
85	0x3d2ae670	0.04172367
86	0x3b80d6ad	0.0039318413
87	0x3c525dc9	0.012839743
88	0x3d97c101	0.074098594
89	0xbcc1ffbc	-0.023681514
90	0xbdc38174	-0.095461756
91	0x3e9564a4	0.29178345
92	0x3aee3687	0.0018174209
93	0xbe41d5eb	-0.1892926
94	0x3c19247f	0.00934708
95	0x3deaf17c	0.11471841
96	0x3c13a47b	0.009011383
97	0x3bdffb1b	0.006835354
98	0xbe083899	-0.1330284
99	0xbe5e5dfe	-0.21715543
100	0xbac9cd7c	-0.0015396322
101	0x3be46b69	0.006970812
102	0x3cd3c996	0.02585296
103	0x3ca215e7	0.019785834
104	0x3c16f468	0.009213544
105	0xbc40da9e	-0.011770872
106	0x3ad59f23	0.0016298037
107	0x3c3a0da6	0.011355793
108	0x3a05b19f	0.0005100015
109	0x3dfbb33a	0.12290044
110	0x3d17df22	0.03707803
111	0x3c551c13	0.013007182
112	0xbe4304c6	-0.1904479
113	0x3c05de2e	0.008170648
114	0xbe6425d3	-0.22280054
115	0xbe2a9b4a	-0.166608
116	0x3cbd4c60	0.023107708
117	0xbbbb4449	-0.0057149273
118	0xbb987ee2	-0.0046537975
119	0x3f1e83ea	0.61920035
120	0xbdea3cdf	-0.114373915
121	0xbd6996b9	-0.057028506
122	0xbe9eceb6	-0.31017083
123	0x3bf12e94	0.007360289
124	0xbef35b2f	-0.47530505
125	0x3d41ac39	0.047283385
126	0x3b33246e	0.0027334946
127	0xbd36b38a	-0.044604816
128	0xbd344354	-0.04400952
129	0x3d132e90	0.035933077
130	0x3d6e2d7c	0.058148846
131	0x3cef822e	0.02923688
132	0x3d3bae16	0.04582032
133	0xbb699383	-0.0035640902
134	0x3d53023c	0.051515803
135	0x3c173ca2	0.009230765
136	0xbbb84b7a	-0.005624232
137	0xbc31e6a9	-0.010858216
138	0xbef2e6df	-0.47441766
139	0xbef17778	-0.4716146
140	0xbca76155	-0.020432154
141	0xbf050294	-0.5195706
142	0x3b9c6077	0.0047722417
143	0xbb8fecbd	-0.004392235
144	0x3c505e3c	0.01271778
145	0x3d7bdfb8	0.06149265
146	0x3bc29697	0.005938362
147	0xbee66249	-0.4499686
148	0xbe35676a	-0.1771523
149	0xbecc6427	-0.3992016
150	0x3e0ef76f	0.13961576
151	0xbc9911e7	-0.018685294
152	0xbe473615	-0.19454224
153	0x3e526c51	0.20549132
154	0xbd23cd71	-0.039990846
155	0x3dbf0508	0.093271315
156	0x3dc89554	0.09794107
157	0x3b4e2f75	0.0031461392
158	0x3dddc938	0.10829395
159	0x3cddb969	0.02706595
160	0x3d0853db	0.033283096
161	0x3f5f7fd4	0.87304425
162	0x3c0650d1	0.008197979
163	0xbd435b7a	-0.04769466
164	0x3d2d3613	0.042287897
165	0xbe54c4b3	-0.2077816
166	0xbce5d25a	-0.028054405
167	0xbb6771b5	-0.0035315577
168	0x3d5890eb	0.05287258
169	0xbc28afe6	-0.010295844
170	0x3ec3b419	0.3822334
171	0xbe10539c	-0.14094394
172	0x3a4aba92	0.00077334896
173	0xbe31bb85	-0.1735669
174	0xbf087bcd	-0.53313905
175	0x3d8d50ab	0.06900152
176	0x3cbfe250	0.023423344
177	0xbe2e8561	-0.17043068
178	0x3e521c24	0.20518547
179	0xbc103011	-0.008800522
180	0x3c6b4421	0.014359505
181	0xbea90abe	-0.33016008
182	0x3c3329f8	0.010935299
183	0x3eaeacbb	0.34116158
184	0xbd44e972	-0.048074193
185	0x3e4ca6e1	0.19985534
186	0xbe612f72	-0.21990755
187	0xbdad2e1f	-0.084560625
188	0x3cca0b4e	0.024663594
189	0x3f0d29ed	0.551421
190	0x3c6848bb	0.014177497
191	0xbd9e1b1f	-0.07720017
192	0xbee267f6	-0.4421994
193	0xbe8488a6	-0.25885504
194	0x3ca345ae	0.019930687
195	0xbc5c4ea2	-0.013446482
196	0x3f177b2c	0.5917232
197	0x3d8fee7b	0.070279084
198	0xbc24a603	-0.010049346
199	0x3c1d8ad3	0.009615618
200	0x3ef98ce1	0.48740295
201	0x3f05c9e2	0.52261174
202	0xbe38b436	-0.18037495
203	0xbdb3dd07	-0.08782392
204	0xbe3e9c83	-0.18614392
205	0xbe14d26e	-0.14533398
206	0x3e0f292b	0.13980548
207	0x3c6efaf6	0.014586201
208	0x3daf0af1	0.08547009
209	0xbbd3f49e	-0.0064683696
210	0x3c0c09db	0.008547272
211	0xbc5bea13	-0.013422507
212	0x3ce9ee83	0.028556114
213	0xbb872c71	-0.004125171
214	0xbdbc74d6	-0.09201972
215	0xbbac7f56	-0.005264203
216	0xbce7a643	-0.028277522
217	0x3bf2bf83	0.007408084
218	0x3c45c350	0.012070492
219	0x3d7ad259	0.06123576
220	0xbc806aea	-0.01567598
221	0xbecaebe4	-0.39633095
222	0xbc79767a	-0.015226001
223	0x3dff585a	0.124680236
224	0x3d63ca24	0.0556127
225	0xbedba612	-0.4290014
226	0xbe981aa6	-0.2970783
227	0x3e02fcad	0.127917
228	0x3e0a6359	0.1351446
229	0x3d31a194	0.043366984
230	0xbb331aca	-0.00273292
231	0x3de15e6f	0.1100434
232	0xbea30695	-0.3184096
233	0xbe6ad29e	-0.22931907
234	0xba02f384	-0.0004995393
235	0x3da08915	0.07838646
236	0xbecdd449	-0.40201023
237	0x3def0ad8	0.1167199
238	0xbea277c6	-0.31732005
239	0xbf056767	-0.52110904
240	0x3e8eafb4	0.27868426
241	0xbe29d2dc	-0.16584343
242	0xbe525670	-0.20540786
243	0x3de6a784	0.1126242
244	0xbeab76eb	-0.33489165
245	0x3da4ea16	0.08052461
246	0xbe398b27	-0.18119489
247	0x3fa05283	1.252518
248	0xbe394d83	-0.18095975
249	0x3c0d6929	0.008631029
250	0x3d717ae7	0.0589551
251	0xbf0d358a	-0.5515982
252	0x3cc526a9	0.024066286
253	0x3cc4ab7e	0.024007555
254	0x3c96c15b	0.018402746
255	0x39b27c5f	0.0003404347
