notebook/result/weights/sac_snapbot/episode_300.pth (torch, 355440 bytes, 8 tensors)

parameters.mlp_0_b f4 [256]
0.22455005 -0.07187121 -0.02665434 -0.09826655 0.24825662 -0.1008335 -0.031367246 -0.16484483
-0.16166025 -0.035869736 -0.06084666 0.0016201714 -0.008575355 0.14981098 -0.1176802 0.5149513
-0.049452595 -0.13393694 -0.06952576 -0.05812657 0.047804225 -0.09355493 -0.05782425 0.14355488
-0.026140923 -0.04957759 -0.058954153 -0.10096031 0.011953563 -0.063831106 -0.0152014075 -0.21159847
-0.042249057 0.21146545 -0.04521751 -0.07119989 -0.024759918 0.077064 -0.19835974 -0.06492247
0.039506312 -0.15484105 0.1556464 -0.17181778 0.034739837 0.21255907 -0.08846094 -0.18766834
-0.12584054 0.13592389 -0.11499398 0.06773021 -0.10737241 -0.1307134 0.26572213 -0.042741995
-0.058766015 -0.2538267 -0.09461115 -0.17743583 -0.2017287 0.10452098 0.036138296 0.04981966
-0.0066508166 -0.2902434 -0.06613376 0.05359012 -0.10567743 -0.2879818 0.15801053 -0.1661046
-0.20423825 0.016527275 -0.11772352 -0.016836487 0.05266082 -0.17569417 0.02999749 -0.2666142
-0.21163905 -0.1250746 -0.026441487 -0.03834484 0.1816063 -0.038678683 -0.19772632 -0.2860908
0.1418024 0.12494841 -0.10555373 0.15344802 -0.006021459 0.10760744 0.0029216248 -0.25863263
0.036030382 -0.11764449 0.040011004 -0.015032852 0.13571776 0.06929449 0.06202193 -0.060562246
-0.04683665 -0.024324436 -0.013715937 0.100718774 -0.1497959 -0.10147828 -0.13060565 0.059582334
0.026397428 -0.11095328 -0.00036839262 -0.104533 0.020079363 -0.017404918 0.18428026 -0.14483926
0.1888371 -0.10662091 -0.04228052 0.14319314 -0.012993932 0.11369605 -0.15083297 -0.031442165
-0.06357644 0.18052164 -0.09077793 0.004481402 -0.30664283 -0.18385014 -0.081079826 0.0563397
0.18928492 0.006175461 0.013215351 0.1650879 0.16895117 0.03929041 -0.2346455 0.03673773
0.0018224125 0.15176587 0.06286028 -0.12163743 -0.23872755 -0.15462877 -0.0871695 -0.13226536
-0.112417005 -0.19105433 -0.05033236 -0.016721554 -0.18107843 -0.11622495 -0.10318034 -0.16310497
0.1146642 -0.17760965 -0.18349065 -0.0071895095 0.108855136 -0.033879615 0.25727922 0.06890616
-0.0852166 -0.10694084 -0.036178567 -0.01173706 0.13522545 0.028054489 0.077990375 0.07993523
-0.08737344 0.25454456 -0.23047507 -0.16718857 0.022113014 -0.120788895 -0.1273817 -0.11314354
-0.11536037 0.021045014 -0.073836125 -0.10843052 -0.0016043428 0.25551975 -0.015926436 -0.083237775
-0.04097138 0.07084824 0.14900106 0.061717834 -0.09232698 0.12909713 -0.068770245 0.14584137
0.09636614 -0.22465171 0.022907084 -0.13846679 0.058536198 -0.08253778 0.101803236 -0.105794564
-0.07957396 0.018192042 -0.09112122 -0.045939468 0.20880647 -0.08995966 -0.04321504 0.16766858
-0.013427172 0.11070443 -0.07165664 -0.13806082 -0.16483049 -0.055237044 0.021256912 -0.10780055
-0.19966015 -0.03646848 -0.021274256 -0.1595581 -0.061480917 -0.09258554 0.07215287 0.3771354
-0.007007427 0.24507184 0.08728291 -0.11335672 0.105515294 -0.011808663 -0.053469233 0.02585065
0.22956765 0.25071853 -0.2541025 -0.09639713 0.05984811 0.08137233 -0.022197574 0.0670412
-0.037428617 -0.22512206 0.10973081 -0.016286477 -0.009821998 0.19690499 -0.058657587 0.027817188
00000000: 73f0 653e 3731 93bd 345a dabc f93f c9bd
00000010: fc36 7e3e cb81 cebd f17a 00bd 15cd 28be
00000020: 448a 25be 25ec 12bd 593a 79bd ee5b d43a
00000030: a57f 0cbc 0d68 193e 5102 f1bd d9d3 033f
00000040: ce8e 4abd c426 09be 8663 8ebd 2016 6ebd
00000050: 5dce 433d ba99 bfbd 1fd9 6cbd 0d00 133e
00000060: 7d25 d6bc df11 4bbd e979 71bd 47c4 cebd
00000070: e1d8 433c e2b9 82bd 530f 79bc 45ad 58be
00000080: 590d 2dbd 668a 583e ff35 39bd 3fd1 91bd
00000090: 50d5 cabc bbd3 9d3d d11e 4bbe 12f6 84bd
000000a0: 5fd1 213d a78e 1ebe c561 1f3e 00f1 2fbe
000000b0: 5c4b 0e3d 16a9 593e 022b b5bd 212c 40be
000000c0: 58dc 00be a22f 0b3e f781 ebbd 23b6 8a3d
000000d0: 11e6 dbbd bcd9 05be bb0c 883e 3b12 2fbd
000000e0: a2b4 70bd 93f5 81be 7ec3 c1bd bdb1 35be
000000f0: f891 4ebe 180f d63d c005 143d b30f 4c3d
00000100: 18ef d9bb c89a 94be 2371 87bd 5081 5b3d
00000110: 696d d8bd 5a72 93be 83cd 213e 5317 2abe
00000120: d523 51be 3564 873c 0719 f1bd acec 89bc
00000130: dfb2 573d 2ce9 33be 4cbd f53c a881 88be
00000140: e8b7 58be 8e13 00be d19b d8bc 7b0f 1dbd
00000150: 00f7 393e 8a6d 1ebd c578 4abe 7e7a 92be
00000160: a634 113e f4e4 ff3d 8e2c d8bd 7a21 1d3e
00000170: a94f c5bb 4a61 dc3d bb78 3f3b 7f6b 84be
00000180: 9894 133d 98ef f0bd 94e2 233d 5a4c 76bc
00000190: 99f9 0a3e 45ea 8d3d b50a 7e3d 1e10 78bd
000001a0: cad7 3fbd 0a44 c7bc cfb8 60bc a545 ce3d
000001b0: 1964 19be d8d3 cfbd 7dbd 05be 9b0c 743d
000001c0: 6b3f d83c 793b e3bd d224 c1b9 6615 d6bd
000001d0: 7a7d a43c c294 8ebc f7b3 3c3e be50 14be
000001e0: 835e 413e 105c dabd 572e 2dbd 39a1 123e
000001f0: 80e4 54bc 7ad9 e83d f573 1abe 80c9 00bd
00000200: 5d34 82bd aada 383e c8e9 b9bd bad8 923b
00000210: 4a00 9dbe 3643 3cbe 2e0d a6bd 75c4 663d
00000220: e8d3 413e 865b ca3b 3385 583c cd0c 293e
00000230: 8901 2d3e fbee 203d e946 70be 4d7a 163d
00000240: 04de ee3a 8368 1b3e e4bc 803d 0b1d f9bd
00000250: ff74 74be 0157 1ebe ec85 b2bd 9270 07be
00000260: e33a e6bd bfa3 43be 4e29 4ebd a4fb 88bc
00000270: a06c 39be 5907 eebd 3750 d3bd fd04 27be
00000280: 10d5 ea3d 4edf 35be f9e4 3bbe fa95 ebbb
00000290: 71ef de3d 5ac5 0abd 1aba 833e ac1e 8d3d
000002a0: 0a86 aebd cd03 dbbd fa2f 14bd cc4c 40bc
000002b0: 8a78 0a3e 87d2 e53c 6bb9 9f3d 15b5 a33d
000002c0: d9f0 b2bd aa53 823e a801 6cbe 7b33 2bbe
000002d0: 5a26 b53c 2b60 f7bd 5970 02be cdb7 e7bd
000002e0: 0f42 ecbd 9866 ac3c 6537 97bd d210 debd
000002f0: d048 d2ba 7cd3 823e 2878 82bc 9178 aabd
00000300: 9bd1 27bd e218 913d bc93 183e d7cb 7c3d
00000310: ed15 bdbd 0a32 043e 6ad7 8cbd 7157 153e
00000320: 9c5b c53d 190b 66be a3a7 bb3c 3dca 0dbe
00000330: a7c3 6f3d 9109 a9bd 377e d03d d2aa d8bd
00000340: acf7 a2bd 7a07 953c c39d babd 062b 3cbd
00000350: 5dd1 553e c53c b8bd 4102 31bd 50b1 2b3e
00000360: a4fd 5bbc 01b9 e23d b7c0 92bd d15f 0dbe
00000370: 53c9 28be 3d40 62bd fa22 ae3c 89c6 dcbd
00000380: b673 4cbe f95f 15bd 5947 aebc 3363 23be
00000390: 6ad3 7bbd 7d9d bdbd e2c4 933d e417 c13e
000003a0: 8f9e e5bb 1df4 7a3e 62c1 b23d 9127 e8bd
000003b0: 6718 d83d 1f79 41bc 8e02 5bbd bec4 d33c
000003c0: c813 6b3e 2e5e 803e b919 82be dc6b c5bd
000003d0: 4b23 753d 89a6 a63d b0d7 b5bc e64c 893d
000003e0: c04e 19bd 6686 66be 8cba e03d 386b 85bc
000003f0: 72ec 20bc 76a1 493e f042 70bd dfe0 e33c

parameters.mlp_0_w f4 [256, 70]
-0.10082494 -0.21612117 -0.2904996 -0.4064641 0.09392384 -0.033274524 0.009782475 0.09991252
0.2362503 -0.25318936 -0.29875502 -0.62512547 0.13765374 0.23048222 -0.09039487 0.23866078
0.014474403 -0.08462487 0.09151628 0.10225125 0.04259315 -0.4359559 -0.012861007 0.2518505
0.14760762 0.21428066 0.13113001 -0.1757211 0.059676442 0.047910064 -0.015106956 -0.036146153
-0.0053546084 0.054313276 0.046271574 -0.26220563 -0.12789598 -0.06428634 -0.18111758 0.030764004
-0.14622304 0.061626527 -0.034443844 0.0700415 0.12546311 -0.06438482 -0.18949473 0.07802123
0.014010725 0.17466275 0.42099693 -0.028789653 -0.20523445 -0.3112038 0.21934387 -0.037986904
-0.30464724 0.21070698 -0.08035828 0.096914046 0.13663866 0.038141143 -0.006234212 0.058158495
-0.018171927 -0.0575516 0.05171294 0.14486457 0.032609425 0.027995382 -0.23478654 0.11574417
-0.124859735 -0.013004502 -0.04592541 -0.4693702 -0.015871359 -0.07132867 -0.271433 -0.25549155
-0.17969137 0.11817435 -0.17589884 -0.28430066 0.25681913 -0.3173641 0.05154665 -0.30247483
-0.46368325 0.26549786 0.044043478 -0.37017366 0.36249137 0.29912224 -0.12712543 -0.18180808
-0.037350558 0.04902909 0.048508104 -0.10245124 0.030811641 -0.40685287 -0.438645 0.08626119
0.05872027 -0.04228024 0.085692264 0.051449955 -0.008655356 -0.0044492823 -0.39173818 -0.08303093
-0.0300251 -0.19408335 -0.08552223 -0.070165314 -0.14760086 -0.03345227 0.049728815 -0.012974119
0.1332578 -0.025707332 -0.17314267 -0.43433648 0.1605875 -0.060356833 -0.050785247 0.1743172
-0.038728807 -0.22284524 -0.29664665 0.08541335 -0.042635337 0.054656938 -0.16242954 -0.014568001
0.04071252 -0.27612278 -0.09513785 0.12087583 -0.007390224 0.34264776 0.06913778 0.12148007
-0.32530016 -0.12977718 0.2664156 0.015763965 0.4294041 0.34047818 0.28041676 0.39221305
-0.6209399 -0.18438858 0.17450325 0.063899264 -0.07209187 0.23638277 0.26031324 -0.24811359
-0.08363119 0.4097911 -0.40278554 0.1300043 -0.003974937 0.22324778 -0.32160255 -0.02435621
0.040018227 0.1059677 -0.024878688 -0.3243039 -0.49029252 -0.05947014 0.04531258 -0.2485876
0.30637938 -0.13784315 -0.042748 -0.03446471 -0.13535154 -0.14607927 -0.0122518195 -0.013461877
-0.35857448 -0.04427466 -0.038583383 0.046211325 0.2558187 0.17409056 0.0065618884 -0.2056303
0.23545367 0.30174667 -0.20765668 -0.22517067 -0.23191908 -0.42792466 0.2768247 -0.15948963
-0.18300056 -0.42934063 0.06602023 0.011839098 0.03567657 -0.07334945 -0.023200095 0.022119466
-0.09658937 0.094488226 -0.028856674 0.101089075 -0.16860408 0.0044218167 -0.36104974 -0.28548136
-0.14925767 0.33267668 -0.4339069 0.12566093 -0.051110573 0.49739215 -0.21703477 -0.6047182
0.004274403 -0.07007823 -0.016913328 -0.12755899 -0.015548597 0.16437641 -0.024321076 0.43954888
-0.0068169697 -0.19662848 -0.110617705 -0.0020634816 -0.6470438 -0.1038504 0.05700035 -0.02648146
-0.010855277 -0.39003518 -0.57066375 -0.08977442 -0.20083569 0.10550185 0.004531324 -0.23672788
-0.1220978 -0.21008013 -0.12455056 0.010043613 0.2998861 0.1281366 0.07609487 -0.071862034
00000000: 4e7d cebd de4e 5dbe 5dbc 94be 101c d0be
00000010: 245b c03d de4a 08bd ad46 203c ef9e cc3d
00000020: 99eb 713e 09a2 81be 6bf6 98be 3908 20bf
00000030: 1af5 0c3e 8803 6c3e f220 b9bd 7e63 743e
00000040: 0c26 6d3c ce4f adbd e36c bb3d 1a69 d13d
00000050: 2876 2e3d 9d35 dfbe f9b6 52bc 8cf2 803e
00000060: 7426 173e 646c 5b3e f246 063e 3bf0 33be
00000070: 496f 743d 583d 443d 2a83 77bc fd0d 14bd
00000080: b675 afbb 9977 5e3d 4387 3d3d d13f 86be
00000090: 2af7 02be 8ea8 83bd e376 39be cb04 fc3c
000000a0: 7ebb 15be 196c 7c3d fd14 0dbd eb71 8f3d
000000b0: 6779 003e 30dc 83bd e80a 42be 98c9 9f3d
000000c0: 3d8d 653c cbda 323e e98c d73e 47d8 ebbc
000000d0: fb28 52be 1b56 9fbe ae9b 603e 2898 1bbd
000000e0: b9fa 9bbe 92c3 573e e292 a4bd df7a c63d
000000f0: 01eb 0b3e e339 1c3d 5c48 ccbb 9a37 6e3d
00000100: 4bdd 94bc 3abb 6bbd f3d0 533d 6157 143e
00000110: 7691 053d 9256 e53c e26b 70be 480b ed3d
00000120: 76b6 ffbd d610 55bc 481c 3cbd 4a51 f0be
00000130: a704 82bc c414 92bd 44f9 8abe cacf 82be
00000140: 0401 38be 6505 f23d d31e 34be db8f 91be
00000150: cc7d 833e 8c7d a2be 9422 533d fbdd 9abe
00000160: e467 edbe 56ef 873e ef66 343d 6787 bdbe
00000170: 7898 b93e 8d26 993e 2b2d 02be e62b 3abe
00000180: e6fc 18bd bad2 483d 6fb0 463d f5d1 d1bd
00000190: b268 fc3c 054f d0be 1496 e0be b5a9 b03d
000001a0: aa84 703d 0c2e 2dbd 6d7f af3d 30bd 523d
000001b0: 32cf 0dbc 49cb 91bb e891 c8be 1f0c aabd
000001c0: 33f7 f5bc c9bd 46be 4726 afbd d5b2 8fbd
000001d0: ae24 17be 3f05 09bd 71b0 4b3d 6691 54bc
000001e0: bc74 083e 2f98 d2bc 504c 31be 5a61 debe
000001f0: 0d71 243e ba38 77bd 3104 50bd 3580 323e
00000200: 19a2 1ebd 8b31 64be 12e2 97be 32ed ae3d
00000210: 64a2 2ebd f4df 5f3d ee53 26be a0ae 6ebc
00000220: 2cc2 263d f75f 8dbe a2d7 c2bd bf8d f73d
00000230: b129 f2bb 876f af3e 1c98 8d3d 8bca f83d
00000240: be8d a6be 4fe4 04be a067 883e 6e23 813c
00000250: dbda db3e 2853 ae3e c992 8f3e 26d0 c83e
00000260: ebf5 1ebf 5cd0 3cbe fbb0 323e 9edd 823d
00000270: e7a4 93bd 530e 723e c747 853e 7d11 7ebe
00000280: d446 abbd 24d0 d13e e839 cebe d91f 053e
00000290: 3040 82bb 119b 643e 17a9 a4be ad86 c7bc
000002a0: 27ea 233d 9805 d93d 64ce cbbc 290b a6be
000002b0: 9f07 fbbe f696 73bd af99 393d bf8d 7ebe
000002c0: c2dd 9c3e c126 0dbe 8718 2fbd de2a 0dbd
000002d0: 9899 0abe ce95 15be dbbb 48bc 348f 5cbc
000002e0: 1397 b7be 5959 35bd 9c09 1ebd 1648 3d3d
000002f0: abfa 823e cc44 323e 1c05 d73b c090 52be
00000300: c41a 713e 8a7e 9a3e f4a3 54be 2493 66be
00000310: 327c 6dbe f118 dbbe f8bb 8d3e 4051 23be
00000320: 8064 3bbe 89d2 dbbe 9d35 873d c7f8 413c
00000330: 9821 123d 3d38 96bd 200e bebc e233 b53c
00000340: a6d0 c5bd 0b83 c13d d564 ecbc ca07 cf3d
00000350: 8ca6 2cbe e3e4 903b 83db b8be 9d2a 92be
00000360: 01d7 18be 9954 aa3e 0c29 debe 42ad 003e
00000370: 5259 51bd 2faa fe3e 5d3e 5ebe d0ce 1abf
00000380: 4b10 8c3b 2d85 8fbd d28d 8abc d39e 02be
00000390: 8bbf 7ebc 4a52 283e fe3c c7bc 8d0c e13e
000003a0: e360 dfbb fa58 49be 898b e2bd 7a3b 07bb
000003b0: aaa4 25bf 85af d4bd 3379 693d a6ef d8bc
000003c0: 55da 31bc b1b2 c7be 0517 12bf a7db b7bd
000003d0: dfa7 4dbe 5b11 d83d 807b 943b cb68 72be
000003e0: 690e fabd 3f1f 57be 5d14 ffbd f78d 243c
000003f0: ac8a 993e 3e36 033e a1d7 9b3d 672c 93bd

parameters.mlp_1_b f4 [256]
0.063116856 0.10903231 0.13549745 0.027816538 0.025708336 0.22596522 0.065351345 0.098286584
0.024442112 0.1914594 0.11295006 0.11456119 -0.14100392 0.045038197 0.38885188 0.07392208
0.15373008 -0.035428237 -0.0061329473 0.016790004 0.07120148 0.015253504 0.050363682 -0.0263693
0.097762436 0.047146052 -0.017923784 -0.026508953 0.036368683 0.0818297 0.19003001 0.039330024
-0.041526414 0.13627833 0.041745573 0.18333496 -0.012156045 -0.0069879377 0.14294222 -0.0046642195
-0.012596237 0.1443518 -0.018673057 0.065227754 0.06680556 0.22311911 -0.017305033 -0.0065580523
-0.014506789 0.07045658 0.08889622 0.24836525 0.053098816 0.04684864 0.03323906 -0.037222628
-0.01637604 -0.019169858 0.23205103 0.06343348 -0.002548508 -0.014577144 0.2516829 0.090414174
0.03087997 0.062457446 -0.017904928 -0.019297643 0.21257137 0.10611708 0.06884627 6.09493e-06
0.061486635 0.24826771 -0.016084881 0.12282302 -0.011837638 0.4056757 -0.0435379 -0.09886236
0.042841554 0.06809766 -0.011701646 -0.048631735 -0.020584986 0.066864505 0.21655947 0.056792308
0.05242057 -0.009054568 0.03272508 0.120734684 -0.011249386 0.06784342 0.09259431 0.20958409
-0.023555921 -0.014515932 0.14988975 0.014753013 -0.016166475 -0.026116252 -0.0062311683 -0.016955232
-0.013371092 0.05044321 -0.018544987 -0.034795046 -0.023455536 0.031446982 0.037686706 -0.006389658
0.25942722 0.0715718 0.33308363 0.048360348 -0.0195432 -0.017810877 -0.014847859 -0.056176297
0.32900387 0.13339311 0.056538597 -0.006558804 0.4368803 0.011239503 0.08966493 -0.0017074787
0.116145216 0.09529001 0.04939883 0.030936668 0.08140668 -0.011883635 0.04515053 -0.029233463
-0.01681269 -0.0058185686 -0.04625503 0.10762385 -0.024600424 0.07855021 -0.012137445 -0.013872703
-0.030021459 0.06287625 -0.0236192 0.26193732 0.13562381 0.2616708 0.18742637 -0.019274896
0.047442585 0.17820168 0.013122205 0.15775208 0.08695872 0.07738164 0.08050817 0.05357688
0.06410809 0.16030167 -0.022554182 0.026840363 0.08239542 0.06341438 0.08722889 -0.016389972
0.040823158 -0.014281385 -0.101791374 0.07145433 -0.016897188 0.04966667 0.21939676 0.039653953
0.06048208 0.01964569 0.13108422 -0.008850397 -0.024148978 0.1815605 0.043864254 -0.0039999275
0.13890049 0.18987633 0.17245468 0.17272986 0.017694157 -0.056216456 -0.024591751 0.5153226
-0.0069974526 0.041005593 -0.019119423 0.056546535 0.07536503 0.0022132476 0.25198114 -0.020266976
0.016415752 0.23153889 0.05010976 0.052162908 0.06666979 0.04901305 -0.12510057 -0.017275037
0.01933495 -0.014168515 -0.024501879 0.17803974 0.1411866 0.09205278 0.03895226 -0.0199671
0.08407418 -0.0032092584 0.038996756 -0.02409074 0.12056544 0.25850084 -0.016469011 0.08217775
0.04029217 0.012985036 0.0802128 0.013989484 0.049039256 0.11066847 -0.013377611 0.07113717
0.042129528 0.13889128 -0.046178356 -0.0158974 0.18159017 -0.07697781 0.002680771 -0.015090626
0.1760088 0.25519133 0.0061411015 0.13145442 0.03953932 0.02093658 0.09729598 0.17787702
0.05683083 -0.015604334 0.10450409 0.3298062 -0.021695292 -0.01517453 -0.02855013 -0.013457063
00000000: 6943 813d 554c df3d d8bf 0a3e 82df e33c
00000010: 4a9a d23c 6d63 673e edd6 853d 7a4a c93d
00000020: d33a c83c ef0d 443e 5c52 e73d 0f9f ea3d
00000030: 5563 10be f979 383d 9817 c73e 7664 973d
00000040: 6b6b 1d3e 331d 11bd e4f6 c8bb 318b 893c
00000050: 15d2 913d d5e9 793c 264a 4e3d 6e04 d8bc
00000060: ac37 c83d 381c 413d e6d4 92bc 4e29 d9bc
00000070: 54f7 143d 5496 a73d 3a97 423e 8518 213d
00000080: 9a17 2abd 8c8c 0b3e 68fd 2a3d 29bc 3b3e
00000090: 262a 47bc 12fb e4bb 725f 123e 4fd6 98bb
000000a0: 7260 4ebc f5d0 133e 3df8 98bc 2196 853d
000000b0: 5ad1 883d 5679 643e 49c3 8dbc eee4 d6bb
000000c0: e2ad 6dbc 8a4b 903d 390f b63d 7653 7e3e
000000d0: 257e 593d 5ce4 3f3d ae25 083d c176 18bd
000000e0: 0c27 86bc 1b0a 9dbc c99e 6d3e 6ae9 813d
000000f0: df04 27bb f9d4 6ebc 95dc 803e 112b b93d
00000100: fef7 fc3c 61d3 7f3d 5bad 92bc 1716 9ebc
00000110: 4fac 593e e953 d93d 46ff 8c3d 0d83 cc36
00000120: 69d9 7b3d e439 7e3e 71c4 83bc a38a fb3d
00000130: a7f2 41bc bab4 cf3e cc54 32bd 5978 cabd
00000140: a07a 2f3d c976 8b3d 43b8 3fbc 1232 47bd
00000150: d8a1 a8bc 42f0 883d c4c1 5d3e 0d9f 683d
00000160: f4b6 563d 9c59 14bc bc0a 063d bf43 f73d
00000170: 584f 38bc 7ef1 8a3d 16a2 bd3d 369d 563e
00000180: 59f8 c0bc 3bd4 6dbc b37c 193e 9fb6 713c
00000190: 8e6f 84bc c0f1 d5bc d42e ccbb b3e5 8abc
000001a0: 6d12 5bbc 8a9d 4e3d a8eb 97bc 4085 0ebd
000001b0: d325 c0bc 8dce 003d 605d 1a3d 5660 d1bb
000001c0: a5d3 843e 3c94 923d f089 aa3e 8015 463d
000001d0: 1019 a0bc 1ee8 91bc 6f44 73bc 1e19 66bd
000001e0: 3273 a83e 3498 083e 0495 673d 3ceb d6bb
000001f0: c6ae df3e e425 383c 3fa2 b73d 7acd dfba
00000200: 8bdd ed3d 6927 c33d 6d56 4a3d e56e fd3c
00000210: 8cb8 a63d 94b3 42bc c3ef 383d 047b efbc
00000220: c4ba 89bc b1a9 bebb ea75 3dbd e569 dc3d
00000230: d486 c9bc efde a03d 22dc 46bc 554a 63bc
00000240: 90ef f5bc 43c5 803d 0d7d c1bc a61c 863e
00000250: f8e0 0a3e b7f9 853e b3ec 3f3e 63e6 9dbc
00000260: 2853 423d 807a 363e 84fe 563c c389 213e
00000270: 6a17 b23d 447a 9e3d 78e1 a43d 6e73 5b3d
00000280: 1a4b 833d 1f26 243e 8cc3 b8bc 52e0 db3c
00000290: eebe a83d 66df 813d 0fa5 b23d 4344 86bc
000002a0: 2f36 273d 78fc 69bc ff77 d0bd a656 923d
000002b0: f96b 8abc 476f 4b3d 8ba9 603e 2f6c 223d
000002c0: 0fbc 773d 00f0 a03c f13a 063e 4101 11bc
000002d0: 14d4 c5bc ffea 393e 01ab 333d d311 83bb
000002e0: ee3b 0e3e f16e 423e f697 303e 19e0 303e
000002f0: 56f3 903c 3a43 66bd a474 c9bc 2fec 033f
00000300: e34a e5bb 7bf5 273d 56a0 9cbc 579d 673d
00000310: fb58 9a3d 220c 113b ac03 813e ee06 a6bc
00000320: 547a 863c 8818 6d3e e43f 4d3d c6a8 553d
00000330: 2c8a 883d e8c1 483d 5d1a 00be 6184 8dbc
00000340: 5464 9e3c 0f23 68bc 2ab8 c8bc 0d50 363e
00000350: 3893 103e 2b86 bc3d 688c 1f3d 0b92 a3bc
00000360: 152f ac3d 6c52 52bb 10bb 1f3d f259 c5bc
00000370: 03eb f63d 395a 843e 05ea 86bc cf4c a83d
00000380: 6709 253d 30bf 543c 9c46 a43d 2634 653c
00000390: 63dd 483d 27a6 e23d c42d 5bbc 5db0 913d
000003a0: 0390 2c3d 8439 0e3e 8425 3dbd 443b 82bc
000003b0: c6f2 393e 8ba6 9dbd e0af 2f3b ac3e 77bc
000003c0: a73b 343e 70a8 823e 4b3b c93b fd9b 063e
000003d0: fbf3 213d 3183 ab3c 1d43 c73d 6525 363e
000003e0: 72c7 683d 52a9 7fbc 3e06 d63d 5cdc a83e
000003f0: 53ba b1bc 989e 78bc f6e1 e9bc 037b 5cbc

parameters.mlp_1_w f4 [256, 256]
-0.098758236 0.018873582 0.01412929 -0.011657678 0.068608455 -0.010251894 -0.033225387 -0.031137815
-0.057975132 -0.015389312 0.03702406 -0.037690137 -0.08879867 0.0069882125 0.02095246 0.01892138
0.017897714 -0.02109305 0.0035986605 -0.031094152 0.0034472777 -0.009571352 0.0032624889 -0.07501251
-0.03503007 -0.0739968 -0.005584524 -0.025967093 -0.01702655 -0.031428855 0.010651663 -0.029602021
-0.0056702015 -0.030421503 0.028025337 -0.000492181 -0.013546972 -0.06510595 -0.010134505 -0.0032518534
-0.020008916 -0.009765338 0.00033520488 -0.0254065 -0.036625087 0.0009436196 0.024535542 0.024528239
-0.00819712 -0.03847295 -0.03827754 -0.020029213 -0.058096237 0.010522627 -0.013650956 -0.018200403
-0.03559182 -0.07643788 0.0026681519 -0.0494812 -0.032058395 -0.054720245 0.0029828628 -0.0019720804
-0.004359741 0.0051976973 -0.03563838 -0.051338196 -0.013874534 -0.041902572 -0.015331894 0.026076898
-0.045041908 -0.02555103 0.0022215566 0.024262173 -0.052910183 0.016685767 -0.0035471278 0.005269667
-0.011572783 0.0061815763 -0.021818401 -0.0133482935 -0.045752816 0.021010999 -0.027095374 -0.0076126335
0.02117864 -0.023232928 -0.0023777145 -0.06865265 0.021507189 -0.030601792 -0.06697479 -0.00083605543
0.023029085 -0.0042400877 -0.01837254 -0.004513021 -0.0027604394 -0.001054938 0.016597204 -0.011144685
0.0038382313 0.0007003357 -8.924145e-05 -0.021002268 0.01856648 -0.066220544 0.018471157 -0.047239643
0.02787734 -0.0074929483 -0.00044582464 0.025063764 0.03807862 0.0067074997 -0.046027247 -0.01913284
-0.045579847 -0.064233445 0.006338793 -0.049135283 -0.033049047 -0.023859581 0.010830168 -0.042318866
-0.04170396 0.014677593 -0.03211254 -0.021734279 0.011115345 -0.0055761766 -0.015835267 -0.066653274
-0.00018790513 -0.049986362 -0.0025134366 0.0307669 -0.0114970375 -0.02633288 -0.019738741 -0.010744385
-0.008530271 0.048829183 0.02741351 0.018773679 0.016723398 -0.0014556842 -0.035196062 0.001137319
0.003976449 -0.056310814 0.00443891 -0.0050177323 -0.03530189 -0.00030706738 -0.0689876 -0.009311724
-0.015146386 -0.06684973 -0.06649127 -0.020072406 -0.051256165 -0.04204706 -0.04542338 0.0047266306
-0.015325352 -0.029810747 -0.056361794 -0.036649004 -0.026353862 -0.009043433 0.00013881018 0.0073235417
0.0037304729 0.121107444 -0.007882414 0.024116062 -0.0004922582 -0.01697066 -0.052872743 -0.0071079563
0.010951191 0.0030179652 -0.016506001 -0.013733868 -0.021192277 -0.023316514 -0.05339093 -0.06784767
0.0046175807 -0.05444032 -0.071434125 -0.05601416 -0.009748153 -0.03644757 -0.021521755 -0.019925652
0.0028623643 -0.00788524 -0.02702657 -0.045881696 -0.04366029 0.0087785255 -0.015818665 0.004096586
-0.025865909 -0.031134963 -0.018272944 -0.019856658 -0.032740448 -0.021329798 -0.018270412 0.01537999
-0.043600336 0.026702598 -0.0027896399 0.008137207 0.00078893284 -0.0079502715 -0.017050745 -0.025091883
0.012719792 -0.013867738 -0.0127697205 -0.02410961 -0.0006308407 -0.0106658125 -0.016803693 0.028855024
0.04082451 0.031348467 -0.025761891 -0.020652067 -0.036544517 -0.020273864 -0.008668372 0.024631131
-0.019962445 -0.015690507 0.03470352 -0.06088837 -0.100360766 -0.00035410782 0.0073357048 -0.017061237
0.011729512 -0.031511493 -0.04517331 0.015430562 -0.015196604 -0.044424165 0.015949333 -0.005749649
00000000: c241 cabd c59c 9a3c 8a7e 673c d8ff 3ebc
00000010: 9782 8c3d 8ff7 27bc 5817 08bd bb14 ffbc
00000020: 5577 6dbd 7423 7cbc 8aa6 173d f960 1abd
00000030: 14dc b5bd 60fd e43b 7ea4 ab3c 0301 9b3c
00000040: 3a9e 923c 55cb acbc 81d7 6b3b 2ab9 febc
00000050: b9eb 613b 29d1 1cbc 7bcf 553b 29a0 99bd
00000060: b17b 0fbd a28b 97bd 62fe b6bb f1b8 d4bc
00000070: 437b 8bbc 8bbb 00bd 5084 2e3c f07f f2bc
00000080: 19cd b9bb 8436 f9bc 6495 e53c b505 01ba
00000090: 1ef4 5dbc 4556 85bd 320b 26bc 0c1d 55bb
000000a0: bde9 a3bc ccfe 1fbc 70be af39 4b21 d0bc
000000b0: 3004 16bd 3d5d 773a c3fe c83c 72ef c83c
000000c0: 374d 06bc d095 1dbd e9c8 1cbd 4e14 a4bc
000000d0: 52f6 6dbd 1967 2c3c 42a8 5fbc 0319 95bc
000000e0: bac8 11bd 778b 9cbd 29dc 2e3b ccac 4abd
000000f0: aa4f 03bd 5622 60bd 227c 433b 053e 01bb
00000100: 29dc 8ebb 7251 aa3b 8df9 11bd 0048 52bd
00000110: 0352 63bc 08a2 2bbd a032 7bbc 389f d53c
00000120: dd7d 38bd 6550 d1bc 8997 113b 77c1 c63c
00000130: 59b8 58bd 97b0 883c ee76 68bb 2cad ac3b
00000140: c59b 3dbc d28e ca3b 81bc b2bc cdb2 5abc
00000150: 4e67 3bbd 421f ac3c 1ef7 ddbc 6673 f9bb
00000160: d47e ad3c fb52 bebc 6ed3 1bbb c399 8cbd
00000170: d82f b03c 9cb0 fabc 142a 89bd bb2a 5bba
00000180: 7ea7 bc3c 6ff0 8abb 0282 96bc f7e1 93bb
00000190: 7de8 34bb d845 8aba dcf6 873c 3298 36bc
000001a0: d68a 7b3b bc96 373a 2327 bbb8 f30c acbc
000001b0: bb18 983c a39e 87bd d350 973c 5b7e 41bd
000001c0: 055f e43c 6887 f5bb 92bd e9b9 8652 cd3c
000001d0: 54f8 1b3d 96ca db3b 1187 3cbd 79bc 9cbc
000001e0: efb1 3abd d38c 83bd a6b5 cf3b 1442 49bd
000001f0: 705e 07bd 2b75 c3bc 0471 313c 8c56 2dbd
00000200: c6d1 2abd 497a 703c 7088 03bd 160c b2bc
00000210: 231d 363c 5cb8 b6bb f6b8 81bc 8381 88bd
00000220: 6608 45b9 80be 4cbd 78b8 24bb de0a fc3c
00000230: 125e 3cbc 0db8 d7bc 24b3 a1bc 3809 30bc
00000240: 8dc2 0bbc 1c01 483d 4c92 e03c 42cb 993c
00000250: 82ff 883c a8cc beba bf29 10bd 1812 953a
00000260: df4c 823b 2ba6 66bd 4774 913b ca6b a4bb
00000270: b798 10bd e3fd a0b9 5f49 8dbd 3490 18bc
00000280: 8c28 78bc 83e8 88bd 932c 88bd e36e a4bc
00000290: fcf1 51bd 8a39 2cbd de0d 3abd dae1 9a3b
000002a0: 2f17 7bbc ab35 f4bc a0db 66bd 441d 16bd
000002b0: 0ee4 d7bc e82a 14bc 938d 1139 52fa ef3b
000002c0: f37a 743b 2e07 f83d 3e25 01bc 0c8f c53c
000002d0: e30a 01ba 0e06 8bbc 1791 58bd dce9 e8bb
000002e0: a06c 333c 0ec9 453b 9837 87bc 0404 61bc
000002f0: 6d9b adbc 4602 bfbc 73b0 5abd b8f3 8abd
00000300: 134f 973b d0fc 5ebd 0e4c 92bd 1b6f 65bd
00000310: b8b6 1fbc 0c4a 15bd 644e b0bc 1f3b a3bc
00000320: 8196 3b3b 1831 01bc d366 ddbc 72ee 3bbd
00000330: 22d5 32bd ced3 0f3c 2596 81bc a73c 863b
00000340: bee4 d3bc c00e ffbc 24b1 95bc 6eaa a2bc
00000350: d91a 06bd d4bb aebc d5ab 95bc 5bfc 7b3c
00000360: 4496 32bd 68bf da3c 64d2 36bb eb51 053c
00000370: 63d0 4e3a db41 02bc 01ae 8bbc 7e8d cdbc
00000380: ad66 503c 8235 63bc 1738 51bc 8481 c5bc
00000390: 015f 25ba a9bf 2ebc e6a7 89bc 5f61 ec3c
000003a0: 9a37 273d 4067 003d 9a0a d3bc 862e a9bc
000003b0: b4af 15bd 6015 a6bc ca05 0ebc 3ac7 c93c
000003c0: 4888 a3bc 6189 80bc 4725 0e3d 1566 79bd
000003d0: f289 cdbd 8ca7 b9b9 5a60 f03b 02c4 8bbc
000003e0: 242d 403c 3212 01bd a607 39bd 78d0 7c3c
000003f0: 2dfb 78bc 1df6 35bd 2da8 823c 8d67 bcbb

parameters.mu_b f4 [8]
0.04116325 -0.124543324 0.09610979 0.31511322 0.04101886 -0.05444206 0.1340619 -0.18812701
00000000: cc9a 283d 9210 ffbd 36d5 c43d 8556 a13e
00000010: 6403 283d a3fe 5ebd 8647 093e 5ea4 40be

parameters.mu_w f4 [8, 256]
0.014313039 0.019817127 0.22022204 0.22608241 -0.06612579 0.46516344 0.04291551 0.034102786
-0.016941248 0.12527643 -0.1010385 -0.03645385 -0.09890268 -0.20782305 -0.2591076 0.22165062
0.06468308 -0.120348856 -0.012025051 -0.0077675586 0.018220244 -0.018829534 -0.024294123 0.024410048
0.08455185 0.008847806 0.0018264618 -0.0017691777 0.16753027 -0.05596515 0.6142998 -0.0029172464
0.07508969 -0.25434902 0.0476293 -0.06061111 0.0070223943 0.012162529 -0.010723009 -0.0067904526
0.008247686 0.0049609235 0.01681998 -0.058253624 -0.012383605 -0.533914 0.020855373 -0.0049837884
-0.002078054 -0.0058669895 0.15450676 -0.10727168 -0.023672646 -0.0155437775 -0.012359031 -0.013156549
-0.037288334 0.018559795 -0.018900173 -0.055502385 0.013685721 0.007147681 -0.06648713 -1.3080543
0.090360075 -0.055269126 0.015559115 -0.009777978 0.10866685 -0.061498467 -0.06042516 -0.004326054
-0.059809033 0.13608164 -0.01297443 0.038199782 -0.010213963 -0.15803379 0.009216605 0.4050407
-0.050487436 0.06863827 -0.030949956 -0.13418724 0.0042779143 -0.003502704 0.112268664 -0.0076062893
-0.028641101 0.0033143337 0.44556695 -0.08621916 0.0074354094 0.017786648 -0.022847993 -0.45675987
-0.014812314 -0.0037414772 0.07580439 -0.05608761 -0.016479088 0.009547456 0.007456967 -0.0063140504
0.0099335965 0.04227876 0.0030495983 0.022891423 0.017780708 -0.15209407 -0.08321828 -0.00792106
-0.22445664 -0.066120766 -0.41054413 -0.006303739 0.007445647 -0.00062776654 0.008580898 -0.9717552
-0.6309129 0.1846702 0.11857975 0.0026127442 -0.22344632 -0.005469498 -0.27810615 0.08717079
0.13558227 -0.13294947 0.03116077 -0.0068273866 -0.048370957 0.016650515 9.9463316e-05 0.026250351
-0.0023029395 -0.00802533 -0.12007165 -0.08633197 -0.010995844 0.74507225 -0.0046991906 0.014408681
0.029146535 0.049464017 0.009489031 -0.39322445 -0.035738252 0.1174983 -0.4489074 0.017403034
-0.008701932 -0.27695337 0.14943242 -0.054045245 -0.056221336 0.17356281 -0.04884571 -0.10070519
-0.03326356 0.8495729 0.016919855 -0.13861325 -0.17436141 -0.25381675 -0.39977464 0.005933426
0.14326634 0.0024294818 -0.2681118 -0.02767517 -0.0012942671 0.10756145 0.098724425 -0.024156606
-0.002413105 -0.14125146 0.16726999 0.009310249 0.019089734 -0.085955985 -0.038026165 -0.019886235
0.051287074 -0.34130606 0.13100323 -0.10848748 -0.022525322 0.41719168 0.016345913 0.41283435
-0.102666944 0.37105986 -0.00770511 0.0005094455 -0.1781625 0.022014275 -0.22466682 0.006412183
1.0724937 -0.75343555 -0.018188998 -0.01608941 -0.03514149 -0.022953762 -0.23637113 0.00575402
-0.27727547 -0.0019720988 0.009779295 -0.6235122 -0.4578661 0.123107724 0.1377344 -0.015946558
-0.092594296 -0.012337361 -0.02763562 0.019932305 -0.038699344 0.21800682 -0.0036758396 -0.123827
-0.012822798 0.37282154 -0.048305504 -0.07382183 -0.4254819 0.09889788 -0.008007735 0.006441346
0.5406769 -0.14142877 0.015803272 0.0015904289 0.059445366 0.49770594 -0.010684827 0.009023212
0.32731503 0.17156509 0.045849822 0.7562669 -0.124415964 0.06989719 -0.118654765 1.2054185
0.05309933 0.018017568 0.02230771 0.15270264 0.0014197523 -0.013331935 -0.00084615365 0.0074838516
00000000: 3d81 6a3c 8757 a23c e381 613e 2682 673e
00000010: f56c 87bd e729 ee3e 2cc8 2f3d 5daf 0b3d
00000020: 5fc8 8abc 7748 003e 46ed cebd a250 15bd
00000030: 7d8d cabd 91cf 54be c0a9 84be 61f8 623e
00000040: 9078 843d 7679 f6bd b804 45bc 0187 febb
00000050: 9f42 953c 6540 9abc 7804 c7bc 95f7 c73c
00000060: 8529 ad3d 63f6 103c e365 ef3a c1e3 e7ba
00000070: 0e8d 2b3e b73b 65bd c042 1d3f 462f 3fbb
00000080: a0c8 993d 093a 82be f116 433d 5b43 78bd
00000090: 1d1c e63b 5845 473c 8faf 2fbc 7282 debb
000000a0: 4d21 073c 3e8f a23b 0eca 893c 5a9b 6ebd
000000b0: 9be4 4abc 97ae 08bf e3d8 aa3c 0c4f a3bb
000000c0: f62f 08bb e03f c0bb 0537 1e3e 41b1 dbbd
000000d0: 23ed c1bc 54ab 7ebc 887d 4abc 918e 57bc
000000e0: a7bb 18bd b60a 983c 89d4 9abc 7856 63bd
000000f0: 133a 603c 1837 ea3b 682a 88bd 536e a7bf
00000100: b40e b93d e161 62bd a9eb 7e3c d033 20bc
00000110: ba8c de3d d1e5 7bbd 5f80 77bd 92c1 8dbb
00000120: 51fa 74bd fc58 0b3e b492 54bc 6077 1c3d
00000130: 7758 27bc 9cd3 21be 3e01 173c 7f61 cf3e
00000140: eacb 4ebd 3992 8c3d c38a fdbc 6168 09be
00000150: bf2d 8c3b 9f8d 65bb 1ded e53d 2e3e f9bb
00000160: bea0 eabc 4b35 593b 5a21 e43e ac93 b0bd
00000170: bca4 f33b 4eb5 913c b72b bbbc 6edc e9be
00000180: 59af 72bc 9233 75bb 553f 9b3d 1fbc 65bd
00000190: 27ff 86bc ef6c 1c3c 9359 f43b 18e6 cebb
000001a0: 86c0 223c 7e2c 2d3d c5db 473b cb86 bb3c
000001b0: d9a8 913c 8cbe 1bbe 586e aabd 55c7 01bc
000001c0: f6d7 65be 536a 87bd d732 d2be 988f cebb
000001d0: 9dfa f33b b390 24ba e596 0c3c f3c4 78bf
000001e0: 8283 21bf 2f1a 3d3e f1d9 f23d 933a 2b3b
000001f0: 1dcf 64be 7a39 b3bb ee63 8ebe 9986 b23d
00000200: 14d6 0a3e e823 08be df44 ff3c 45b8 dfbb
00000210: a020 46bd a966 883c f696 d038 fa0a d73c
00000220: eaec 16bb ac7c 03bc 20e8 f5bd d1ce b0bd
00000230: ea27 34bc 0ebd 3e3f abfb 99bb 6312 6c3c
00000240: b7c4 ee3c c89a 4a3d e177 1b3c b754 c9be
00000250: 4662 12bd f3a2 f03d 31d7 e5be cf90 8e3c
00000260: 8c92 0ebc d5cc 8dbe d004 193e 8c5e 5dbd
00000270: 5848 66bd 73ba 313e 7012 48bd 863e cebd
00000280: 5f3f 08bd 9c7d 593f 829b 8a3c a2f0 0dbe
00000290: cc8b 32be 45f4 81be 43af ccbe 2f6d c23b
000002a0: 69b4 123e f137 1f3b f345 89be 0ab7 e2bc
000002b0: 66a4 a9ba 2d49 dc3d 0830 ca3d 13e4 c5bc
000002c0: 2f25 1ebb 39a4 10be d348 2b3e 048a 183c
000002d0: 1362 9c3c b109 b0bd 53c1 1bbd 75e8 a2bc
000002e0: 6512 523d abbf aebe b625 063e af2e debd
000002f0: 0687 b8bc 269a d53e dde7 853c 065f d33e
00000300: 0c43 d2bd 8ffb bd3e 267b fcbb 4f8c 053a
00000310: 3b70 36be 4857 b43c 0f0f 66be 4a1d d23b
00000320: 7947 893f 27e1 40bf 1801 95bc f0cd 83bc
00000330: 86f0 0fbd 8709 bcbc 460b 72be 388c bc3b
00000340: 0df7 8dbe 543e 01bb 5639 203c 7f9e 1fbf
00000350: 6d6d eabe e71f fc3d 3f0a 0d3e 5ba2 82bc
00000360: 14a2 bdbd a522 4abc 1964 e2bc 1349 a33c
00000370: 3483 1ebd 2e3d 5f3e 5be6 70bb 0399 fdbd
00000380: b716 52bc 77e2 be3e fedb 45bd e62f 97bd
00000390: c3d8 d9be f98a ca3d e032 03bc ed11 d33b
000003a0: cd69 0a3f b4d2 10be dd75 813c f075 d03a
000003b0: fc7c 733d 50d3 fe3e 6a0f 2fbc 18d6 133c
000003c0: d695 a73e c2ae 2f3e 06cd 3b3d b59a 413f
000003d0: cccd febd 4226 8f3d 4501 f3bd 274b 9a3f
000003e0: af7e 593d 9499 933c a9be b63c 155e 1c3e
000003f0: fb16 ba3a 306e 5abc 69d0 5dba 193b f53b

parameters.std_b f4 [8]
-1.7691805 -1.7261674 -1.7397561 -1.7390319 -1.6835843 -1.6529452 -1.6947566 -1.5553688
00000000: 8274 e2bf 0ef3 dcbf 54b0 debf 9998 debf
00000010: b17f d7bf b593 d3bf c9ed d8bf 5316 c7bf

parameters.std_w f4 [8, 256]
0.020844633 -0.03355426 -0.2332051 -0.16274618 0.03334406 0.074487865 -0.0361537 -0.0030007095
0.047330394 -0.30086103 0.19175589 0.057065755 0.05655987 0.27294168 0.043146763 0.10335623
-0.1515211 -0.010173277 -0.0076760254 0.023478836 0.040235233 0.016673356 0.008883482 0.009272933
0.11069529 -0.03560667 0.01142872 0.009360948 -0.1403381 0.017727403 0.16392244 0.047614124
0.10802944 0.16130453 -0.050881512 -0.021132935 0.0008175689 0.0023060082 0.07778687 -0.020938221
0.0046360344 -0.060073916 0.014486819 0.019526212 0.042438526 -0.067286566 -0.0009866491 0.014984114
0.0027567225 -0.02246537 -0.16153719 -0.0073972736 0.021602584 0.047117848 0.052670233 -0.012316251
0.022624083 -0.00033554542 -0.24175644 0.037497293 0.03171486 0.010795354 -0.14941983 1.0238146
-0.20157288 0.013922073 0.009726754 -0.014519538 -0.30230936 -0.11356996 -0.0010337929 0.017397588
0.009695739 0.011776229 -0.006975033 0.023621498 -0.0010102969 -0.22266059 0.026447589 -0.044651467
0.010977245 -0.0038501155 0.021305759 -0.033467866 0.014277033 0.04148464 -0.042145215 0.041385543
0.0070703975 -0.023681514 -0.11622166 -0.023733554 0.0018174209 0.027855769 0.009341115 0.14878124
0.009011383 0.0068354867 -0.14456564 -0.0006355638 -0.0015261875 0.006970812 -0.0012553752 0.019665862
0.009213544 -0.012301001 0.0016298037 0.011355793 0.0005100015 0.030217834 -0.040644765 0.013007182
0.14435443 0.0026616314 -0.088660605 0.055809032 0.023107504 -0.0057149273 -0.0046537975 0.89954287
0.24573652 -0.20465635 -0.17492904 0.0074621043 -0.4816415 0.038671788 0.041413315 -0.08040136
-0.013594247 0.02180342 0.057907093 0.029362712 0.018841691 0.009902601 0.051515803 0.009230765
-0.005624232 -0.010750492 -0.2117556 -0.12298098 -0.020432154 -0.048810173 0.0047554825 -0.0031627323
0.01271778 -0.17113753 0.005938362 -0.16109319 -0.057492428 -0.38414973 0.26709354 -0.018685294
-0.052486077 -0.04415205 0.043865878 -0.036760624 0.014661883 0.09543313 0.026335778 0.027061883
0.033273622 0.608829 0.008197979 -0.048494123 0.20372446 0.055326987 -0.11172521 -0.0035315577
-0.0025766995 -0.010295844 0.35911962 0.012040996 0.00077334896 0.06429686 -0.15006764 0.06884617
0.023395246 0.12092563 0.003594404 -0.008802055 0.014359505 -0.2716989 0.011825452 0.34115943
-0.025830207 -0.0144489305 -0.09514191 -0.031859104 0.024663594 0.11878598 0.014177497 -0.16797891
-0.0776951 -0.46333253 0.019930687 0.025480371 0.07790779 -0.026369866 0.082654126 0.009615618
0.37449688 0.97704166 -0.15709335 0.036362343 0.04854334 0.04016088 0.052005246 0.014586201
0.0077648303 -0.0064683696 0.008547272 0.16783644 0.33294207 -0.0027108178 -0.10988864 -0.005264203
-0.05743186 0.014916556 0.012070492 0.06123576 0.053651318 -0.121718645 -0.015226001 0.0036341753
0.055617653 0.09732717 0.012798713 0.33226323 0.28505933 -0.08346971 -0.002737404 0.032669656
0.20566984 -0.2675212 -0.0004973975 0.00503924 -0.09915429 0.117167346 0.0005318061 -0.018577334
0.26305944 0.029871402 -0.13871528 0.28370592 -0.18111166 0.12191772 -0.022532402 0.88387924
0.025938563 0.008631029 0.07148746 -0.34143192 0.024066286 0.024007555 0.018402746 0.0003404347
00000000: 5dc2 aa3c 3170 09bd 51cd 6ebe efa6 26be
00000010: c893 083d 188d 983d e715 14bd 8da7 44bb
00000020: 84dd 413d 750a 9abe a85b 443e c8bd 693d
00000030: 52ab 673d 03bf 8b3e a9ba 303d 6eac d33d
00000040: 5928 1bbe d1ad 26bc 2b87 fbbb b056 c03c
00000050: b3cd 243d 9096 883c 068c 113c 80ed 173c
00000060: 36b4 e23d 4dd8 11bd 873f 3b3c a95e 193c
00000070: cab4 0fbe 0f39 913c 49db 273e 0707 433d
00000080: 8a3e dd3d 042d 253e 2269 50bd fa1e adbc
00000090: 1f52 563a 6620 173b b94e 9f3d a286 abbc
000000a0: e0e9 973b 1110 76bd 1f5a 6d3c 6ff5 9f3c
000000b0: 05d4 2d3d 8acd 89bd 7352 81ba ee7f 753c
000000c0: 21aa 343b 4c09 b8bc 016a 25be d464 f2bb
000000d0: e7f7 b03c a5fe 403d bebc 573d 1aca 49bc
000000e0: 2456 b93c 25ec afb9 008f 77be c396 193d
000000f0: 71e7 013d ffde 303c 8301 19be 5b0c 833f
00000100: 1f69 4ebe 6819 643c f75c 1f3c 5be3 6dbc
00000110: 4bc8 9abe 5e97 e8bd 5580 87ba 6385 8e3c
00000120: e0da 1e3c 16f1 403c d18e e4bb df81 c13c
00000130: f06b 84ba 2301 64be 9da8 d83c 75e4 36bd
00000140: e7d9 333c 3852 7cbb 6a89 ae3c 9a15 09bd
00000150: 37ea 693c cceb 293d 76a0 2cbd e383 293d
00000160: cbae e73b bcff c1bc 9f05 eebd df6c c2bc
00000170: 8736 ee3a c831 e43c 7a0b 193c 1c5a 183e
00000180: 7ba4 133c 38fc df3b 0409 14be f79b 26ba
00000190: 5b0a c8ba 696b e43b 678b a4ba 4d1a a13c
000001a0: 68f4 163c 238a 49bc 239f d53a a60d 3a3c
000001b0: 9fb1 053a 648b f73c 207b 26bd 131c 553c
000001c0: a6d1 133e c46e 2e3b b193 b5bd 0398 643d
000001d0: f34b bd3c 4944 bbbb e27e 98bb 7148 663f
000001e0: 5ba2 7b3e 6f91 51be 9920 33be ab84 f43b
000001f0: b799 f6be 4f66 1e3d 02a1 293d 78a9 a4bd
00000200: 68ba 5ebc 169d b23c fd2f 6d3d 128a f03c
00000210: e459 9a3c 853e 223c 3c02 533d a23c 173c
00000220: 7a4b b8bb d522 30bc 76d6 58be 74dd fbbd
00000230: 5561 a7bc 2ded 47bd e1d3 9b3b d845 4fbb
00000240: 3c5e 503c ad3e 2fbe 9796 c23b 9df5 24be
00000250: 2e7d 6bbd 46af c4be 7cc0 883e e711 99bc
00000260: a4fb 56bd c8d8 34bd b5ac 333d 4f92 16bd
00000270: 6538 703c 7272 c33d 21be d73c e2b0 dd3c
00000280: ec49 083d 38dc 1b3f d150 063c c6a1 46bd
00000290: 259d 503e 8d9e 623d 30d0 e4bd b571 67bb
000002a0: d8dd 28bb e6af 28bc 87de b73e 9947 453c
000002b0: 92ba 4a3a 12ae 833d 55ab 19be 39ff 8c3d
000002c0: 63a7 bf3c dba7 f73d 1890 6b3b 7f36 10bc
000002d0: 2144 6b3c 1e1c 8bbe 8abf 413c 73ac ae3e
000002e0: df99 d3bc 35bb 6cbc c3d9 c2bd b17e 02bd
000002f0: 4e0b ca3c 1046 f33d bb48 683c aa02 2cbe
00000300: 9c1e 9fbd ec39 edbe ae45 a33c 36bc d03c
00000310: 1f8e 9f3d 9e05 d8bc 9146 a93d d38a 1d3c
00000320: 0ebe bf3e 671f 7a3f 14dd 20be aef0 143d
00000330: 62d5 463d bc7f 243d 7403 553d f6fa 6e3c
00000340: 1e70 fe3b 9ef4 d3bb db09 0c3c 51dd 2b3e
00000350: 6277 aa3e faa7 31bb 4c0d e1bd 567f acbb
00000360: ac3d 6bbd 9264 743c 50c3 453c 59d2 7a3d
00000370: 7cc1 5b3d a047 f9bd 7a76 79bc 582b 6e3b
00000380: 56cf 633d 7853 c73d b1b1 513c 681e aa3e
00000390: 4cf3 913e 2bf2 aabd 0566 33bb 9ed0 053d
000003a0: 1d9b 523e 8af8 88be c863 02ba 3520 a53b
000003b0: 6811 cbbd 6ff5 ef3d e768 0b3a 7e2f 98bc
000003c0: baaf 863e dfb4 f43c 610b 0ebe e741 913e
000003d0: 5675 39be ffaf f93d df95 b8bc e945 623f
000003e0: 1c7d d43c 2969 0d3c 0468 923d 2ad0 aebe
000003f0: a926 c53c 7eab c43c 5bc1 963c 5f7c b239
