notebook/result/weights/sac_snapbot/episode_650.pth (torch, 355440 bytes, 8 tensors)

parameters.mlp_0_b f4 [256]
00000000: d6f0 063e 0bf0 5ebe 0c80 9a3d a614 afbd
00000010: bb68 5f3e 2705 2bbe 9983 8fbe 1eb6 01be
00000020: 42ae 5cbe 8d8f 7dbd 3a25 833d 6f73 d1bd
00000030: 5a97 b3bd 6800 d53d e45d ccbd cb2e ec3e
00000040: 8eb2 09be c6dd 85be cc3a 04be b9e8 b3bd
00000050: 511d 4ebc b94f 78bd 42de d4bd 9695 a93d
00000060: 52e5 3bbe e4bc 8fbc 54a1 c63d 22d7 b6bd
00000070: 0ab7 3dbe d746 70bd 58ec 3bbe b826 8bbe
00000080: 0f92 8ebd d9ea b03d 82c4 d6bd 853b 41be
00000090: 51b3 6c3e 16f7 0c3e 9383 89bd 5594 08be
000000a0: 844b 5dbe eb66 9abe 2b16 eebd 1b0f 79be
000000b0: 8c09 95bd 2c89 c83d 17cf 453d 088b 29be
000000c0: 589a 56bd dd84 333e fc4f 27be 3e69 23bd
000000d0: f21f f8bd 4454 8bbe c714 473e bb39 91bd
000000e0: 2deb 51be 7f05 57be a88f 11be 2145 a5be
000000f0: 3aae 38be 8ea4 a8bd e899 72bd 003b 2fbe
00000100: 5826 4cbe eb21 c4be 60ef 9ebd 885f fa3d
00000110: 5410 96be f855 9cbe c01c 343e f2ca 86be
00000120: 3a0b 67be d542 7cbc cdcf 09be 57a7 a3bd
00000130: 3d97 143d 357c 33be 7ca1 07bd c81e a9be
00000140: 1614 17be fb56 8cbc d354 0bbd c909 3bbe
00000150: e7e5 943d 89dc 46be d59f 8dbe 8fad 6abe
00000160: 4b2a ce3d 4300 863e c69c c4bd 8329 df3d
00000170: 2c93 283e 8626 043d e82e a1bd 1a67 a2be
00000180: 3ebb a5bd 21a8 0bbd 4773 1bbe 2530 08be
00000190: 0b11 213c 22fc b1bc 344a e93b d73e cfbd
000001a0: 46f6 4bbe a7db 8cbd 2bd1 39be 0fe2 843e
000001b0: 49a3 81be 2c40 37be 707a 4ebe 1654 47bd
000001c0: d931 ebbd 9eb1 4dbe 6b2a f63d f8c4 fbbd
000001d0: 2dc6 3b3c 86af ecbd 4ccc a93d 77d1 62be
000001e0: 654f bbbb e67b 73be 85bb ebbd 4fef 543e
000001f0: c053 933d 71a3 ac3d 553e 69bc b1d8 bdbb
00000200: 068b 16be 846a 163e 1292 e8bd 103c 39bd
00000210: a770 90be 515a 8ebe 18fc 09be 3744 1b3e
00000220: 7678 5e3e 391b ddbd 37b0 14be 31c5 0bbd
00000230: 3690 263d 91a2 013e 6122 52be e248 fcbd
00000240: 31ca 31be d07a bebc 97c2 2abe 0bcc a6be
00000250: 4fa3 62be 8089 1abe 95ec 76bb 1267 86be
00000260: f61d 11be 10bc 8cbe 5b02 353d 2fe3 c43b
00000270: cf1c 95be 60bf efbd b2f5 4dbe 7f02 9ebe
00000280: 8398 9fbb 8d87 a8bd 53ed 96be cd2e b4bd
00000290: b393 a1bd 7d2d 4fbe 76f2 5d3e ce6e 1abd
000002a0: 9f97 83be 1b30 84be 588b 803d df88 183c
000002b0: 3695 e43d 5d73 4ebc 012a bbbb c671 11bd
000002c0: 3b3b e0bc a3fc 323e 3baa 80be 252a 41be
000002d0: 1ad3 11be 7c39 82be 8584 73be aede 03be
000002e0: 7350 47be 93e6 30be e200 32be 519e 14be
000002f0: 5555 333d 50fd 003e abed 2dbe 3e34 8ebd
00000300: 69be 85bd 7f01 d33d fd55 383e b655 533d
00000310: ccf7 7cbd 7d4a d33d 2383 2cbe 97ac 653c
00000320: 709a 203e 359a 63be 409e 2abb 7024 90bd
00000330: 4639 66bd 282a 8abd 9067 02bc a9d4 08be
00000340: 990c 44be f1ad 14be 2e8a 23be aa19 cdbd
00000350: 4a9e ea3e 63b9 4abe debc 86bc 3149 5d3e
00000360: f0ac 15be 2006 be3c 4c55 76be b6e6 b7bd
00000370: ef27 4dbe 760b 48be c692 053e 8050 25be
00000380: 1a9a 7abe f283 b9bd 02b3 afbd 277d 45be
00000390: d76a 4abe bf72 7cbd 0023 8c3d 2a63 f93e
000003a0: bdc4 ccbd 5a8e 5b3e fd16 11bd 1e09 11be
000003b0: f82d e4bc 0576 16bd 14d2 2dbe a058 0fbe
000003c0: cd2f 633c f888 7b3e e75d 36be 30cc 09be
000003d0: 5a69 0b3e 7cac 33bd c563 93bd 2124 c23d
000003e0: 31b6 93bc cf3f 46be c1ea c03d 0118 91bd
000003f0: e8b6 823c 13de 103e e390 bfbc 76b3 e6bd
0.13177809 -0.21771257 0.07543954 -0.0854886 0.21817295 -0.16701184 -0.2803009 -0.12667128
-0.21550849 -0.06190448 0.06403585 -0.10227095 -0.087691024 0.10400468 -0.09978846 0.4612945
-0.1344702 -0.26145762 -0.12913054 -0.08784623 -0.012580232 -0.060622904 -0.10393955 0.082804844
-0.18349198 -0.017546125 0.0969874 -0.08927752 -0.18526855 -0.05866131 -0.18351877 -0.27177978
-0.06961452 0.08638544 -0.104867 -0.18870361 0.23115279 0.13766131 -0.06714549 -0.13337834
-0.21610838 -0.30156645 -0.11625322 -0.24322169 -0.072772115 0.097917885 0.0482932 -0.16556942
-0.052393287 0.17531152 -0.16339105 -0.03989529 -0.12115468 -0.27212727 0.1944152 -0.07091089
-0.20499869 -0.2099819 -0.14214957 -0.32279304 -0.18035212 -0.08234511 -0.059228808 -0.1711235
-0.19936502 -0.38307127 -0.07760501 0.122252524 -0.29309332 -0.3053434 0.17589092 -0.2632671
-0.22562876 -0.015396793 -0.13458176 -0.07990902 0.036277045 -0.1752785 -0.033112988 -0.33031297
-0.14753756 -0.01713132 -0.03401644 -0.18265451 0.07270413 -0.19420065 -0.27661005 -0.2291777
0.100666605 0.26172075 -0.09600215 0.108965896 0.16462392 0.0322633 -0.07870275 -0.31719285
-0.08092354 -0.034095887 -0.15180694 -0.13299616 0.0098307235 -0.021726672 0.0071194414 -0.101194076
-0.19918165 -0.06877833 -0.18146197 0.2595372 -0.2531989 -0.17895573 -0.20163894 -0.048664175
-0.11484117 -0.20087287 0.12019809 -0.12293428 0.011460823 -0.11556916 0.0829092 -0.22150217
-0.0057162517 -0.23777732 -0.11510376 0.20794414 0.071937084 0.084296115 -0.0142360525 -0.005793654
-0.1470147 0.1468907 -0.11355986 -0.045223296 -0.28210947 -0.2780328 -0.13475072 0.1516274
0.2172564 -0.10796208 -0.14520346 -0.034123603 0.040664874 0.1265967 -0.20520927 -0.12318589
-0.17362286 -0.023251921 -0.16675793 -0.32577547 -0.2213261 -0.15091515 -0.0037677635 -0.2625051
-0.14171585 -0.2748723 0.0441917 0.0060085277 -0.29123542 -0.11706424 -0.20113257 -0.3086128
-0.0048704757 -0.08228979 -0.2947794 -0.08797989 -0.078894995 -0.20232196 0.21674523 -0.037703328
-0.25701615 -0.25817952 0.06276578 0.009309976 0.11161272 -0.012600747 -0.0057117944 -0.035508893
-0.027371993 0.17479186 -0.25129876 -0.18863733 -0.14240685 -0.25434482 -0.23781021 -0.12877914
-0.19464283 -0.17275457 -0.1738315 -0.14513518 0.04378255 0.12596631 -0.16985194 -0.06943558
-0.065304585 0.1030302 0.18001552 0.051595412 -0.061759755 0.10316942 -0.168469 0.014018199
0.15683913 -0.22226794 -0.0026034266 -0.070382 -0.056206964 -0.06746322 -0.007959262 -0.13362373
-0.1914543 -0.14519478 -0.1597068 -0.10014661 0.4582389 -0.19797282 -0.01644748 0.21609952
-0.14616752 0.02319628 -0.24055976 -0.089795515 -0.20034765 -0.19535622 0.13044271 -0.1614399
-0.24472848 -0.0905837 -0.08579065 -0.19286023 -0.19767319 -0.061632868 0.06842613 0.4870847
-0.09998462 0.21441022 -0.035422314 -0.14163634 -0.02785395 -0.036733646 -0.1697467 -0.13998652
0.013866377 0.24563968 -0.17809258 -0.13456798 0.13614407 -0.043865666 -0.07196764 0.09479547
-0.018031212 -0.19360279 0.09419776 -0.070846565 0.015956357 0.14147215 -0.023384517 -0.11264698

parameters.mlp_0_w f4 [256, 70]
00000000: 3587 0cbe e98f e03d 274e 7dbe 1ab1 1fbf
00000010: ce1a ecbd 2fc7 43be 25d1 e3bc 79fd ea3d
00000020: b432 c93d 6ca0 cabd 9c2b 83be 6087 79bf
00000030: 5715 93b9 b671 86bc b997 6d3c ef20 183f
00000040: d24d 67be 3d69 fe3c 4c1c 923e 5ffb b4bd
00000050: 659a 06be 4796 0cbf 1947 d8be 409d fd3e
00000060: 9acb 53ba 2f26 043c 81a7 4f3f 17e4 9a3d
00000070: 06d4 4fbc 6a04 cc3d c43b cfbd d127 0a3e
00000080: 1a16 8fbd f789 763d 7fd6 a0bc cf0c 2abe
00000090: c7ea 683e d7a3 c63d e06b 32be 9cef 1f3e
000000a0: 491a 82be 56cf 18be 6de3 013d 7d48 edbd
000000b0: c4d8 df3d 39d2 d4bc c321 e8be 40ce 1d3e
000000c0: 68db cbbc 1ea2 3d3c c99a d3bd bf65 8fbd
000000d0: e5f8 1bbd 61a4 f4be 65e4 e63c e138 81bd
000000e0: 2211 0e3e 116c 5c3e 3cb1 cebd 5bd2 debc
000000f0: 7e7d 4d3e 517e 353f 3fc8 2cbc fda5 323b
00000100: 45f8 513d 516c 0c3c 66ff 0e3d 9b84 213e
00000110: 79ab b4bb b85d 813d 07a2 afbe 5c36 d43d
00000120: 1263 77bb 2902 5f3e 747f 6c3d ee4a a5be
00000130: e7f3 573e 26f4 763d ca40 92be 1d6e 4abe
00000140: 4fc5 18be a38b bd3d 6699 35be 86ff 10bf
00000150: f4bb 5e3d da29 b0be c0ef a5bd 8ab1 2fbe
00000160: db60 57bf 3262 893e 4f85 20bd c51f 7cbe
00000170: 0e0a 3b3f c3c9 25be 40ea aebe 558c 323e
00000180: c7d3 9c3d 9d36 5ebe 8079 913d 3400 f43c
00000190: d466 4cbe 179f eebe aa55 773e 9b60 2ebd
000001a0: c570 95be ca51 a43e b96a 2abd 0878 eb3d
000001b0: cbd7 0f3d 6911 323d 47a0 7fbe 2c85 0ebe
000001c0: 81fa 133d 4161 903d 73e9 493e ad4f d1bd
000001d0: 3af8 8c3e 7c77 32be a98c 743e 59bb 383e
000001e0: 51e1 803d f5d2 583d e318 8c3e b833 66be
000001f0: 8964 93be 4b36 963d df36 d83c 35d3 093e
00000200: e4c5 b73d 997a 79be ae85 ed3c bc2c 123e
00000210: 389c 08be 04fa 1cbc 129c 9dbd ec62 243e
00000220: 9069 a53e 0952 50be 849c ad3e faa5 193d
00000230: 8bf7 38bd c736 7c3e 357f 1bbe 5e29 6d3e
00000240: a036 b4be 5124 cc3d 8c58 1c3f a5c2 4bbe
00000250: b9c7 8c3e 5b73 183f b010 423d 0881 52be
00000260: 9095 5dbe 9565 81bd 1f3e 983e d312 47be
00000270: 4c39 f4bd 3476 343f 0c7f 6b3f 71a0 29bf
00000280: 70d7 bebd cb8f a53d 782d 8fbf 6a68 3a3e
00000290: 5507 a6bd 7ebd 313f 2d9b 87be 43ad e6bd
000002a0: 5a97 13bd 2fea 3b3c c91d 363d d4cc 38be
000002b0: 6450 bfbd 2200 abbe 1e3e 343e 8734 67be
000002c0: 2be0 ca3d 0976 633c cdfb 1d3e 7b51 09be
000002d0: 1813 a73d 6498 54be 7f12 8fbd c5be 043e
000002e0: b0f1 6abe 790a 04bd 2590 643d 7350 38bd
000002f0: 1f4e 63bd 08d8 733e 9c35 35be ec93 f9bd
00000300: 24c8 883e 7e41 b03d 346e 4cbe b1fa 02be
00000310: cd0b d5be db21 a7be d2c7 3b3f 3c67 23be
00000320: 00de 0a3e a67a f7be 437f dcbc 00a1 a13d
00000330: 1b4a 6cbb c3a5 86bc c839 a8bc c65a 983c
00000340: 2378 7fbe 388d 093d e4fe d9bc d17e a83e
00000350: 311b 52bd 53da e63d fa8a cbbe 1ea1 a2be
00000360: fe53 393e 8ba5 2a3f 811f 9abd b66f 1a3d
00000370: 169a b7bd ed91 c53c 96ce 4cbe dce5 48bf
00000380: cbfb afbc f42f 9b3e f863 183e f580 68be
00000390: fcac aebc b5da 8c3e 7417 a53d cf41 793e
000003a0: 2989 fdbc c117 5bbe 134a fabc 6021 2e3d
000003b0: 3a44 81bf e20f e7bd b008 113d 46e0 c53d
000003c0: 01a2 a1bd 472e 80be 02d3 94be 03b9 dfbd
000003d0: 071e 763e 1f1e 853e a978 183d 87b3 f3bd
000003e0: 0745 8b3d 0d9c 85be 2b60 f5bd ced2 753e
000003f0: 6045 013f b615 02bd 8fa2 183e 7eca 0abe
-0.13723452 0.10964949 -0.24736844 -0.6237961 -0.1152855 -0.19118951 -0.027809689 0.11474127
0.09824124 -0.09893879 -0.2561921 -0.9747219 -0.00028053924 -0.016411643 0.0145015055 0.5942525
-0.2258828 0.03105604 0.28537214 -0.08837008 -0.13144834 -0.54916805 -0.42241743 0.49534035
-0.000807935 0.008065744 0.81114966 0.07563036 -0.012684828 0.099617794 -0.10118821 0.13491751
-0.069866374 0.060190167 -0.01963353 -0.16606449 0.2274581 0.09699219 -0.17423964 0.15618747
-0.2541068 -0.14922842 0.03171103 -0.11586092 0.10930017 -0.025979148 -0.45338258 0.1541071
-0.024884894 0.011574296 -0.10332257 -0.070018284 -0.03807916 -0.4778166 0.028185079 -0.06309677
0.13873723 0.21525599 -0.100923985 -0.027199915 0.20067403 0.7089587 -0.010545789 0.0027259581
0.05126216 0.0085707465 0.034911536 0.15773241 -0.005513605 0.063167036 -0.34303305 0.10361931
-0.003774826 0.21778168 0.057738736 -0.3228373 0.21089135 0.06029143 -0.28565055 -0.19768567
-0.14919017 0.09255149 -0.17734298 -0.566399 0.054378465 -0.3440693 -0.08102369 -0.1715757
-0.84132165 0.2683273 -0.039189633 -0.24621494 0.7306222 -0.16190247 -0.34163094 0.17436345
0.07657581 -0.21700521 0.071032524 0.029785253 -0.19961101 -0.4660575 0.24153772 -0.0425726
-0.291876 0.3209365 -0.041605685 0.114975035 0.035117906 0.043473635 -0.24963485 -0.13917989
0.03612757 0.070498 0.1971796 -0.10220275 0.27533132 -0.17428392 0.23881783 0.18040217
0.06292976 0.05293556 0.27362737 -0.22480667 -0.2878764 0.07334574 0.026393352 0.13459475
0.089732915 -0.24363174 0.028994408 0.14274877 -0.13340843 -0.009581093 -0.07695784 0.1605336
0.323071 -0.20343794 0.33908474 0.037511803 -0.04515795 0.24630271 -0.15185244 0.23160312
-0.35197926 0.09967864 0.6107261 -0.1989847 0.27496126 0.5955102 0.047379196 -0.20557034
-0.21639085 -0.06318203 0.29734895 -0.19440775 -0.11924991 0.70492864 0.91990733 -0.6626044
-0.09318435 0.08084067 -1.1185751 0.18203893 -0.08106867 0.6942977 -0.26485577 -0.11263516
-0.036033012 0.011469408 0.044462 -0.18046886 -0.09341505 -0.3339854 0.17601821 -0.22578631
0.09906038 0.013883122 0.15428086 -0.13409989 0.08157939 -0.20761257 -0.0698595 0.12963398
-0.22943759 -0.03223655 0.05580153 -0.044998597 -0.055494424 0.23812878 -0.17696232 -0.12186417
0.26715195 0.08606242 -0.19963914 -0.12790944 -0.41610566 -0.32643017 0.73351777 -0.1595735
0.13561249 -0.4833576 -0.026916152 0.078920364 -0.0036054912 -0.016436463 -0.020535365 0.018597972
-0.24948172 0.033581942 -0.0266108 0.32909253 -0.051295463 0.11272111 -0.39754468 -0.31763548
0.18098447 0.6665885 -0.0752554 0.037704192 -0.089649364 0.024117434 -0.20000681 -0.7847574
-0.021482369 0.30310023 0.14881885 -0.22705443 -0.02132272 0.2751061 0.08061114 0.2434151
-0.030949192 -0.2139578 -0.0305529 0.042512298 -1.0098946 -0.11282326 0.035408676 0.096619174
-0.07892228 -0.25035307 -0.29067236 -0.1092396 0.24034892 0.25999543 0.037224445 -0.118994765
0.06800275 -0.2609562 -0.11981233 0.24006197 0.5049648 -0.031758986 0.14905761 -0.13553807

parameters.mlp_1_b f4 [256]
00000000: b299 943d 0c2b ab3e 0934 d13e 4636 5a3d
00000010: c189 2b3c b86a b73e 994b 1e3e afdd e73d
00000020: 161c 133c f4a3 493e 893c 683d 21f1 db3d
00000030: ab2c 26be dee1 bd3d 1517 c43e 274e 013e
00000040: c4aa 533d ecc4 1ebd 4498 aabc 318b 893c
00000050: 6f4f 673e d5e9 793c 7fe7 9d3c 6e04 d8bc
00000060: 5506 3b3c b209 633d e6d4 92bc 4e29 d9bc
00000070: 00d8 603d 66ad 4dbd c50a 843e c9aa 2d3d
00000080: 9a17 2abd 2149 a43e e416 003e 9a6c a03d
00000090: 262a 47bc 20b1 bb3d 1250 11bd 4768 7abc
000000a0: 7260 4ebc af64 ac3e 3df8 98bc da51 4f3d
000000b0: c81d e43d 581b 283e 49c3 8dbc 999d 013e
000000c0: e2ad 6dbc 2fb3 5f3d 31a7 613d 2302 1b3e
000000d0: 65ed 493e 9164 d63c 8c0a 903c c176 18bd
000000e0: 0c27 86bc 1b0a 9dbc 4343 273d bb31 163e
000000f0: 84fe b1bb a78a f4bc 7556 7f3e 3dc6 a23d
00000100: 9035 8e3b 4c8f 863e b161 e9bc 1716 9ebc
00000110: 35a2 023e 0f01 00be 40f9 073e b003 80bc
00000120: 39dd c33e 874a e13e 71c4 83bc 826b 6d3d
00000130: 16c2 d6bd c3d3 993e 1049 bebb 4881 01be
00000140: 8be8 dd3c 8386 c83d 43b8 3fbc b1c3 e9bc
00000150: d8a1 a8bc ce62 513d 4514 b23e 7a3a 1f3e
00000160: c026 743e 9c59 14bc c30b f23d 6756 a43e
00000170: 584f 38bc 198c 8a3e cd07 803d 90fc 9dbd
00000180: 59f8 c0bc 9e5c f3bc 5355 2d3e bae3 f8bc
00000190: a727 f8bc c0f1 d5bc 52fd babc 0fa7 04bd
000001a0: 6d12 5bbc a9ec 013d a8eb 97bc 4085 0ebd
000001b0: d325 c0bc 3dfa 60bc c292 383e 5660 d1bb
000001c0: c7a6 ef3e c19b 643d 5672 913e a094 563e
000001d0: 64dc 06bd 1ee8 91bc 6f44 73bc b856 063e
000001e0: 497d ad3e 7e9a a23e 369c 8a3e de2c afbc
000001f0: 82b4 e43e b624 433e 88ca 123e 8300 e03d
00000200: 59f2 933e 468e a53e a088 0b3d 2a3e 8a3c
00000210: 6e82 213e d7f4 47bd c3ef 383d 047b efbc
00000220: c4ba 89bc b140 9ebc 4c22 32be b448 0cbd
00000230: d486 c9bc 093b 2d3e eea8 03bd 554a 63bc
00000240: 90ef f5bc 47e2 9f3c 0d7d c1bc fbf8 8f3e
00000250: d6c2 433e d757 493e 9f5d 8e3e 63e6 9dbc
00000260: 3d7d 013b 34f4 2e3e 8067 88bc d85e 583e
00000270: 4173 233e 5066 313e 088b c83d 37b8 b53c
00000280: e97f 073d 4fb9 693d 8cc3 b8bc 4959 18bd
00000290: 4a56 6b3e c79e a73e 3ebf 9d3d 4344 86bc
000002a0: e722 d13d 78fc 69bc cc98 12be 82e6 b4bb
000002b0: f96b 8abc 8587 393e ce25 a23e 8462 c33c
000002c0: 9d30 3d3d 2618 6f3e 335c 383e bdf5 bcbc
000002d0: 14d4 c5bc e7ea 523e dc99 663e d481 a0bc
000002e0: d7fe 293e 3114 aebd 0376 603e e7f3 013c
000002f0: 56f3 903c 4780 49be a474 c9bc 4d0c de3e
00000300: dfb7 c2bd b81f 063d 56a0 9cbc d0a7 a83d
00000310: 6e99 c63d 9730 613e ec7e 623e ee06 a6bc
00000320: f0fb b4bd e63d 283e 7a7c 893e 2839 d5bc
00000330: 7d02 cb3e 1578 22be 5141 7f3c 6184 8dbc
00000340: 8c39 50bc 0f23 68bc 2ab8 c8bc 8eed 563d
00000350: 5a33 a63e f10c 783d 8de1 1a3e 0b92 a3bc
00000360: 2f34 913e 3718 0abd 10bb 1f3d f259 c5bc
00000370: c27b ed3d 3738 593e 05ea 86bc fed1 873e
00000380: f0d6 cb3c a96e d7bd 41b2 b23e 5cf3 953d
00000390: 6601 b13e 43e6 03bc e445 ecbc 5a6a 793e
000003a0: a2af 593e 7ce5 e23e 0dfe 7dbd 7944 9abb
000003b0: f58f afbd 380e bebd f02e 5c3e 7fdd 1d3e
000003c0: 2615 853e 9608 943e 8d08 023e a10f cbbc
000003d0: 559f febd 6080 88bd 2bb7 b23d 75a2 d23d
000003e0: 2f64 ea3d 52a9 7fbc 5fc0 a13e 9088 b93e
000003f0: 53ba b1bc 989e 78bc f6e1 e9bc 037b 5cbc
0.072558776 0.3343128 0.40860012 0.053274415 0.010469855 0.35823607 0.15458526 0.1132158
0.008978864 0.1969145 0.056698356 0.10739351 -0.16227977 0.09271596 0.3829886 0.12627469
0.051676527 -0.038762018 -0.020824559 0.016790004 0.22588895 0.015253504 0.019275425 -0.0263693
0.011415084 0.055429168 -0.017923784 -0.026508953 0.054893494 -0.050214194 0.25789467 0.0423992
-0.041526414 0.32087043 0.12508732 0.07833214 -0.012156045 0.09164643 -0.03547675 -0.015283651
-0.012596237 0.33670565 -0.018673057 0.05061517 0.11138493 0.16416681 -0.017305033 0.12657775
-0.014506789 0.054614242 0.055091087 0.15137534 0.19719465 0.026171 0.017583154 -0.037222628
-0.01637604 -0.019169858 0.04083563 0.14667408 -0.005431952 -0.02985127 0.24935324 0.07947967
0.0043398812 0.26281202 -0.028488966 -0.019297643 0.1275719 -0.12500404 0.13278675 -0.015626758
0.38254717 0.44002172 -0.016084881 0.057963856 -0.10486238 0.30044374 -0.0058070496 -0.12646973
0.027088424 0.09791281 -0.011701646 -0.028535696 -0.020584986 0.051119618 0.3478109 0.15549651
0.23842907 -0.009054568 0.118186496 0.3209717 -0.011249386 0.2706001 0.06251488 -0.07714188
-0.023555921 -0.02970725 0.1692708 -0.030382026 -0.030292345 -0.026116252 -0.02282587 -0.032385882
-0.013371092 0.031719837 -0.018544987 -0.034795046 -0.023455536 -0.013731536 0.18024734 -0.006389658
0.4680693 0.0558126 0.28407544 0.20955133 -0.032925025 -0.017810877 -0.014847859 0.13119018
0.33884647 0.31758493 0.27072304 -0.021383699 0.44668967 0.19056973 0.14335072 0.109375976
0.28895834 0.3233511 0.034065843 0.016875345 0.15772411 -0.04881748 0.04515053 -0.029233463
-0.01681269 -0.019317957 -0.17395896 -0.034249023 -0.024600424 0.16917051 -0.032143526 -0.013872703
-0.030021459 0.019517077 -0.0236192 0.28119645 0.19117293 0.19662414 0.27805802 -0.019274896
0.0019758486 0.17085344 -0.016650915 0.2112993 0.15961935 0.17324185 0.09792143 0.022182567
0.03308097 0.05706149 -0.022554182 -0.037194524 0.22982135 0.32738325 0.07702492 -0.016389972
0.10211735 -0.014281385 -0.143161 -0.0055206427 -0.016897188 0.18118103 0.31669468 0.023850687
0.04618894 0.23349056 0.18003921 -0.023066396 -0.024148978 0.2059742 0.2251963 -0.019593157
0.1660112 -0.08499945 0.21920018 0.007931686 0.017694157 -0.1967784 -0.024591751 0.4336876
-0.09507727 0.032745093 -0.019119423 0.08235133 0.09697233 0.21991192 0.2211873 -0.020266976
-0.08837116 0.16429862 0.2685278 -0.02602823 0.39650336 -0.1586612 0.0155795375 -0.017275037
-0.012709033 -0.014168515 -0.024501879 0.052472644 0.32461053 0.060559217 0.15125103 -0.0199671
0.28360125 -0.0337145 0.038996756 -0.02409074 0.115958706 0.2121285 -0.016469011 0.265274
0.024882764 -0.105191536 0.34901622 0.07321808 0.3457138 -0.008050504 -0.02884192 0.24356976
0.21258405 0.44315708 -0.06200986 -0.0047078696 -0.085723795 -0.09280056 0.2150228 0.15416525
0.25992697 0.289128 0.12698574 -0.024787726 -0.12432734 -0.066651106 0.08726343 0.102848925
0.1144489 -0.015604334 0.3159208 0.36237 -0.021695292 -0.01517453 -0.02855013 -0.013457063

parameters.mlp_1_w f4 [256, 256]
00000000: 3299 67be a354 9bbd 1804 003d 007c e1bd
00000010: cbef 00bd 0b77 35be f2e2 6abd eea7 38be
00000020: b300 6ebe 2cbd e13d 5a8e c13e 448a 7fbe
00000030: c140 00bf ba0f ddbe 0e2e 7cbe e8b6 713e
00000040: e77d 353e 09fe 803e 4658 52be e30c 08be
00000050: b6e6 b7bd abd0 03bf 20d9 b0bb ec66 b6bb
00000060: 28bc 2f3e 3850 6dbd b473 41bd b28a d63d
00000070: f16a 253e a681 51be 8c73 37bb 71cb b0be
00000080: ab9e 9dbe aa2c 41bd 7a20 293d 77be 103e
00000090: e603 cdbe ca51 dc3c db81 03be 91b1 823d
000000a0: 5db8 ba3d 667c 9ebe 9ac9 6b3d f8f1 223e
000000b0: b989 d5bd 9083 44ba 3c13 903e d38e f1bc
000000c0: 112c 89be 84be ad3e 9be3 3dbe a7a9 4a3e
000000d0: 817b acbd 4268 5fbf 9166 17be 8371 903e
000000e0: daa4 86bd 3548 383c 0f7f 423d abd2 9dbe
000000f0: 011c 843e a85c da3d b2e4 87bc bda9 a53d
00000100: 3f83 e9be c279 f53d bd1d 3e3d a079 9cbe
00000110: 367c eabe 2394 c9bc cfda 033d 65a9 aabd
00000120: 5ed8 f7bb c11c 1f3e 9433 b8bd b9b2 133e
00000130: 90c8 ecbc 3030 0fbe 3d69 0dbe 09ec 533e
00000140: a59b da3e db00 583d 680c 593e 48fb 4c3d
00000150: b387 8dbd b8e2 933e 2f6f ebbe 0735 a33e
00000160: 0a59 a53d 311a a5bc f61e 9d3c d71f 26be
00000170: 4190 ac3e b393 16be d806 cdbc fff9 8a3d
00000180: fbe6 a5be bca2 86bd ca74 babe 37bd 163e
00000190: 43f3 66be d954 23bd a671 16bf 12fe 43bc
000001a0: a039 1d3e 1dd8 43be 55d5 923e d4cd 733d
000001b0: 0d1a c5be ed17 82bd c1aa 4dbd c6ee 113e
000001c0: a58e a23d 5ddb 44bd 5de9 083e a5bf 15be
000001d0: c591 123e d7dd 67be ed22 803e 0e77 ba3d
000001e0: 60df f6be ce93 7abd 74f9 19bd 1682 1c3d
000001f0: 182f dd3e c44e 473e 83b8 0e3e 834f 2c3e
00000200: 8321 f0bd 4aa3 66be 4d61 ea3c 33fb a4bd
00000210: 8c6f 043f 6e73 0b3d cbe1 d5bd 516e 22be
00000220: 1691 02be 9b9c 03bc 19ae f63b 8413 a83e
00000230: c4e1 db3e 9e06 81be 1c25 0bbe b600 03bd
00000240: 8b94 d0be 1560 253e c769 763e a2e7 6c3c
00000250: 4e31 d0bd 1f4e 903e 9416 af3a e544 5c3e
00000260: f905 d2be 04e0 12be 8481 113e 1cc8 16be
00000270: 8a25 b83c 1d8c 50bd a7ba 883d f107 5fbd
00000280: 1074 313c eb04 82bd 3a3f b8be 0172 95be
00000290: f742 9cbb a586 2dbe d4f8 dfbc d5e6 343e
000002a0: aba8 d4be f45d 613e bbb5 49bf 4167 d0be
000002b0: c456 a33d 6357 883d b3a7 62bd bd65 48be
000002c0: da2e e9bc 9eac c8bd fddb 67be 24e2 9c3e
000002d0: 11f4 6b3e deef a7be 37e8 abbd 6091 123d
000002e0: e4b0 9cbb 33a8 5bbe 2daf acbe 67b6 d03d
000002f0: b33d 61be a60f 36bd 087d d1be 41ca 503e
00000300: afb5 25bf f192 08be 1ef1 273e 71e3 003d
00000310: 8b51 71bc 44c0 53be 53fd 203d b7ad 69be
00000320: 3dfa 3bbe 3873 c63e 37b0 64be 5ed1 39be
00000330: 680c 99be 04fc 5c3c 9939 8c3e 7e38 493e
00000340: 3935 6abd 9de6 eabc 1a42 abbc 4a76 a9bd
00000350: 311c f8bc debb 483d a8ee b4be b58e 1dbf
00000360: cf08 ad3d e39b 893e 1ff4 af3e 7b01 653d
00000370: 9e78 a03e bfca 2abd e946 a8be 90fd 783d
00000380: 4f5b 06be 2849 3d3e 27fc 12bf 38f1 04bf
00000390: 1257 44be 9f7a 2c3e 2dd0 e4bd 59db aabb
000003a0: f3ea adbd a6ef 373e 5b93 34bf e164 4f3d
000003b0: 4300 12be 55b7 8cbe e1af 70be 4100 27be
000003c0: 8834 83bd c7a1 26be 7e56 9f3e 22e4 7abe
000003d0: 7a2a ddbe 7794 05bf 2385 a43d ead8 fdbd
000003e0: 3ef6 b83d 86a9 81be cbb2 ad3b b232 80be
000003f0: 4d15 d43d 5c47 ae3d ca00 563e 8918 693d
-0.22617033 -0.075845025 0.031253904 -0.11009979 -0.031478684 -0.17721193 -0.05734534 -0.1803281
-0.23242454 0.1102241 0.37803918 -0.24955088 -0.50098807 -0.4317606 -0.24626943 0.2360493
0.17723809 0.25193813 -0.20541486 -0.13286166 -0.089795515 -0.5149028 -0.005396977 -0.0055664685
0.1716162 -0.05793783 -0.047229484 0.10475673 0.16154076 -0.20459613 -0.0027992455 -0.34530213
-0.30785117 -0.047161736 0.041290738 0.14135157 -0.40042037 0.026894469 -0.12842505 0.06381524
0.09117196 -0.30954283 0.05756531 0.15912616 -0.10426659 -0.0007496411 0.28139675 -0.02948705
-0.26791432 0.33934414 -0.18543856 0.1979128 -0.08421994 -0.8726846 -0.1478522 0.28211603
-0.06574412 0.011247684 0.047484454 -0.3082479 0.25802615 0.10662204 -0.016588543 0.08089016
-0.45607945 0.11986114 0.04641508 -0.30561543 -0.4579789 -0.02460677 0.032191094 -0.08333091
-0.007563635 0.15538312 -0.08994213 0.14423646 -0.02890423 -0.13983226 -0.13809676 0.20695509
0.42696872 0.05273519 0.21196139 0.050044328 -0.06910648 0.2888391 -0.45983264 0.31876394
0.080736235 -0.02015409 0.019179802 -0.16223083 0.33703807 -0.1470478 -0.025027677 0.06785964
-0.32402787 -0.06574008 -0.36417228 0.14720617 -0.22553734 -0.03987584 -0.58767164 -0.011962431
0.15354013 -0.1912541 0.28678384 0.059522465 -0.38496438 -0.0635222 -0.05021167 0.14251241
0.079373635 -0.048060764 0.13370271 -0.14623888 0.14313419 -0.22643219 0.25026646 0.09104739
-0.48217297 -0.061176114 -0.037591413 0.038209997 0.43199992 0.1946364 0.13937573 0.16827206
-0.11725142 -0.22523227 0.02861085 -0.08055725 0.5173271 0.03404563 -0.10443457 -0.15862395
-0.12750658 -0.008032943 0.0075280783 0.3282739 0.42945683 -0.2520036 -0.13588375 -0.0319831
-0.4073833 0.16149934 0.24063788 0.014459522 -0.10165654 0.28184602 0.0013358169 0.21510656
-0.41020182 -0.14343268 0.14209563 -0.14724773 0.022478838 -0.050914872 0.06676226 -0.054450933
0.010830894 -0.06348594 -0.35985738 -0.2918854 -0.004768725 -0.16945894 -0.02734033 0.1766618
-0.41534933 0.22008497 -0.78792924 -0.40703776 0.079755336 0.06657293 -0.05533571 -0.1957006
-0.028464723 -0.09798549 -0.22642513 0.30641282 0.23042323 -0.32800192 -0.08393901 0.03578317
-0.004781829 -0.21450882 -0.337274 0.101910405 -0.21996193 -0.044448517 -0.40915704 0.20389654
-0.6473035 -0.13337304 0.16400573 0.031466905 -0.014728914 -0.20678812 0.03930409 -0.22820173
-0.18357177 0.3875978 -0.22332846 -0.18146273 -0.29892278 0.01348782 0.27387694 0.19650456
-0.057179663 -0.028674418 -0.020905543 -0.08274515 -0.03028688 0.04900729 -0.3533833 -0.6154588
0.08448946 0.26876745 0.34365937 0.055909615 0.31342024 -0.04169726 -0.328666 0.06078869
-0.13120769 0.18484938 -0.57416004 -0.5193057 -0.1917384 0.16843651 -0.11172519 -0.0052141366
-0.08492079 0.17962512 -0.70537347 0.050633315 -0.14257912 -0.2748362 -0.23504592 -0.1630869
-0.06406504 -0.1627265 0.31120676 -0.24501088 -0.4319647 -0.52179664 0.08033206 -0.12394889
0.09031342 -0.2532465 0.005300855 -0.25038677 0.10355625 0.085097045 0.20898739 0.056908164

parameters.mu_b f4 [8]
00000000: 53fa f9bd eac4 333e d664 6e3e 1e98 f1bc
00000010: 7199 be3d dae7 91bd 5bdd 72bc ef7f 83bc
-0.12205949 0.17555586 0.23280653 -0.02949148 0.093066104 -0.071243 -0.014823283 -0.016052214

parameters.mu_w f4 [8, 256]
00000000: 6d3b 8f3e f9a4 48be a55c cc3d 17b7 0f3e
00000010: 501a 5fbd 67e4 4b3e f826 9c3b 82fd 273e
00000020: c8c0 84bc 6c29 b4be 6ca1 923e 2a91 b7be
00000030: c768 afbe 2e05 003f 7fc4 bebe 0536 2b3f
00000040: 0945 d23e e9e3 2a3f 0671 1cbb 0187 febb
00000050: c823 ea3e 6540 9abc e03d 15bd 95f7 c73c
00000060: 9163 223f d802 363e e365 ef3a c1e3 e7ba
00000070: 1837 3fbf cc98 343e d2ac 763f e9c7 bcbe
00000080: a0c8 993d 4f54 7dbf 9661 26ba c8c2 b3be
00000090: 1d1c e63b 191b 2fbe b7d2 53bd 9e6b ec3b
000000a0: 4d21 073c adac 2ebe 0eca 893c ead5 53bd
000000b0: 59d4 76bd b5b2 973f e3d8 aa3c eab7 323f
000000c0: f62f 08bb 380a 26bc a277 b83d 7d17 9f3e
000000d0: ab2d b4bd b7cc 063f dc20 c2bb 918e 57bc
000000e0: a7bb 18bd b60a 983c 700e 3b3e d0a2 b8be
000000f0: 0b59 9abb a20c e43b 58f3 a2be 62a8 a93e
00000100: bf07 4ebe 9c7b 2b3d 462c d23c d033 20bc
00000110: 20d4 adbe 8ecd 993e 88f5 223e d103 91bb
00000120: ca6d 81be d96b d33e b492 54bc bf07 1b3e
00000130: 6586 11bf fd49 d23e 95c2 bd3f f87f bc3e
00000140: 3e8e 4cbd a910 d73d c38a fdbc 049b 06be
00000150: bf2d 8c3b f19e 043c 11e5 883e 939b b13e
00000160: fc94 cfbe 4b35 593b b19b 153f 6f22 15bf
00000170: bca4 f33b 0035 b0be 51a0 bbbc 5426 9bbe
00000180: 59af 72bc 40ff 5dbb c20e e7bd b0a3 753e
00000190: d052 17bc ef6c 1c3c 4987 71bc cc6a f538
000001a0: 86c0 223c 262e 8b3d c5db 473b cb86 bb3c
000001b0: d9a8 913c 2bdd cf3f bf41 7fbf 55c7 01bc
000001c0: 7d7d 46be ccda 51bd ee9f cdbe 57f6 0c3f
000001d0: 6e09 f43b b390 24ba e596 0c3c c435 d4bf
000001e0: 008b fdbe 033e 1ebe 946a 163e 04c1 2f3c
000001f0: 0dee 61be dac7 c3be d670 67bf adb4 c93e
00000200: 4e74 debe 3301 7ebf c6bb 2f3d 1a2f c7ba
00000210: 397d d53e 4016 1b3b f696 d038 fa0a d73c
00000220: eaec 16bb 8007 89bc dbae 25bd 29a4 abbd
00000230: ea27 34bc d0dc 7d3f ebc5 a7ba 6312 6c3c
00000240: b7c4 ee3c 0e5f 51bd e177 1b3c 5cea b6be
00000250: 0677 afbe f905 8ebe 6b3a 8fbf cf90 8e3c
00000260: e933 ec3d 0211 853f 350c cabe b9bc 713f
00000270: f0f0 25bf 55cc 873e 625f a13e 7fdd f4bd
00000280: d9d9 babc bfce 1f40 829b 8a3c 73a6 60bd
00000290: f215 cfbd 5974 cdbd 988f 483e 2f6d c23b
000002a0: c0fe 723f f137 1f3b 09d7 acbd 561e eebc
000002b0: 66a4 a9ba a626 f43d 6f4b 96be 87ce 36bc
000002c0: 9cc3 a0ba 27ac 293e fa32 d8be d5b5 a03c
000002d0: 1362 9c3c 8819 59bd fee2 923f a7df a3bc
000002e0: 5bbe d83b 2ad6 9bbf b396 a03e 9403 8e3d
000002f0: 0687 b8bc b143 493e dde7 853c 01ca 3e3f
00000300: d90d d53d 4924 c1be 267b fcbb 2340 c23d
00000310: 921a 89bf 6f29 b9be 967b babe 4a1d d23b
00000320: 2886 013f 2783 87bf cc8c 003d 5715 01bf
00000330: 90ee 39be 52d0 003e 24e7 ffbe 388c bc3b
00000340: d0da 1bbf 543e 01bb 5639 203c d780 90bf
00000350: 86da 20bf 3475 e43d ce80 003e 5ba2 82bc
00000360: 83d9 81be 87ea 37bd 1964 e2bc 1349 a33c
00000370: 5ab4 943e 650d 313e 5be6 70bb 9933 bcbf
00000380: c61e 33bc 161a 323e cdc6 d8bd f9b3 8f3f
00000390: 4cd9 81bf c2ad 483f 7d1c 19bc 08b1 a53d
000003a0: afc7 273d 024c 3bbe 891b b13c abff b9bd
000003b0: 7ab2 763f 0e2c f93e e1e2 27be 3cb7 6cbe
000003c0: ca3b d63f a25e 773f 2164 ddbd 7b47 8a3f
000003d0: acec 383f 014e 393d d112 b13e a677 6a3e
000003e0: 1cd9 2a3f 9499 933c 6be7 c83e 3b75 153d
000003f0: fb16 ba3a 306e 5abc 69d0 5dba 193b f53b
0.27975026 -0.19594182 0.09978608 0.14034687 -0.054468453 0.19911347 0.0047653876 0.164053
-0.016205207 -0.35187852 0.2863878 -0.3585294 -0.34259626 0.50007904 -0.3725929 0.668793
0.41068295 0.66754013 -0.0023871078 -0.0077675586 0.45730424 -0.018829534 -0.03643596 0.024410048
0.63433176 0.17774522 0.0018264618 -0.0017691777 -0.7469344 0.17636412 0.9635745 -0.3687127
0.07508969 -0.9895677 -0.0006346939 -0.35109544 0.0070223943 -0.1710018 -0.051714625 0.0072149774
0.008247686 -0.17058058 0.01681998 -0.051717676 -0.060261104 1.1851412 0.020855373 0.6981188
-0.002078054 -0.010134272 0.09007193 0.31072608 -0.08797773 0.5265612 -0.0059243273 -0.013156549
-0.037288334 0.018559795 0.18267226 -0.36061716 -0.004710322 0.0069595138 -0.31826282 0.33136278
-0.20120142 0.04186593 0.025655877 -0.009777978 -0.339509 0.30039638 0.15913975 -0.004425504
-0.25279075 0.4129322 -0.01297443 0.15139674 -0.56845695 0.41072074 1.4825007 0.36816382
-0.04994034 0.105012245 -0.030949956 -0.13145071 0.0042779143 0.008094535 0.26737264 0.34689006
-0.40543354 0.0033143337 0.5844069 -0.58255666 0.0074354094 -0.34415436 -0.022903593 -0.3030268
-0.014812314 -0.0033874065 -0.11282112 0.23988223 -0.009236053 0.009547456 -0.014741727 0.00011702403
0.0099335965 0.067959115 0.0030495983 0.022891423 0.017780708 1.623937 -0.99709696 -0.00792106
-0.19383807 -0.05123405 -0.4016108 0.55063385 0.007447413 -0.00062776654 0.008580898 -1.6578908
-0.4952011 -0.15453343 0.14689094 0.010727171 -0.22063465 -0.38238412 -0.9040655 0.39395657
-0.43448108 -0.9922058 0.042903684 -0.0015196532 0.416971 0.0023664385 9.9463316e-05 0.026250351
-0.0023029395 -0.01672721 -0.04044996 -0.083809204 -0.010995844 0.9916506 -0.0012800073 0.014408681
0.029146535 -0.05111604 0.009489031 -0.35725677 -0.34270495 -0.27738932 -1.1189703 0.017403034
0.115333386 1.0395815 -0.39462438 0.9442859 -0.64820766 0.2652308 0.31518084 -0.119563095
-0.022808956 2.4969938 0.016919855 -0.05484624 -0.101116076 -0.10031957 0.19586027 0.005933426
0.9491997 0.0024294818 -0.08439452 -0.0290672 -0.0012942671 0.11921434 -0.29354426 -0.011157638
-0.0012265327 0.16569577 -0.42226392 0.019617954 0.019089734 -0.053002864 1.1475523 -0.020004107
0.006614489 -1.2174733 0.31364974 0.06934276 -0.022525322 0.19654728 0.016345913 0.74526983
0.10403032 -0.37722996 -0.00770511 0.09484889 -1.0711234 -0.36164424 -0.36422414 0.006412183
0.5059533 -1.05869 0.031384274 -0.50423187 -0.1815741 0.12579468 -0.49981034 0.00575402
-0.60880756 -0.0019720988 0.009779295 -1.1289319 -0.6283344 0.11155167 0.12549135 -0.015946558
-0.2536126 -0.044901397 -0.02763562 0.019932305 0.29043847 0.17290266 -0.0036758396 -1.4703246
-0.01093263 0.17392763 -0.10584793 1.1226798 -1.0144439 0.78390133 -0.009345171 0.08090407
0.040961917 -0.18290713 0.021619575 -0.09081968 0.96366084 0.48666424 -0.16395141 -0.23116773
1.6736996 0.96628773 -0.10810114 1.0803064 0.7223613 0.045240406 0.34584668 0.22897205
0.6673753 0.018017568 0.39239058 0.036488753 0.0014197523 -0.013331935 -0.00084615365 0.0074838516

parameters.std_b f4 [8]
00000000: 530e 54c0 2b85 5ac0 dc59 63c0 855a 59c0
00000010: 0c50 56c0 2338 61c0 2012 57c0 d2c9 53c0
-3.3133743 -3.414378 -3.5523596 -3.3961499 -3.3486357 -3.5190513 -3.3604813 -3.3091931

parameters.std_w f4 [8, 256]
00000000: fe33 cb3d b3f4 96be 5d0e 19bf 10b0 15be
00000010: 9b5d 063d 563e 9dbe 130b e2bd f509 203d
00000020: abda 413d 6155 82be 6e40 3cbe e117 83be
00000030: 8cb0 b13d 6c16 d5bd 5895 8cbe 8c75 f1bc
00000040: 5a6a 40be 7d31 6f3e 0140 08bc b056 c03c
00000050: 5c7e c5be 9096 883c 5da8 193c 80ed 173c
00000060: 936b 9cbe 0973 b9bd 873f 3b3c a95e 193c
00000070: 4bec 913d e03d abbe ad07 b43e ed78 b0bc
00000080: 8a3e dd3d e117 6c3b ac10 dbbd 231d 293e
00000090: 1f52 563a 4968 4dbe 1837 46be ac70 a0bc
000000a0: e0e9 973b 0d07 a7be 1f5a 6d3c aeb1 9f3c
000000b0: c219 1b3e 531b 28bd 7352 81ba 50f7 c3bd
000000c0: 21aa 343b 47ce b7bc 7a7e 18bf 0273 2d3e
000000d0: 7eac b73d 4982 c4bd a97c 573d 1aca 49bc
000000e0: 2456 b93c 25ec afb9 ed12 f1be f840 54be
000000f0: 704f 023d 951a 313c d250 95be 75b8 3f3f
00000100: 3438 8bbe 4611 83bd b48a 253c 5be3 6dbc
00000110: 26bc 08bf aea6 33be b927 1ebe ac86 8e3c
00000120: d963 65be 26bd 81bc d18e e4bb 9ee6 76be
00000130: 1236 b5bb f0b8 47be 770f 9c3d 4101 f8be
00000140: 97e0 333c 1e0e bcbd 6a89 ae3c 0ca1 d0bc
00000150: 37ea 693c 70e6 2a3d f216 c5bb 1369 023d
00000160: da0b 01bd bcff c1bc b995 36be a671 273e
00000170: 8736 ee3a bda4 83be 7f24 193c c53b a13d
00000180: 7ba4 133c 1bfb df3b e6fb 0abe 4d00 83be
00000190: 7ccd c9ba 696b e43b 96c9 d33c e715 a23c
000001a0: 68f4 163c 9eda 40bc 239f d53a a60d 3a3c
000001b0: 9fb1 053a cec6 623e 9d57 e7bb 131c 553c
000001c0: 6a94 48be 2ede 053c 8eaf 62be 1509 94be
000001d0: 604c bd3c 4944 bbbb e27e 98bb 448e 213f
000001e0: c99c 05be 24d4 c5bd 598f b8be 942e f13b
000001f0: 9858 08bf 7c27 d3bb 9324 49bc bf25 c93b
00000200: 0197 c2bd 3f77 c73d 7c2d 6e3d 2e82 ef3c
00000210: 601d 24bd 8393 69bb 3c02 533d a23c 173c
00000220: 7a4b b8bb a9e6 31bc f0a6 04bf e42c 05bf
00000230: 5561 a7bc 2272 03bf 7760 9c3b d845 4fbb
00000240: 3c5e 503c 0169 363d 9796 c23b 651a 11bf
00000250: cd68 4cbe bc96 d3be 088f db3d e711 99bc
00000260: 085e 60be d14d 693e 78cf cabd b3ee fa3d
00000270: 4272 52bb 4622 95bd 0f08 653d 69b9 dd3c
00000280: db53 083d 836d 593f d150 063c 7a5b 43bd
00000290: a672 853d 48e4 89be f282 e639 b571 67bb
000002a0: 8119 6d3d e6af 28bc c9b2 c33e 93af 21be
000002b0: 92ba 4a3a 2a40 edbd 6927 07bf ab50 8d3d
000002c0: 50e2 bf3c f816 77be 7162 5e3e 1130 10bc
000002d0: 2144 6b3c 464e ffbe 4bc7 bcbd bbac ae3e
000002e0: d5ba bebd c1bf 3a3e c46b 8ebe bfde 23be
000002f0: 4e0b ca3c 04eb ee3e bb48 683c 6392 18be
00000300: 60ad dcbe 6f85 90be ae45 a33c 5ac9 c4bc
00000310: a755 143f a4e7 943c 440d 06bd d38a 1d3c
00000320: e18c f93e de9d 063f ae84 84be 4692 93bd
00000330: c517 81be 6e9b 0dbe 0924 0c3e f6fa 6e3c
00000340: 140a dd3d 9ef4 d3bb db09 0c3c e95b 80bc
00000350: 3e1d 9ebd 712c 87bb 84a6 d3bd 567f acbb
00000360: 8954 fcbd 83bf f23b 50c3 453c 59d2 7a3d
00000370: 15ca b5bd 857d fabe 7a76 79bc a873 073e
00000380: 24ca 633d a4a2 91be 285c 9cbe 5ade 48bb
00000390: dfef 343e fa8d cc3c ca1a 33bb b6a1 a23d
000003a0: 2795 7ebe e669 99be 84f3 02ba 9c51 933c
000003b0: 069f c4be d80a ef3d ae2e 9fbe ccb1 01bf
000003c0: 875a 8d3e 98ee 18be 9ed7 8cbe 9559 8b3d
000003d0: 265d 81be fca0 f03c 362e 3fbe 8352 a03f
000003e0: 2f5e 35be 2969 0d3c f4e0 253d 87ce 35bf
000003f0: a926 c53c 7eab c43c 5bc1 963c 5f7c b239
0.09922026 -0.29483566 -0.5978754 -0.14617944 0.032804113 -0.3071162 -0.110372685 0.039071996
0.04732768 -0.25455764 -0.18383953 -0.25604156 0.08676252 -0.10404667 -0.2745769 -0.029474996
-0.1879057 0.23358722 -0.008316041 0.023478836 -0.38572967 0.016673356 0.00937852 0.009272933
-0.30550823 -0.09055144 0.01142872 0.009360948 0.071251474 -0.33445644 0.35162106 -0.021542037
0.10802944 0.0036024975 -0.10696539 0.16515021 0.0008175689 -0.20059313 -0.19356954 -0.019584976
0.0046360344 -0.32622567 0.014486819 0.019493904 0.15146545 -0.041041683 -0.0009866491 -0.095686555
0.0027567225 -0.022437228 -0.5956799 0.16938403 0.08968447 -0.095951624 0.05260912 -0.012316251
0.022624083 -0.00033554542 -0.47084752 -0.20727909 0.03181404 0.01080956 -0.29163224 0.74890834
-0.27191317 -0.06399779 0.01010387 -0.014519538 -0.5341209 -0.17544052 -0.1544484 0.0173982
-0.2240137 -0.015837263 -0.006975033 -0.24111411 -0.0055301273 -0.19504142 0.07620137 -0.48438457
0.010978839 -0.0918238 0.021305759 -0.025467418 0.014277033 0.04172367 -0.006014698 0.031838488
-0.031505443 -0.023681514 -0.17830552 0.16351947 0.0018174209 -0.25711623 0.00934708 0.07872728
0.009011383 0.006835354 -0.13572654 -0.25586167 -0.0015396322 0.006970812 0.02585296 0.019785834
0.009213544 -0.011770872 0.0016298037 0.011355793 0.0005100015 0.2214615 -0.007060005 0.013007182
-0.19587865 0.008170648 -0.22137281 -0.2891318 0.023107708 -0.0057149273 -0.0046537975 0.63107705
-0.1304809 -0.09659603 -0.36046866 0.007360289 -0.53260183 -0.006443916 -0.012276786 0.006138533
-0.09501458 0.09739541 0.058148846 0.02923688 -0.040067077 -0.0035640902 0.051515803 0.009230765
-0.005624232 -0.010858216 -0.51817226 -0.5202162 -0.020432154 -0.5134603 0.0047722417 -0.0031627323
0.01271778 0.044533733 0.005938362 -0.566809 -0.19961853 -0.4132594 0.107206404 -0.018685294
-0.2191087 0.22783591 -0.09902853 0.122525595 -0.003211156 -0.07281928 0.05591589 0.02706595
0.033283096 0.84932727 0.008197979 -0.04769466 0.06516008 -0.26931977 0.0004396658 -0.0035315577
0.05788565 -0.010295844 0.3822234 -0.15789632 0.00077334896 -0.11584504 -0.5279451 0.06900152
0.023423344 -0.24129856 0.2171724 -0.008800522 0.014359505 -0.49864405 -0.092176996 0.34116158
-0.09312979 0.18237211 -0.27816594 -0.1600294 0.024663594 0.46663678 0.014177497 -0.14899592
-0.43101025 -0.28226802 0.019930687 -0.024021793 0.57943195 0.018176861 -0.032727495 0.009615618
0.48740295 0.52584636 -0.25882477 -0.07205634 -0.25213447 -0.13828823 0.13685621 0.014586201
0.10792938 -0.0064683696 0.008547272 -0.015668826 -0.07720421 -0.004125171 -0.10334495 -0.005264203
-0.12320811 0.007408084 0.012070492 0.06123576 -0.08876435 -0.4892389 -0.015226001 0.13227713
0.0556127 -0.28444397 -0.3053906 -0.003065011 0.17669629 0.024970043 -0.00273292 0.07941
-0.24861585 -0.29963607 -0.0004995393 0.01798325 -0.38402575 0.1167199 -0.310903 -0.5066192
0.2760813 -0.14934766 -0.27508253 0.06804196 -0.2526638 0.029373638 -0.18669972 1.252518
-0.1771171 0.008631029 0.040497735 -0.7101826 0.024066286 0.024007555 0.018402746 0.0003404347
