notebook/result/weights/sac_snapbot/episode_500.pth (torch, 355440 bytes, 8 tensors)

parameters.mlp_0_b f4 [256]
00000000: f5c1 013e ad9d 28be ed09 b03c 6478 b7bc
00000010: 01fd c63e 30a6 24be 60c9 1abe 16e8 b0bd
00000020: 15ef 42be 2ffc cfbc b8ac 08bd beab 6dbd
00000030: 2737 32bb e635 1f3e 24de b1bd 7e14 103f
00000040: d973 82bd 27a4 31be 9e93 a3bd 1aab a7bd
00000050: f3d8 fd3c 04c0 36be 33f7 94bd edc8 953d
00000060: cc5a 2dbe a009 84bd 035e 2e3d 1ed3 f8bd
00000070: bf64 03be b1ed fbbc 3ac9 c3bd e3f9 6dbe
00000080: fed5 f7bd 80d5 063e c99a f5bb f018 32be
00000090: a913 433d c24c fd3d 7a0b 3ebe 00d9 03be
000000a0: a119 06be 485d 79be b34a aabc b7ac 36be
000000b0: 7a9b a5bd 6765 263e c118 e3bd 25a9 31be
000000c0: f2c5 d3bd 52bd dd3d 7f70 86be 049a d13c
000000d0: b782 26be 3c43 73be e9f2 663e 0729 c5bd
000000e0: 839d 0bbe b6bf 87be 3cd1 e2bd 2bff 56be
000000f0: e7bf 4cbe 8457 543d 70ff adbc 464d 27be
00000100: 5472 10be 0c8e babe 4a5e bdbd 8e49 1a3e
00000110: 2285 83be 1575 8cbe 03cc 003e c20b 7ebe
00000120: 2285 59be aa45 08bd 7e8e 2abe 613e fa3c
00000130: 62e7 193d fd95 4abe ad52 3abd 733d 92be
00000140: 2025 58be ddd7 96bc ba71 a8bc f603 dcbd
00000150: e6b4 303e ceec ecbd cb50 79be d0a7 5bbe
00000160: f5df 833d 377a 793e 251f f3bd 8d3e f13d
00000170: 3ea1 553d c3bc a53c 6705 4dbd 9c19 acbe
00000180: eb25 57bd 7ff4 80bd 2601 2dbd a10f c7bd
00000190: 50c0 ec3c b9ac 5d3c 4cc3 72bc 608a 8fbd
000001a0: 45c5 19be 549e 6cbd ed93 edbd e0ea a23d
000001b0: f973 5abe 7361 2fbe e003 f0bd 1440 7f3b
000001c0: 7775 60bd b9b2 05be a394 2e3d 22db 91bd
000001d0: a24a c93c 28d9 83bd b410 a03d 7a65 3ebe
000001e0: 49cf 2c3e 15c3 0abe cf4c afbd d75f 863e
000001f0: e7dd a9bc 028f 0a3d d716 9dbd 8a03 28bd
00000200: c84d fdbd 66ba 223e 31d3 d4bd de63 bcbb
00000210: 9b76 8fbe 5e90 8ebe 33cd 13be 5b0d e63d
00000220: f751 013e f427 d6bd 2bee 68bc a6c5 963c
00000230: e348 543d c94e 3f3d 8f3d 66be 899d eabd
00000240: 73b6 bfbd cd48 843d 48f7 85bd da0d 57be
00000250: e57d 6bbe 9a8a 1abe c4bb bfbd dc64 63be
00000260: 3db8 1cbe 114d 80be bdfc 94bc 5a27 99bd
00000270: 074f 5cbe 9b5c e3bd 9268 40be c9c8 9ebe
00000280: cdd1 2a3d caa6 05be 70bc 8fbe 4f57 78bd
00000290: 16f5 3bba 5306 01be a474 2a3e 8cda 843c
000002a0: fa4f 7abe 1972 70be 54f4 603d 5c83 8a3a
000002b0: fb81 d33d c41b 60bc 2a68 d33c f1c6 0dbd
000002c0: 5021 85bd b31b 7e3e e01e 76be 3da5 26be
000002d0: e5e6 cdbd a92f 15be 7f88 72be ac51 38be
000002e0: f1bb 2fbe 2b60 e3bd 716e 44be 9194 74be
000002f0: 9839 1d3d 5f15 473e 0664 08be 52d2 edbd
00000300: 462e 38bd 520b d43d 78ae de3d 7d99 0bbd
00000310: c198 70bd 15c8 1e3d dc4a 32be b5d2 e43d
00000320: aebe 003e 9867 24be 4f4f 223d 3880 8dbd
00000330: 2c64 983c 3be4 a8bd 2687 db3d 61fb dbbd
00000340: c6a7 39be 6c41 32bd 2520 41be b88a 86bd
00000350: 9ea7 b93e 837a 03be 19c9 91bd ce95 4d3e
00000360: ad48 2cbd 202d 953d f0d4 2cbe 1642 edbd
00000370: f76e 5ebe cb25 0dbe 4b0f beba 837f 0cbe
00000380: 3b4a 6bbe d660 9bbd f2d3 88bd 88bf 11be
00000390: 07f1 49be 9999 2dbd cb81 37bc 242b cd3e
000003a0: 01ec c3bd 7eeb 6b3e fd83 ba3c 43c6 12be
000003b0: 20d2 df3b 2188 02be af04 15be 8a0a 16be
000003c0: 982c 693e 091f 623e 9312 78be 8c1d e2bd
000003d0: aec4 f03d fdec 89bd 0108 f3bc 7d27 b43d
000003e0: 3680 a8bd 5441 30be 4a77 0d3e 87e0 65bd
000003f0: 0de8 1dbd cad3 b63d ecac c7bd 28dc b2bd
0.12671645 -0.16466399 0.021489108 -0.022396274 0.38864902 -0.1607902 -0.15115881 -0.08638017
-0.19036515 -0.025388805 -0.033367842 -0.058025114 -0.0027193518 0.15547904 -0.08684948 0.5628127
-0.063697524 -0.17347775 -0.0798714 -0.08186932 0.030987239 -0.17846686 -0.07273712 0.07313714
-0.16929168 -0.06447148 0.042570125 -0.121496424 -0.128314 -0.030752989 -0.09559865 -0.23239855
-0.12101363 0.13167381 -0.0074952585 -0.17392325 0.04762617 0.12368156 -0.18559065 -0.12875748
-0.13095714 -0.2435199 -0.020787572 -0.17839323 -0.080862954 0.1624962 -0.11088706 -0.1734968
-0.103404894 0.108271256 -0.26257703 0.025586136 -0.16260801 -0.23756117 0.225536 -0.09626966
-0.13634305 -0.2651345 -0.110750645 -0.20995776 -0.1999508 0.051841274 -0.021239966 -0.16338071
-0.14106113 -0.36436498 -0.092465 0.15067121 -0.2568751 -0.27433077 0.12577824 -0.24809173
-0.21242192 -0.03326956 -0.16655919 0.030547323 0.03757418 -0.19783778 -0.045489002 -0.28562507
-0.21107912 -0.018413479 -0.020562042 -0.10742943 0.17256507 -0.115686044 -0.24347226 -0.21450734
0.06439201 0.24363028 -0.11871175 0.11779509 0.052155726 0.02023161 -0.05005398 -0.33613288
-0.052526396 -0.06296634 -0.042237423 -0.09719778 0.028900295 0.01352995 -0.01481707 -0.07008815
-0.15016659 -0.05776818 -0.1160048 0.07954955 -0.21333303 -0.17127018 -0.11719489 0.0038948106
-0.054799523 -0.13056459 0.04262222 -0.071218744 0.02457172 -0.06437904 0.07815686 -0.18593398
0.16875948 -0.1355098 -0.08559572 0.26244995 -0.020735694 0.03382779 -0.07670372 -0.041019
-0.12368351 0.15891418 -0.10391844 -0.00574921 -0.28020176 -0.27844518 -0.14433746 0.11233016
0.12628923 -0.10456839 -0.01421694 0.018404793 0.051827323 0.046705995 -0.2248442 -0.11455829
-0.09360971 0.06459198 -0.06541306 -0.21001378 -0.22997244 -0.15091935 -0.09361985 -0.22206444
-0.15304656 -0.25058797 -0.018186921 -0.07478209 -0.21514522 -0.111016475 -0.1878989 -0.31012562
0.041703988 -0.13051906 -0.28073454 -0.06063014 -0.00071700045 -0.12600069 0.16646057 0.016217493
-0.24444571 -0.23481025 0.05492051 0.0010567713 0.10327526 -0.013678495 0.025806505 -0.034613553
-0.065004945 0.24815254 -0.24035215 -0.16273971 -0.10053805 -0.14568962 -0.23684882 -0.17999905
-0.17161538 -0.11102327 -0.19182755 -0.23884799 0.038385004 0.19441746 -0.13319406 -0.11612381
-0.044966005 0.10353722 0.10873121 -0.034081925 -0.058739427 0.03876503 -0.17411369 0.11173002
0.12572739 -0.16055143 0.039626416 -0.069092214 0.018602453 -0.082466565 0.10719137 -0.10741306
-0.18130407 -0.043519422 -0.18859918 -0.06569427 0.36260694 -0.12839703 -0.071184345 0.20076677
-0.042061497 0.072839975 -0.16878104 -0.115848705 -0.21722017 -0.13783948 -0.0014500407 -0.13720517
-0.22977535 -0.07586829 -0.0668105 -0.1423322 -0.19720851 -0.04238281 -0.011200379 0.40071976
-0.095664985 0.23039052 0.022768015 -0.14333443 0.006830469 -0.12747242 -0.14552568 -0.14652458
0.22770917 0.22082151 -0.24225836 -0.11040792 0.11756264 -0.06734655 -0.029666902 0.08796594
-0.08227579 -0.1721242 0.13815036 -0.05612233 -0.03855138 0.08927114 -0.09749779 -0.08733398

parameters.mlp_0_w f4 [256, 70]
00000000: 834a b4bd e5bc 89bc 3c7e 48be 11dc 19bf
00000010: 6289 f5bd b2c3 c7bd 39ae 203d 72b7 913d
00000020: ad0a 213d bcdf b6be ac3a 76be 2499 45bf
00000030: 7cbc 60bd 61cb 543e 7fe9 86bb 5170 073f
00000040: 6bc6 1ebe 47ec 72bd 1dc6 f8bc 5e9b 893d
00000050: bb24 ebbd fd52 ecbe 7be4 873c 19c0 7e3e
00000060: 2903 6a3d e988 653d 5b77 103f d865 433c
00000070: 63a9 95bd 0982 f2bd d48f f2bd 83bb 003d
00000080: 6b4a 73bc c672 793e bda9 0e3d 3f6b d5bd
00000090: 6d39 ff3d d8db a63d 7a58 8fbe 79a3 023e
000000a0: eb41 2bbe 1b5b adbd a6ca 4dbd 6020 e0bd
000000b0: eaf8 c4bd 739b 5fbd 6cbb 5abe 7b47 573d
000000c0: 9294 7bbd 2016 0abe f7d5 813e 509e 09be
000000d0: baaf b4be 93e2 eebe 8b9a c23e 4c64 0bbe
000000e0: 1d54 d7bb 68e1 6a3e 51ca 70be 23bf 5c3c
000000f0: 8cdd 283e 5bd9 f23e ef6a c33b 836a cd3d
00000100: 7888 eabc 3dd2 ca3d 8f96 6dbd 24bf df3d
00000110: 7c3f 49bd fee5 6ebd 2c06 88be 78e3 c13c
00000120: 69b2 cdbd 82e7 9e3d ac12 373d 85f1 a8be
00000130: 42ff 1d3e 2b01 febc 42b7 c5be 266a 9dbe
00000140: ecfd 73be 1eb7 58bd 913c 8dbe 483a d9be
00000150: f952 b23d 210d b6be 5f01 9cbc ad39 0dbe
00000160: 5300 28bf 1ac0 0c3e 4bcb 6f3c 80aa d8be
00000170: f4d0 153f f982 afbd d441 86be 7e98 9bb9
00000180: ffff f0bd 73e8 853d f4e4 bc3d d037 c1bc
00000190: 059f 603d 4d74 85be 34cc debc 3913 e0bd
000001a0: c24c 3ebc 7736 f53c 2041 63bd ef9a 6c3e
000001b0: 5c97 103d 0445 2b3e 2445 8cbe 0c49 943d
000001c0: e178 5fbd c4b4 9bbd aadb 513d 463a 1bbe
000001d0: 41c7 163e 7647 3cbd 4e5e b93d f5a6 6d3d
000001e0: 791c 653e d338 333d 65b0 9a3c c703 9dbe
000001f0: dd32 2ebd 28de 9d3d 2016 aebd 88a1 4c3e
00000200: 83bf 09bd 8bd4 7cbe 92ea 9b3c 549b 4f3d
00000210: dbc1 b1bd b086 803d 90f9 62bd e4be 953c
00000220: 9362 ef3c a2fd 40bd a476 41bd 0351 b73d
00000230: 656b d33d 3681 153e 4ad8 bebd 946b 5a3d
00000240: 5128 b5be 0c5e 4b3d 2217 d03e 332f 1ebe
00000250: 9f66 943e d9e9 f63e 763c 4f3e dda3 b1bd
00000260: a14a abbe a399 9f3d d90d 583e 6c9d a5bc
00000270: e4fa 80bd e988 093f 8975 1a3f c3bc 05bf
00000280: afc7 66bd 770e 203e 3853 4ebf 1e56 9c3d
00000290: a5e8 623b b75e 003f d84d 67be 0212 54be
000002a0: 6c39 43bb 2298 693d 443f 0e3d c97f 88be
000002b0: 4a70 b4be 1b4d bbbe c280 0e3e 30de 7bbe
000002c0: 9b02 8c3d a750 12be 4236 eabc 4b6e e2bd
000002d0: 04f8 1fbd 3201 aabd 82c7 3dbe a5e4 dc3d
000002e0: 834c 9abe db2f 24be 1f8b 113c ffc3 5f3d
000002f0: 1b79 7b3e 43e8 9d3c d6ed 983d a6a2 2bbe
00000300: 3aac b93e 8298 b83e 448f 92be 0e6c 27be
00000310: 7578 e2be 8691 0bbf c2cc 243f 470e fdbd
00000320: c4ef 843d 14b0 cabe f1f7 8d3c ddb0 11bd
00000330: 21ed 90bd 6303 873d d819 9d3d cb4f 84be
00000340: 2881 bfbc 94ba d63c 8455 01bd b314 3d3e
00000350: 82ad 2ebe 5be3 273e f65c 1ebe b0d9 91be
00000360: 145c 403d 92d4 e23e 0f2f 6fbe 94eb a3bd
00000370: 19d5 58be 4726 a43e adc4 79be 5fc2 46bf
00000380: ede7 b4bd ecb3 473e e35d 053e ffec aabe
00000390: 1bc6 083e fbbb b93e 3e66 9f3d dc54 1a3e
000003a0: f2bb 0bbe 49d3 963d 102c a23b d606 813d
000003b0: a06b 76bf a931 9bbd 32db db3d b487 09bd
000003c0: 8772 9c3b 2347 43be dacc 39bf d90e 573e
000003d0: e493 c53d 4140 533e ed6b 503d 65c5 65be
000003e0: bca7 b33c e296 86bc 5cd9 5dbd 8f58 913e
000003f0: ffcc 613e 1460 2d3d 2ef4 523a c80c b53d
-0.088032745 -0.016813705 -0.19579405 -0.6010142 -0.11989094 -0.09754123 0.03922865 0.071150675
0.03931682 -0.3571757 -0.24045819 -0.771868 -0.054867253 0.20780708 -0.0041171904 0.52905756
-0.15505378 -0.059307363 -0.030367905 0.06719087 -0.11481615 -0.46157065 0.01658844 0.24877967
0.05713192 0.05603877 0.5643212 0.011926137 -0.073076986 -0.118412085 -0.11843839 0.031428825
-0.014849286 0.24360189 0.034829844 -0.10420846 0.12462125 0.081474006 -0.2799719 0.12757672
-0.16724364 -0.084646426 -0.05024209 -0.10943675 -0.09617789 -0.054591607 -0.21360558 0.052558403
-0.061420985 -0.13485003 0.25358555 -0.13439298 -0.3529032 -0.46657237 0.38008532 -0.13612479
-0.0065713064 0.22937548 -0.23514678 0.013473305 0.16490763 0.47431454 0.005963675 0.10030081
-0.028629526 0.09903381 -0.058004912 0.10925129 -0.04913281 -0.058324806 -0.2656721 0.023668036
-0.10043795 0.07759 0.04469554 -0.32996765 0.15429404 -0.031006416 -0.38616377 -0.30745047
-0.23827332 -0.05290901 -0.2758527 -0.42427278 0.08707232 -0.35556892 -0.019043623 -0.13791533
-0.65625495 0.13745156 0.014635871 -0.4231758 0.5852196 -0.08569903 -0.26222098 -0.0002967752
-0.117675774 0.06538477 0.09223357 -0.023586184 0.054839153 -0.26065293 -0.027196981 -0.109411664
-0.01161498 0.029933197 -0.05548203 0.23105977 0.035300598 0.16725546 -0.273965 0.07240495
-0.05455864 -0.07602838 0.05123488 -0.15158948 0.14724447 -0.045966588 0.0905119 0.05802055
0.22374143 0.043755364 0.01888294 -0.30666944 -0.042528976 0.077083886 -0.08500314 0.19983494
-0.033629905 -0.24690454 0.01903275 0.05068524 -0.08679553 0.062756896 -0.055413783 0.0182795
0.029221809 -0.047116883 -0.047232285 0.08950999 0.10323218 0.14600071 -0.093185976 0.05332525
-0.3538232 0.049650237 0.4064265 -0.15447693 0.28984544 0.48225287 0.20237908 -0.086738326
-0.33455375 0.07792976 0.21099032 -0.020216666 -0.062978536 0.53724533 0.60335594 -0.5224115
-0.056342777 0.15630518 -0.8059573 0.07633613 0.003462353 0.50144523 -0.22588289 -0.20709994
-0.0029788865 0.05702985 0.034728304 -0.26659992 -0.3524192 -0.36582264 0.13916305 -0.24596477
0.068364345 -0.14288579 -0.028590325 -0.11056193 -0.039054886 -0.08301009 -0.18533137 0.10785798
-0.301365 -0.1603388 0.008883267 0.054630276 0.24557917 0.01927579 0.074672386 -0.16761264
0.3626421 0.36053854 -0.28624928 -0.16349813 -0.44232526 -0.54518926 0.64374936 -0.12356239
0.06491044 -0.39587462 0.017330142 -0.03556906 -0.07076479 0.06592443 0.07670945 -0.25842127
-0.023377016 0.026212014 -0.031575695 0.18464927 -0.17058375 0.16395323 -0.1546515 -0.28486395
0.046962813 0.44302803 -0.23357795 -0.08003917 -0.2117504 0.32060453 -0.24391432 -0.77640337
-0.08833299 0.19502228 0.13024096 -0.3338394 0.13356821 0.3627623 0.07783173 0.15071434
-0.13645914 0.07364518 0.0049491003 0.06300132 -0.9625797 -0.07577831 0.107351676 -0.033576682
0.004774395 -0.19070105 -0.72578204 0.21001758 0.096473485 0.2062998 0.050884176 -0.22438581
0.021930568 -0.016429368 -0.05416237 0.28387877 0.22050856 0.042327955 0.000804725 0.088403285

parameters.mlp_1_b f4 [256]
00000000: 72ba a43d 8ff1 403e 8c37 b53e 5cf9 ba3c
00000010: c189 2b3c 702d bd3e ad4e f43d 3d62 5b3d
00000020: 161c 133c 7e78 9e3e 5240 a23d 4a5a fa3d
00000030: 2b96 4cbe 3094 2237 84b8 b33e 34e6 733e
00000040: 2f9b ba3d a394 e2bd 4498 aabc 318b 893c
00000050: e832 813e d5e9 793c 7fe7 9d3c 6e04 d8bc
00000060: 5357 b93d 7272 8c3d e6d4 92bc 4e29 d9bc
00000070: 3c34 c53d 448d 4f3e 0d19 7d3e 82c0 e43d
00000080: 9a17 2abd acf3 713e 004a b83d c87c 5f3d
00000090: 262a 47bc e22b ab3d 9e5e 863c 4768 7abc
000000a0: 7260 4ebc 9aef 3a3e 3df8 98bc da51 4f3d
000000b0: 63d6 513d ab41 6c3e 49c3 8dbc eee4 d6bb
000000c0: e2ad 6dbc 8a4b 903d bc1a fb3c b259 b93d
000000d0: 6cb7 033e 5ce4 3f3d 8c0a 903c c176 18bd
000000e0: 0c27 86bc 1b0a 9dbc e527 c53d f64f b63d
000000f0: df04 27bb a78a f4bc e47a 8a3e e3a1 393d
00000100: 7e8c c83d 0a8a 783e b161 e9bc 1716 9ebc
00000110: 4f77 ef3d e6b1 823d c86b 043e 0d83 cc36
00000120: b9e8 333e 82bd b73e 71c4 83bc 7f50 793e
00000130: de95 5cbd df2a ae3e d615 da3d 99b9 08be
00000140: 8be8 dd3c 9a58 bd3d 43b8 3fbc 4614 84bd
00000150: d8a1 a8bc ce62 513d cd67 873e 9ecc bb3d
00000160: f4b6 563d 9c59 14bc 05cd 213d 4efe 5e3e
00000170: 584f 38bc b59b 7b3e cd07 803d 1638 ad3d
00000180: 59f8 c0bc 3bd4 6dbc 84a8 833e 9fb6 713c
00000190: a727 f8bc c0f1 d5bc 52fd babc 0fa7 04bd
000001a0: 6d12 5bbc a9ec 013d a8eb 97bc 4085 0ebd
000001b0: d325 c0bc b5b4 b7bd c634 8d3d 5660 d1bb
000001c0: 947a a03e c19b 643d 24e2 933e 43da 1c3e
000001d0: 64dc 06bd 1ee8 91bc 6f44 73bc ca79 c1bd
000001e0: 2c18 9a3e 519b 973e d309 963e de2c afbc
000001f0: 25cf f43e a02c 243e 08c7 d63d d357 433e
00000200: 73e0 563e 7e10 7d3e a088 0b3d 2a3e 8a3c
00000210: 004a 2c3e 94b3 42bc c3ef 383d 047b efbc
00000220: c4ba 89bc b140 9ebc c649 d7bd 7866 f0bb
00000230: d486 c9bc 3317 123e 70ee 8cbc 554a 63bc
00000240: 90ef f5bc d7aa e33c 0d7d c1bc 8b0f 923e
00000250: d722 3f3e bca8 363e 687b f63d 63e6 9dbc
00000260: 2853 423d 4e2c c53d 8601 263e f3f7 3f3d
00000270: f5af 063e 1669 fb3d c5c5 843d 44c9 1b3d
00000280: 8803 473d b252 823e 8cc3 b8bc e7df 7dbc
00000290: 8070 9a3e 446f 2b3e a1cf fd3d 4344 86bc
000002a0: 5cb0 c73d 78fc 69bc 8dfa 10be a9d8 663d
000002b0: f96b 8abc 9c0c fc3d 192e 303e 2f6c 223d
000002c0: 9d30 3d3d ae55 733e 399d 3e3e bdf5 bcbc
000002d0: 14d4 c5bc 88ba 5e3e b723 8c3d d311 83bb
000002e0: f432 a43d ca9a 773d 2f0c 723e 24ad c53d
000002f0: 56f3 903c bbc2 2dbe a474 c9bc 08a1 fa3e
00000300: 14d2 80bd 1df4 3c3d 56a0 9cbc fd3e 193e
00000310: af6f a53c 1d28 4b3d 78d6 8b3e ee06 a6bc
00000320: 6746 77bd 0485 913e 3826 333e 3071 fe3c
00000330: ffda 8f3e f039 debd 1e3e c53b 6184 8dbc
00000340: 80fc 9e3d 0f23 68bc 2ab8 c8bc c3e9 043e
00000350: 36e3 243e 787f 9c3d a073 023e 0b92 a3bc
00000360: e3b6 313e 6c52 52bb 10bb 1f3d f259 c5bc
00000370: 17fb 5a3e 92f9 963e 05ea 86bc f837 093e
00000380: f0d6 cb3c f20d b53d 0b8c 473e 495d f23c
00000390: 06f4 c63d 4529 0a3e e445 ecbc cc3b 633d
000003a0: ab35 d23d 8998 263e 8425 3dbd 443b 82bc
000003b0: 2083 123d 380e bebd 842e 123e efa7 1f3d
000003c0: a441 6f3e 8487 9f3e dc71 16bc 6fcd 543d
000003d0: 05a1 cdbc f0cd f9bc 812f 79bc 9bb4 2f3e
000003e0: bfb0 c23d 52a9 7fbc cbd2 4a3e a9e6 983e
000003f0: 53ba b1bc 989e 78bc f6e1 e9bc 037b 5cbc
0.08043374 0.18842147 0.3539394 0.022823982 0.010469855 0.3694873 0.11929069 0.053560484
0.008978864 0.30951303 0.079224244 0.122242525 -0.1997916 9.690455e-06 0.35101712 0.23818284
0.0911163 -0.110635065 -0.020824559 0.016790004 0.2523415 0.015253504 0.019275425 -0.0263693
0.09049859 0.06857766 -0.017923784 -0.026508953 0.096291035 0.20268732 0.24716587 0.111695305
-0.041526414 0.2362811 0.089984894 0.05456236 -0.012156045 0.08357979 0.016402539 -0.015283651
-0.012596237 0.18255463 -0.018673057 0.05061517 0.051229846 0.23071925 -0.017305033 -0.0065580523
-0.014506789 0.07045658 0.030652396 0.09050311 0.12862939 0.04684864 0.017583154 -0.037222628
-0.01637604 -0.019169858 0.0962675 0.0890197 -0.002548508 -0.02985127 0.27046883 0.045320403
0.09792422 0.24271408 -0.028488966 -0.019297643 0.11692678 0.06381588 0.1293174 6.09493e-06
0.17569245 0.3588677 -0.016084881 0.24347113 -0.053853862 0.34017083 0.10648696 -0.1335205
0.027088424 0.09245415 -0.011701646 -0.06449179 -0.020584986 0.051119618 0.2644638 0.09169887
0.05242057 -0.009054568 0.039502162 0.21776697 -0.011249386 0.24571116 0.06251488 0.08457963
-0.023555921 -0.014515932 0.25714505 0.014753013 -0.030292345 -0.026116252 -0.02282587 -0.032385882
-0.013371092 0.031719837 -0.018544987 -0.034795046 -0.023455536 -0.08970014 0.06894831 -0.006389658
0.3134352 0.0558126 0.2888347 0.15317635 -0.032925025 -0.017810877 -0.014847859 -0.094470575
0.30096567 0.29610685 0.2930437 -0.021383699 0.4781429 0.16032648 0.10487181 0.19076471
0.20984058 0.24713323 0.034065843 0.016875345 0.16825104 -0.011883635 0.04515053 -0.029233463
-0.01681269 -0.019317957 -0.10512118 -0.007336434 -0.024600424 0.14266662 -0.01720354 -0.013872703
-0.030021459 0.027791424 -0.0236192 0.28527483 0.18665634 0.17837805 0.120352566 -0.019274896
0.047442585 0.09627591 0.16211519 0.046867322 0.1315306 0.12275903 0.06483034 0.03803374
0.048587352 0.25453717 -0.022554182 -0.015495277 0.30163956 0.16741663 0.12393118 -0.016389972
0.09750435 -0.014281385 -0.14158078 0.056358967 -0.016897188 0.123070925 0.17205085 0.039653953
0.04618894 0.23763153 0.18614663 -0.023066396 -0.024148978 0.21750844 0.068427496 -0.0039999275
0.08017531 0.060450353 0.2363746 0.096521646 0.017694157 -0.16968815 -0.024591751 0.48950982
-0.06290069 0.046131242 -0.019119423 0.14965434 0.020194856 0.049598802 0.27312064 -0.020266976
-0.060369875 0.28421795 0.17495048 0.031059831 0.28096768 -0.108508945 0.006019368 -0.017275037
0.07763004 -0.014168515 -0.024501879 0.12979798 0.16102299 0.076415 0.1273942 -0.0199671
0.17354922 -0.0032092584 0.038996756 -0.02409074 0.21384846 0.29487282 -0.016469011 0.13400257
0.024882764 0.088405505 0.19487016 0.029585497 0.097145125 0.13492306 -0.02884192 0.05547695
0.102641426 0.16269125 -0.046178356 -0.0158974 0.03576958 -0.09280056 0.14275557 0.038978513
0.23364884 0.31158078 -0.00918242 0.05195373 -0.025101194 -0.030493706 -0.01520908 0.1715874
0.09506368 -0.015604334 0.19806974 0.2986348 -0.021695292 -0.01517453 -0.02855013 -0.013457063

parameters.mlp_1_w f4 [256, 256]
00000000: d1c8 49be a556 c8bc 4880 dd3d f880 b3be
00000010: 0653 583d 724d 03bc d8f3 dfbd 45cf 41be
00000020: 8ff9 8ebe 81c3 513e d594 093e 00d4 8dbe
00000030: 8513 69be 39f1 0cbe 7a47 5cbe dff2 a23e
00000040: 2a80 c73d 2c25 c83d b1fe b2bb 88de 8c3d
00000050: cc42 963c 2a69 5bbe 3f21 82bd 3877 01be
00000060: 08c8 613d e321 f53c 994d 8bbe 6b54 1bbd
00000070: 128c 2d3e 0217 25be 9396 903d 694a 52be
00000080: 8544 6dbe 4da4 073e 35dd 563d f3da df3c
00000090: 37b0 48be e69a 05bd 663c db3c 602c 033d
000000a0: 06ba 323d 8bad 57be 1c9e de3d f521 8e3d
000000b0: ff41 29be f4f2 833d bf59 e43d 6c36 ea3d
000000c0: 4774 85be 9be1 d83d ba47 1cbe b592 293e
000000d0: 486c 1a3e f6c4 91be be9a 03bd a77b d2bd
000000e0: 9d97 f83d f176 04be c86f 863d a670 a7be
000000f0: 6053 393e 23f9 28bd 2001 193e abd1 6b3d
00000100: 1816 0bbe 4bb7 3b3e 857d c63d 73bf 053d
00000110: 6205 64be d852 9dbd 149b 253e b281 a4bc
00000120: 1454 f3bc 7d43 9b3c 92f5 c0bd d45e 3d3e
00000130: 3925 0cbe 6a93 143d 0c36 a2bd 09bc 853c
00000140: 603a da3e 12f9 e33c c271 1d3c a816 b6bd
00000150: 2f29 463d 068f 5d3e 956f 9fbe 224c 46be
00000160: 2ea6 4f3e aae2 72be 4e24 64bd 95fd 87bd
00000170: e2c1 0d3d e6a4 a338 2748 32bd bc60 2abd
00000180: 8291 c73d 9024 913d 282b d7bd f27e 943d
00000190: 3040 99bd 9798 df3c ff0b c6bd 83a8 e63d
000001a0: dcab 243e 3e31 8bbc 64e1 dfbe 6651 233e
000001b0: e678 cbbb 3977 8dbc 2b54 81bd 1301 98bd
000001c0: 2172 843d 551f 5dbe 737b 933e f40b debd
000001d0: 0425 cf3b 7ff8 0abe b8a0 cbbd 60d4 dbba
000001e0: bb01 16be 4c60 b2bd e02e 593c 1e0a 2d3d
000001f0: fd29 3b3e 3dfb 0d3e 5dd5 8b3d 228d acbe
00000200: 6155 073e 09a0 e5be df0f c93d 1e59 e23b
00000210: b160 1f3c 010e ab3c edd3 13be ac38 13be
00000220: 18e1 c9bd 3c81 24bd 8478 2fbd 9034 b23e
00000230: ed01 0a3e 872d 10be 7d86 613e 54c9 fe3b
00000240: 4753 f7bd 9564 b8bb ee0c 813e 4c1d 32bd
00000250: 9ffc 733c 4ac8 293d 66ea 4cbc 0e22 a83e
00000260: 3dc9 20be 4994 fbbc e176 51bc 89e0 9cbe
00000270: f852 f9bc 43e0 37be 7bed c63d 4bb7 763e
00000280: f179 4bbe 0126 583c 1a19 18be 6d80 793c
00000290: 8975 14bd 4bdc 09be d6d2 18bc 83f9 9c3d
000002a0: 8416 3abe 648f 4d3e 19a1 c8be 491f 93be
000002b0: cc91 ea3d 34ca a73d 86cc cfb9 672d 11be
000002c0: 7e10 95bc 3646 463d 0100 f5bd 7ef8 80bd
000002d0: 73c4 073e 990f f4bd b4df cdbd 3a97 ed3c
000002e0: ff56 a43d 4572 a8bd 6319 dcbd 1884 5ebd
000002f0: 4ab6 14bc cda5 ae3d 53a6 91bd daed b1bd
00000300: 2bc3 dfbd 446d 74be 37ea b73d 7446 15bd
00000310: 8720 853c ca48 ffbd f07e 1e3e 900a 18bd
00000320: a5d8 4dbe 12ff 38be d18d 91be d984 13be
00000330: 2530 90be bad9 323d 1769 01be 39e8 963d
00000340: ae70 65bd 2c06 8cbc 3548 173b b2eb 1ebc
00000350: 6690 61be 49f5 153e cccf 81be 11f8 7ebc
00000360: d191 ec3d 4370 39be 6106 333e d5d6 15bc
00000370: e74b f93d 5367 0abe a351 c1bc 1b7d 133e
00000380: 7b77 e7bd 4e8d 2f3e 0586 fd3d 2cd9 8ebe
00000390: 1474 c33d d33b 3fbd 5ec8 10be 5625 c5bd
000003a0: f2be dc3b a8da 1f3d aa53 9abe 8d35 d63d
000003b0: 8685 3dbe 010e 05bc 1567 b4be 6512 a8bd
000003c0: c138 003e 8545 dabd 6fb3 533e bced 7fbe
000003d0: 1d1b 56be a15b ebbd 152d 9b3d f1e9 1abe
000003e0: 5c8b 843c 5b3e fdbd a3af 8cbd b3b9 8f3d
000003f0: d3e6 d8bd ba5f 643d 7ddc c7bd 229a 923d
-0.19705512 -0.024455378 0.10815483 -0.35059333 0.052813552 -0.00801407 -0.109351814 -0.18926723
-0.27924773 0.20484735 0.13435681 -0.27700806 -0.22761352 -0.13763894 -0.21511641 0.3182592
0.09741242 0.09772715 -0.0054624905 0.06878382 0.018342398 -0.21426836 -0.063539974 -0.12643135
0.055122405 0.029923385 -0.2720764 -0.037922304 0.16947964 -0.16122058 0.0705997 -0.20536198
-0.2317067 0.1324627 0.052457053 0.027326083 -0.1959847 -0.032618426 0.026762199 0.03202474
0.043634437 -0.21062295 0.10870001 0.069400705 -0.16529082 0.06442824 0.1114993 0.114361614
-0.26065275 0.10589906 -0.15261737 0.1655987 0.15080369 -0.28470582 -0.032129996 -0.10277491
0.12138293 -0.12935998 0.06564289 -0.3270313 0.18098211 -0.04125322 0.14941835 0.057573
-0.13582647 0.1833164 0.0969191 0.032653283 -0.22267678 -0.07681817 0.16172439 -0.020081375
-0.029703178 0.01895308 -0.09421839 0.18493205 -0.13686074 0.036273398 -0.07920465 0.016325014
0.42622662 0.027828727 0.0096096415 -0.0889104 0.04837912 0.2163659 -0.31139818 -0.1936498
0.20278236 -0.23719278 -0.055698685 -0.06640164 0.03460873 7.8031604e-05 -0.04352584 -0.04159616
0.0974455 0.07087052 -0.10506278 0.072507754 -0.07482946 0.02729444 -0.09670257 0.1126261
0.16081184 -0.016991254 -0.43726647 0.1594902 -0.0062094806 -0.017268764 -0.06314882 -0.0742208
0.06467081 -0.21593983 0.28805122 -0.10842124 0.0063215513 -0.13571356 -0.09942764 -0.0016771667
-0.14649098 -0.087097734 0.013255805 0.042245977 0.18277736 0.13865371 0.06827805 -0.33701426
0.13216163 -0.4484866 0.0981748 0.0069075963 0.009727643 0.020880701 -0.14436312 -0.14377087
-0.09857386 -0.04016231 -0.042839542 0.34805727 0.13477297 -0.14079867 0.2202396 0.007775465
-0.12076431 -0.0056272247 0.25205177 -0.04348497 0.0148917725 0.041450776 -0.012507057 0.32838482
-0.15701766 -0.030710356 -0.012784691 -0.30640057 -0.03043507 -0.17956643 0.097132646 0.24093358
-0.19870736 0.013192655 -0.14853325 0.015228373 -0.036244903 -0.13462941 -0.009327611 0.07664778
-0.18172652 0.2007423 -0.39185408 -0.28734806 0.1145359 0.08192864 -0.00039634499 -0.14177476
-0.01819634 0.048406802 -0.11962891 -0.06297396 0.13258533 -0.119170375 -0.100524336 0.029002775
0.08024406 -0.0822492 -0.1074703 -0.054325193 -0.009076664 0.08527718 -0.07111802 -0.08687945
-0.10925897 -0.23869807 0.0898022 -0.036444142 0.016250862 -0.12465055 0.1547811 -0.03711945
-0.20102175 -0.18066052 -0.2842851 -0.14406146 -0.2816173 0.04366467 -0.12637745 0.07368512
-0.056015663 -0.017092787 0.002308381 -0.009699749 -0.2202774 0.1464435 -0.2535385 -0.015562073
0.1155125 -0.1810923 0.17482902 -0.009145458 0.1217268 -0.13515978 -0.023598498 0.14403193
-0.11302086 0.17143747 0.12379078 -0.27900064 0.095436245 -0.046687912 -0.14138934 -0.09626262
0.0067366296 0.039026886 -0.30141956 0.10459433 -0.18507966 -0.008121015 -0.35234895 -0.082066335
0.1252165 -0.10657791 0.20673917 -0.24993032 -0.2090878 -0.11492086 0.07576958 -0.15128304
0.016179733 -0.12365409 -0.068694375 0.07017841 -0.10590901 0.055755354 -0.09758852 0.07158305

parameters.mu_b f4 [8]
00000000: 4452 203e 07f7 afbd e0b4 673e 84b6 813e
00000010: be1e 84bd 08b7 30bd a18e 453d 292d 2fbe
0.15656382 -0.085920386 0.22627592 0.2533456 -0.06451176 -0.043143302 0.048231725 -0.17107071

parameters.mu_w f4 [8, 256]
00000000: c0bc 043f 332c acbe 7f26 053c 512d 6e3e
00000010: 501a 5fbd 09a3 123f cc3a 453e 4e26 013d
00000020: c8c0 84bc 2ca4 98be b800 d93e 39b1 80be
00000030: a636 6f3c aa8e 60bc 6867 c5be 96b8 8d3b
00000040: 72f1 bb3e 69c8 32be 0671 1cbb 0187 febb
00000050: 9c19 8c3e 6540 9abc e03d 15bd 95f7 c73c
00000060: b7d6 b23d 44b5 6a3d e365 ef3a c1e3 e7ba
00000070: 1101 ebbe 0291 a23d bb5a 693f fe28 e2bd
00000080: a0c8 993d 449c 49bf b147 823d ef90 12bf
00000090: 1d1c e63b 44de 2abe f8bf fe3d 9e6b ec3b
000000a0: 4d21 073c 69da 63be 0eca 893c ead5 53bd
000000b0: 1a70 5cbc 3a7d 4c3d e3d8 aa3c 0c4f a3bb
000000c0: f62f 08bb e03f c0bb b7eb 0e3e 135f f73d
000000d0: 3434 0abd 54ab 7ebc dc20 c2bb 918e 57bc
000000e0: a7bb 18bd b60a 983c e8c8 6d3d 91e9 41bd
000000f0: 133a 603c a20c e43b 01a6 8abe b5df db3b
00000100: 5c31 85be 3634 2fbd 462c d23c d033 20bc
00000110: 4ed2 6abe c398 7abd 728d 93be 92c1 8dbb
00000120: 878e bfbd f995 b43e b492 54bc 3b1e ffbd
00000130: a3f9 c0be ea3d 303e 807d 8a3e 7a04 153f
00000140: 3e8e 4cbd 538b b1bd c38a fdbc ac14 09be
00000150: bf2d 8c3b f19e 043c 7860 243e 73c6 ffbb
00000160: bea0 eabc 4b35 593b f956 1a3f 2ee3 5fbf
00000170: bca4 f33b b8da 93be 51a0 bbbc dc54 42be
00000180: 59af 72bc 9233 75bb 7b85 a8bd 1fbc 65bd
00000190: d052 17bc ef6c 1c3c 4987 71bc cc6a f538
000001a0: 86c0 223c 262e 8b3d c5db 473b cb86 bb3c
000001b0: d9a8 913c cd57 803f e377 13bf 55c7 01bc
000001c0: 0404 4bbe ccda 51bd e887 19bf 1d5a 523f
000001d0: 6e09 f43b b390 24ba e596 0c3c e680 9dbf
000001e0: 2b69 1dbf e164 18be e01f b63e 04c1 2f3c
000001f0: 9ced bbbe 6825 15be 5e20 05bf 3ca6 893c
00000200: a702 99be 6ec1 91bf c6bb 2f3d 1a2f c7ba
00000210: 898b 0a3f a966 883c f696 d038 fa0a d73c
00000220: eaec 16bb 8007 89bc 9d09 ebbd 2c5e a2bd
00000230: ea27 34bc f1ba 213f 9689 96bb 6312 6c3c
00000240: b7c4 ee3c e50f 743c e177 1b3c a3ff dfbe
00000250: ad1d eabe 43ee 3b3d 46e4 8dbf cf90 8e3c
00000260: 8c92 0ebc 5a3d aa3d 2c54 acbe 1c1a c23e
00000270: 65ea 10bf adee 0a3e be55 68bd 7439 dcbd
00000280: 5307 b1bc 519a 2940 829b 8a3c 04dd 77bd
00000290: 0c89 0dbd d9d4 acbe 7493 df3c 2f6d c23b
000002a0: 1a3b 923f f137 1f3b e67e abbd 2e30 22bd
000002b0: 66a4 a9ba 2013 d13e 2b9b 8e3d 13e4 c5bc
000002c0: 9cc3 a0ba 5c93 6c3e 33bf 09bf d5b5 a03c
000002d0: 1362 9c3c a9a4 cebd 6c20 603e 75e8 a2bc
000002e0: c0e0 e4be 8ef0 34bf f0fb b73e 2f9d dfbc
000002f0: 0687 b8bc 6c8d 413f dde7 853c 9404 b73e
00000300: 76b7 b0bd ef27 1d3e 267b fcbb 7966 263f
00000310: ce7d f6be 95aa 04bf 431a 75be 4a1d d23b
00000320: d6d9 fd3e e750 87bf 1c14 9bbe 69d0 aabe
00000330: ca11 8bbe c478 d7bd 2bf0 40bf 388c bc3b
00000340: 0160 0dbf 543e 01bb 5639 203c de9f 94bf
00000350: 325f 0ebf fedb 013e 2846 843e 5ba2 82bc
00000360: ce84 3c3e a522 4abc 1964 e2bc 1349 a33c
00000370: aa38 653d 3176 033e 5be6 70bb 9c3a 21bf
00000380: c61e 33bc 25e1 193f c29a 1f3e dc3e 273f
00000390: 2585 34bf 2dd0 5c3f 7d1c 19bc 455f 553c
000003a0: 9a1b 183d 8b0f acbe dd75 813c f075 d03a
000003b0: 2d37 493f 0e2c f93e 0347 3dbe e75a 79be
000003c0: dfce a03f e65e 043f 45e7 3c3d f92b 473f
000003d0: b3fd d23e d5cf a7be 969e ca3c b154 3a3f
000003e0: de94 4e3f 9499 933c d52c 903d cc46 513d
000003f0: fb16 ba3a 306e 5abc 69d0 5dba 193b f53b
0.5185051 -0.3362747 0.008126854 0.23259474 -0.054468453 0.5728002 0.1926071 0.03153067
-0.016205207 -0.29812753 0.4238336 -0.2513521 0.014600432 -0.013705889 -0.38555455 0.004324983
0.36707646 -0.17459263 -0.0023871078 -0.0077675586 0.27363288 -0.018829534 -0.03643596 0.024410048
0.0873236 0.057301775 0.0018264618 -0.0017691777 -0.4589925 0.07937814 0.9115407 -0.11042975
0.07508969 -0.7875407 0.0636133 -0.572524 0.0070223943 -0.1668635 0.12438959 0.0072149774
0.008247686 -0.22251286 0.01681998 -0.051717676 -0.0134544615 0.049924113 0.020855373 -0.0049837884
-0.002078054 -0.0058669895 0.13957106 0.12078681 -0.03374119 -0.0155437775 -0.0059243273 -0.013156549
-0.037288334 0.018559795 0.058052927 -0.047341887 0.013685721 0.0069595138 -0.27079776 0.0067100176
-0.2601422 -0.0427744 0.025655877 -0.009777978 -0.22931787 -0.06118084 -0.28818852 -0.004326054
-0.09353357 0.3527067 -0.01297443 -0.12456938 -0.37690458 0.17211118 0.27048874 0.58209956
-0.04994034 -0.08669152 -0.030949956 -0.13386792 0.0042779143 0.008094535 0.16052425 -0.0078056394
-0.028641101 0.0033143337 0.6028896 -0.87456024 0.0074354094 -0.28877807 -0.022903593 -0.18977684
-0.014812314 -0.0037414772 -0.082285844 -0.05608761 -0.009236053 0.009547456 -0.014741727 0.00011702403
0.0099335965 0.067959115 0.0030495983 0.022891423 0.017780708 1.0026795 -0.5760481 -0.00792106
-0.1982575 -0.05123405 -0.59973 0.8216875 0.007447413 -0.00062776654 0.008580898 -1.2304962
-0.614886 -0.14882232 0.35571194 0.010727171 -0.3670472 -0.1456505 -0.52002513 0.0168029
-0.29884836 -1.1387155 0.042903684 -0.0015196532 0.54119164 0.016650515 9.9463316e-05 0.026250351
-0.0023029395 -0.01672721 -0.11476443 -0.07928118 -0.010995844 0.63175875 -0.0045940382 0.014408681
0.029146535 0.014896368 0.009489031 -0.43749723 -0.45725766 0.04588152 -1.1085289 0.017403034
-0.008701932 0.08312483 -0.33657968 0.37910545 -0.5660766 0.1356761 -0.056722395 -0.10753146
-0.021609938 2.6500437 0.016919855 -0.06051351 -0.034554526 -0.3375614 0.02729199 0.005933426
1.1424286 0.0024294818 -0.08373813 -0.03959673 -0.0012942671 0.40834904 0.0696319 -0.024156606
-0.0012265327 0.23103088 -0.5380737 0.019617954 0.019089734 -0.1009 0.21887368 -0.019886235
-0.4470272 -0.7067956 0.359344 -0.02729663 -0.022525322 0.7560642 0.016345913 0.3574568
-0.086287424 0.15347265 -0.00770511 0.6500011 -0.48142856 -0.5182279 -0.239358 0.006412183
0.49580258 -1.0571564 -0.3028878 -0.3336213 -0.2716201 -0.10521081 -0.7536647 0.00575402
-0.55224615 -0.0019720988 0.009779295 -1.1611288 -0.55614007 0.12681577 0.25834775 -0.015946558
0.18410036 -0.012337361 -0.02763562 0.019932305 0.055962242 0.12838055 -0.0036758396 -0.62980056
-0.01093263 0.6010917 0.15586379 0.6533029 -0.7051566 0.8625515 -0.009345171 0.013023202
0.037135698 -0.33605608 0.015803272 0.0015904289 0.78599817 0.48666424 -0.1848412 -0.24351083
1.2563132 0.51707304 0.046118993 0.7780147 0.41209182 -0.3277575 0.024733823 0.7278548
0.80695903 0.018017568 0.07039801 0.051092908 0.0014197523 -0.013331935 -0.00084615365 0.0074838516

parameters.std_b f4 [8]
00000000: e370 3bc0 3cb4 39c0 1248 3fc0 25e2 41c0
00000010: 0acc 36c0 0f91 43c0 fb70 35c0 a9cf 36c0
-2.928765 -2.9016256 -2.9887738 -3.0294278 -2.8562036 -3.0557287 -2.8350208 -2.8564246

parameters.std_w f4 [8, 256]
00000000: 3b18 003d b5ed 90be 8556 a1be 26f0 42be
00000010: 9b5d 063d 0c1c 1bbe 04fb 34be 80a9 44bb
00000020: abda 413d 3489 18be d086 69be 0754 bdbd
00000030: 7730 c83d f7bc 8dbd e00e c0bd 215d 663d
00000040: 70a6 fbbd a256 183e 0140 08bc b056 c03c
00000050: 1001 50be 9096 883c 5da8 193c 80ed 173c
00000060: 4204 37be 956d 14bc 873f 3b3c a95e 193c
00000070: 6ac9 91bc 2752 4bbe 2ef2 ec3e 38e0 39bc
00000080: 8a3e dd3d 5997 34bc 14c7 e0bd 8f95 4b3e
00000090: 1f52 563a 6c4e ecbd 2e0f 00be ac70 a0bc
000000a0: e0e9 973b f40c 43be 1f5a 6d3c aeb1 9f3c
000000b0: 3cef 2d3d 7226 923c 7352 81ba ee7f 753c
000000c0: 21aa 343b 4c09 b8bc e5ab febe 0cf6 45bd
000000d0: b1fb e7bb a5fe 403d a97c 573d 1aca 49bc
000000e0: 2456 b93c 25ec afb9 3e88 d3be eddc d2bc
000000f0: 71e7 013d 951a 313c 1493 6ebe 4cae 623f
00000100: f126 c8be acf9 44be b48a 253c 5be3 6dbc
00000110: e289 edbe 8f67 6dbe 36a1 adbb 6385 8e3c
00000120: d991 cebc a970 9f3d d18e e4bb d626 1cbe
00000130: 4c30 6abb 5352 a0be a436 c93d aba0 0ebe
00000140: 97e0 333c c930 1bbe 6a89 ae3c 7218 09bd
00000150: 37ea 693c 70e6 2a3d b524 ba3d d68e 4b3c
00000160: cbae e73b bcff c1bc 8127 55be f5fd 353e
00000170: 8736 ee3a 896f a8bd 7f24 193c 112b ce3d
00000180: 7ba4 133c 38fc df3b d823 35be f79b 26ba
00000190: 7ccd c9ba 696b e43b 96c9 d33c e715 a23c
000001a0: 68f4 163c 9eda 40bc 239f d53a a60d 3a3c
000001b0: 9fb1 053a 596f 403e 43d6 853b 131c 553c
000001c0: 1dd5 d7bd 2ede 053c 7173 54be dd53 6fbe
000001d0: 604c bd3c 4944 bbbb e27e 98bb 8cce 3c3f
000001e0: ceda e6bc b4f1 973c cca3 78be 942e f13b
000001f0: 974c d5be c5af ce3d b9f9 27bd 3d3e 99bc
00000200: df98 6fbd 75e6 3d3e 7c2d 6e3d 2e82 ef3c
00000210: df3a 8a3c 853e 223c 3c02 533d a23c 173c
00000220: 7a4b b8bb a9e6 31bc 76d2 06bf 6fdf 25bf
00000230: 5561 a7bc bb5e 97be cc17 9c3b d845 4fbb
00000240: 3c5e 503c 08a2 733d 9796 c23b 7fae 27bf
00000250: 5012 b0bd 280a bfbe 06e6 8f3e e711 99bc
00000260: a4fb 56bd 257a 613e a8c2 70bd 36c7 e43c
00000270: d274 01be 1e97 b6bd 376a d73c ea63 dd3c
00000280: 0852 083d 1780 463f d150 063c 5349 48bd
00000290: 0023 5f3d ea72 21be 7c99 15bd b571 67bb
000002a0: 7b00 bb3d e6af 28bc a3b2 c33e 8284 423c
000002b0: 92ba 4a3a 9371 fcbd e91b f2be 39ff 8c3d
000002c0: 50e2 bf3c 81de 4cbe 28b8 4c3e 1130 10bc
000002d0: 2144 6b3c dba1 e1be baec 94bd 73ac ae3e
000002e0: b6f7 da3d 0cda b73d f000 2cbe 4905 78be
000002f0: 4e0b ca3c 66c5 113f bb48 683c cbcf 27be
00000300: 0709 e7be 57c8 c6be ae45 a33c 0164 a93d
00000310: 1ae7 033f 8159 22bd 8832 a3bd d38a 1d3c
00000320: 8fce fa3e 5fa6 113f e348 4abe 0a2e a43c
00000330: 3bf9 e3bd 6c2c 05be 92d9 0abd f6fa 6e3c
00000340: b00f 373e 9ef4 d3bb db09 0c3c 80eb 10be
00000350: e1b2 2e3d 0aa8 31bb 0d01 87be 567f acbb
00000360: 77f6 02be 9264 743c 50c3 453c 59d2 7a3d
00000370: 4bfb a83d 9d14 b2be 7a76 79bc f1d4 fb3d
00000380: 24ca 633d 0a39 5fbe 27f4 99be e594 9d3d
00000390: 7547 1c3e 1711 1a3d ca1a 33bb 5eb7 053d
000003a0: 5ed1 0b3a 9005 9fbe c863 02ba 3520 a53b
000003b0: fb68 b7be d80a ef3d 63c9 03be ce97 00bf
000003c0: 06bc 673e e56d 36be 950b 0ebe 0853 523e
000003d0: f41b 53be 68b2 eb3d 8ce0 58be 4534 873f
000003e0: 107c 09be 2969 0d3c a498 bc3d c981 10bf
000003f0: a926 c53c 7eab c43c 5bc1 963c 5f7c b239
0.031273108 -0.28306356 -0.31511322 -0.19036922 0.032804113 -0.15147418 -0.1767388 -0.0030008256
0.04732768 -0.14896089 -0.22805333 -0.092445426 0.09774869 -0.06920808 -0.09377837 0.05624116
-0.12287605 0.14876798 -0.008316041 0.023478836 -0.20312905 0.016673356 0.00937852 0.009272933
-0.17872718 -0.0090593295 0.01142872 0.009360948 -0.017796237 -0.19855557 0.46278518 -0.011344962
0.10802944 -0.011022412 -0.10975471 0.19881271 0.0008175689 -0.11538395 -0.1250579 -0.019584976
0.0046360344 -0.1904791 0.014486819 0.019493904 0.04246448 0.017840598 -0.0009866491 0.014984114
0.0027567225 -0.02246537 -0.4974052 -0.04833035 -0.0070795645 0.047117848 0.05260912 -0.012316251
0.022624083 -0.00033554542 -0.41314882 -0.025740111 0.03171486 0.01080956 -0.23298293 0.88547206
-0.3909221 -0.19235867 0.01010387 -0.014519538 -0.4639426 -0.23184036 -0.005298759 0.017397588
-0.02521603 0.0778516 -0.006975033 -0.1524919 -0.0035734354 -0.31312808 0.09824875 -0.13928477
0.010978839 -0.15155329 0.021305759 -0.03347058 0.014277033 0.04172367 0.090890326 0.012424191
0.0070703975 -0.023681514 -0.20815851 0.17772658 0.0018174209 -0.08224399 0.00934708 0.10066808
0.009011383 0.0068354867 -0.17689455 -0.0006355638 -0.0015396322 0.006970812 0.02585296 0.019785834
0.009213544 -0.011770872 0.0016298037 0.011355793 0.0005100015 0.18792476 0.00408438 0.013007182
-0.10538695 0.008170648 -0.20747162 -0.23371835 0.023107708 -0.0057149273 -0.0046537975 0.73752666
-0.028180506 0.01854787 -0.24281234 0.007360289 -0.41659996 0.10092119 -0.04100964 -0.018706435
-0.0584954 0.18544944 0.058148846 0.02923688 0.016873775 0.009902601 0.051515803 0.009230765
-0.005624232 -0.010858216 -0.5266489 -0.6479406 -0.020432154 -0.2956446 0.004763579 -0.0031627323
0.01271778 0.059480697 0.005938362 -0.65500635 -0.08597243 -0.37312436 0.2810518 -0.018685294
-0.052486077 0.2201925 -0.05877939 0.027927022 -0.1264222 -0.08915542 0.026295764 0.027025182
0.033281356 0.775392 0.008197979 -0.048898052 0.054476738 -0.15766492 -0.036523327 -0.0035315577
0.09130951 -0.010295844 0.38222227 0.011872413 0.00077334896 -0.1232635 -0.4728692 0.06884617
0.023423344 -0.20006754 0.19992125 -0.008800522 0.014359505 -0.44068798 -0.072717145 0.34115943
0.10691778 0.08977136 -0.16797233 -0.24220766 0.024663594 0.5694183 0.014177497 -0.1638786
-0.45124075 -0.38824722 0.019930687 0.08271027 0.5152451 -0.03963614 -0.079686224 0.009615618
0.48985717 0.5689449 -0.19754367 0.020041484 -0.11131521 -0.13005227 -0.033898897 0.014586201
0.17877078 -0.0064683696 0.008547272 -0.14152336 0.04265106 -0.0027108216 -0.2636799 -0.005264203
-0.12789331 0.014916556 0.012070492 0.06123576 0.08251055 -0.34781352 -0.015226001 0.12296475
0.0556127 -0.21799102 -0.30069086 0.07694415 0.15261634 0.037613954 -0.00273292 0.032645576
0.00053336273 -0.3105893 -0.0004973975 0.00503924 -0.3582228 0.1167199 -0.12869792 -0.50231636
0.22630319 -0.17815359 -0.13871606 0.20539486 -0.20616132 0.11508638 -0.21179408 1.0562826
-0.13426232 0.008631029 0.092088014 -0.56448036 0.024066286 0.024007555 0.018402746 0.0003404347
