notebook/result/weights/sac_snapbot/episode_400.pth (torch, 355440 bytes, 8 tensors)

parameters.mlp_0_b f4 [256]
00000000: da98 0b3e 736e c1bd aa45 d33b b65b 62bd
00000010: 72af c53e 6299 e2bd 9aee 15be 2cad 9abd
00000020: 7b1d 18be 63d3 84bd 0c37 81bd 295d b5bc
00000030: ce70 01bd e2be 133e 040a c5bd 5866 103f
00000040: 6c32 50bd 6ac8 16be f3fc ecbd c219 a7bd
00000050: 88f3 713d 7d34 2abe 8a21 6fbd 2fbd cf3d
00000060: 8e1c 95bd 95f4 cabc 0738 e33a 28c9 0dbe
00000070: 31e5 31bd 3f06 50bc d5fd 5cbd f46f 57be
00000080: 0f63 a0bd de72 3c3e 03d0 f1bc e91f f8bd
00000090: 2407 2abd c533 663d 92fc 43be 045a d2bd
000000a0: 1412 3ebd 11a5 54be 0904 753d b0a4 51be
000000b0: 2724 8ebd 5b7b 423e 32a8 e5bd 404b 0fbe
000000c0: 5de8 88bd 5479 a53d 2c59 77be b2a1 ce3d
000000d0: 8b2d e7bd 70f4 28be e365 6b3e 2eab 1ebe
000000e0: 70d6 09be 210f 80be a698 afbd 5fe4 1abe
000000f0: 95cf 6dbe fbf7 a63d c5d8 503c 1edd c2bd
00000100: 89c8 5ebd 6612 92be c98d a5bd 4bc2 003e
00000110: d3af 7dbe 0545 8dbe 72c5 033e 5397 39be
00000120: 953b 53be 69e7 16bd 1394 13be 6bec 6fbc
00000130: a3b4 883d 1e25 51be e376 e3bc 92f5 84be
00000140: 6893 7bbe c9bc d1bd c7c0 16bd 99b3 e9bd
00000150: 6b6a 3c3e 652f f3bd dfb6 51be d741 87be
00000160: f207 a23d 2f67 3c3e 0cf1 c8bd 8d74 fe3d
00000170: 15bb 4c3d 2248 993d 605b 33bc 9e89 9cbe
00000180: f08b f1bc d278 98bd 703c 27b9 7792 94bd
00000190: d19d b03d 7b1a 833d 6987 ba3c 4bc6 bdbd
000001a0: 275c 0dbe 65d6 34bd 7b14 afbd 072d 593c
000001b0: ada6 41be 2d80 a7bd d6ae 03be 7bee 433d
000001c0: b165 e1bc c643 aabd 2fec 3dbd aeb3 a3bd
000001d0: 3c2c 5e3d b9e4 e4bc 405c 313e 241a 2bbe
000001e0: b958 103e e4b2 c4bd c140 9fbd 6107 343e
000001f0: 23c5 51bc e242 0a3d f7ec 16be 37c9 adbc
00000200: 5cd9 a5bd 5f2f 313e 12f6 e7bd 658f 00bd
00000210: e017 8dbe 0f94 7ebe b4f5 20be ced6 6b3d
00000220: c683 293e 7ef7 d7bc 1092 9a3c 83af d53d
00000230: fadc d63d ef43 ea3c 1d44 74be 4987 ffbc
00000240: b08c 3bbd d77d c73d 5649 9a3c 9747 1bbe
00000250: d6c0 88be fda9 25be 53f0 d4bd d1b5 25be
00000260: 2c5f 32be ace1 73be 690a fabc 68ad aabc
00000270: 34c6 42be 90e6 eebd 842d 17be 5075 34be
00000280: 8b85 203d 12fc 2bbe 81f3 91be 9809 f3bb
00000290: 3c96 813d 0bbf 90bd 3ad8 723e c608 bb3c
000002a0: 62d1 40be 9255 5fbe ea3f 10bc 831e 8c3c
000002b0: c142 003e f6ea 093c b942 463d 48c4 643d
000002c0: ba73 b7bd 509c 883e cf91 8bbe 2a7a 4abe
000002d0: 7038 9abd 4abd dfbd ab5f 3fbe 264f 09be
000002e0: 083f 33be 68aa 3abd 7891 0fbe 00c0 44be
000002f0: 35d5 963c 2a4d 663e a61e 87bd 81ca e6bd
00000300: 6c0b 81bd 6f58 8b3d 51a6 e03d ca1d e3bc
00000310: 2761 26bd f8aa 003e b228 0dbe 8955 a43d
00000320: c0f0 d53d be66 42be b3fd c23c f21d 9fbd
00000330: e803 443d ea0d 70bd 685d b93d 37a7 0cbe
00000340: 6acd debd c555 f53c 09e4 32be f92b 97bd
00000350: 9ca4 933e 523d eabd 2891 abbd fc5b 673e
00000360: 0d9d 823a ff79 ba3d 7fa8 dfbd b4a9 1cbe
00000370: 929c 37be a7ff e4bd e1da 993d 05aa 4cbe
00000380: 9fa4 62be f402 a6bd 2812 8dbd a0e4 18be
00000390: a401 ddbd b413 78bb d9ce 4a3c 401e c83e
000003a0: d997 24bd a669 843e 25d8 a23d 16fe c2bd
000003b0: 110a 7c3c 736c 0fbe 1f0f 13be cb72 48bd
000003c0: be22 653e 2bce 583e 975c 83be 27f3 ecbd
000003d0: 2a81 9c3d 5bf4 853c c33a 03bc ba00 5b3d
000003e0: 337d a4bd d90f 3ebe 0737 123e 2ff3 adbd
000003f0: 4122 5dbc 3388 df3d 93f6 d1bd c38c a7bc
0.13632527 -0.09444895 0.0064475136 -0.055263244 0.38610417 -0.11064412 -0.146418 -0.07552561
-0.14854996 -0.06485631 -0.063093275 -0.022139149 -0.03160172 0.14428285 -0.09621051 0.56406164
-0.050829336 -0.1472489 -0.11571684 -0.0815921 0.05907014 -0.16621585 -0.058381595 0.10143506
-0.07280837 -0.024774829 0.0017335423 -0.13846266 -0.043431465 -0.012696802 -0.05395301 -0.210388
-0.07831394 0.18403193 -0.029518133 -0.121154614 -0.041510716 0.056201715 -0.19139317 -0.10271075
-0.04640396 -0.20766093 0.0598183 -0.2047298 -0.06940489 0.18992369 -0.11213721 -0.1399355
-0.06684945 0.08079782 -0.2415511 0.10089435 -0.112879835 -0.16499496 0.22988085 -0.15494987
-0.13460708 -0.25011542 -0.08574037 -0.15126179 -0.23223718 0.08152767 0.012746994 -0.09514831
-0.054390464 -0.28529662 -0.08083684 0.12574117 -0.24774103 -0.2759172 0.12868288 -0.18124132
-0.20628197 -0.036841784 -0.14411955 -0.014643769 0.06675079 -0.20424315 -0.02776665 -0.25968605
-0.2456795 -0.10241086 -0.03680494 -0.11411209 0.1839997 -0.11874274 -0.20479916 -0.2641742
0.07911672 0.18398736 -0.09811601 0.12424574 0.049983103 0.07484461 -0.0109470785 -0.30573744
-0.029485673 -0.0744492 -0.00015948876 -0.072544985 0.08623851 0.06401535 0.022769647 -0.09266337
-0.13804685 -0.044149775 -0.08548828 0.013255364 -0.18911238 -0.081787445 -0.12859663 0.047834855
-0.02751431 -0.08313708 -0.04636782 -0.079932556 0.054241404 -0.027941095 0.17320347 -0.1670919
0.14096345 -0.09604433 -0.07776023 0.1758094 -0.012803349 0.03375519 -0.14738832 -0.02121411
-0.08098099 0.17303227 -0.11326231 -0.03138675 -0.27557278 -0.24861167 -0.15718728 0.0575779
0.16554174 -0.02636313 0.018868476 0.10433867 0.10491367 0.028596846 -0.23854108 -0.031192439
-0.045788467 0.09740799 0.018833797 -0.15164028 -0.26709622 -0.16178127 -0.10397401 -0.16182639
-0.17419118 -0.23816556 -0.030522542 -0.02083464 -0.19020921 -0.1166507 -0.14763457 -0.17622876
0.039189856 -0.16795376 -0.2850609 -0.007416915 0.06327483 -0.070676886 0.23715296 0.022831332
-0.18829873 -0.21809986 -0.008804301 0.017104393 0.12525465 0.008417835 0.048403475 0.05585125
-0.0895762 0.26681757 -0.2725968 -0.19773164 -0.07530296 -0.10924776 -0.18688838 -0.13409099
-0.17504513 -0.04557267 -0.14020336 -0.19213867 0.018412212 0.22490373 -0.065976426 -0.11269093
-0.06301007 0.06803977 0.10969222 -0.027724165 -0.040619995 0.1256522 -0.13785055 0.08024127
0.1044631 -0.18984506 0.023802614 -0.077693835 0.047855288 -0.05860702 0.09051019 -0.13735662
-0.108790234 0.029948125 -0.17469801 -0.07381434 0.28836524 -0.11437477 -0.08377296 0.22593683
0.0009965018 0.091053 -0.1092081 -0.15299112 -0.1793082 -0.11181574 0.07512451 -0.19986732
-0.2213311 -0.08106032 -0.06888229 -0.14930964 -0.107913285 -0.003785354 0.012378418 0.3908558
-0.040183876 0.25861853 0.079513825 -0.09521119 0.015383259 -0.14006214 -0.14361237 -0.0489376
0.22376534 0.21172397 -0.25656578 -0.11569815 0.076418236 0.01635187 -0.008009615 0.05346749
-0.08031692 -0.18560733 0.14278804 -0.08493649 -0.013496936 0.1091465 -0.102521084 -0.020452863

parameters.mlp_0_w f4 [256, 70]
00000000: 8138 bcbd afb1 8cbe f65e 5bbe 9ea4 0fbf
00000010: be44 f2bc 0114 5bbd 728c fd3b b6a2 ce3d
00000020: 8835 57bd 6846 febe 3120 5bbe 2f89 2ebf
00000030: 3e78 9e3d c7a3 a93e 17ad 84bc f819 da3e
00000040: fb92 d3bd e3f4 ddbc 070f 763d d4be 3d3d
00000050: e2a8 81bd 1a2a c8be 3914 813d 7131 183e
00000060: b809 783d 0c08 ed3d 5a34 843e 6374 41bd
00000070: 425e f2bc 4cd4 803d 57e9 3cbd 13b1 f7bc
00000080: b3f1 eabc cd1a eb3d c520 79bb 3839 64be
00000090: 1e0a c7bd 1732 a03c 12e5 99be 10b0 dd3b
000000a0: 760d 27be d9b2 01bd 0a95 e2bc 0d68 0fbd
000000b0: 4ecb 02be 5fa1 b8bd 3fba 953b 9746 683c
000000c0: 5cf1 5a3d c459 663c 2724 633e 952b 19be
000000d0: cc59 1abe 766d bdbe 17f8 363e a375 10be
000000e0: 8c1a f23d 8fd1 873e 56c1 94be 44d4 6ebc
000000f0: d9f2 a93d 1a40 4d3e 2be3 593d fb42 18bc
00000100: ea31 2b3b d379 9d3d 581d 39bd 9346 f23d
00000110: 68dc 213d 7f88 fb38 4c10 86be 69fb 6bbd
00000120: 0e6e e2bd 6fa8 923d a920 00bd 65ae d6be
00000130: 0426 f73d 05f7 63bd ab39 8dbe fadc aabe
00000140: 00f9 97be e8be 043e 807a 28be 4910 a3be
00000150: 6725 033e ec84 c7be eb32 3a3d 4623 89be
00000160: c1ff 0dbf 0b01 863e 570d 543d fc31 95be
00000170: 400a f83e b243 adbc f0a0 27be 3e86 08be
00000180: 24a3 85be 2f79 063e 54d4 b83d 5a49 bcbd
00000190: 75b1 0a3b 8ac1 babe e871 fdbc 999a adbd
000001a0: 8cdc 8cbb 6c0c 6bbc 4aa6 c1bd 4ed1 143e
000001b0: 8f85 bc3d 1c07 f13c 1a4d bebe c788 953d
000001c0: 1012 e7bc 3e71 9bbd 3a7c c3bc 44a6 61bd
000001d0: e965 ffbd c3ce 22bd cbd4 043e 26d3 1c3e
000001e0: 70f1 453e 668d ae3d 865f c5bd a0ee bdbe
000001f0: 7829 d63d 0b35 933d 790d 14bd ac95 753e
00000200: bc6c 56be ad8c 19be 86a5 12be ba3a dbbd
00000210: 68f9 98bc f881 1c3d b79b 34be f23c b53d
00000220: 8410 3abe 6c23 a9bd 1e77 babc 5c50 153c
00000230: 24ce a5bc 8689 893e aed5 38bc f448 213e
00000240: 285d 96be d78c e2bd 041b e93e aa3a 8bbd
00000250: 16a2 873e 6105 563e 671d b93e 3d6d da3d
00000260: f9c2 f7be 14fc bdbd 7e70 1b3d 51e0 ae3c
00000270: 7a7f 9fbd 6568 e53e ba1c a93e 9bcd ddbe
00000280: 0a98 a1bd 7286 3c3e 94a5 11bf b753 d73b
00000290: dbf5 e73c ceeb cf3e d29b b4be d58a 2ebe
000002a0: e9f9 5abb f5fd ec3d accc e33d bad6 7ebe
000002b0: 48e3 a2be e9ba 77be 47fc e73d 3370 8ebe
000002c0: 17e6 883e 79e2 4dbe 8505 b63c 3884 73bd
000002d0: 6c74 37be f549 a8bd da0e eabd c2b5 363d
000002e0: 2c6c d3be 5e3e 06be 4070 df3c 71df 083e
000002f0: 8955 ce3e 9acd 8a3e cd44 2c3c da31 42be
00000300: 97f0 ca3e e71a cc3e 6f14 a8be 6efe 4fbe
00000310: 3038 78be 1003 1abf f7c5 ad3e c4ab dcbd
00000320: 590c f9bc 9233 f6be 766e 1fbd d7d6 933d
00000330: 280c 383b 3448 ad3c fbad fbbd e633 4ebe
00000340: cf26 afbc 4e94 173e 6696 e6bd fc4d 643d
00000350: b935 24be 226b b13d 0ccf 1fbe 3e4f cfbe
00000360: 8924 873d 363a bd3e 1dcb 8ebe cd5c df3c
00000370: a89b 5dbe b830 b23e 3fad b2be 5422 4fbf
00000380: 33f3 f3bd a798 c2bd b082 f33d 65a9 72be
00000390: 349f 97bd 6c92 843e fed1 a83d 794b c03e
000003a0: 3059 3c3d 2bbc 21be 7d65 1fbd c520 b43d
000003b0: 92d5 41bf 2ae4 fbbd d34e 2a3d 01ce 743b
000003c0: e64d 55bd b721 2cbe a3cd f6be 61ce d63d
000003d0: 56da 1abd 1832 413e f468 94bd e7bf 42be
000003e0: 4e39 f4bc 6862 ab3c 7b2f 50be 8e76 903e
000003f0: 713c 803e efd9 e8bd 01d9 353e de61 4fbd
-0.09190465 -0.27479312 -0.21422943 -0.5611056 -0.029573794 -0.053485874 0.0077376897 0.100896284
-0.052541286 -0.4966309 -0.21398999 -0.68178076 0.07737778 0.33132765 -0.016195817 0.42597938
-0.10330769 -0.02709431 0.060072925 0.046324566 -0.0633104 -0.3909462 0.06302685 0.1486261
0.060556144 0.115738004 0.2582119 -0.047230136 -0.029585961 0.062904924 -0.046120968 -0.030235803
-0.028679704 0.11479721 -0.0038013917 -0.22287452 -0.097187266 0.019555135 -0.3005758 0.006765373
-0.16313729 -0.031664703 -0.027658958 -0.03501134 -0.12772867 -0.09015154 0.0045693214 0.014176986
0.053452834 0.014059488 0.2218176 -0.14958031 -0.15073317 -0.36997575 0.17868076 -0.14107375
0.1182147 0.26527068 -0.29053754 -0.014576975 0.08298273 0.20043984 0.05319516 -0.009293313
0.002612228 0.07689252 -0.045194 0.11829867 0.039516836 0.00011994037 -0.2618431 -0.05761281
-0.110561475 0.071610324 -0.031281147 -0.41929927 0.12067798 -0.055655498 -0.2758306 -0.33371717
-0.2968216 0.1296345 -0.1645298 -0.31848362 0.12807237 -0.389686 0.045458715 -0.26784724
-0.55468374 0.2617267 0.051770534 -0.29139698 0.4844532 -0.021150444 -0.16369987 -0.1333246
-0.2610103 0.13132165 0.090248734 -0.09193678 0.0021162902 -0.36475784 -0.030938104 -0.08476753
-0.004298752 -0.014346223 -0.09455545 0.14532968 0.09205162 0.029422335 -0.371682 0.07301479
-0.028206855 -0.075899586 -0.023862947 -0.055090204 -0.1247061 -0.039747965 0.12971799 0.15314922
0.19330382 0.08523063 -0.0963736 -0.3709612 0.10457128 0.071878515 -0.03614566 0.23982877
-0.20939916 -0.1499507 -0.14320955 -0.107045606 -0.018673614 0.038209885 -0.17637525 0.08849515
-0.18170363 -0.08258709 -0.022761878 0.009113397 -0.020239897 0.26862735 -0.011281414 0.15750486
-0.29367948 -0.11062019 0.45528424 -0.06798299 0.2649085 0.2090049 0.36155245 0.10665367
-0.4839094 -0.09276596 0.037949078 0.021347197 -0.07787986 0.4480621 0.3302973 -0.43320927
-0.07890327 0.18410662 -0.5689328 0.006571259 0.028315475 0.40609592 -0.3527513 -0.17045148
-0.0033413118 0.11571876 0.111230224 -0.24886599 -0.31814027 -0.24192394 0.11327415 -0.27819976
0.26738045 -0.20105924 0.022219429 -0.059452266 -0.17915505 -0.08217231 -0.11428614 0.04460693
-0.41293466 -0.13109729 0.027275205 0.13366486 0.40299633 0.27109987 0.01051445 -0.1896433
0.3963668 0.39864275 -0.3282809 -0.20311901 -0.24240184 -0.60160923 0.33940098 -0.10774949
-0.030401396 -0.4808622 -0.038923703 0.07218712 0.0028083418 0.021152593 -0.122890435 -0.20136985
-0.02138081 0.14802667 -0.11259155 0.055738434 -0.16036119 0.08663012 -0.15606326 -0.40490144
0.065987654 0.36958474 -0.27889338 0.02726593 -0.2164141 0.34802794 -0.348978 -0.80911756
-0.11911621 -0.095017724 0.11890161 -0.23697431 -0.074034125 0.2589296 0.08243178 0.3755758
0.045983493 -0.15794437 -0.038915146 0.08795313 -0.7571651 -0.12299378 0.04157908 0.0037354233
-0.052076243 -0.16809736 -0.48203763 0.104885824 -0.037805878 0.18866765 -0.07246581 -0.19018517
-0.029812481 0.020920947 -0.20330612 0.2821545 0.25046113 -0.113696925 0.17758562 -0.050630443

parameters.mlp_1_b f4 [256]
00000000: 6943 813d db0e 153e d8bf 0a3e 6858 8f3c
00000010: c189 2b3c e812 623e 7ed7 4d3d 57ba 8d3d
00000020: d33a c83c 7448 903e 0942 363d 0b1e 2b3e
00000030: 1a05 37be 6099 ee3b d508 ab3e 86ce 0f3e
00000040: bfeb 1a3e 96ca c6bd 4498 aabc 318b 893c
00000050: 4749 333e d5e9 793c 7fe7 9d3c 6e04 d8bc
00000060: 4654 053e 3b7a 003d e6d4 92bc 4e29 d9bc
00000070: 7637 d13d c495 ef3d 760e 683e cddb a63d
00000080: 9a17 2abd 37ae 4b3e 0831 013e 2d74 6a3e
00000090: 262a 47bc f182 183d 940a 5f3d 4768 7abc
000000a0: 7260 4ebc 5d84 5b3e 3df8 98bc da51 4f3d
000000b0: 63d6 513d d3bf 603e 49c3 8dbc eee4 d6bb
000000c0: e2ad 6dbc 8a4b 903d bc51 6e3d 1d83 0b3e
000000d0: 257e 593d 5ce4 3f3d ae25 083d c176 18bd
000000e0: 0c27 86bc 1b0a 9dbc 46b1 283e 6ae9 813d
000000f0: df04 27bb a78a f4bc f7df 8d3e 63ab ec3c
00000100: 7ccd 0c3e f61f 4b3d b161 e9bc 1716 9ebc
00000110: ce7d 173e 1ff0 c13d 46ff 8c3d 0d83 cc36
00000120: 69d9 7b3d bb05 a33e 71c4 83bc 3a9a 2c3e
00000130: dea2 a1bc 59fe e03e 5f7b 273e c437 c9bd
00000140: 8be8 dd3c e841 153e 43b8 3fbc 1232 47bd
00000150: d8a1 a8bc 42f0 883d 1991 933e bf27 3f3d
00000160: f4b6 563d 9c59 14bc 5312 913d 54bc 263e
00000170: 584f 38bc 6bf3 d83d 16a2 bd3d 4ba3 b53d
00000180: 59f8 c0bc 3bd4 6dbc 2d70 5c3e 9fb6 713c
00000190: 8e6f 84bc c0f1 d5bc 52fd babc 0fa7 04bd
000001a0: 6d12 5bbc 82f9 0e3d a8eb 97bc 4085 0ebd
000001b0: d325 c0bc d049 15be 13e1 d03d 5660 d1bb
000001c0: 8c39 ac3e 3c94 923d 1200 b03e 0e85 a13d
000001d0: 64dc 06bd 1ee8 91bc 6f44 73bc 6f99 87bd
000001e0: 1848 853e ddfb 4b3e 6015 273d 3ceb d6bb
000001f0: 9d51 df3e 64fe 5a3d 7f5c 033e 63e4 153d
00000200: 0a0b 233e 705b 433e 6d56 4a3d 2a3e 8a3c
00000210: 356b f23d 94b3 42bc c3ef 383d 047b efbc
00000220: c4ba 89bc b140 9ebc aa0f a9bd 26c6 c83c
00000230: d486 c9bc 2b44 913d 70ee 8cbc 554a 63bc
00000240: 90ef f5bc 7aea 533d 0d7d c1bc 7658 a53e
00000250: ad86 533e 74ec 613e 6ee6 063e 63e6 9dbc
00000260: 2853 423d c9a5 5e3d 84fe 563c 25ea c53d
00000270: a798 413e df75 c43d c5c5 843d 6e73 5b3d
00000280: 8803 473d 89e6 a43e 8cc3 b8bc 3356 c339
00000290: e491 7c3e b2a8 a63d 24c8 8e3d 4344 86bc
000002a0: 89ff 513d 78fc 69bc 8dfa 10be a9d8 663d
000002b0: f96b 8abc ff84 743d 7d4c 373e 2f6c 223d
000002c0: 9d30 3d3d c1ff 3c3e 11e5 333e 4101 11bc
000002d0: 14d4 c5bc 5a1b 5d3e 2321 e83c d311 83bb
000002e0: 46d4 0a3e 2b5b 153e d8a4 303e a19b 173e
000002f0: 56f3 903c 4029 3abd a474 c9bc 8f80 fd3e
00000300: ed13 f63b 03eb cd3c 56a0 9cbc cf6b 2c3e
00000310: d55d 203d a431 6a3d f294 8f3e ee06 a6bc
00000320: 2409 bbbc 85b9 843e 4f77 ec3d 2c33 a43d
00000330: a857 c33d 73ab 1ebd c316 20be 6184 8dbc
00000340: 61ab af3d 0f23 68bc 2ab8 c8bc b892 343e
00000350: 03f7 343e 2b86 bc3d 1f22 b63d 0b92 a3bc
00000360: ccc9 8a3d 6c52 52bb 10bb 1f3d f259 c5bc
00000370: 72bf b63d 2924 b63e 05ea 86bc a4fc 0a3e
00000380: 6709 253d 2b83 f33c 9df6 023e 8760 823c
00000390: 4ee7 db3d dcab 053e c42d 5bbc cc3b 633d
000003a0: a95e c63d 8e4b f73d 8425 3dbd 443b 82bc
000003b0: d5a7 033e 380e bebd 0969 063e 153f 33bc
000003c0: 8179 6a3e e8b7 a43e dc71 16bc 73a2 dd3d
000003d0: 286a 91bd f32d 7ebc 04cb 9f3c d236 c73d
000003e0: 1301 a23d 52a9 7fbc 8dad b53d e5ec c33e
000003f0: 53ba b1bc 989e 78bc f6e1 e9bc 037b 5cbc
0.063116856 0.14556448 0.13549745 0.01749821 0.010469855 0.22077525 0.050254337 0.06920307
0.024442112 0.28180277 0.04449657 0.16710679 -0.1787304 0.0072814673 0.33405176 0.14043626
0.15128992 -0.09706609 -0.020824559 0.016790004 0.17508422 0.015253504 0.019275425 -0.0263693
0.13020429 0.031366568 -0.017923784 -0.026508953 0.102156565 0.116984874 0.22661766 0.081473924
-0.041526414 0.19890676 0.1261636 0.2289588 -0.012156045 0.03723425 0.054453447 -0.015283651
-0.012596237 0.21437211 -0.018673057 0.05061517 0.051229846 0.21948175 -0.017305033 -0.0065580523
-0.014506789 0.07045658 0.058183417 0.13624234 0.053098816 0.04684864 0.03323906 -0.037222628
-0.01637604 -0.019169858 0.16473874 0.06343348 -0.002548508 -0.02985127 0.27709934 0.028890317
0.13750261 0.049591027 -0.028488966 -0.019297643 0.14794084 0.094696276 0.06884627 6.09493e-06
0.061486635 0.3184031 -0.016084881 0.16855708 -0.019730981 0.43944052 0.16355656 -0.098250896
0.027088424 0.14575922 -0.011701646 -0.048631735 -0.020584986 0.066864505 0.28821638 0.046668764
0.05242057 -0.009054568 0.07083573 0.16282779 -0.011249386 0.10593303 0.09259431 0.08869036
-0.023555921 -0.014515932 0.21527167 0.014753013 -0.016166475 -0.026116252 -0.02282587 -0.032385882
-0.013371092 0.034905918 -0.018544987 -0.034795046 -0.023455536 -0.14578938 0.101991795 -0.006389658
0.33637655 0.0715718 0.34375054 0.07886706 -0.032925025 -0.017810877 -0.014847859 -0.06621062
0.26031566 0.19920297 0.04079187 -0.006558804 0.43616953 0.053465262 0.12828253 0.03659476
0.1592218 0.1907785 0.04939883 0.016875345 0.11836854 -0.011883635 0.04515053 -0.029233463
-0.01681269 -0.019317957 -0.08254941 0.024508547 -0.024600424 0.0709308 -0.01720354 -0.013872703
-0.030021459 0.051737286 -0.0236192 0.32294053 0.20656843 0.22062856 0.1317384 -0.019274896
0.047442585 0.054357324 0.013122205 0.096638 0.18905888 0.095927946 0.06483034 0.05357688
0.048587352 0.32207134 -0.022554182 0.00037257522 0.24665028 0.08137645 0.069717675 -0.016389972
0.051269088 -0.014281385 -0.14158078 0.056358967 -0.016897188 0.059697147 0.17900272 0.039653953
0.04618894 0.18456937 0.1756785 -0.008850397 -0.024148978 0.21592465 0.028336113 -0.0039999275
0.13557538 0.14585559 0.17250383 0.14805461 0.017694157 -0.045449495 -0.024591751 0.49512145
0.0075096996 0.025136476 -0.019119423 0.16838 0.039151985 0.057176247 0.28043324 -0.020266976
-0.022831507 0.2592279 0.11546194 0.08017573 0.095382035 -0.038737725 -0.15633683 -0.017275037
0.0857761 -0.014168515 -0.024501879 0.17634094 0.17672352 0.09205278 0.08893227 -0.0199671
0.06776771 -0.0032092584 0.038996756 -0.02409074 0.08923234 0.35574463 -0.016469011 0.13572937
0.04029217 0.029725632 0.12789388 0.015915168 0.10737477 0.1305384 -0.013377611 0.05547695
0.09686024 0.12074958 -0.046178356 -0.0158974 0.12856992 -0.09280056 0.13126005 -0.010940333
0.22897913 0.3217156 -0.00918242 0.10822 -0.07100326 -0.015513885 0.019505985 0.09727253
0.07910361 -0.015604334 0.08870993 0.38266674 -0.021695292 -0.01517453 -0.02855013 -0.013457063

parameters.mlp_1_w f4 [256, 256]
00000000: c241 cabd c59c 9a3c 8a7e 673c d8ff 3ebc
00000010: 9782 8c3d 8ff7 27bc 5817 08bd bb14 ffbc
00000020: 5577 6dbd 7423 7cbc 8aa6 173d f960 1abd
00000030: 14dc b5bd 60fd e43b 7ea4 ab3c 0301 9b3c
00000040: 3a9e 923c 55cb acbc 81d7 6b3b 2ab9 febc
00000050: b9eb 613b 29d1 1cbc 7bcf 553b 29a0 99bd
00000060: b17b 0fbd a28b 97bd 62fe b6bb f1b8 d4bc
00000070: 437b 8bbc 8bbb 00bd 5084 2e3c f07f f2bc
00000080: 19cd b9bb 8436 f9bc 6495 e53c b505 01ba
00000090: 1ef4 5dbc 4556 85bd 320b 26bc 0c1d 55bb
000000a0: bde9 a3bc ccfe 1fbc 70be af39 4b21 d0bc
000000b0: 3004 16bd 3d5d 773a c3fe c83c 72ef c83c
000000c0: 374d 06bc d095 1dbd e9c8 1cbd 4e14 a4bc
000000d0: 52f6 6dbd 1967 2c3c 42a8 5fbc 0319 95bc
000000e0: bac8 11bd 778b 9cbd 29dc 2e3b ccac 4abd
000000f0: aa4f 03bd 5622 60bd 227c 433b 053e 01bb
00000100: 29dc 8ebb 7251 aa3b 8df9 11bd 0048 52bd
00000110: 0352 63bc 08a2 2bbd a032 7bbc 389f d53c
00000120: dd7d 38bd 6550 d1bc 8997 113b 77c1 c63c
00000130: 59b8 58bd 97b0 883c ee76 68bb 2cad ac3b
00000140: c59b 3dbc d28e ca3b 81bc b2bc cdb2 5abc
00000150: 4e67 3bbd 421f ac3c 1ef7 ddbc 6673 f9bb
00000160: d47e ad3c fb52 bebc 6ed3 1bbb c399 8cbd
00000170: d82f b03c 9cb0 fabc 142a 89bd bb2a 5bba
00000180: 7ea7 bc3c 6ff0 8abb 0282 96bc f7e1 93bb
00000190: 7de8 34bb d845 8aba dcf6 873c 3298 36bc
000001a0: d68a 7b3b bc96 373a 2327 bbb8 f30c acbc
000001b0: bb18 983c a39e 87bd d350 973c 5b7e 41bd
000001c0: 055f e43c 6887 f5bb 92bd e9b9 8652 cd3c
000001d0: 54f8 1b3d 96ca db3b 1187 3cbd 79bc 9cbc
000001e0: efb1 3abd d38c 83bd a6b5 cf3b 1442 49bd
000001f0: 705e 07bd 2b75 c3bc 0471 313c 8c56 2dbd
00000200: c6d1 2abd 497a 703c 7088 03bd 160c b2bc
00000210: 231d 363c 5cb8 b6bb f6b8 81bc 8381 88bd
00000220: 6608 45b9 80be 4cbd 78b8 24bb de0a fc3c
00000230: 125e 3cbc 0db8 d7bc 24b3 a1bc 3809 30bc
00000240: 8dc2 0bbc 1c01 483d 4c92 e03c 42cb 993c
00000250: 82ff 883c a8cc beba bf29 10bd 1812 953a
00000260: df4c 823b 2ba6 66bd 4774 913b ca6b a4bb
00000270: b798 10bd e3fd a0b9 5f49 8dbd 3490 18bc
00000280: 8c28 78bc 83e8 88bd 932c 88bd e36e a4bc
00000290: fcf1 51bd 8a39 2cbd de0d 3abd dae1 9a3b
000002a0: 2f17 7bbc ab35 f4bc a0db 66bd 441d 16bd
000002b0: 0ee4 d7bc e82a 14bc 938d 1139 52fa ef3b
000002c0: f37a 743b 2e07 f83d 3e25 01bc 0c8f c53c
000002d0: e30a 01ba 0e06 8bbc 1791 58bd dce9 e8bb
000002e0: a06c 333c 0ec9 453b 9837 87bc 0404 61bc
000002f0: 6d9b adbc 4602 bfbc 73b0 5abd b8f3 8abd
00000300: 134f 973b d0fc 5ebd 0e4c 92bd 1b6f 65bd
00000310: b8b6 1fbc 0c4a 15bd 644e b0bc 1f3b a3bc
00000320: 8196 3b3b 1831 01bc d366 ddbc 72ee 3bbd
00000330: 22d5 32bd ced3 0f3c 2596 81bc a73c 863b
00000340: bee4 d3bc c00e ffbc 24b1 95bc 6eaa a2bc
00000350: d91a 06bd d4bb aebc d5ab 95bc 5bfc 7b3c
00000360: 4496 32bd 68bf da3c 64d2 36bb eb51 053c
00000370: 63d0 4e3a db41 02bc 01ae 8bbc 7e8d cdbc
00000380: ad66 503c 8235 63bc 1738 51bc 8481 c5bc
00000390: 015f 25ba a9bf 2ebc e6a7 89bc 5f61 ec3c
000003a0: 9a37 273d 4067 003d 9a0a d3bc 862e a9bc
000003b0: b4af 15bd 6015 a6bc ca05 0ebc 3ac7 c93c
000003c0: 4888 a3bc 6189 80bc 4725 0e3d 1566 79bd
000003d0: f289 cdbd 8ca7 b9b9 5a60 f03b 02c4 8bbc
000003e0: 242d 403c 3212 01bd a607 39bd 78d0 7c3c
000003f0: 2dfb 78bc 1df6 35bd 2da8 823c 8d67 bcbb
-0.098758236 0.018873582 0.01412929 -0.011657678 0.068608455 -0.010251894 -0.033225387 -0.031137815
-0.057975132 -0.015389312 0.03702406 -0.037690137 -0.08879867 0.0069882125 0.02095246 0.01892138
0.017897714 -0.02109305 0.0035986605 -0.031094152 0.0034472777 -0.009571352 0.0032624889 -0.07501251
-0.03503007 -0.0739968 -0.005584524 -0.025967093 -0.01702655 -0.031428855 0.010651663 -0.029602021
-0.0056702015 -0.030421503 0.028025337 -0.000492181 -0.013546972 -0.06510595 -0.010134505 -0.0032518534
-0.020008916 -0.009765338 0.00033520488 -0.0254065 -0.036625087 0.0009436196 0.024535542 0.024528239
-0.00819712 -0.03847295 -0.03827754 -0.020029213 -0.058096237 0.010522627 -0.013650956 -0.018200403
-0.03559182 -0.07643788 0.0026681519 -0.0494812 -0.032058395 -0.054720245 0.0029828628 -0.0019720804
-0.004359741 0.0051976973 -0.03563838 -0.051338196 -0.013874534 -0.041902572 -0.015331894 0.026076898
-0.045041908 -0.02555103 0.0022215566 0.024262173 -0.052910183 0.016685767 -0.0035471278 0.005269667
-0.011572783 0.0061815763 -0.021818401 -0.0133482935 -0.045752816 0.021010999 -0.027095374 -0.0076126335
0.02117864 -0.023232928 -0.0023777145 -0.06865265 0.021507189 -0.030601792 -0.06697479 -0.00083605543
0.023029085 -0.0042400877 -0.01837254 -0.004513021 -0.0027604394 -0.001054938 0.016597204 -0.011144685
0.0038382313 0.0007003357 -8.924145e-05 -0.021002268 0.01856648 -0.066220544 0.018471157 -0.047239643
0.02787734 -0.0074929483 -0.00044582464 0.025063764 0.03807862 0.0067074997 -0.046027247 -0.01913284
-0.045579847 -0.064233445 0.006338793 -0.049135283 -0.033049047 -0.023859581 0.010830168 -0.042318866
-0.04170396 0.014677593 -0.03211254 -0.021734279 0.011115345 -0.0055761766 -0.015835267 -0.066653274
-0.00018790513 -0.049986362 -0.0025134366 0.0307669 -0.0114970375 -0.02633288 -0.019738741 -0.010744385
-0.008530271 0.048829183 0.02741351 0.018773679 0.016723398 -0.0014556842 -0.035196062 0.001137319
0.003976449 -0.056310814 0.00443891 -0.0050177323 -0.03530189 -0.00030706738 -0.0689876 -0.009311724
-0.015146386 -0.06684973 -0.06649127 -0.020072406 -0.051256165 -0.04204706 -0.04542338 0.0047266306
-0.015325352 -0.029810747 -0.056361794 -0.036649004 -0.026353862 -0.009043433 0.00013881018 0.0073235417
0.0037304729 0.121107444 -0.007882414 0.024116062 -0.0004922582 -0.01697066 -0.052872743 -0.0071079563
0.010951191 0.0030179652 -0.016506001 -0.013733868 -0.021192277 -0.023316514 -0.05339093 -0.06784767
0.0046175807 -0.05444032 -0.071434125 -0.05601416 -0.009748153 -0.03644757 -0.021521755 -0.019925652
0.0028623643 -0.00788524 -0.02702657 -0.045881696 -0.04366029 0.0087785255 -0.015818665 0.004096586
-0.025865909 -0.031134963 -0.018272944 -0.019856658 -0.032740448 -0.021329798 -0.018270412 0.01537999
-0.043600336 0.026702598 -0.0027896399 0.008137207 0.00078893284 -0.0079502715 -0.017050745 -0.025091883
0.012719792 -0.013867738 -0.0127697205 -0.02410961 -0.0006308407 -0.0106658125 -0.016803693 0.028855024
0.04082451 0.031348467 -0.025761891 -0.020652067 -0.036544517 -0.020273864 -0.008668372 0.024631131
-0.019962445 -0.015690507 0.03470352 -0.06088837 -0.100360766 -0.00035410782 0.0073357048 -0.017061237
0.011729512 -0.031511493 -0.04517331 0.015430562 -0.015196604 -0.044424165 0.015949333 -0.005749649

parameters.mu_b f4 [8]
00000000: 17f2 ce3d 01fe b7bd 2140 0f3e 0be3 c03e
00000010: f335 84bd 5915 2cbd 20d8 c4bb 098c 82be
0.10104769 -0.08983994 0.13989307 0.3767322 -0.064556025 -0.042012546 -0.0060072094 -0.25497463

parameters.mu_w f4 [8, 256]
00000000: 3d81 6a3c d00f 9bbd e381 613e 7712 923e
00000010: 501a 5fbd 5323 f03e fa0c a03d 2764 023d
00000020: 5fc8 8abc d24d bb3c 9fac 113e 32f2 82bd
00000030: fc12 3fbc 916a 2bbe c3d8 02bf ddff ebbb
00000040: 69b1 9a3e ae26 21be 0671 1cbb 0187 febb
00000050: e6c1 133e 6540 9abc e03d 15bd 95f7 c73c
00000060: 788a cfbd 9175 953b e365 ef3a c1e3 e7ba
00000070: f877 4ebe 7708 083e d85d 5e3f d089 7abb
00000080: a0c8 993d 543c d7be 8d70 19be cfdc 09bf
00000090: 1d1c e63b ab9f aabc fe0f 783d 9e6b ec3b
000000a0: 4d21 073c af03 38be 0eca 893c ead5 53bd
000000b0: 1a70 5cbc 7399 8fbe e3d8 aa3c 0c4f a3bb
000000c0: f62f 08bb e03f c0bb bab1 223e 94c5 05bf
000000d0: 23ed c1bc 54ab 7ebc 887d 4abc 918e 57bc
000000e0: a7bb 18bd b60a 983c 06c4 943d 7856 63bd
000000f0: 133a 603c a20c e43b fa14 8ebd 031a d6be
00000100: 9b65 33bd 883b 58bd 462c d23c d033 20bc
00000110: c239 e6bd 2300 95bd 5f80 77bd 92c1 8dbb
00000120: 51fa 74bd 6360 713d b492 54bc f95c e0bd
00000130: a5c9 72be e4ef 013e 8f10 4abe 3eea 223f
00000140: 3e8e 4cbd a5ad 163e c38a fdbc 6168 09be
00000150: bf2d 8c3b 9f8d 65bb d6eb 9c3c bd55 b1bb
00000160: bea0 eabc 4b35 593b 48db 213f 081a 18bf
00000170: bca4 f33b f4b9 0d3d b72b bbbc 80ba 11bf
00000180: 59af 72bc 9233 75bb c523 66bd 1fbc 65bd
00000190: 27ff 86bc ef6c 1c3c 4987 71bc cc6a f538
000001a0: 86c0 223c f6ca 083d c5db 473b cb86 bb3c
000001b0: d9a8 913c 2c87 c53e 8257 ddbe 55c7 01bc
000001c0: c037 cabe 536a 87bd ee61 22bf 04f8 113f
000001d0: 6e09 f43b b390 24ba e596 0c3c e0c6 98bf
000001e0: 2652 19bf 86b3 173e f32c f83d 933a 2b3b
000001f0: a64e 3dbe 6834 aa3c 18a7 01bf 5c06 053e
00000200: 63d3 89be 5b1f 42bf df44 ff3c 1a2f c7ba
00000210: 5e6a f33e a966 883c f696 d038 fa0a d73c
00000220: eaec 16bb 8007 89bc 238a d1bd 1f0a 43be
00000230: ea27 34bc b456 123f 9689 96bb 6312 6c3c
00000240: b7c4 ee3c 4739 d6bb e177 1b3c a304 34be
00000250: ed91 f1be 989a 003e 2c12 11bf cf90 8e3c
00000260: 8c92 0ebc 5bdc c0be d004 193e 9144 49bd
00000270: ac11 05bf 6902 bd3d be55 68bd 863e cebd
00000280: 5307 b1bc 3561 0940 829b 8a3c ca51 9cbd
00000290: e429 13be 3958 b6be 2a2d 9dbe 2f6d c23b
000002a0: 2e54 4f3f f137 1f3b e67e abbd 2e30 22bd
000002b0: 66a4 a9ba 02e7 633e f5aa 1b3e 13e4 c5bc
000002c0: 9cc3 a0ba f2d7 573d 66c0 01be 048a 183c
000002d0: 1362 9c3c 9f19 82bd d9fd 00bd 75e8 a2bc
000002e0: 0a6c 25be 1501 36bf 07cc 633e 05e8 33be
000002f0: 0687 b8bc 79eb 523f dde7 853c 0004 f33e
00000300: 186e 2cbd 22f9 b53e 267b fcbb ee97 263f
00000310: 5247 9dbd e837 59be 72ee 81be 4a1d d23b
00000320: f6b8 fe3e 9b60 81bf 75c6 5fbe 6e2c 793d
00000330: 96f2 a83d 363f f93d 33e3 69be 388c bc3b
00000340: 24a4 c9be 543e 01bb 5639 203c 8d28 48bf
00000350: ad7c 2cbf e71f fc3d 47a1 743e 5ba2 82bc
00000360: 11de 68bb a522 4abc 1964 e2bc 1349 a33c
00000370: b389 c1bc c8f7 dc3d 5be6 70bb a612 b6be
00000380: b716 52bc 487a 0a3f ce2e 3d3d d557 a23e
00000390: 387c 1bbf 05b1 633f e032 03bc 455f 553c
000003a0: 33f8 013f 11f4 fdbd dd75 813c f075 d03a
000003b0: 5482 3a3e 0e2c f93e ada2 dfbe a8f1 59be
000003c0: 232a 2d3f 3275 cc3e 45e7 3c3d d482 3f3f
000003d0: 1d3e 2c3e 3f8b c9be cb42 cdbe 747e 943f
000003e0: ace5 ee3e 9499 933c dfa0 ba3c 0afe 973d
000003f0: fb16 ba3a 306e 5abc 69d0 5dba 193b f53b
0.014313039 -0.07571375 0.22022204 0.28529713 -0.054468453 0.4690195 0.07814975 0.031833794
-0.016941248 0.022864256 0.14226006 -0.06393851 -0.011662241 -0.1673987 -0.51112 -0.007202132
0.30213478 -0.15737411 -0.0023871078 -0.0077675586 0.14429435 -0.018829534 -0.03643596 0.024410048
-0.10133833 0.004561134 0.0018264618 -0.0017691777 -0.20162952 0.13284479 0.86861944 -0.0038229115
0.07508969 -0.42038214 -0.14984341 -0.5385255 0.0070223943 -0.020828089 0.060562126 0.0072149774
0.008247686 -0.17970155 0.01681998 -0.051717676 -0.0134544615 -0.2804676 0.020855373 -0.0049837884
-0.002078054 -0.0058669895 0.1588811 -0.52254605 -0.023672646 -0.0155437775 -0.012359031 -0.013156549
-0.037288334 0.018559795 0.07263951 -0.055502385 0.013685721 0.0069595138 -0.06937595 -0.4181672
-0.04379807 -0.05279115 0.025655877 -0.009777978 -0.11241485 -0.07275417 -0.06042516 -0.004326054
-0.059809033 0.058929812 -0.01297443 -0.10955233 -0.23709734 0.12689167 -0.19732879 0.63638675
-0.04994034 0.14714678 -0.030949956 -0.13418724 0.0042779143 -0.003502704 0.019155424 -0.005411832
-0.028641101 0.0033143337 0.6322522 -0.5941472 0.0074354094 0.034601167 -0.022847993 -0.569252
-0.014812314 -0.0037414772 -0.056186456 -0.05608761 -0.016479088 0.009547456 -0.014741727 0.00011702403
0.0099335965 0.033396684 0.0030495983 0.022891423 0.017780708 0.3857969 -0.43230826 -0.00792106
-0.3949566 -0.066120766 -0.6343068 0.57019067 0.007447413 -0.00062776654 0.008580898 -1.1935692
-0.59890974 0.14814577 0.121179484 0.0026127442 -0.18487033 0.020776942 -0.5064559 0.12990707
-0.26919088 -0.75829095 0.03116077 -0.0015196532 0.4754209 0.016650515 9.9463316e-05 0.026250351
-0.0023029395 -0.01672721 -0.102314256 -0.1904683 -0.010995844 0.5716355 -0.0045940382 0.014408681
0.029146535 -0.0065375897 0.009489031 -0.17579894 -0.47181645 0.12558973 -0.56668353 0.017403034
-0.008701932 -0.37668118 0.14943242 -0.049137656 -0.5198009 0.09228975 -0.056722395 -0.10070519
-0.021609938 2.146558 0.016919855 -0.076327875 -0.14371449 -0.35614184 -0.3069852 0.005933426
0.80987823 0.0024294818 -0.08373813 -0.03959673 -0.0012942671 0.22256091 0.15201934 -0.024156606
-0.0012265327 0.052696176 -0.1267105 0.009310249 0.019089734 -0.06352543 -0.031492088 -0.019886235
-0.16154495 -0.710954 0.22245799 -0.17568977 -0.022525322 0.8239055 0.016345913 0.4746399
-0.04209718 0.35541636 -0.00770511 0.65075576 -0.07679619 -0.21212733 -0.25377232 0.006412183
0.4975049 -1.0107607 -0.21853049 0.060833387 0.082493946 0.1217026 -0.22840576 0.00575402
-0.39383042 -0.0019720988 0.009779295 -0.78186876 -0.6737774 0.123107724 0.23889647 -0.015946558
-0.0035532753 -0.012337361 -0.02763562 0.019932305 -0.02362523 0.10789448 -0.0036758396 -0.35561103
-0.012822798 0.54092836 0.046187215 0.31707636 -0.6073642 0.88941985 -0.008007735 0.013023202
0.50769347 -0.124000676 0.015803272 0.0015904289 0.18213779 0.48666424 -0.436788 -0.21283591
0.6764242 0.39933163 0.046118993 0.74809 0.1682057 -0.3936405 -0.40090021 1.160109
0.466596 0.018017568 0.022781787 0.07421501 0.0014197523 -0.013331935 -0.00084615365 0.0074838516

parameters.std_b f4 [8]
00000000: f30e 1bc0 4c86 18c0 c203 1fc0 5be9 1ec0
00000010: 8adf 17c0 816e 1fc0 4863 15c0 7e7a 12c0
-2.4227874 -2.3831968 -2.4846044 -2.482993 -2.3730187 -2.4911196 -2.3341846 -2.2887263

parameters.std_w f4 [8, 256]
00000000: 5dc2 aa3c 8162 29be 51cd 6ebe 0799 88be
00000010: 9b5d 063d 0289 993d 4c92 12bd e123 45bb
00000020: 84dd 413d 51ad 96be 38d0 55be f180 d43b
00000030: 79d7 a53d af7d 923d b354 833d 995c ec3d
00000040: 8e17 c2bd 2b0b 183e 0140 08bc b056 c03c
00000050: 1219 e9bd 9096 883c 5da8 193c 80ed 173c
00000060: 5687 63bc f517 12bd 873f 3b3c a95e 193c
00000070: 7db0 473b 1034 4a3d 67cd f53e 577e b63d
00000080: 8a3e dd3d 1bcd 20bd 617d 89bd e285 dabc
00000090: 1f52 563a 765b 15bc 90c7 c23c ac70 a0bc
000000a0: e0e9 973b f49c 5c3d 1f5a 6d3c aeb1 9f3c
000000b0: 3cef 2d3d 2926 25be 7352 81ba ee7f 753c
000000c0: 21aa 343b 4c09 b8bc 2c29 a6be 78bc f2bd
000000d0: e7f7 b03c a5fe 403d bebc 573d 1aca 49bc
000000e0: 2456 b93c 25ec afb9 9a19 87be c396 193d
000000f0: 71e7 013d 951a 313c 3b31 62be 8c96 633f
00000100: 70f6 b5be 9a26 653c b48a 253c 5be3 6dbc
00000110: 4c24 abbe 124a 27be 5580 87ba 6385 8e3c
00000120: e0da 1e3c d54b ac3d d18e e4bb 83bf 17be
00000130: f6b7 80bd 8714 6dbe 8409 dc3d f0f0 833c
00000140: 97e0 333c e975 54bd 6a89 ae3c 9a15 09bd
00000150: 37ea 693c cceb 293d ebfc e53c 45be 293d
00000160: cbae e73b bcff c1bc 3c28 40be 25cf 4a3d
00000170: 8736 ee3a 3d21 cbbc 7a0b 193c ef20 283e
00000180: 7ba4 133c 38fc df3b e24d 81bd f79b 26ba
00000190: 5b0a c8ba 696b e43b 96c9 d33c e715 a23c
000001a0: 68f4 163c af4f 45bc 239f d53a a60d 3a3c
000001b0: 9fb1 053a 9dad 013e 02e7 0d3d 131c 553c
000001c0: 9b24 9a3d c46e 2e3b f0a6 7abd d500 16be
000001d0: 604c bd3c 4944 bbbb e27e 98bb 51dd 563f
000001e0: 5ba7 0e3e 9a56 6dbd aa0a 33be ab84 f43b
000001f0: 259b b1be 9917 bb3d f0b3 083e a95f 02be
00000200: 9209 673d 2e9d 0f3e fd2f 6d3d 2e82 ef3c
00000210: c089 2a3e 853e 223c 3c02 533d a23c 173c
00000220: 7a4b b8bb a9e6 31bc 3208 d1be f783 b3be
00000230: 5561 a7bc 52cc a7bc cc17 9c3b d845 4fbb
00000240: 3c5e 503c e6d5 f53c 9796 c23b 0171 a4be
00000250: 70a3 17be 68a7 5dbe 575b 803e e711 99bc
00000260: a4fb 56bd ac3a 183e b5ac 333d 79ef e0bc
00000270: 428d 843d 4ac0 ecbd 376a d73c e2b0 dd3c
00000280: 0852 083d 7c4f 3b3f d150 063c 99e6 71bd
00000290: 42c9 213e cbb9 913d a5da 1abe b571 67bb
000002a0: 149b c63d e6af 28bc a3b2 c33e 8284 423c
000002b0: 92ba 4a3a b040 3b3c 1984 b5be 39ff 8c3d
000002c0: 50e2 bf3c d82c 9ebd 4ace a93d 7f36 10bc
000002d0: 2144 6b3c 0d52 90be cb61 433c 73ac ae3e
000002e0: 3f5a 893d afbb 2d3e a201 96bd 411d 6ebe
000002f0: 4e0b ca3c 6731 363f bb48 683c f4ba d4bd
00000300: bb53 b1be cd2b e7be ae45 a33c fc9e 403e
00000310: 5dde 513e 365a 183d 5e3e 213e d38a 1d3c
00000320: 621c f03e 7fa6 1e3f dc5e 2abe 6f74 6fbd
00000330: 8766 803d 2f5f 0bbc 321c 553d f6fa 6e3c
00000340: fc32 9c3d 9ef4 d3bb db09 0c3c 51ec 10be
00000350: 7605 573e faa7 31bb 5c3f e8bd 567f acbb
00000360: 7778 1dbe 9264 743c 50c3 453c 59d2 7a3d
00000370: 56a1 5e3d 78fe 48be 7a76 79bc dc38 2c3d
00000380: 56cf 633d 5a05 47bd 0d77 86bd 783d f93d
00000390: 00c8 5e3e cc22 e13d 0566 33bb 5eb7 053d
000003a0: fd26 2a3e 10b0 9cbe c863 02ba 3520 a53b
000003b0: ef78 7dbe d80a ef3d 09f7 693d 5531 a5be
000003c0: 617c 403e e840 26be 950b 0ebe 6d34 723e
000003d0: 99a7 2fbe a3f8 483e 445e 693d b688 6a3f
000003e0: 9237 cbbd 2969 0d3c 596a 923d 621a cebe
000003f0: a926 c53c 7eab c43c 5bc1 963c 5f7c b239
0.020844633 -0.16541483 -0.2332051 -0.2667925 0.032804113 0.07496835 -0.03578405 -0.00300812
0.047330394 -0.29429105 -0.2088021 0.0064850976 0.08097739 0.071528785 0.064126395 0.11541099
-0.09477149 0.1484801 -0.008316041 0.023478836 -0.11381735 0.016673356 0.00937852 0.009272933
-0.013887247 -0.03566738 0.01142872 0.009360948 0.0030470185 0.049366057 0.48008272 0.08910816
0.10802944 -0.039258104 -0.06713367 -0.026675168 0.0008175689 -0.009116044 0.0237768 -0.019584976
0.0046360344 0.05386062 0.014486819 0.019493904 0.04246448 -0.16127838 -0.0009866491 0.014984114
0.0027567225 -0.02246537 -0.32453287 -0.11852354 0.021602584 0.047117848 0.052670233 -0.012316251
0.022624083 -0.00033554542 -0.2638672 0.037497293 0.03171486 0.01080956 -0.22089092 0.8890159
-0.3553958 0.013986254 0.01010387 -0.014519538 -0.3342613 -0.1633685 -0.0010337929 0.017397588
0.009695739 0.08412901 -0.006975033 -0.1481915 -0.06285088 -0.23152362 0.107440025 0.016106099
0.010978839 -0.05187026 0.021305759 -0.033467866 0.014277033 0.04148464 0.028074702 0.04144122
0.0070703975 -0.023681514 -0.18765348 0.049513955 0.0018174209 -0.024796123 0.009341115 0.16418813
0.009011383 0.0068354867 -0.06313683 -0.0006355638 -0.0015261875 0.006970812 0.02585296 0.019785834
0.009213544 -0.012042924 0.0016298037 0.011355793 0.0005100015 0.12663884 0.034644134 0.013007182
0.07526513 0.0026616314 -0.06119436 -0.14648755 0.023107708 -0.0057149273 -0.0046537975 0.8393145
0.13931029 -0.057943918 -0.17484537 0.0074621043 -0.34688678 0.0913536 0.1334989 -0.12731804
0.05640561 0.14024803 0.057907093 0.02923688 0.1665411 0.009902601 0.051515803 0.009230765
-0.005624232 -0.010858216 -0.40826565 -0.3506162 -0.020432154 -0.02048317 0.004763579 -0.0031627323
0.01271778 0.030009221 0.005938362 -0.32117465 -0.1480844 -0.21645892 0.25069687 -0.018685294
-0.052486077 0.14866132 0.043865878 -0.02745794 0.06472255 -0.11560114 0.026295764 0.027061883
0.033281356 0.7316816 0.008197979 -0.059057806 0.1579943 0.07115515 -0.15122469 -0.0035315577
0.096975476 -0.010295844 0.38222227 0.011872413 0.00077334896 0.011428997 -0.35452345 0.06884617
0.023423344 -0.07723397 0.082913 -0.008802055 0.014359505 -0.281876 0.011925171 0.34115943
0.06706666 0.16966127 -0.0732453 -0.23253347 0.024663594 0.7116913 0.014177497 -0.10387221
-0.34634194 -0.45150605 0.019930687 0.18810648 0.20494981 0.037195407 0.15746447 0.009615618
0.46896654 0.619728 -0.16637748 -0.05846065 0.062695555 -0.00850658 0.052028842 0.014586201
0.07626912 -0.0064683696 0.008547272 -0.14152648 0.20998177 -0.0027108178 -0.1134021 -0.005264203
-0.15377985 0.014916556 0.012070492 0.06123576 0.05435308 -0.19628322 -0.015226001 0.042046413
0.055617653 -0.048589088 -0.06565676 0.12169927 0.21755981 0.10992965 -0.002737404 0.032645576
0.16616435 -0.30603075 -0.0004973975 0.00503924 -0.24753164 0.1167199 0.057120357 -0.322642
0.18797447 -0.16235697 -0.13871606 0.23652811 -0.17153777 0.19626097 0.056974664 0.91614854
-0.099227086 0.008631029 0.071491905 -0.40254503 0.024066286 0.024007555 0.018402746 0.0003404347
