notebook/result/weights/sac_snapbot/episode_450.pth (torch, 355440 bytes, 8 tensors)

parameters.mlp_0_b f4 [256]
0	0x3de82653	0.11335435
1	0xbe09b4b6	-0.13447842
2	0xba439cff	-0.0007462054
3	0xbd021b49	-0.031764302
4	0x3eda82da	0.42677957
5	0xbe0237e5	-0.12716635
6	0xbe0fd71d	-0.14046903
7	0xbda25d4e	-0.07927953
8	0xbe192e13	-0.14958982
9	0xbd63e51e	-0.055638425
10	0xbd262738	-0.040564746
11	0xbd30e9e1	-0.043191794
12	0xbcf483c5	-0.029847989
13	0x3e0955ae	0.1341159
14	0xbdca220c	-0.09869775
15	0x3f12c3d3	0.57330054
16	0xbda7281a	-0.08161946
17	0xbe2a1f8a	-0.16613594
18	0xbdd453c8	-0.103675425
19	0xbd9da51d	-0.076975085
20	0x3cd54f4a	0.026038785
21	0xbe240d07	-0.16020595
22	0xbd5acd2a	-0.053418316
23	0x3d7c4a40	0.061594248
24	0xbe04ba62	-0.12961724
25	0xbd4b1fc4	-0.04959084
26	0x3ce723fe	0.028215405
27	0xbe14354e	-0.14473459
28	0xbddc30dd	-0.107515074
29	0xbd0a30fb	-0.033738118
30	0xbdbfea5f	-0.093708746
31	0xbe6b1fc1	-0.22961332
32	0xbdd67d8b	-0.10473164
33	0x3e26e5c8	0.16298592
34	0xbd3182d7	-0.04333767
35	0xbe1d21b2	-0.15344885
36	0xbc1464a9	-0.009057202
37	0x3df0547c	0.11734864
38	0xbe381bfd	-0.17979427
39	0xbddef3a3	-0.10886314
40	0xbd944c45	-0.0724111
41	0xbe65b5b2	-0.22432593
42	0x3cbc5fc8	0.02299489
43	0xbe24270c	-0.1603052
44	0xbd90b16a	-0.07065089
45	0x3e3af8ad	0.18258925
46	0xbde94993	-0.11390986
47	0xbe1c1783	-0.15243344
48	0xbde2cecc	-0.110745996
49	0x3dd98c29	0.106224366
50	0xbe6ed707	-0.23324214
51	0x3dbe8c72	0.093041316
52	0xbe01152c	-0.12605733
53	0xbe500632	-0.20314863
54	0x3e82eabb	0.2556971
55	0xbe066597	-0.13124691
56	0xbe11da80	-0.14243507
57	0xbe83f35b	-0.25771603
58	0xbdecec9c	-0.11568567
59	0xbe2da81c	-0.1695866
60	0xbe51fe18	-0.20507085
61	0x3dabde38	0.08391994
62	0x3c47bbdf	0.012190788
63	0xbdfc427c	-0.123173684
64	0xbde3bd5b	-0.11120101
65	0xbea936b6	-0.33049554
66	0xbda08ee0	-0.07839751
67	0x3e0625bc	0.13100332
68	0xbe86abdf	-0.26303002
69	0xbe87de75	-0.2653691
70	0x3df75ceb	0.120782696
71	0xbe6ff49a	-0.23433152
72	0xbe713f61	-0.23559333
73	0xbd82fa1f	-0.06395363
74	0xbe2b2220	-0.16712236
75	0xbc815e1d	-0.015791947
76	0x3d802ce6	0.06258564
77	0xbe491bfd	-0.19639583
78	0xbd24beef	-0.04022115
79	0xbe704353	-0.23463182
80	0xbe7d70f7	-0.24750124
81	0xbd0d2844	-0.03446223
82	0xbd0773ee	-0.033069544
83	0xbde7448e	-0.11292373
84	0x3e295a1a	0.16538277
85	0xbe011297	-0.12604748
86	0xbe692a28	-0.22769988
87	0xbe8fd247	-0.28090116
88	0x3d9f78e8	0.07786733
89	0x3e595b71	0.21226288
90	0xbdf05187	-0.117343
91	0x3e0cbe32	0.13744429
92	0x3d71ffcf	0.05908185
93	0x3d556347	0.05209663
94	0xbd134ced	-0.035962034
95	0xbeab5647	-0.33464262
96	0xbd0e096a	-0.034676947
97	0xbd9e8c82	-0.077416435
98	0x3a0158ea	0.00049342087
99	0xbda13897	-0.07872122
100	0x3d09bf44	0.03362967
101	0x3d35fc40	0.044430017
102	0x3a163004	0.0005729201
103	0xbd89ded1	-0.06731952
104	0xbe18d732	-0.1492584
105	0xbd6110e8	-0.054947764
106	0xbda39814	-0.07987991
107	0x3cb84ac4	0.022496589
108	0xbe6cbaa3	-0.23118071
109	0xbe06d2c0	-0.13166332
110	0xbde9cf8b	-0.11416539
111	0xbc05e799	-0.008172893
112	0xbd73ddd8	-0.05953774
113	0xbdf7f277	-0.121067934
114	0xbc013609	-0.007886418
115	0xbd636c43	-0.05552317
116	0x3d41e202	0.04733468
117	0xbd0d7885	-0.034538765
118	0x3e2cf542	0.16890433
119	0xbe413878	-0.18869197
120	0x3e1722bb	0.14759342
121	0xbde74704	-0.11292842
122	0xbd921ad5	-0.07134024
123	0x3e549268	0.20758975
124	0xbd27be3f	-0.040952917
125	0x3d0a1c42	0.033718355
126	0xbddb2d8f	-0.10702049
127	0xbcd040a2	-0.025421444
128	0xbdec576e	-0.115401134
129	0x3e0a350e	0.13496801
130	0xbdec3ef3	-0.11535444
131	0xbc10157e	-0.008794187
132	0xbea2497e	-0.31696695
133	0xbe797355	-0.24360402
134	0xbe2f5904	-0.171238
135	0x3dd5f33a	0.104467824
136	0x3e124cdf	0.14287136
137	0xbd91bd11	-0.0711614
138	0xbb065db2	-0.0020502624
139	0x3d77b366	0.060473822
140	0x3d4be9ba	0.049783446
141	0x3cfa4d73	0.030554509
142	0xbe43b15e	-0.19110629
143	0xbd8db0f2	-0.06918515
144	0xbdb28448	-0.08716637
145	0x3d9d940e	0.07694255
146	0xbc0478f5	-0.008085479
147	0xbe436049	-0.19079699
148	0xbe86b0d4	-0.26306784
149	0xbe1a8fb8	-0.15093887
150	0xbda8893c	-0.082293004
151	0xbe47ffd7	-0.19531189
152	0xbe27d211	-0.16388728
153	0xbe7f044f	-0.24903987
154	0xbd0b1455	-0.033954937
155	0xbd84637c	-0.06464288
156	0xbe67008a	-0.225588
157	0xbdf16c5e	-0.117882475
158	0xbe4b80ef	-0.19873403
159	0xbe5367d0	-0.2064507
160	0x3c2ed649	0.010671207
161	0xbe1e6e07	-0.1547166
162	0xbe8a34d4	-0.2699343
163	0xbcae6dcb	-0.021292588
164	0x3d1eff38	0.038817614
165	0xbddbed3f	-0.107386105
166	0x3e530edc	0.20611137
167	0x3c54d16a	0.012989381
168	0xbe575ca1	-0.21031429
169	0xbe652a3f	-0.22379397
170	0x3cb9bec7	0.022673978
171	0xbb98b217	-0.004659902
172	0x3de911c5	0.113803424
173	0xbcddaf4d	-0.027061129
174	0x3d332bba	0.043742873
175	0x3b982525	0.0046431
176	0xbdaa89e0	-0.08327079
177	0x3e609419	0.21931495
178	0xbe764dd1	-0.24053122
179	0xbe36bd48	-0.17845643
180	0xbdbe9d0f	-0.093073
181	0xbe0bce37	-0.13652883
182	0xbe5f2476	-0.21791252
183	0xbe3e2ed9	-0.18572558
184	0xbe24d1ef	-0.16095708
185	0xbd64e426	-0.05588164
186	0xbe29a91f	-0.16568421
187	0xbe630d48	-0.22173035
188	0x3c679345	0.014134233
189	0x3e510959	0.20413722
190	0xbdd48aeb	-0.10378059
191	0xbdf9791b	-0.12181302
192	0xbd7224eb	-0.05911724
193	0x3db06cbb	0.08614489
194	0x3d8e7fc4	0.06957963
195	0xbd05525a	-0.03254924
196	0xbd5ec0d1	-0.054383103
197	0x3d4af599	0.049550626
198	0xbe33b43b	-0.17549221
199	0x3de8b7c9	0.11363179
200	0x3ddc994b	0.10771426
201	0xbe4d29a2	-0.20035413
202	0x3d4d837d	0.050174225
203	0xbd8e0227	-0.06934004
204	0x3d0a6bb8	0.033794135
205	0xbdb21706	-0.086957976
206	0x3d9df5a8	0.07712871
207	0xbddced3b	-0.107874356
208	0xbe0dd1fc	-0.13849634
209	0xbb4f9047	-0.003167169
210	0xbe29ea33	-0.16593246
211	0xbd9d54c5	-0.07682184
212	0x3ec4f875	0.38470808
213	0xbde90d37	-0.11379474
214	0xbdb5f464	-0.088845044
215	0x3e62ac1b	0.22135966
216	0x3ca9c216	0.02072243
217	0x3da43da6	0.08019571
218	0xbe144b37	-0.14481817
219	0xbe18c847	-0.1492015
220	0xbe555f08	-0.20837033
221	0xbe0a163e	-0.13485047
222	0x3ccfdfbb	0.025375238
223	0xbe2945d0	-0.16530538
224	0xbe579f80	-0.21056938
225	0xbde843c2	-0.11341049
226	0xbdcbe07c	-0.09954926
227	0xbe06045b	-0.13087599
228	0xbe220215	-0.15821107
229	0xbd0841a5	-0.03326573
230	0xbc6d5d80	-0.014487624
231	0x3ecb886d	0.39752522
232	0xbdc4a2f4	-0.09601393
233	0x3e7a7bd2	0.24461296
234	0x3d54351e	0.05180847
235	0xbdece0e3	-0.11566331
236	0x3b8aea41	0.004239351
237	0xbe03395f	-0.12814854
238	0xbe0fcc2f	-0.14042734
239	0xbdcf01ae	-0.10107742
240	0x3e841308	0.2579577
241	0x3e630558	0.22170007
242	0xbe86046b	-0.26175246
243	0xbe039295	-0.12848885
244	0x3dc547a9	0.09632809
245	0xbd0c7d59	-0.03429923
246	0xbc286f0e	-0.010280384
247	0x3d985f90	0.07440102
248	0xbdd70fb5	-0.10501043
249	0xbe486e17	-0.19573246
250	0x3e0429d6	0.12906584
251	0xbdd97930	-0.10618818
252	0xbc45c817	-0.012071631
253	0x3dea8cc3	0.114526294
254	0xbda9ae93	-0.082852505
255	0xbd7b95e0	-0.06142223

parameters.mlp_0_w f4 [256, 70]
0	0xbda0d88b	-0.07853802
1	0xbe374f5f	-0.17901371
2	0xbe7cbdbb	-0.24681751
3	0xbf0a629e	-0.5405673
4	0xbdd5e699	-0.10444374
5	0xbcdde147	-0.02708496
6	0xbcd3e0b7	-0.025863988
7	0x3e0ca910	0.13736367
8	0xbd8a7a52	-0.06761612
9	0xbef2517c	-0.47327793
10	0xbe97c221	-0.29640296
11	0xbf37bfd4	-0.7177708
12	0x3c530ba9	0.012881198
13	0x3eb8f2ea	0.3612283
14	0xbd6637f0	-0.05620569
15	0x3f1187e7	0.56847996
16	0xbe08eab3	-0.1337078
17	0xbce678e9	-0.028133826
18	0xbc0f0413	-0.008728999
19	0x3d267b63	0.040645014
20	0xbdc5224c	-0.09625682
21	0xbf02f6ca	-0.5115782
22	0x3d0fb0ef	0.035080846
23	0x3e90d2d7	0.28285858
24	0x3d3ebca8	0.046566635
25	0x3d611878	0.054954976
26	0x3ef6b399	0.48183897
27	0x3c4596e6	0.012059903
28	0xbce6215a	-0.028092075
29	0x3dba29d1	0.09090007
30	0xbdbea38b	-0.09308537
31	0x3b6187b0	0.0034413151
32	0x3c2d0055	0.010559161
33	0x3d943215	0.07236115
34	0x3d985c7b	0.07439514
35	0xbe24b117	-0.1608318
36	0xbc10c538	-0.008836083
37	0x3d3258de	0.04354178
38	0xbe77a4f6	-0.24184021
39	0x3ca551f9	0.02018069
40	0xbe3c61a2	-0.18396619
41	0xbdeb33b7	-0.11484473
42	0xbb2ab0ac	-0.0026045246
43	0xbce76379	-0.028245674
44	0xbdb7b560	-0.089701414
45	0xbdba127a	-0.090855554
46	0xbe138e34	-0.14409715
47	0xbc2c0df0	-0.01050137
48	0x3dd7b4a5	0.10532502
49	0xbd9ced8c	-0.07662496
50	0x3e5df3b7	0.21675001
51	0xbe1a219b	-0.15051882
52	0xbe8ed963	-0.27900228
53	0xbeb8fa83	-0.36128625
54	0x3ea271df	0.31727502
55	0xbe1ef995	-0.15524895
56	0x3e0959aa	0.1341311
57	0x3e14c580	0.14528465
58	0xbea23648	-0.31682038
59	0xbc5aa3f2	-0.013344752
60	0x3d9e0650	0.07716048
61	0x3ed75eeb	0.42064604
62	0x3d9d0791	0.07667459
63	0x3cc3e931	0.023914905
64	0x3c5187e7	0.012788749
65	0x3d4d71aa	0.050157227
66	0xbd86a024	-0.06573513
67	0x3d96d71b	0.07365247
68	0x3c901fca	0.017593283
69	0x3cf6b886	0.030117285
70	0xbe855285	-0.2603952
71	0xbd2e12c6	-0.042498372
72	0xbcdb9bdd	-0.02680772
73	0x3b26eea7	0.0025471838
74	0xbc989356	-0.018624943
75	0xbec21e35	-0.3791367
76	0x3e6c72dd	0.23090692
77	0xbd67e442	-0.056614168
78	0xbe9bc5d7	-0.30424377
79	0xbef76297	-0.48317406
80	0xbe28eb33	-0.16495971
81	0x3dad048a	0.084481314
82	0xbe6ba0b8	-0.23010528
83	0xbec6380d	-0.38714638
84	0x3de1932c	0.11014399
85	0xbe490243	-0.19629769
86	0x3bd0500e	0.0063571995
87	0xbe7e6c03	-0.2484589
88	0xbf1d7cd0	-0.61518574
89	0x3e5f4311	0.21802928
90	0x3cabff9d	0.02099591
91	0xbf0ca33f	-0.54936594
92	0x3f080e79	0.53147084
93	0x3d9c90df	0.076448195
94	0xbe5b5121	-0.21417667
95	0xbd80cb4a	-0.06288774
96	0xbded0fe1	-0.11575294
97	0x3e028899	0.1274742
98	0x3d553661	0.052053813
99	0xbdfc296b	-0.12312587
100	0xbda4066e	-0.08009039
101	0xbeab497a	-0.33454496
102	0xbe0b1220	-0.13581133
103	0xbd073c00	-0.033016205
104	0xbde46c23	-0.11153438
105	0x3d27ff14	0.041014746
106	0xbd8879cd	-0.06663857
107	0x3e3f3708	0.18673337
108	0xbcf394c1	-0.029734017
109	0x3e164746	0.14675626
110	0xbeaa417a	-0.3325308
111	0x3df15d0d	0.11785326
112	0xbdc0b500	-0.09409523
113	0xbd2c4c67	-0.04206505
114	0xbccdbb45	-0.025113711
115	0xbd91cf1e	-0.071195826
116	0x3d8d9ae2	0.06914307
117	0xbd087c16	-0.033321463
118	0x3df8bfc4	0.121459514
119	0x3e41fb67	0.18943559
120	0x3e6cf459	0.23140086
121	0x3d7551a3	0.059892308
122	0xbda46c0f	-0.08028423
123	0xbebb7564	-0.36613
124	0x3d9f04a9	0.07764561
125	0x3d958018	0.072998226
126	0xbce0acc5	-0.027426133
127	0x3e6f0ddb	0.23345129
128	0xbea19b12	-0.31563622
129	0xbe46fbe9	-0.19432034
130	0xbd9c6aee	-0.07637583
131	0x3d8ee469	0.069771595
132	0xbd022a96	-0.031778894
133	0x3d8893f7	0.06668847
134	0xbdce66af	-0.10078179
135	0x3c8f023e	0.017457124
136	0xbe0fa34c	-0.14027137
137	0xbde3c037	-0.111206464
138	0xbab3d503	-0.0013720099
139	0x3d963f59	0.07336301
140	0x3d17fbcd	0.03710537
141	0x3e8304a1	0.2558947
142	0xbd3b2233	-0.04568691
143	0x3e02265f	0.1270995
144	0xbe913762	-0.28362566
145	0xbd243b27	-0.040095475
146	0x3ee011fd	0.43763724
147	0xbdd9db76	-0.10637562
148	0x3e2fb4df	0.1715884
149	0x3ee2b9c0	0.4428234
150	0x3e962bfc	0.29330432
151	0xbd854854	-0.06507936
152	0xbf00e0bc	-0.5034292
153	0x3e02ee94	0.12786323
154	0x3e1accc9	0.15117182
155	0xbcd6f29a	-0.026238728
156	0xbdbcd655	-0.09220568
157	0x3f06ca07	0.5265202
158	0x3ed0e8fe	0.4080276
159	0xbefebc1e	-0.49752897
160	0xbdafc497	-0.085824184
161	0x3e2b2f79	0.16717328
162	0xbf2032ef	-0.6257772
163	0x3d75e02a	0.060028233
164	0x3b831644	0.004000457
165	0x3ee177a1	0.44036582
166	0xbe7350dc	-0.23761314
167	0xbe99999f	-0.30000016
168	0xbd23dd63	-0.040006053
169	0x3d96f134	0.073702246
170	0x3e241168	0.16022265
171	0xbdedb219	-0.11606235
172	0xbecfebb6	-0.4060952
173	0xbe70be80	-0.2351017
174	0x3d5067eb	0.050880354
175	0xbe8736ae	-0.26408905
176	0x3e2dbc1c	0.1696629
177	0xbe5ba455	-0.21449406
178	0x3d84626d	0.06464086
179	0xbda2304a	-0.07919367
180	0xbdeb3e8e	-0.11486541
181	0xbdacd71a	-0.08439465
182	0xbe1aa4c1	-0.15101911
183	0x3deee5cb	0.11664923
184	0xbe88a163	-0.26685628
185	0xbd99e3d1	-0.07514156
186	0xbd62424c	-0.055239007
187	0x3e0314a2	0.1280084
188	0x3e7918af	0.24325822
189	0x3e134e73	0.14385395
190	0x3d71e53e	0.059056513
191	0xbe45e7e0	-0.19326735
192	0x3ed791af	0.42103335
193	0x3e8519c5	0.25996223
194	0xbeafa4b3	-0.34305343
195	0xbe491a27	-0.19638883
196	0xbe9e67f3	-0.30938682
197	0xbee06ee5	-0.43834606
198	0x3f18b52e	0.5965146
199	0xbdfcfe57	-0.12353199
200	0x3acfa54f	0.0015842112
201	0xbebcd0c6	-0.36878031
202	0xbc652a74	-0.013987172
203	0x3c794f00	0.015216589
204	0x3bd839c9	0.0065986854
205	0x3cd9f229	0.026604729
206	0xbdcaf844	-0.09910634
207	0xbe9c2129	-0.3049405
208	0xbd1473e8	-0.03624335
209	0x3d1e1cd1	0.0386017
210	0xbd97f3d9	-0.07419557
211	0x3e23d61d	0.15999646
212	0xbe51def2	-0.20495203
213	0x3e041bdf	0.12901257
214	0xbe20f828	-0.15719664
215	0xbeb04c14	-0.34433043
216	0x3d20cee8	0.03925982
217	0x3ee3c05d	0.444827
218	0xbe9a2382	-0.30105215
219	0xbdab0518	-0.08350581
220	0xbe8a20e0	-0.26978207
221	0x3e86cd9a	0.26328737
222	0xbe967dba	-0.29392797
223	0xbf310bbb	-0.69158524
224	0xbe48175f	-0.19540165
225	0x3cf5a68e	0.029986646
226	0x3dd7a6dc	0.10529873
227	0xbe9e4532	-0.30912167
228	0x3e1463f6	0.14491257
229	0x3eb068af	0.34454867
230	0x3d7a07e7	0.061042693
231	0x3e5662e3	0.2093616
232	0xbe1c4a83	-0.15262799
233	0x3d3a3217	0.045457926
234	0xbc4bbf10	-0.01243569
235	0x3dae77bc	0.08518931
236	0xbf5e7bf1	-0.8690787
237	0xbdfe59aa	-0.12419446
238	0xbcf6d267	-0.030129625
239	0xbd4c8606	-0.049932502
240	0xbca811a5	-0.020516226
241	0xbe0bc9c6	-0.13651189
242	0xbead9dbc	-0.33909404
243	0x3e448f23	0.19195227
244	0x38b62a28	8.6862885e-05
245	0x3e56598a	0.20932594
246	0x3c3469f0	0.011011586
247	0xbe511a2a	-0.20420137
248	0xbc70c226	-0.014694726
249	0x3c069929	0.008215227
250	0xbe1af222	-0.15131429
251	0x3e956708	0.2918017
252	0x3e918c6c	0.28427446
253	0x3c427a01	0.011869908
254	0x3e43d1f4	0.1912306
255	0x3da4c236	0.08044855

parameters.mlp_1_b f4 [256]
0	0x3db55f2e	0.08856045
1	0x3e21d06e	0.15802166
2	0x3e271a04	0.16318518
3	0x3d7a7c5e	0.061153762
4	0x3c2b89c1	0.010469855
5	0x3e941dbd	0.28928939
6	0x3e09b043	0.13446145
7	0x3d8dba57	0.06920307
8	0x3c131c16	0.008978864
9	0x3e885cfb	0.26633438
10	0x3cd43616	0.025904696
11	0x3e0c6741	0.13711263
12	0xbe2b449b	-0.1672539
13	0x3c96876f	0.018375127
14	0x3ea647a5	0.32476535
15	0x3e45ede3	0.19329028
16	0x3df84715	0.12122933
17	0xbdec312e	-0.11532818
18	0xbcaa9844	-0.020824559
19	0x3c898b31	0.016790004
20	0x3e2e6fbe	0.17034814
21	0x3c79e9d5	0.015253504
22	0x3c9de77f	0.019275425
23	0xbcd8046e	-0.0263693
24	0x3e25337f	0.16132925
25	0x3d007a3b	0.031366568
26	0xbc92d4e6	-0.017923784
27	0xbcd9294e	-0.026508953
28	0x3dbdbcfe	0.09264563
29	0x3e19e90c	0.15030307
30	0x3e63e09b	0.22253649
31	0x3dbe06bd	0.09278629
32	0xbd2a179a	-0.041526414
33	0x3e81537a	0.25259
34	0x3de44655	0.11146227
35	0x3e26c1ed	0.16284914
36	0xbc472a26	-0.012156045
37	0x3dd53001	0.10409547
38	0x3cbce568	0.023058608
39	0xbc7a6847	-0.015283651
40	0xbc4e6072	-0.012596237
41	0x3e5d1e8a	0.21593681
42	0xbc98f83d	-0.018673057
43	0x3d4f51da	0.05061517
44	0x3d51d663	0.051229846
45	0x3e63a776	0.2223185
46	0xbc8dc349	-0.017305033
47	0xbbd6e4ee	-0.0065580523
48	0xbc6dade2	-0.014506789
49	0x3d904b8a	0.07045658
50	0x3d444718	0.047919363
51	0x3dbe46d4	0.09290853
52	0x3d597e25	0.053098816
53	0x3d3fe45c	0.04684864
54	0x3d0825ae	0.03323906
55	0xbd1876c1	-0.037222628
56	0xbc86270c	-0.01637604
57	0xbc9d0a1b	-0.019169858
58	0x3e243680	0.16036415
59	0x3d81e96a	0.06343348
60	0xbb2704df	-0.002548508
61	0xbcf48aa7	-0.02985127
62	0x3e8b04bb	0.27152047
63	0x3b969787	0.0045957
64	0x3e0c8c94	0.13725501
65	0x3e21d72d	0.1580474
66	0xbce961b1	-0.028488966
67	0xbc9e1617	-0.019297643
68	0x3de5ba94	0.112172276
69	0x3db39a86	0.087697074
70	0x3de6da34	0.11272088
71	0x36cc830d	6.09493e-06
72	0x3dc42044	0.09576467
73	0x3e9d02cc	0.30666196
74	0xbc83c471	-0.016084881
75	0x3e49df53	0.19714098
76	0xbcdd6f33	-0.027030563
77	0x3ec822e9	0.39089134
78	0x3e0d126f	0.13776563
79	0xbde4f436	-0.11179392
80	0x3cdde88b	0.027088424
81	0x3dfdef40	0.12399149
82	0xbc3fb843	-0.011701646
83	0xbd841446	-0.06449179
84	0xbca8a1d8	-0.020584986
85	0x3d88f042	0.066864505
86	0x3eabaf6c	0.33532274
87	0x3d3f27bf	0.046668764
88	0x3d56b6f4	0.05242057
89	0xbc14599c	-0.009054568
90	0x3d21cd05	0.039502162
91	0x3e4b7fdf	0.19872998
92	0xbc384f58	-0.011249386
93	0x3e46eebf	0.19427012
94	0x3d8007cd	0.06251488
95	0x3d1a2fef	0.03764337
96	0xbcc0f859	-0.023555921
97	0xbc6dd43b	-0.014515932
98	0x3e595af6	0.21226105
99	0x3c71b69f	0.014753013
100	0xbc846f8e	-0.016166475
101	0xbcd5f1c0	-0.026116252
102	0xbcbafd52	-0.02282587
103	0xbd04a70f	-0.032385882
104	0xbc5b126d	-0.013371092
105	0x3d0ef982	0.034905918
106	0xbc97eba8	-0.018544987
107	0xbd0e8540	-0.034795046
108	0xbcc025d3	-0.023455536
109	0xbe1ad72d	-0.15121146
110	0x3d917b94	0.07103649
111	0xbbd16056	-0.006389658
112	0x3eb48960	0.3526106
113	0x3d92943c	0.0715718
114	0x3ea74da4	0.32676423
115	0x3db562ce	0.08856736
116	0xbd06dc64	-0.032925025
117	0xbc91e81e	-0.017810877
118	0xbc73446f	-0.014847859
119	0xbd246c24	-0.040142193
120	0x3e8ca781	0.27471545
121	0x3e875fe6	0.26440352
122	0x3e6c1dbc	0.23058218
123	0xbbd6eb3c	-0.006558804
124	0x3f019020	0.5061054
125	0x3dfee90a	0.124467924
126	0x3e1d216b	0.15344779
127	0x3e1db8f2	0.15402582
128	0x3e701635	0.23445971
129	0x3e636164	0.2220512
130	0x3d4a566d	0.04939883
131	0x3c8a3e2a	0.016875345
132	0x3e09aa32	0.1344383
133	0xbc42b394	-0.011883635
134	0x3d38efc3	0.04515053
135	0xbcef7b04	-0.029233463
136	0xbc89bac4	-0.01681269
137	0xbc9e40b1	-0.019317957
138	0xbd8ccf60	-0.06875491
139	0xbc8617fa	-0.016368855
140	0xbcc986d4	-0.024600424
141	0x3db0c7a6	0.0863183
142	0xbc8cee70	-0.01720354
143	0xbc634a55	-0.013872703
144	0xbcf5ef90	-0.030021459
145	0x3d8d971e	0.06913589
146	0xbcc17d0d	-0.0236192
147	0x3ea1f1b0	0.31629705
148	0x3e5b8738	0.214383
149	0x3e1fa501	0.15590288
150	0x3e4ce46e	0.20009014
151	0xbc9de663	-0.019274896
152	0x3d425328	0.047442585
153	0x3d65304e	0.05595427
154	0x3dd4dd00	0.10393715
155	0x3dd49705	0.10380367
156	0x3e2f508e	0.17120573
157	0x3dc81d54	0.09771219
158	0x3d84c5c5	0.06483034
159	0x3d1bc944	0.03803374
160	0x3d470388	0.048587352
161	0x3e8c7719	0.27434614
162	0xbcb8c38c	-0.022554182
163	0xbc7ddfe7	-0.015495277
164	0x3e9f685f	0.31134316
165	0x3e09870c	0.13430423
166	0x3d92f554	0.07175699
167	0xbc864443	-0.016389972
168	0x3d954564	0.07288626
169	0xbc69fc78	-0.014281385
170	0xbe10fa8d	-0.14158078
171	0x3d66d8a9	0.056358967
172	0xbc8a6bf9	-0.016897188
173	0x3dc3939d	0.095496394
174	0x3e3afb73	0.18259983
175	0x3d226c2f	0.039653953
176	0x3d3d309d	0.04618894
177	0x3e578374	0.21046239
178	0x3e2e387f	0.17013739
179	0xbcbcf5bd	-0.023066396
180	0xbcc5d414	-0.024148978
181	0x3e59f393	0.21284322
182	0x3d0df018	0.0346528
183	0xbb8311d3	-0.0039999275
184	0x3dff249f	0.12458157
185	0x3dacb4b4	0.08432904
186	0x3e63df37	0.22253118
187	0x3dc2cde4	0.09511927
188	0x3c90f356	0.017694157
189	0xbdcdbe1c	-0.10046026
190	0xbcc974a4	-0.024591751
191	0x3f00b472	0.5027534
192	0xbd10c9ed	-0.03534882
193	0x3d109c0d	0.03530507
194	0xbc9ca056	-0.019119423
195	0x3e28b39b	0.16474764
196	0xbc0b53b0	-0.008503839
197	0x3d8215ac	0.0635179
198	0x3e861823	0.2619029
199	0xbca606ee	-0.020266976
200	0xbd156e0e	-0.03648191
201	0x3ea1fb45	0.31637016
202	0x3e0d46ec	0.13796586
203	0x3bfdcdbc	0.0077454727
204	0x3e6fc004	0.23413092
205	0xbd0ec9a4	-0.03486027
206	0xbdb81180	-0.08987713
207	0xbc8d8461	-0.017275037
208	0x3d52285f	0.051308032
209	0xbc68230f	-0.014168515
210	0xbcc8b82a	-0.024501879
211	0x3e1ec581	0.1550503
212	0x3e43088f	0.19046234
213	0x3dbc862b	0.09205278
214	0x3de58fa5	0.11209039
215	0xbca3920b	-0.0199671
216	0x3de43e94	0.11144748
217	0xbb52526c	-0.0032092584
218	0x3d1fbb10	0.038996756
219	0xbcc559f2	-0.02409074
220	0x3e1c5e29	0.15270294
221	0x3eb8b171	0.36072877
222	0xbc86ea05	-0.016469011
223	0x3e0ba8de	0.13638636
224	0x3d250967	0.04029217
225	0x3d03d2f2	0.032183595
226	0x3dfd039b	0.12354203
227	0x3d885f0e	0.06658755
228	0x3da27236	0.0793194
229	0x3e202bf7	0.15641771
230	0xbc5b2dc4	-0.013377611
231	0x3d633bcc	0.05547695
232	0x3dbd7dcc	0.092525095
233	0x3e0144f7	0.12623964
234	0xbd3d2584	-0.046178356
235	0xbc823b44	-0.0158974
236	0x3dd42dd6	0.10360305
237	0xbdbe0e38	-0.09280056
238	0x3de67e6d	0.112545826
239	0xbc298f47	-0.010349101
240	0x3e51ccd6	0.20488295
241	0x3ea0e508	0.31424737
242	0xbc1671dc	-0.00918242
243	0x3d88ffb0	0.066893935
244	0xbd332664	-0.043737784
245	0xbcd0a897	-0.025471015
246	0x3bdb0588	0.006684009
247	0x3e20627d	0.1566257
248	0x3df33d60	0.11876941
249	0xbc7fa952	-0.015604334
250	0x3db5ad8d	0.08870993
251	0x3ec59751	0.38592008
252	0xbcb1ba53	-0.021695292
253	0xbc789e98	-0.01517453
254	0xbce9e1f6	-0.02855013
255	0xbc5c7b03	-0.013457063

parameters.mlp_1_w f4 [256, 256]
0	0xbe05829d	-0.13038106
1	0xbd3f6217	-0.046724405
2	0xbda34b38	-0.07973331
3	0xbdff0e47	-0.12453895
4	0x3d7d57c2	0.06185127
5	0xbd110472	-0.03540463
6	0x3da75511	0.08170522
7	0xbe80bab8	-0.25142455
8	0xbe452bcd	-0.1925499
9	0x3d7a3812	0.06108863
10	0x3cbf8c28	0.023382261
11	0xbe44e205	-0.19226845
12	0xbe454f10	-0.19268441
13	0xbcc56b78	-0.024099097
14	0xbdc7c39d	-0.09754107
15	0x3e843d90	0.25828218
16	0x3dc4ba42	0.09605838
17	0x3d51299f	0.051065084
18	0xbd6e33d3	-0.058154892
19	0xbd8617ff	-0.06547546
20	0x3d201849	0.03908566
21	0xbd1debe9	-0.03855506
22	0xbd8dd398	-0.06925124
23	0xbd14a104	-0.03628637
24	0x3b348456	0.0027544699
25	0xbda8be28	-0.082393944
26	0xbe46a5a6	-0.19399127
27	0xbe110f9a	-0.14166108
28	0x3d06098c	0.03272395
29	0xbc62412b	-0.013809483
30	0xbc3f9846	-0.01169402
31	0xbe079ff6	-0.13244614
32	0xbdf358a7	-0.118821435
33	0x3ce54664	0.027987666
34	0x3d45589a	0.0481802
35	0x3d9e7294	0.07736698
36	0xbe2c2fb2	-0.1681507
37	0xbdb8d1b2	-0.09024371
38	0x3d23036c	0.039798185
39	0x3be24910	0.0069056824
40	0xba221795	-0.00061833236
41	0xbbf9fe2b	-0.007629176
42	0x3d92ee9e	0.07174419
43	0xbc408600	-0.011750698
44	0xbda64346	-0.081183
45	0x3b379e4b	0.0028017934
46	0xbe276f29	-0.16350998
47	0x3db18e5c	0.08669731
48	0xbe7b55b0	-0.24544406
49	0x3dd29301	0.10281945
50	0xbe81bf81	-0.25341418
51	0x3cf80da6	0.030279946
52	0xbda99403	-0.08280184
53	0xbdfcf7ad	-0.12351928
54	0x3c0b1ba6	0.008490479
55	0x3d53e0ca	0.051728047
56	0x3cdd2ebd	0.026999826
57	0xbdc9d381	-0.09854794
58	0x3d1b6183	0.03793479
59	0xbe099e05	-0.13439186
60	0x3d7a1e11	0.06106383
61	0x3ca624d2	0.02028123
62	0x3e46c946	0.19412717
63	0x3c09d4b3	0.008412528
64	0x3c6895df	0.014195888
65	0xbd058e65	-0.0326065
66	0xbc7fecdd	-0.015620437
67	0x3d095051	0.03352386
68	0xbde541dc	-0.11194202
69	0xbd616201	-0.055025104
70	0x3da8a235	0.082340635
71	0x3cfc88dc	0.030826978
72	0x3cef561a	0.029215861
73	0xbd12d591	-0.035848204
74	0xbe68fee8	-0.22753489
75	0x3cd47e41	0.025939109
76	0x3ce5c406	0.028047573
77	0xbc9f46ba	-0.019442905
78	0xbc58d3ef	-0.013234123
79	0xbd415ea6	-0.047209404
80	0x3f0c05b9	0.5469623
81	0xbd9acb47	-0.07558303
82	0xbcdc4df1	-0.026892634
83	0xbe063f2d	-0.13110037
84	0x3dc9be55	0.09850756
85	0x3e24d955	0.1609853
86	0xbe8e6fe1	-0.27819732
87	0xbe232bbd	-0.15934654
88	0x3c8a92be	0.016915675
89	0xbdea2a33	-0.1143383
90	0x3d1f46b3	0.038885783
91	0xbca58cf3	-0.020208811
92	0x3d918bcb	0.071067415
93	0xbddd3035	-0.108002104
94	0xbdb9a587	-0.09064775
95	0xbdb85f84	-0.09002593
96	0x3e0543f7	0.13014208
97	0x3dc27d4a	0.09496553
98	0xbd0dc2c7	-0.034609582
99	0x3da113e1	0.0786512
100	0x3c6b96e0	0.014379233
101	0xbd8e3e66	-0.06945495
102	0x3bcf8289	0.0063326997
103	0x3de6f8c3	0.11277916
104	0xbd2e71f5	-0.042589147
105	0x3cee0916	0.029057067
106	0xbe17419a	-0.14771119
107	0xbdf80772	-0.12110795
108	0x3d348347	0.04407051
109	0xbe1523a7	-0.14564382
110	0xbe7244a7	-0.23659001
111	0xbe394ee2	-0.18096498
112	0x3dadb760	0.08482242
113	0xbe0d6447	-0.13807784
114	0x3ddd4c29	0.10805542
115	0xbdc0e65e	-0.09418939
116	0x3e04a7cb	0.12954633
117	0xbe2345ec	-0.15944642
118	0xbcf04f7b	-0.029334774
119	0x3d2c3169	0.04203931
120	0xbe86da63	-0.2633849
121	0xbd8f50a4	-0.06997803
122	0x3d607390	0.05479771
123	0xbe2ed6f7	-0.1707419
124	0x3dace69d	0.084424235
125	0xbe5b5c8d	-0.21422024
126	0x3e0ad7e4	0.13558918
127	0xbe4e8dd9	-0.20171298
128	0x3d8e3bea	0.069450215
129	0xbe603d44	-0.21898371
130	0x3cbac1a7	0.022797419
131	0x3d7c6313	0.061617922
132	0xbe00a8d6	-0.12564406
133	0x3da93c73	0.08263483
134	0x3a7b3697	0.00095830247
135	0xbd90dc06	-0.07073216
136	0xbdb373ec	-0.08762345
137	0xbcab8ee0	-0.020942152
138	0xbda16adb	-0.07881709
139	0x3e2ea31b	0.17054407
140	0x3d71b507	0.05901053
141	0xbdbe4990	-0.09291375
142	0x3df02f48	0.11727768
143	0xbc3c671f	-0.011499195
144	0xbd57f260	-0.05272138
145	0x3d62636d	0.0552706
146	0x3dc22c3f	0.094810955
147	0xbd5328c9	-0.051552568
148	0x3dd75075	0.10513393
149	0xbe3ef92a	-0.18649736
150	0x3dbb7518	0.09153193
151	0x3e88f2c3	0.26747712
152	0xbd069fa1	-0.032867078
153	0xbdf2d3cb	-0.118568026
154	0x3e16d4de	0.1472964
155	0xbe197e5b	-0.14989607
156	0xbd062215	-0.032747347
157	0xbe77237b	-0.24134628
158	0x3c8e542e	0.017374124
159	0x3db6f04c	0.08932552
160	0xbd1b9965	-0.037988085
161	0x3e05c8b1	0.13064839
162	0x3d2ac2ce	0.041689686
163	0x3c8f35cc	0.017481707
164	0xbb3f48ae	-0.0029187608
165	0xbd0563a1	-0.032565717
166	0xbd0ad6e3	-0.03389634
167	0x3de6c6b7	0.112683706
168	0xbde7cfc3	-0.11318924
169	0x3e8639bb	0.2621592
170	0xbe744e8e	-0.23858091
171	0xbe7b74cc	-0.24556273
172	0xbc3cbb2f	-0.011519237
173	0x3e34e608	0.17665875
174	0x3d885ff2	0.06658925
175	0x3cc5380d	0.024074579
176	0x3d248b0b	0.040171664
177	0x3d15ca88	0.036570102
178	0x3d0bcb7b	0.0341296
179	0xbd97050d	-0.0737401
180	0x3ac41abe	0.0014961583
181	0xbdf4be4c	-0.11950359
182	0xbdcba80f	-0.09944164
183	0xbdc203db	-0.094733916
184	0x3ddef3d7	0.108863525
185	0xbd959358	-0.07303494
186	0xbe58ef57	-0.21185051
187	0xbd13ffbd	-0.036132563
188	0xbe48d1af	-0.19611238
189	0x3d47d3c2	0.048785932
190	0xbcd5d033	-0.026100254
191	0xbd9e9772	-0.0774373
192	0xbda17ad3	-0.07884755
193	0xbd8d2fd7	-0.0689389
194	0x3d23f922	0.040032513
195	0xbd6fb172	-0.058518834
196	0x3e019e47	0.12658034
197	0xbd998b30	-0.07497251
198	0xbcbe8849	-0.023258345
199	0xbdf99199	-0.12185974
200	0xbd6dc6b8	-0.05805084
201	0xbe2e99e6	-0.17050895
202	0xbd820cc2	-0.063500896
203	0xbe2fb293	-0.17157964
204	0xbe09be06	-0.13451394
205	0xbb812355	-0.0039409795
206	0x3d38ff47	0.045165326
207	0x3e25f495	0.16206582
208	0xbddc7a94	-0.107655674
209	0x3c677b2b	0.014128487
210	0x3deb6615	0.1149408
211	0xbc5ae211	-0.0133595625
212	0xbe293925	-0.16525705
213	0x3dc8d68b	0.09806546
214	0xbe2fc116	-0.171635
215	0x3ca38c3a	0.019964326
216	0xbd6217fa	-0.055198647
217	0xbca15e2e	-0.019698229
218	0x3d5c913c	0.053849444
219	0x3d940f37	0.072294645
220	0xbcb0dc67	-0.021589471
221	0xbddc04e6	-0.10743122
222	0xbe048108	-0.12939847
223	0xbce1507e	-0.027504202
224	0xbe1a8d20	-0.15092897
225	0x3d205d7d	0.039151657
226	0x3d1fc8d7	0.039009895
227	0xbd02ae5b	-0.03190456
228	0x3d8e2c57	0.06942051
229	0xbd8e164e	-0.06937848
230	0xbdd235d3	-0.102641724
231	0xb9672b37	-0.00022045975
232	0xbc97d3a1	-0.01853353
233	0x3c235c6d	0.0099707665
234	0xbe9ba97a	-0.30402738
235	0x3dd4d37b	0.10391899
236	0xbc80c816	-0.015720408
237	0xbd8fdadb	-0.07024165
238	0xbe41afd9	-0.18914737
239	0xbe232454	-0.15931827
240	0xbd3379a7	-0.04381719
241	0x3c75f8a9	0.0150128985
242	0x3dd1aaf2	0.10237683
243	0xbe467358	-0.19379938
244	0xbde37ae9	-0.111074276
245	0xbc312a23	-0.010813269
246	0x3d5d7ee8	0.054076105
247	0xbdaf9b4d	-0.08574543
248	0xbce578a9	-0.028011637
249	0x3d0fab51	0.03507549
250	0xbdeec6ce	-0.11659013
251	0x3e190cc0	0.1494627
252	0xbcb5ee8f	-0.02220848
253	0xbd3f493c	-0.0467007
254	0xbd5203e5	-0.051273245
255	0xbc1c4214	-0.009537239

parameters.mu_b f4 [8]
0	0x3e0da913	0.13834028
1	0xbd32f345	-0.04368903
2	0x3e39043c	0.18068022
3	0x3e96b045	0.29431358
4	0xbd69a622	-0.057043202
5	0xbdbaac59	-0.09114904
6	0x3d82329e	0.06357311
7	0xbe385058	-0.17999399

parameters.mu_w f4 [8, 256]
0	0x3ec6b7eb	0.38812193
1	0xbdf50bf9	-0.11965174
2	0x3e47c9b3	0.19510536
3	0x3e6e35f4	0.23262769
4	0xbd5f1a50	-0.054468453
5	0x3f1ecf7b	0.6203534
6	0xbd351831	-0.044212524
7	0x3d026427	0.031833794
8	0xbc84c0c8	-0.016205207
9	0xbd9775cc	-0.07395515
10	0x3e3aaf3f	0.18230914
11	0xbd74eb13	-0.059794497
12	0xbd7bc58b	-0.06146769
13	0xbe42dcc7	-0.19029532
14	0xbec7a32e	-0.38991684
15	0x3e227cde	0.15867946
16	0x3ebe696a	0.371898
17	0xbe2042f6	-0.15650544
18	0xbb1c7106	-0.0023871078
19	0xbbfe8701	-0.0077675586
20	0x3e7bbeab	0.24584453
21	0xbc9a4065	-0.018829534
22	0xbd153de0	-0.03643596
23	0x3cc7f795	0.024410048
24	0xbd2fdd8d	-0.042935897
25	0x3b957591	0.004561134
26	0x3aef65e3	0.0018264618
27	0xbae7e3c1	-0.0017691777
28	0xbd96decd	-0.073667146
29	0x3da5aab2	0.08089198
30	0x3f8c3a90	1.0955372
31	0x3da0a165	0.078432836
32	0x3d99c8a0	0.07508969
33	0xbf26ca73	-0.65152663
34	0x3c374be8	0.011187531
35	0xbf1fca7b	-0.62418336
36	0x3be61c1d	0.0070223943
37	0xbdeba0ec	-0.11505303
38	0x3de04a65	0.1095169
39	0x3bec6b9e	0.0072149774
40	0x3c07214d	0.008247686
41	0xbe08ec7f	-0.13371466
42	0x3c89ca0e	0.01681998
43	0xbd53d5ea	-0.051717676
44	0xbc5c701a	-0.0134544615
45	0x3e208fe9	0.15679897
46	0x3caad8e3	0.020855373
47	0xbba34f0c	-0.0049837884
48	0xbb082ff6	-0.002078054
49	0xbbc03fe0	-0.0058669895
50	0x3de60d6e	0.1123303
51	0xbec5af19	-0.3861015
52	0xbcc1ed23	-0.023672646
53	0xbc7eab54	-0.0155437775
54	0xbc4a7d88	-0.012359031
55	0xbc578e91	-0.013156549
56	0xbd18bba7	-0.037288334
57	0x3c980ab6	0.018559795
58	0x3cb25f5d	0.021773988
59	0xbd635678	-0.055502385
60	0x3c603a13	0.013685721
61	0x3be40ca2	0.0069595138
62	0xbe1d7976	-0.15378365
63	0xbedf9b71	-0.4367328
64	0xbe089f9e	-0.13342139
65	0xbd9bcb72	-0.076071635
66	0x3cd22c46	0.025655877
67	0xbc2033d0	-0.009777978
68	0xbe62b5fc	-0.22139734
69	0xbe2d673b	-0.1693391
70	0xbe966698	-0.29375148
71	0xbb8dc192	-0.004326054
72	0xbe066415	-0.13124116
73	0x3d1d05b6	0.038335524
74	0xbc5492b4	-0.01297443
75	0xbd95a6db	-0.07307216
76	0xbebf8f58	-0.3741405
77	0x3e7c418d	0.2463438
78	0xbd047e5e	-0.032347076
79	0x3ef53dfd	0.47898856
80	0xbd4c8e3e	-0.04994034
81	0x3d7a6077	0.061127152
82	0xbcfd8ac3	-0.030949956
83	0xbe0914ac	-0.13386792
84	0x3b8c2dbf	0.0042779143
85	0xbb658d9f	-0.003502704
86	0xbbaec9a0	-0.005334094
87	0xbbb155bd	-0.005411832
88	0xbceaa0be	-0.028641101
89	0x3b59354b	0.0033143337
90	0x3f1a56f9	0.6028896
91	0xbf451fb7	-0.7700152
92	0x3bf3a4bc	0.0074354094
93	0xbde537ef	-0.11192309
94	0xbcbba051	-0.022903593
95	0xbec35fb4	-0.38158953
96	0xbc72af59	-0.014812314
97	0xbb753392	-0.0037414772
98	0xbe1623b0	-0.14662051
99	0xbd65bc1f	-0.05608761
100	0xbc86ff27	-0.016479088
101	0x3c1c6cef	0.009547456
102	0xbc718749	-0.014741727
103	0x38f56acc	0.00011702403
104	0x3c22c086	0.0099335965
105	0x3d08caf6	0.033396684
106	0x3b47dbc5	0.0030495983
107	0x3cbb86cb	0.022891423
108	0x3c91a8d9	0.017780708
109	0x3f11cfcf	0.56957716
110	0xbee52837	-0.44757244
111	0xbc01c755	-0.00792106
112	0xbea4465a	-0.32084924
113	0xbd876a53	-0.066120766
114	0xbf17319b	-0.59060067
115	0x3f37f693	0.7186062
116	0x3bf4096e	0.007447413
117	0xba2490b3	-0.00062776654
118	0x3c0c96e5	0.008580898
119	0xbf92688d	-1.1438156
120	0xbf245bc3	-0.6420252
121	0xbe02de33	-0.12780075
122	0x3d39d108	0.045365363
123	0x3b2b3a93	0.0026127442
124	0xbed2e727	-0.4119198
125	0xbcf51495	-0.02991704
126	0xbf0f8dfa	-0.56076014
127	0x3bb1831d	0.0054172412
128	0xbead43df	-0.33840844
129	0xbf91d2c1	-1.1392442
130	0x3cff44df	0.03116077
131	0xbac72f1a	-0.0015196532
132	0x3f3908c1	0.7227898
133	0x3c8866a9	0.016650515
134	0x38d096f6	9.9463316e-05
135	0x3cd70afa	0.026250351
136	0xbb16ecea	-0.0023029395
137	0xbc890780	-0.01672721
138	0xbdb414f5	-0.0879306
139	0xbdb323e2	-0.087470785
140	0xbc3427ea	-0.010995844
141	0x3f29e139	0.6635929
142	0xbb968996	-0.0045940382
143	0x3c6c1263	0.014408681
144	0x3ceec4b7	0.029146535
145	0x3d60ee3d	0.0549147
146	0x3c1b77e1	0.009489031
147	0xbe882fe0	-0.26599026
148	0xbf10fb0a	-0.56633055
149	0x3dfb77e5	0.122787274
150	0xbf431c53	-0.76215094
151	0x3c8e90cf	0.017403034
152	0xbc0e928c	-0.008701932
153	0xbef423a5	-0.47683445
154	0xbd305879	-0.043053124
155	0x3d026f72	0.031844564
156	0xbeab3003	-0.33435068
157	0x3e4743f8	0.19459522
158	0xbd6855be	-0.056722395
159	0xbddc3974	-0.10753146
160	0xbcb10753	-0.021609938
161	0x401b3f73	2.4257476
162	0x3c8a9b82	0.016919855
163	0xbd77dd04	-0.06051351
164	0xbdab359d	-0.08359835
165	0xbea22bbe	-0.31673998
166	0xbe3698e0	-0.17831755
167	0x3bc26d2f	0.005933426
168	0x3f953132	1.1655638
169	0x3b1f37f1	0.0024294818
170	0xbdab7ee6	-0.08373813
171	0xbd22302e	-0.03959673
172	0xbaa9a466	-0.0012942671
173	0x3ef6afb2	0.4818092
174	0x3c75ad7d	0.014994976
175	0xbcc5e413	-0.024156606
176	0xbaa0c39c	-0.0012265327
177	0x3e865c29	0.26242188
178	0xbe8162ed	-0.25270787
179	0x3ca0b5d5	0.019617954
180	0x3c9c6213	0.019089734
181	0xbe052bca	-0.13004985
182	0x3d81cc2a	0.06337769
183	0xbca2e875	-0.019886235
184	0xbec440ad	-0.38330594
185	0xbf39dfac	-0.7260692
186	0x3e14dbb2	0.14536932
187	0xbe149f09	-0.14513792
188	0xbcb88706	-0.022525322
189	0x3f84ec5c	1.0384631
190	0x3c85e7dd	0.016345913
191	0x3ef1f84c	0.47259748
192	0xbde639a3	-0.11241462
193	0x3e97f096	0.2967574
194	0xbbfc7b26	-0.00770511
195	0x3f3b90b2	0.7326766
196	0xbe5874b8	-0.21138275
197	0xbea1595f	-0.31513497
198	0xbe7f284f	-0.2491772
199	0x3bd21d4a	0.006412183
200	0x3f00502e	0.50122344
201	0xbf81c752	-1.0138953
202	0xbe51e1db	-0.20496313
203	0xbe301861	-0.171968
204	0xbe4c086d	-0.19925089
205	0x3d90bc74	0.070671946
206	0xbe8b825e	-0.272479
207	0x3bbc8c38	0.00575402
208	0xbf041f21	-0.5161
209	0xbb013e54	-0.0019720988
210	0x3c203956	0.009779295
211	0xbf9d020f	-1.2266253
212	0xbf3deacc	-0.74186397
213	0x3dfc1fe7	0.123107724
214	0x3e887cbf	0.26657674
215	0xbc82a25b	-0.015946558
216	0x3e5f8904	0.21829611
217	0xbc4a22a5	-0.012337361
218	0xbce26419	-0.02763562
219	0x3ca34913	0.019932305
220	0x3d075c50	0.03304702
221	0x3e201525	0.15633066
222	0xbb70e65b	-0.0036758396
223	0xbf1ed3ea	-0.62042105
224	0xbc5216b7	-0.012822798
225	0x3f18dd72	0.597129
226	0x3deaf2e1	0.11472107
227	0x3efbb979	0.49164942
228	0xbf29e4f3	-0.66364974
229	0x3f63cea4	0.88987184
230	0xbc0332e0	-0.008007735
231	0x3c555f45	0.013023202
232	0x3e81486b	0.25250563
233	0xbe8ed876	-0.27899522
234	0x3c8175dd	0.015803272
235	0x3ad075f0	0.0015904289
236	0x3eea1cfe	0.45725244
237	0x3ef92c0e	0.48666424
238	0xbe6ae1d5	-0.2293771
239	0xbe496164	-0.19666058
240	0x3f756385	0.9585498
241	0x3f032d79	0.5124126
242	0x3d3ce745	0.046118993
243	0x3f2cc489	0.6748739
244	0x3eb94ae1	0.3618994
245	0xbedaa452	-0.4270349
246	0xbe0db62c	-0.13839024
247	0x3f833a7b	1.0252222
248	0x3f235081	0.63794714
249	0x3c939994	0.018017568
250	0x3cbaa0df	0.022781787
251	0x3d84b630	0.06480062
252	0x3aba16fb	0.0014197523
253	0xbc5a6e30	-0.013331935
254	0xba5dd069	-0.00084615365
255	0x3bf53b19	0.0074838516

parameters.std_b f4 [8]
0	0xc02bf3c9	-2.6867545
1	0xc02ba65b	-2.6820285
2	0xc0321472	-2.782498
3	0xc031ee8e	-2.7801852
4	0xc0282c79	-2.6277144
5	0xc0354085	-2.832063
6	0xc028a73c	-2.6352072
7	0xc028afdc	-2.6357336

parameters.std_w f4 [8, 256]
0	0x3dd07bca	0.10179861
1	0xbe6baa4e	-0.23014185
2	0xbe6ea4c4	-0.2330504
3	0xbe2550f2	-0.1614416
4	0x3d065d9b	0.032804113
5	0x3bed5d4a	0.007243787
6	0xbd59369b	-0.05303059
7	0xbb4523e1	-0.00300812
8	0x3d41daab	0.04732768
9	0xbda1888f	-0.078873746
10	0xbe337ec7	-0.1752883
11	0xbc939e32	-0.01801977
12	0x3d9486d5	0.0725228
13	0x3c95fa5e	0.018307861
14	0xbcb5db3e	-0.02219927
15	0x3d6f2925	0.058388848
16	0xbd895b79	-0.067069
17	0x3e17128f	0.14753173
18	0xbc084001	-0.008316041
19	0x3cc056b0	0.023478836
20	0xbe300eb5	-0.1719311
21	0x3c889690	0.016673356
22	0x3c19a85d	0.00937852
23	0x3c17ed80	0.009272933
24	0xbd1c5813	-0.03816993
25	0xbd1217f5	-0.03566738
26	0x3c3b3f87	0.01142872
27	0x3c195ea9	0.009360948
28	0x3bc9fc7e	0.0061641326
29	0xbd943d4a	-0.072382525
30	0x3f0b6db4	0.5446427
31	0x3d311244	0.04323031
32	0x3ddd3e8a	0.10802944
33	0x3b68e0e1	0.003553443
34	0xbdb828ca	-0.08992155
35	0x3e2e1e36	0.17003712
36	0x3a56521f	0.0008175689
37	0xbd116742	-0.035498865
38	0xbd4b1618	-0.049581617
39	0xbca070ac	-0.019584976
40	0x3b97e9e0	0.0046360344
41	0xbd72018e	-0.059083514
42	0x3c6d5a1f	0.014486819
43	0x3c9fb1ae	0.019493904
44	0x3d2def3c	0.04246448
45	0xbd75c601	-0.060003284
46	0xba815273	-0.0009866491
47	0x3c757fee	0.014984114
48	0x3b34aa21	0.0027567225
49	0xbcb8094c	-0.02246537
50	0xbeb77331	-0.35830072
51	0xbdcfa28d	-0.10138426
52	0x3cb0f7e7	0.021602584
53	0x3d40fea5	0.047117848
54	0x3d57bcbe	0.052670233
55	0xbc49ca1a	-0.012316251
56	0x3cb95624	0.022624083
57	0xb9afec25	-0.00033554542
58	0xbec1c387	-0.37844488
59	0x3d1996c3	0.037497293
60	0x3d01e771	0.03171486
61	0x3c311a95	0.01080956
62	0xbe462cb6	-0.19352993
63	0x3f676573	0.90389174
64	0xbea150cf	-0.31506965
65	0xbda3a6f9	-0.07990832
66	0x3c258ab4	0.01010387
67	0xbc6de35b	-0.014519538
68	0xbeead474	-0.45865214
69	0xbe706ba1	-0.23478557
70	0x3d22253f	0.039586302
71	0x3c8e8563	0.017397588
72	0x3cd1c0f3	0.0256047
73	0x3e218a92	0.15775517
74	0xbbe48ed1	-0.006975033
75	0xbd820627	-0.0634883
76	0xbd2c968f	-0.04213577
77	0xbe770bf0	-0.24125648
78	0x3db62f20	0.08895707
79	0xbce13607	-0.027491583
80	0x3c33e097	0.010978839
81	0xbd748755	-0.059699375
82	0x3cae896a	0.021305759
83	0xbd091872	-0.03347058
84	0x3c69ea37	0.014277033
85	0x3d29ebcc	0.04148464
86	0x3e2574d1	0.16157843
87	0x3d29be45	0.04144122
88	0x3be7aecb	0.0070703975
89	0xbcc1ffbc	-0.023681514
90	0xbe552781	-0.20815851
91	0x3e0af002	0.13568118
92	0x3aee3687	0.0018174209
93	0xbcb4c41b	-0.022066167
94	0x3c19247f	0.00934708
95	0x3e215b3a	0.15757456
96	0x3c13a47b	0.009011383
97	0x3bdffc38	0.0068354867
98	0xbe079227	-0.13239346
99	0xba269bf7	-0.0006355638
100	0xbac80a5b	-0.0015261875
101	0x3be46b69	0.006970812
102	0x3cd3c996	0.02585296
103	0x3ca215e7	0.019785834
104	0x3c16f468	0.009213544
105	0xbc454faf	-0.012042924
106	0x3ad59f23	0.0016298037
107	0x3c3a0da6	0.011355793
108	0x3a05b19f	0.0005100015
109	0x3e7a6492	0.24452427
110	0x3d8b71f9	0.06808848
111	0x3c551c13	0.013007182
112	0x3d3b633b	0.04574893
113	0x3b2e6ec4	0.0026616314
114	0xbe2f8518	-0.17140615
115	0xbe12c9fa	-0.1433486
116	0x3cbd4c60	0.023107708
117	0xbbbb4449	-0.0057149273
118	0xbb987ee2	-0.0046537975
119	0x3f4ef1d7	0.8083777
120	0x3d9c5383	0.07633116
121	0x3d2eb884	0.042656437
122	0xbe98ddf2	-0.2985683
123	0x3bf484ab	0.0074621043
124	0xbea7d0a5	-0.3277637
125	0x3dd07d20	0.10180116
126	0x3d3a580f	0.045494135
127	0xbd992367	-0.074774556
128	0x3c320243	0.010864797
129	0x3e142345	0.1446658
130	0x3d6d2ffd	0.057907093
131	0x3cef822e	0.02923688
132	0x3dc098d2	0.09404148
133	0x3c223e85	0.009902601
134	0x3d53023c	0.051515803
135	0x3c173ca2	0.009230765
136	0xbbb84b7a	-0.005624232
137	0xbc31e6a9	-0.010858216
138	0xbef9c12e	-0.48780197
139	0xbf0fe5ef	-0.56210226
140	0xbca76155	-0.020432154
141	0xbe0aa2c1	-0.13538648
142	0x3b9c17cc	0.004763579
143	0xbb4f45d8	-0.0031627323
144	0x3c505e3c	0.01271778
145	0x3d94b509	0.07261092
146	0x3bc29697	0.005938362
147	0xbefd43bb	-0.49465737
148	0xbcccf211	-0.02501777
149	0xbea8b1c3	-0.3294812
150	0x3e87c585	0.26517883
151	0xbc9911e7	-0.018685294
152	0xbd56fba4	-0.052486077
153	0x3e755450	0.23957944
154	0x3e22dd27	0.15904675
155	0x3c869c98	0.016432092
156	0xbd89acaa	-0.06722386
157	0xbdc6c442	-0.09705402
158	0x3cd76a37	0.026295764
159	0x3cdd63ea	0.027025182
160	0x3d085208	0.033281356
161	0x3f43fd7e	0.76558673
162	0x3c0650d1	0.008197979
163	0xbd484953	-0.048898052
164	0x3df57291	0.119847424
165	0xbd96bbb8	-0.07360023
166	0xbd5dff1b	-0.054198366
167	0xbb6771b5	-0.0035315577
168	0x3e21c0bb	0.15796177
169	0xbc28afe6	-0.010295844
170	0x3ec3b2a3	0.38222227
171	0x3c428482	0.011872413
172	0x3a4aba92	0.00077334896
173	0xbdb31297	-0.0874378
174	0xbed1c8cf	-0.40973517
175	0x3d8cff39	0.06884617
176	0x3cbfe250	0.023423344
177	0xbdbfe313	-0.09369483
178	0x3e03ecfb	0.1288337
179	0xbc103011	-0.008800522
180	0x3c6b4421	0.014359505
181	0xbeb877d3	-0.3602892
182	0xbc8e14e1	-0.01734394
183	0x3eaeac73	0.34115943
184	0x3de68565	0.11255912
185	0x3e065005	0.13116463
186	0xbdc92555	-0.09821574
187	0xbe4faf20	-0.20281649
188	0x3cca0b4e	0.024663594
189	0x3f1cfbc6	0.61321676
190	0x3c6848bb	0.014177497
191	0xbe130e6c	-0.1436097
192	0xbecb1ce2	-0.39670473
193	0xbed293ae	-0.41128296
194	0x3ca345ae	0.019930687
195	0x3e24f56b	0.16109245
196	0x3f059e2a	0.52194464
197	0xbc9ab662	-0.018885795
198	0xbc9cfaaf	-0.019162504
199	0x3c1d8ad3	0.009615618
200	0x3eee2280	0.46510696
201	0x3f1d31de	0.61404216
202	0xbdf81d0a	-0.12114914
203	0xbbe0331b	-0.0068420297
204	0xbd94297a	-0.072344735
205	0xbcfc8167	-0.030823423
206	0x3dd76464	0.10517195
207	0x3c6efaf6	0.014586201
208	0x3e198d51	0.14995314
209	0xbbd3f49e	-0.0064683696
210	0x3c0c09db	0.008547272
211	0xbdbbdf15	-0.09173409
212	0x3de23364	0.11044958
213	0xbb31a7fa	-0.0027108178
214	0xbde681b0	-0.11255205
215	0xbbac7f56	-0.005264203
216	0xbde7b415	-0.11313645
217	0x3c746492	0.014916556
218	0x3c45c350	0.012070492
219	0x3d7ad259	0.06123576
220	0x3da86ce8	0.08223897
221	0xbe9175f5	-0.28410307
222	0xbc79767a	-0.015226001
223	0x3dbec2b4	0.093144804
224	0x3d63cf56	0.055617653
225	0xbe0854c5	-0.13313587
226	0xbe8d8f69	-0.27648476
227	0x3deb078e	0.1147605
228	0x3e297c21	0.16551258
229	0x3df251a2	0.118319765
230	0xbb336605	-0.002737404
231	0x3d05b75e	0.032645576
232	0x3d6bef2b	0.057601135
233	0xbe8fba4b	-0.28071818
234	0xba0263c8	-0.0004973975
235	0x3ba52035	0.00503924
236	0xbeae0ec5	-0.33995643
237	0x3def0ad8	0.1167199
238	0xbcc972ac	-0.024590813
239	0xbedd7a1b	-0.43257222
240	0x3e42b293	0.19013433
241	0xbe09d29c	-0.13459247
242	0xbe0e0b95	-0.13871606
243	0x3e829df0	0.25511122
244	0xbdba0986	-0.09083848
245	0x3dfe89ba	0.12428613
246	0xbe17cb54	-0.14823657
247	0x3f7e0a54	0.9923451
248	0xbdb7d74f	-0.08976614
249	0x3c0d6929	0.008631029
250	0x3d926a59	0.071491905
251	0xbee5e27b	-0.44899353
252	0x3cc526a9	0.024066286
253	0x3cc4ab7e	0.024007555
254	0x3c96c15b	0.018402746
255	0x39b27c5f	0.0003404347
