notebook/result/weights/sac_snapbot/episode_750.pth (torch, 355440 bytes, 8 tensors)

parameters.mlp_0_b f4 [256]
00000000: a069 9f3d 17cb 28be 55b3 863d 23b0 9ebd
00000010: e9fc a23e 7848 6cbe 5f74 90be 5911 15be
00000020: 8a73 4ebe 9739 86bd ffdc b03d 3bbf cebd
00000030: d75d 8abd 2c6f c03d 1f37 e5bd 9a21 ed3e
00000040: a37d 0bbe f5a1 91be cf41 0abe 0ce4 f1bd
00000050: b5c7 22bd f35f acbd 4f8e 81bd 0632 bc3d
00000060: 718f 5fbe f964 8bbc 79f2 a73d e98d e4bd
00000070: bea3 46be 52da 48bc eb47 45be 4e9c 8abe
00000080: 3541 c6bd a1a8 9f3d 1be0 97bd 2017 41be
00000090: 18db a73d d843 b93d 7349 b1bd 2ffc 0bbe
000000a0: 2b71 67be 9a5f 91be 003f f9bd 65b0 5dbe
000000b0: a7e8 b7bd 82ef 253e 1454 4c3d 38a6 33be
000000c0: 115b 89bd 7892 a6bb 29f0 eabd 7d1d 7dbd
000000d0: 279f afbd 1bd7 a1be 9404 3a3e 31dd bdbd
000000e0: 3ede 31be 511e 8abe 9a22 20be 895f a9be
000000f0: 49bd d5bd a3f4 e7bd 5c95 82bd b764 36be
00000100: e131 37be e2ba bebe 1c5f a4bd 1b67 bd3d
00000110: 2466 8dbe 7626 b8be 71d7 113e d20f 81be
00000120: 8643 57be a797 f7ba b3ed dabd c189 84bd
00000130: 8add 293d 1dc5 20be c995 81bd d05a a6be
00000140: 7eac 28be 3ec1 b1bd 1093 4abd e4fe 1cbe
00000150: eea5 863c 0919 87be 355a 70be 624e 61be
00000160: 7d7a ad3d 9ab5 943e e104 bcbd 8d55 283e
00000170: 58c6 ba3d d979 6bbc b99a d9bd a801 94be
00000180: c7b7 95bd 9fd8 41bd 2c56 25be 76cd eebd
00000190: 20f6 07bb 0688 02bc a984 f2bc ec02 fabd
000001a0: dc89 8bbe 6ea0 b8bd 7fdf 34be 7980 9a3e
000001b0: e6e9 90be 556e 31be 08b7 5abe 7337 0abd
000001c0: a9c3 0ebe 2fb9 24be 0ce5 413e 98b6 1abe
000001d0: ea32 5a3c 7ed8 e4bd abdc 083e a02b 65be
000001e0: cfa9 8d3d 7fb1 7abe a990 edbd 0d36 723e
000001f0: a693 353d 1b07 cc3c 7479 0cbd ac63 2abd
00000200: 5ff0 36be bb75 1f3e 707c 00be 10a4 70bd
00000210: 6c7f 98be 6f64 9ebe 73c2 0bbe b852 773d
00000220: aacc bc3e 4a8d fbbd 2585 4bbe 3317 08bd
00000230: b6f4 0f3a 7445 163d 1f0f 18be f391 2abe
00000240: ccfd 51be 8fce 24bb 81c5 33be 68bd aebe
00000250: c1eb 81be 651f 4dbe f51a 20bd b009 88be
00000260: e796 4bbe 8336 82be ef6a f0bc c2cd b23d
00000270: 0b7a 86be 0f75 f7bd 7401 7fbe e20f 6dbe
00000280: 0415 2c3d ab6f 8bbd e518 a4be f58d cdbd
00000290: acd2 cbbd 3f43 58be 0ff7 753e 6333 b9bd
000002a0: f7af 97be beb0 7dbe 012e 923c 978b 0ebc
000002b0: 5a73 da3d 5508 9ebd 9953 79bd e9e5 22bd
000002c0: 9b06 c73c 5d94 3e3e cbee 6cbe b231 44be
000002d0: fd4a 12be aa18 8fbe 0ddb 8ebe a9e1 f6bd
000002e0: 8346 4cbe b2c0 1fbe 3cce 1cbe e103 f1bd
000002f0: 14f2 debb e9f0 123e d7d6 40be 6b44 90bd
00000300: 9cd7 17bd ccd9 e03d 84b1 8b3e 4d8f 02bc
00000310: 90f6 91bd 1a5f b23d 2210 25be fe3d a93d
00000320: 20a5 373e 9da2 64be 6ede 95bd 0b3e bfbc
00000330: fa8d adbd 720d 60bd 5b09 9e3c 070c 0dbe
00000340: c493 30be cd14 3bbe ae2e ffbd 360f b1bd
00000350: 4d80 203f f2d3 63be 9f75 27bc 3f78 b53e
00000360: 2de6 1ebe 89e6 5d3d f19d 7bbe 7232 17be
00000370: 1a27 47be a9af 67be a3a2 253e ccc1 24be
00000380: 4243 66be a560 c5bd 2fb6 73bd 8cdc 05be
00000390: 2062 71be 8165 cfbc aa74 173e 8378 123f
000003a0: f7a7 fcbd 845a 6d3e 7482 7ebd 6a3d 36be
000003b0: 78aa d1bd df0c f0bc a36e 16be 131e 11be
000003c0: 7749 f13d f818 9f3e b7cb 42be 9766 22be
000003d0: d34e 013e b480 bdbd de0a d4bd d9b2 8c3d
000003e0: d5d6 7f3e 59d8 63be c630 873d 3343 74bd
000003f0: 4012 203d 1a09 3a3e 77e4 23bd 2fbd 1cbe
0.07783818 -0.16483723 0.065771736 -0.07748439 0.3183358 -0.2307452 -0.28213784 -0.14557399
-0.20161262 -0.06553953 0.08635902 -0.10095068 -0.0675618 0.09396204 -0.11192154 0.46314698
-0.13622145 -0.28443876 -0.13501666 -0.118110746 -0.039741237 -0.08416738 -0.06325971 0.09189229
-0.21832062 -0.017015921 0.08200545 -0.1115988 -0.193984 -0.012259083 -0.19265716 -0.27072376
-0.09680406 0.07795835 -0.074157916 -0.18856478 0.08196086 0.09046143 -0.086565875 -0.13670419
-0.22601764 -0.2839325 -0.121702194 -0.2164932 -0.08979922 0.16204646 0.04988487 -0.17543876
-0.06706823 -0.0050833784 -0.11471588 -0.0617957 -0.08575278 -0.31609425 0.18165809 -0.092707045
-0.17369935 -0.26976255 -0.156382 -0.330807 -0.10436494 -0.113259576 -0.06376144 -0.17811857
-0.17890121 -0.37251955 -0.08025953 0.092481814 -0.2761699 -0.35966843 0.1424234 -0.25207382
-0.21021852 -0.00188898 -0.10689869 -0.06471587 0.04147104 -0.15700193 -0.063273974 -0.3249116
-0.1647205 -0.08679436 -0.049456656 -0.15331608 0.016436543 -0.26386288 -0.23471911 -0.22002557
0.084706284 0.290448 -0.09180618 0.16438885 0.09119862 -0.014372312 -0.10625214 -0.28907514
-0.07310443 -0.047325727 -0.16146153 -0.11660282 -0.0020746067 -0.007967001 -0.029604273 -0.122075886
-0.27253616 -0.090149745 -0.17663382 0.30176142 -0.2830345 -0.17327245 -0.21358883 -0.033744287
-0.13941826 -0.16086267 0.1893503 -0.15108716 0.013317803 -0.11174105 0.13365428 -0.22379923
0.06917154 -0.24481772 -0.11599857 0.23653431 0.04433026 0.024905732 -0.034295514 -0.04159896
-0.17865132 0.15572254 -0.12547469 -0.058750212 -0.29784715 -0.30936 -0.13648395 0.06038162
0.36874896 -0.12282808 -0.1987501 -0.03322525 0.0005491482 0.03668733 -0.14849518 -0.16657238
-0.20506972 -0.0025147533 -0.1755581 -0.3412888 -0.25375178 -0.20031507 -0.03908821 -0.2656989
-0.19881783 -0.25432214 -0.029347865 0.087306514 -0.26264986 -0.12082874 -0.24902898 -0.2315059
0.04201223 -0.06808408 -0.32050243 -0.10036842 -0.09952292 -0.21119402 0.24020027 -0.09043004
-0.29626438 -0.24774453 0.017844202 -0.008700273 0.10666533 -0.07716433 -0.06087074 -0.03977004
0.024295142 0.18611284 -0.23137967 -0.19159582 -0.14286418 -0.27948505 -0.27901497 -0.1205476
-0.19948773 -0.15600851 -0.15313047 -0.11768318 -0.0068037603 0.14349712 -0.18831955 -0.070443
-0.037070855 0.109790415 0.2728387 -0.007968736 -0.07127106 0.087095454 -0.16119435 0.08263777
0.17934084 -0.22327657 -0.07317816 -0.023345014 -0.084743455 -0.054700322 0.01929157 -0.1377412
-0.17243868 -0.18269654 -0.12460075 -0.086454794 0.6269577 -0.2224882 -0.010220914 0.35443303
-0.15517493 0.054174934 -0.24571969 -0.14765337 -0.1944851 -0.22625603 0.16175322 -0.16089553
-0.22486594 -0.09637574 -0.059499916 -0.13072413 -0.23572588 -0.025316956 0.14790598 0.57215136
-0.12336724 0.2317906 -0.06213613 -0.17796865 -0.102375925 -0.029303012 -0.14690642 -0.14171629
0.117815904 0.31073737 -0.19023024 -0.15859447 0.12627725 -0.09253064 -0.10353635 0.0687005
0.24984296 -0.22250499 0.066011 -0.0596344 0.039079905 0.18167534 -0.040012803 -0.15306543

parameters.mlp_0_w f4 [256, 70]
00000000: d670 9ebd b715 ad3d 7b53 02be 5ff9 4bbf
00000010: fb10 acbd c318 ab3c 98ea a43d 7453 1f3e
00000020: 8116 e63d 5c19 583e e723 28be 2917 7ebf
00000030: 7970 febb 7e81 01bc df7d dd3c cbdc 0f3f
00000040: 6d77 6bbe b216 0e3e e039 de3e 8a10 59be
00000050: fa42 1bbe 7ab4 3cbf 74f0 14bf 1f37 203f
00000060: c681 8c3c 6eea 52bd 1f36 a03f cd58 ff3c
00000070: e795 0cbe 80d9 863d b348 703d 6e74 d13d
00000080: 6a0b 19be 0530 5e3d 8fcb 23bc e70d 3abe
00000090: 3df0 1c3e f5ae d4bc bb5e 95be e491 3b3e
000000a0: 55bc 39be ad8d 95bd 3f62 fbbb a98e b0bd
000000b0: c1c0 e3bd d5f9 17bd d57f c1be 8b36 e53d
000000c0: cd08 383e 1dda acbb 38fa aebd dfef bfbc
000000d0: 68d3 dc3b d76f 18bf 0975 68bc 944b 35bc
000000e0: 18b2 303e 72d6 9a3e 3632 b23d 47d7 bc3b
000000f0: b0ae d83e 5eba 893f 5704 f73b d8a6 553c
00000100: d081 00bd 9242 c53c eae5 bcbd cb72 1b3e
00000110: 3a61 b2bd 5d5a 0e3d c5f9 c8be 136d 193e
00000120: 09f8 57bd 0ed0 853e 4438 e43b 0a28 95be
00000130: 37a8 703e c2be 10bd 81a9 dabe 5658 5fbe
00000140: dbab 47bd 4042 a83d 566f 59be c257 08bf
00000150: 8e67 683d 9228 debe 0efe fbbc 71dc 98bd
00000160: 9f86 6ebf 9c53 493e c4dd 7b3c f08b cbbe
00000170: 65db 463f 6364 d23c f024 91be 6b92 a23e
00000180: d9ac 053d 36f6 91bd 9616 873d 68a7 923d
00000190: fee3 213d 3402 10bf ba34 e13e f506 35be
000001a0: ce08 44bd 18c3 c33e 418c 323d 4eec 603d
000001b0: 0d8d b33d 37c5 063e 868b 47be 34ca 4dbe
000001c0: 3cdc 813b 4a99 793d 805b 1dbc cde3 b7bd
000001d0: f28c 5e3e 841a a7bd cbcb 6e3e b06c 9c3d
000001e0: efba 0b3d 9fca 1dbd d59b 483e 6e36 6abe
000001f0: 80ab 84be 0afe 96bc 3a15 34be 8669 ba3d
00000200: db0a 203d cfe8 a7be 5999 b9bd 0b8a c33d
00000210: 5852 87bd 7eb5 a43d 2e7b b7bd 0126 863d
00000220: 9f1d 473e 836b ea3b e831 ae3e 8ef8 d4bd
00000230: c4bc 20be 2b65 b13e 238d 31be 0ac7 863e
00000240: 216e a3be 5bb2 e03d 84cc 1e3f fcf9 01be
00000250: b5a4 103e 0dcf e03e 7225 1cbe 2c3f 40be
00000260: aa22 5bbe b1d1 7f3c b0be 863e 4040 89be
00000270: d1f5 30bd 9b46 2f3f 1822 7f3f bc88 1abf
00000280: 5985 46bc 7dfd a73d 5fce 9dbf 47d1 c13d
00000290: bb8b 9abc 5fa2 4a3f fe24 fabe 8611 a539
000002a0: 1f9c 9abb 52a6 15bd eacd 14bd 5a83 0e3d
000002b0: f7cc 853e f3c5 d7bd 6a08 8f3d c5ba 88be
000002c0: 603a 323e 3417 e43b eabd 533e 9b27 2e3c
000002d0: e7f3 883d 0a36 3dbe 9138 1ebd 2260 973d
000002e0: 6e5b c1be 8e0b adbd 044b d83c b284 a3bc
000002f0: 67c8 0dbe 0e07 093e b7af 21be 4b9e f8bc
00000300: daf3 8f3e b3fd d0bc 491b 65be 6212 4dbd
00000310: efea d9be 95e3 89be 182a 313f a145 02be
00000320: 0a07 603e 637d 3abf a31d 503d 83cc 45bd
00000330: 9dac 913c 3779 46bd 819d 5abd e831 843c
00000340: 7527 47be 139e 823e 047d 3abe 553f b83e
00000350: bb08 5fbc b82e 73bd 4e0c d2be 4d8a f4be
00000360: 5531 a43e 1b99 1a3f f070 16be 11e4 88bd
00000370: d3f7 dc3a 2505 00be ef47 a3bd 61ab 8abf
00000380: 4d51 b03d 2995 093f 0e52 3b3e 872d 00be
00000390: b25c 2abc 9c2c 493e c3d3 d53d 124e d13e
000003a0: b660 92bd d137 8cbe 3443 34bc ae5a 2bbd
000003b0: 25f1 72bf fc5e 3abd d886 133d 4285 85bd
000003c0: f5eb a3bd 21f8 f53d ce4c 9dbe f4f0 8cbe
000003d0: 26df eb3d 5a1c 813e 6f5a c13d d328 5abd
000003e0: 0b8c 73bd 0a0b 55be 37f2 f9bd 4d6a 313e
000003f0: 7f6f ad3e d8d2 323e 37a8 2d3e 6a18 883a
-0.077363655 0.084514074 -0.12727158 -0.79677385 -0.08401676 0.02088583 0.08052558 0.15559179
0.11234761 0.21103424 -0.16419946 -0.9925409 -0.0077648726 -0.0079044085 0.02703756 0.5619628
-0.22994776 0.13875845 0.4340353 -0.21197715 -0.15162268 -0.73712885 -0.581794 0.6258411
0.017151725 -0.0514931 1.2516516 0.031170273 -0.13729058 0.065844536 0.05866308 0.10227285
-0.1494576 0.054245014 -0.009997263 -0.18169366 0.15326019 -0.025962332 -0.29173836 0.18317372
-0.18138249 -0.07302413 -0.007671624 -0.0862096 -0.11120749 -0.037103493 -0.3779284 0.11192044
0.17972107 -0.0052750246 -0.08543819 -0.02342981 0.006739069 -0.59545654 -0.01418806 -0.0110653825
0.17255437 0.30241734 0.08700983 0.0057629677 0.42320776 1.076 0.007538359 0.013040267
-0.0313738 0.024079595 -0.0922354 0.15180509 -0.08709951 0.034754146 -0.3925306 0.14983015
-0.05272678 0.26135296 0.006964715 -0.2913211 0.23501669 -0.03533817 -0.42707446 -0.21811041
-0.04874788 0.08215761 -0.21233878 -0.5325891 0.056739382 -0.43390328 -0.030760791 -0.07463921
-0.93174165 0.196608 0.015372697 -0.397552 0.7767852 0.025682634 -0.28348494 0.31752333
0.032635543 -0.07127039 0.06596105 0.071608365 0.03952407 -0.5625336 0.4398554 -0.17678435
-0.04785996 0.38234782 0.043590788 0.054912858 0.08767138 0.13161169 -0.19486818 -0.20096666
0.0039630216 0.060937203 -0.009604335 -0.089789964 0.21733454 -0.08159354 0.23319928 0.07637918
0.03411382 -0.038523313 0.19590695 -0.22872326 -0.25912094 -0.018431682 -0.17586222 0.09102158
0.039072853 -0.32794806 -0.09062452 0.09547814 -0.06607503 0.080424294 -0.089590415 0.065502174
0.19444893 0.0071539297 0.3402245 -0.103989705 -0.15697008 0.34647498 -0.17338996 0.2632373
-0.3191996 0.109715186 0.62030816 -0.12693018 0.14125331 0.43907967 -0.15248659 -0.18774098
-0.21399942 0.015613959 0.26317358 -0.2680683 -0.04320318 0.6846711 0.996614 -0.6036489
-0.0121167535 0.08202646 -1.2328604 0.094637446 -0.018865457 0.7915401 -0.48856348 0.00031484308
-0.004718318 -0.03653557 -0.036329187 0.034793235 0.26132938 -0.10535803 0.06984027 -0.26704994
0.17405081 0.006960774 0.20677915 0.01062956 0.06687146 -0.18477646 -0.038628165 0.07391383
-0.37765068 -0.084494695 0.026402958 -0.019960735 -0.13845979 0.13381597 -0.15789686 -0.030348917
0.2811573 -0.025511598 -0.2237369 -0.05006636 -0.42562053 -0.26931444 0.69204855 -0.12721874
0.21877685 -0.72847575 0.050809514 -0.04829074 0.017782504 -0.048455443 -0.053372864 0.016137078
-0.19448645 0.25511226 -0.18211752 0.35985819 -0.013612921 -0.059370726 -0.41025013 -0.47761765
0.32068887 0.6038987 -0.1469152 -0.06684125 0.0016858525 -0.12501962 -0.079727046 -1.0833551
0.08609257 0.53743225 0.1829302 -0.12517367 -0.010398077 0.19645923 0.10440781 0.40879875
-0.071473524 -0.27386335 -0.011002351 -0.041834526 -0.9489921 -0.04550074 0.03601727 -0.065195575
-0.080039896 0.120102175 -0.3072266 -0.27527583 0.115171716 0.25216943 0.09441077 -0.05326159
-0.059459727 -0.20804992 -0.12204402 0.17325707 0.33874127 0.17463243 0.169587 0.0010383253

parameters.mlp_1_b f4 [256]
00000000: 5d35 0c3e 907c df3e faf3 0b3f a5a5 a53d
00000010: c189 2b3c 702a e63e 614e 103e 4c6d 593e
00000020: 161c 133c 4e5d a43e ce3d c83d 8f66 193e
00000030: 41ba 33be ce2c de3d 13fa e93e daa3 ee3d
00000040: 5df0 4a3d 5915 813d 4498 aabc 318b 893c
00000050: 31f5 813e d5e9 793c 7fe7 9d3c 6e04 d8bc
00000060: b232 55bd 0e5b fd3d e6d4 92bc 4e29 d9bc
00000070: 0e66 ca3c 1374 c43b 4293 883e 5775 c53c
00000080: 9a17 2abd 668d cb3e d348 003e 0444 fb3d
00000090: 262a 47bc 9dcc 093e 608d e73c 4768 7abc
000000a0: 7260 4ebc d02e e43e 3df8 98bc da51 4f3d
000000b0: 1354 1e3e b0d3 f43d 49c3 8dbc 4cb2 c93d
000000c0: e2ad 6dbc 2fb3 5f3d 18ab 3abd 01bb 2a3e
000000d0: d19b 223e 2648 003e 8c0a 903c c176 18bd
000000e0: 0c27 86bc 1b0a 9dbc 4b6c 353d 1446 2c3e
000000f0: 84fe b1bb a78a f4bc fe9b 663e 4ecb 493d
00000100: 5f49 afbd f71d 983e b161 e9bc 1716 9ebc
00000110: 0714 413e 195c 3cbe 061b fc3d b003 80bc
00000120: 1ea9 c33e f806 c83e 71c4 83bc 52b9 f53c
00000130: ea92 b4bd ed2f 9e3e 3f01 c4bb eed1 90bc
00000140: 8be8 dd3c 95e4 f83d 43b8 3fbc 7ec9 f13d
00000150: d8a1 a8bc ce62 513d deae d73e 4639 293e
00000160: ff56 683e 9c59 14bc 6f02 3e3d 15bf fe3e
00000170: 584f 38bc ff0d ba3e cd07 803d 7db0 0ebd
00000180: 59f8 c0bc 9e5c f3bc 958b 293e 8fc4 9b3c
00000190: a727 f8bc c0f1 d5bc 52fd babc 0fa7 04bd
000001a0: 6d12 5bbc f4b7 8a3c a8eb 97bc 4085 0ebd
000001b0: d325 c0bc 7670 123d f7d7 073e 5660 d1bb
000001c0: 4eab 0b3f c19b 643d a297 993e 5101 9d3e
000001d0: 64dc 06bd 1ee8 91bc 6f44 73bc c12e 303e
000001e0: dc30 513e 366a e73e c250 993e de2c afbc
000001f0: 4d4b 093f 01ce 4c3e e096 2d3e 87dd 703e
00000200: f516 6a3e 8779 933e cb35 5c3d 2a3e 8a3c
00000210: 6f31 243e d7f4 47bd c3ef 383d 047b efbc
00000220: c4ba 89bc b140 9ebc 6deb 1dbe 3ad3 fcbd
00000230: d486 c9bc deb5 233e eea8 03bd 6ddd 97bc
00000240: 90ef f5bc 157e c43c 0d7d c1bc 43b3 b13e
00000250: 7c79 573e 21ec 953e 061c b33e 63e6 9dbc
00000260: fa2c 363d a08c 653e 9614 e9bd 7f0c 633e
00000270: 20bb 0d3e 1a6e 423e a275 703e 37b8 b53c
00000280: e97f 073d 871f b23d 8cc3 b8bc 4959 18bd
00000290: a019 9d3e 8539 d23e e4b2 603d 4344 86bc
000002a0: 1b48 213e 78fc 69bc b63b 21be cbb8 cd3d
000002b0: ba03 05bd a3be b53d 2517 a13e 8462 c33c
000002c0: 9d30 3d3d 420d a53e aaae 853e bdf5 bcbc
000002d0: 14d4 c5bc 6924 453e cccd 423e d481 a0bc
000002e0: 3f26 353e 9999 2ebe 1c0e 7d3e 05d8 b03d
000002f0: 56f3 903c 7d9f 25be a474 c9bc dca4 cd3e
00000300: 68a8 a4bd 85ff 1abd 56a0 9cbc c2d2 d23d
00000310: 34fb 233e 5578 523e 6a84 513e ee06 a6bc
00000320: 9af8 f5bd 933c 283e d69d 8e3e f56f 52bc
00000330: 62ba 023f 522c 13be 8ee4 953c 6184 8dbc
00000340: 55e0 0b3d 0f23 68bc 2ab8 c8bc 4081 7c3d
00000350: cb41 cc3e f10c 783d c659 7b3d 0b92 a3bc
00000360: 6e4f 993e 3718 0abd 10bb 1f3d f259 c5bc
00000370: dcd4 eb3d 0deb 3f3e 05ea 86bc 251e 943e
00000380: f0d6 cb3c 1097 12be 245e c43e cc07 a93c
00000390: c21c c23e 9a13 c33c e445 ecbc 7a44 893e
000003a0: 7507 2b3e 9767 e03e 0dfe 7dbd 64b6 1fbc
000003b0: 9074 22be 5470 debd 010b 3d3e 167e e33d
000003c0: d27d 7e3e a106 8a3e 6426 1f3e 5ad4 eabd
000003d0: 9b88 b4bd 8c0a 0fbe c18e e13d 75a2 d23d
000003e0: 37c8 933d 52a9 7fbc 0870 953e 9f37 933e
000003f0: 53ba b1bc 989e 78bc f6e1 e9bc 037b 5cbc
0.13692231 0.4364972 0.54669154 0.08088235 0.010469855 0.44954252 0.14092399 0.212331
0.008978864 0.32102436 0.09777413 0.14980529 -0.17551519 0.108483896 0.45698604 0.11652346
0.049545635 0.063029 -0.020824559 0.016790004 0.2538238 0.015253504 0.019275425 -0.0263693
-0.0520503 0.12370883 -0.017923784 -0.026508953 0.024706867 0.0059952824 0.2667485 0.024103804
-0.041526414 0.39756316 0.1252778 0.12268832 -0.012156045 0.1345696 0.028265655 -0.015283651
-0.012596237 0.44566965 -0.018673057 0.05061517 0.1546176 0.11954439 -0.017305033 0.098484606
-0.014506789 0.054614242 -0.045573324 0.16672899 0.15879752 0.12527522 0.017583154 -0.037222628
-0.01637604 -0.019169858 0.04429273 0.16823608 -0.005431952 -0.02985127 0.22520444 0.049266152
-0.08558916 0.2971036 -0.028488966 -0.019297643 0.18855296 -0.18394507 0.12309842 -0.015626758
0.38214964 0.39067817 -0.016084881 0.029995594 -0.08817084 0.3089594 -0.005981594 -0.017678227
0.027088424 0.121529736 -0.011701646 0.1180601 -0.020584986 0.051119618 0.421256 0.16525754
0.22689436 -0.009054568 0.04638904 0.4975516 -0.011249386 0.36338803 0.06251488 -0.03483628
-0.023555921 -0.02970725 0.16557153 0.019014625 -0.030292345 -0.026116252 -0.02282587 -0.032385882
-0.013371092 0.016933419 -0.018544987 -0.034795046 -0.023455536 0.035751782 0.13265978 -0.006389658
0.54558265 0.0558126 0.299985 0.30665067 -0.032925025 -0.017810877 -0.014847859 0.17205335
0.20428795 0.4519822 0.29944426 -0.021383699 0.53630525 0.20000459 0.16952085 0.23522006
0.2286032 0.28803656 0.05376224 0.016875345 0.16034482 -0.04881748 0.04515053 -0.029233463
-0.01681269 -0.019317957 -0.15421839 -0.12344976 -0.024600424 0.15987346 -0.032143526 -0.018538201
-0.030021459 0.023985902 -0.0236192 0.34707078 0.21042436 0.29281715 0.34982318 -0.019274896
0.044476487 0.22416925 -0.113808796 0.22172736 0.13840914 0.18987313 0.23482373 0.022182567
0.03308097 0.086974196 -0.022554182 -0.037194524 0.30683613 0.4105951 0.054858103 -0.016389972
0.15750162 -0.014281385 -0.15745434 0.10045012 -0.032474257 0.08874252 0.3146297 0.023850687
0.04618894 0.32236677 0.2610982 -0.023066396 -0.024148978 0.1925217 0.19023818 -0.019593157
0.17690371 -0.1705078 0.24712414 0.086349525 0.017694157 -0.16174121 -0.024591751 0.4016484
-0.080399334 -0.03784134 -0.019119423 0.10294105 0.16013795 0.20553716 0.20460668 -0.020266976
-0.120103076 0.16429357 0.27854794 -0.012844075 0.5106565 -0.14372376 0.01829746 -0.017275037
0.034149487 -0.014168515 -0.024501879 0.0616467 0.39893946 0.060559217 0.06136491 -0.0199671
0.29943413 -0.0337145 0.038996756 -0.02409074 0.11515209 0.18742009 -0.016469011 0.28929248
0.024882764 -0.14315438 0.38353074 0.0206336 0.37912565 0.023813058 -0.02884192 0.26810056
0.16702063 0.43829033 -0.06200986 -0.009748075 -0.15864778 -0.10861269 0.18461229 0.11108033
0.24852684 0.26958182 0.15541989 -0.11466284 -0.08815118 -0.13968867 0.11013556 0.102848925
0.07215922 -0.015604334 0.29187036 0.28753373 -0.021695292 -0.01517453 -0.02855013 -0.013457063

parameters.mlp_1_w f4 [256, 256]
00000000: 37ce 88be 779e 56be a8d1 a0bd 4eb2 4cbd
00000010: 560a cc3c 4bc8 30be 3bbf 1f3d 4127 30be
00000020: a5ca 38bd 39c2 233e 5abd c53e 33a8 04be
00000030: ecfa 12bf 0d6d 60bd 5953 17be a759 d23e
00000040: 1196 513e bd58 8f3e 59b9 3abe f6ff 35be
00000050: cb65 133d d79c 81be b1cb f53d 2581 923e
00000060: e046 323e 3045 70bd 689c 2bbd 3fe6 383d
00000070: 237e 68bd 1b7c 87be 2e8d 47bb 2269 57be
00000080: b6c9 85bc 8287 94bd 9d7b c23d adf5 293e
00000090: f831 8bbe c0f6 49bd 4d8d 51be e555 433e
000000a0: a006 e7bd e2dc a7be af17 41bd 4177 efbd
000000b0: 65ea 59be 25f7 433e 1515 c13e 5322 22bd
000000c0: ea25 06bf c629 993e f840 30bd 319a 693e
000000d0: 1e47 a33d ef7b 8ebf 8892 56be 9293 a33e
000000e0: 94e7 02be f58c 27be db33 4b3d 47e7 cebe
000000f0: fb48 ce3e f369 5b3d 807f 65be 174f 183d
00000100: 0565 ffbe e812 513d 8713 f93a c9a3 8ebe
00000110: 95b8 27bf 294e 2dbe 0ff6 0b3e 5fce 723e
00000120: 6812 73be 0262 0c3e b7b5 6c3d 692b 15be
00000130: 3634 03be e36b 5fbe 6f19 293d 8e9c 7b3e
00000140: f674 353e 5651 99bc 0764 2b3e f4ff 2d3e
00000150: 586a bfbd 20bf bc3d 98e2 efbe 5999 663e
00000160: d567 843e fc40 3c3c d4a2 48bc cdd3 f2bd
00000170: a356 873e ac52 0bbe 43c1 f53c 3f4b 583d
00000180: 2ac2 9dbe 2ccf 8a3d 6207 92be 4610 b6bc
00000190: 69ab 6fbe 4e12 143d cb8e 36bf 1217 d13c
000001a0: 12ed db3d 1557 5ebe 2fd5 8b3e f065 013e
000001b0: 9601 60be 5c05 183e 0d45 a03d 0707 463e
000001c0: 8caf 093e 0509 ac3e d967 1e3e 4d93 78be
000001d0: 46b1 c03d a2cd b3bd 1578 a83e 1f34 15be
000001e0: cca4 03bf 8f25 72be 7892 333e 2382 00bd
000001f0: 03a8 f73e 73d5 ad3e a869 b73e e4c4 213e
00000200: 2089 88be 56e3 fcbe cde0 353e 428e 0f3d
00000210: 1e86 fb3e 6733 fc3b 4470 25be cadb 333d
00000220: 9e46 0fbe 6a2f c7bd 4392 65bd 5e35 0fbd
00000230: 648d c13e 5f5f 61be 3443 cdbe ce55 8a3e
00000240: 884d 57be a496 163e ad85 513e 0942 d7bd
00000250: 2259 89bd 62db 0a3b a152 9c3d b014 f2bd
00000260: 1580 11be c2c1 173e 7655 2d3e 7aee 9b3a
00000270: a2f2 833e 6484 8a3d b44d 96bd 27b0 78bd
00000280: 3cf2 583d 8da7 9b3d d260 3cbf 7c75 16bf
00000290: 8f0f 32bd f969 16bd 3bb0 923a 7934 023e
000002a0: 09fc b7be 0918 823e 9a65 3fbf 756e b3be
000002b0: 075a 3d3e 66da 2ebd 3a04 b1bc c86b e7be
000002c0: 88b6 3cbe adf9 2abe 752f 71be 0cce 573e
000002d0: a4d6 6e3e 7da3 26bf 2494 8c3d 3196 9c3d
000002e0: be81 3a3e 1f55 3a3e 98a6 b7be cd7d 143e
000002f0: e980 f6be de95 843c b7ce 6bbe db10 94bd
00000300: 6ffd cebe 4c2b 59be 4ffb 873d d717 c13d
00000310: 88cc 113d e614 abbe ad0c a93c 9607 8fbe
00000320: 084d c2be 146f 603e 2c2e 16bf 4c2c e0be
00000330: 6da4 9fbe 67b6 b73d cd4e 823e 5476 ce3d
00000340: d586 0fbe 0a8c 0ebd d755 bbbe 8b13 13bd
00000350: a42d 99be 182a d33c 6091 cfbd d536 47bf
00000360: ba84 5e3e 06e8 2b3e 42de c33e a852 97bb
00000370: ec7c 903e 641b 9f3d f953 40be 3a48 0b3e
00000380: e0b8 b9bc 87ff cf3d d134 8cbd c60f 10bf
00000390: 2692 8ebe 30d4 9c3e 5f3a 72be 6438 25bd
000003a0: a8b4 023c f281 0bbd 6673 11bf 30f5 99bd
000003b0: 4095 73be a16f ccbe 7d4c e8be c82e 9fbe
000003c0: 6e50 ff3d ad95 91bd 2533 e33e 8f9d 25be
000003d0: 0f54 96be c6bf 25bf abbe 8b3d 75cf 2ebe
000003e0: 28a1 e33e b9b6 23be 052e bbbe 2050 02bf
000003f0: 4b3e 373d f8cb ee3d 8793 0fbe ae8b 61be
-0.2671983 -0.20958887 -0.07852489 -0.049974732 0.024907272 -0.17263906 0.03900073 -0.17202474
-0.045115132 0.15992059 0.38621026 -0.12954788 -0.57414126 -0.0547915 -0.14777888 0.41084024
0.20467402 0.2799739 -0.18234767 -0.17773423 0.03598575 -0.25314972 0.12001742 0.28614154
0.17409849 -0.058659732 -0.041897207 0.045141455 -0.05676092 -0.26461872 -0.003044914 -0.21036199
-0.016331535 -0.072524086 0.094962336 0.16597624 -0.2718656 -0.049307585 -0.20464058 0.19075735
-0.112805605 -0.32785708 -0.047141727 -0.11692668 -0.2128082 0.19137247 0.37711397 -0.039583515
-0.524016 0.29914683 -0.04303071 0.22812726 0.07972549 -1.1131572 -0.20954335 0.31948525
-0.12783653 -0.16362365 0.04961 -0.40410826 0.40290055 0.053567838 -0.22411919 0.0371848
-0.4988176 0.05104342 0.0019003012 -0.27859333 -0.65516025 -0.16924347 0.13668083 0.23711537
-0.2373749 0.13709262 0.057790484 -0.14567341 -0.12812886 -0.218185 0.04128402 0.2457144
0.17720398 -0.018715542 0.16737376 0.1699217 -0.09346455 0.09216142 -0.46852565 0.22519435
0.25860468 0.011490103 -0.0122458525 -0.11856804 0.26433286 -0.13605756 0.02999938 0.052806135
-0.30812198 0.06777796 -0.28521258 -0.022224557 -0.23405232 0.03615027 -0.71311635 0.025523696
0.10738577 -0.21712907 0.27311084 0.12636542 -0.21875605 0.14845794 0.078256704 0.19338618
0.13445872 0.3360063 0.15469302 -0.24274941 0.09408812 -0.08779456 0.32904115 -0.14570664
-0.51423335 -0.2364714 0.17536342 -0.031374108 0.4837037 0.3395191 0.35822797 0.15797764
-0.26667118 -0.49392194 0.17761536 0.035047777 0.4912576 0.0076965573 -0.16156107 0.04391078
-0.13991782 -0.097258404 -0.05604769 -0.034963004 0.37803185 -0.22009037 -0.40090334 0.2701859
-0.2102567 0.14705902 0.2046115 -0.10510642 -0.06706454 0.0021187891 0.07632948 -0.11820352
-0.14209016 0.14820006 0.16927132 0.0011896633 0.25771052 0.06763533 -0.073390394 -0.060714867
0.052965388 0.07600317 -0.73585236 -0.58773017 -0.04347187 -0.036722157 0.0011191437 0.12715329
-0.35934475 0.25408962 -0.74764407 -0.3504521 0.18491374 -0.04268875 -0.02160846 -0.45199418
-0.18429005 -0.16696806 -0.2355326 0.21074694 0.23324066 -0.65093213 0.06864193 0.07645834
0.18213555 0.18196534 -0.35869288 0.14501114 -0.48145226 0.016184743 -0.23028074 -0.072297774
-0.4042773 -0.21207923 0.0663973 0.09428375 0.035595447 -0.33414382 0.020635927 -0.27935475
-0.37949395 0.21917373 -0.586642 -0.43783796 -0.31180134 0.08970337 0.25450745 0.10081163
-0.14016278 -0.03480152 -0.36588928 -0.03590731 -0.29917634 0.025776908 -0.1013515 -0.7781804
0.21730319 0.16787729 0.38255507 -0.0046180077 0.28220308 0.07768896 -0.18782033 0.13601771
-0.022671163 0.1015616 -0.068460114 -0.5627407 -0.27845877 0.30630636 -0.2365508 -0.04033698
0.007977642 -0.034059472 -0.5681671 -0.07517469 -0.23787403 -0.39928916 -0.45370856 -0.3109038
0.124665126 -0.071086265 0.44374958 -0.16173385 -0.29361007 -0.6474575 0.068234764 -0.17071326
0.4445889 -0.15987672 -0.36558548 -0.5090351 0.04473714 0.11659998 -0.14021121 -0.2202594

parameters.mu_b f4 [8]
00000000: 6690 a7bd 34aa 883e 1ef0 6d3e 3017 82bc
00000010: 14d4 843c a85f 10be 23ef 293e 9970 3bbd
-0.08181839 0.26692355 0.23236129 -0.015880197 0.016214408 -0.1409899 0.1659513 -0.04576168

parameters.mu_w f4 [8, 256]
00000000: a7db 253e 33a5 5dbe df1d 8abd beef 143e
00000010: 501a 5fbd 13e2 e23d 9219 aa3d 393f d23c
00000020: c8c0 84bc 54aa 04be 3bfa 1b3e dc86 febe
00000030: a8ef 3abf 954a 0d3e 5e80 f5bd ee3e 3f3f
00000040: de59 933e 49f1 4d3f 0671 1cbb 0187 febb
00000050: 702d 943e 6540 9abc e03d 15bd 95f7 c73c
00000060: 1cd5 333f 9fe4 c93d e365 ef3a c1e3 e7ba
00000070: 6ad7 3bbf 52ba 183e c243 803f 49c6 05bf
00000080: a0c8 993d 3a61 4dbf 88f0 53bd 9575 16bf
00000090: 1d1c e63b 5b85 01be 78f3 7c3d 9e6b ec3b
000000a0: 4d21 073c da4e a6bd 0eca 893c ead5 53bd
000000b0: adea 543e 0a13 b63f e3d8 aa3c db39 af3e
000000c0: f62f 08bb 380a 26bc 2953 7abc 441e 1f3d
000000d0: d73f 41be c693 433f dc20 c2bb 918e 57bc
000000e0: a7bb 18bd b60a 983c aed8 4a3e 7f09 93be
000000f0: 0b59 9abb a20c e43b e053 10bf c0e9 0f3f
00000100: 587b b0be 4e60 7ebd 462c d23c d033 20bc
00000110: 66dc b2be 4aff 4b3e 515d 663d d103 91bb
00000120: 434e bdbd 9ae0 7f3e b492 54bc 2b52 183e
00000130: 5422 19bf 5166 e33d b18b ca3f 89c3 d33e
00000140: 3e8e 4cbd 6f2b 3d3e c38a fdbc 746a 77be
00000150: bf2d 8c3b f19e 043c 04ea 533e cb34 423e
00000160: 0fea 29bf 4b35 593b 5695 593f 8e87 9ebe
00000170: bca4 f33b 678f cdbe 51a0 bbbc 5ce8 c6be
00000180: 59af 72bc 40ff 5dbb e820 48be 716e 2d3e
00000190: d052 17bc ef6c 1c3c 4987 71bc cc6a f538
000001a0: 86c0 223c 6a25 623d c5db 473b cb86 bb3c
000001b0: d9a8 913c 97f0 e83f 9060 8bbf 55c7 01bc
000001c0: b2d0 90bd ccda 51bd 1d70 7abe 521d 393e
000001d0: 6e09 f43b b390 24ba e596 0c3c 0fd2 02c0
000001e0: 295f e5be 76c9 a4bd 61a2 abbe 04c1 2f3c
000001f0: 10e2 37bd fcb3 d8be 4075 3fbf 0e32 0d3e
00000200: 2c84 dbbe 1f1d 5ebf 0afb 7e3c 1a2f c7ba
00000210: d35a f33d 4016 1b3b f696 d038 fa0a d73c
00000220: eaec 16bb 8007 89bc 0449 f73d 43a3 b13c
00000230: ea27 34bc d81c 933f ebc5 a7ba 5994 61bb
00000240: b7c4 ee3c 286e acbd e177 1b3c 21a3 30be
00000250: 0b69 4ebe b252 0cbd 857d 83bf cf90 8e3c
00000260: b169 1e3c 88d5 343f 683b 47bf 40c2 a13f
00000270: e5c0 0fbf 9e5e d4bd 8d6a 7a3e 7fdd f4bd
00000280: d9d9 babc 3fac 1a40 829b 8a3c 73a6 60bd
00000290: d4f7 183e e504 1fbe 339b 313e 2f6d c23b
000002a0: 8ee1 5e3f f137 1f3b aff6 b8bd 502c cebd
000002b0: 2163 a9ba 2fa2 dd3d f07b 5dbe 87ce 36bc
000002c0: 9cc3 a0ba 186c ce3c dc20 84bd d5b5 a03c
000002d0: 1362 9c3c bdc7 4e3d a613 9d3f a7df a3bc
000002e0: a5e5 2d3d 9c66 92bf cb8f 833e 62a6 6cbd
000002f0: 0687 b8bc 84ab af3d dde7 853c f9d2 423f
00000300: e67e 3cbe d407 2ebf 267b fcbb ac45 5bbe
00000310: d4b2 24bf 02a4 91be 21c9 d5be 4a1d d23b
00000320: 1178 013f a135 61bf 0604 d13a bce4 a1be
00000330: 18e7 38be 7b45 d53d 54e7 9f3d 388c bc3b
00000340: 7b94 b7be 543e 01bb 5639 203c 58f1 24bf
00000350: 23c4 40bf 3475 e43d 9d1c ba3e 5ba2 82bc
00000360: 6702 45be 87ea 37bd 1964 e2bc 1349 a33c
00000370: 6a29 ca3d 4359 943d 5be6 70bb 1474 c9bf
00000380: c61e 33bc fe76 1f3e 4572 a7bd 04d7 7a3f
00000390: 5b36 10bf e824 d43e 7d1c 19bc 2c2b 2e3d
000003a0: d546 fcbd 0905 e4bd 891b b13c 3b0c 1abd
000003b0: 76b8 133f 8e23 fa3e 2e42 0dbd ace9 c3be
000003c0: 0595 b43f af74 253f f0f8 e6bd f62b 3e3f
000003d0: f16e 1b3f f82a ae3e cf27 9b3e a677 6a3e
000003e0: 2035 ea3e 9499 933c 1187 c23e 6c03 2fbd
000003f0: fb16 ba3a 306e 5abc 69d0 5dba 193b f53b
0.16197072 -0.2164505 -0.06743979 0.1454458 -0.054468453 0.110782765 0.083056584 0.025664913
-0.016205207 -0.129556 0.15232174 -0.49712265 -0.73021936 0.13797982 -0.11987375 0.747054
0.287795 0.80446297 -0.0023871078 -0.0077675586 0.28940916 -0.018829534 -0.03643596 0.024410048
0.70247054 0.09858059 0.0018264618 -0.0017691777 -0.7337557 0.14914826 1.0020678 -0.52255684
0.07508969 -0.8022648 -0.05174306 -0.58773166 0.0070223943 -0.12648527 0.061755627 0.0072149774
0.008247686 -0.081205085 0.01681998 -0.051717676 0.20792647 1.422456 0.020855373 0.34223828
-0.002078054 -0.010134272 -0.015278616 0.038847223 -0.18872009 0.7639736 -0.0059243273 -0.013156549
-0.037288334 0.018559795 0.19809219 -0.28718182 -0.004710322 0.0069595138 -0.56377983 0.5621605
-0.34469104 -0.062103562 0.025655877 -0.009777978 -0.34933776 0.19921604 0.056241337 -0.004425504
-0.09243443 0.24988022 -0.01297443 0.14875095 -0.59818006 0.111035 1.582388 0.4136012
-0.04994034 0.184736 -0.030949956 -0.24161702 0.0042779143 0.008094535 0.20694739 0.18965451
-0.6637277 0.0033143337 0.84993494 -0.30962795 0.0074354094 -0.4014847 -0.022903593 -0.3884915
-0.014812314 -0.0033874065 -0.19543803 0.16936661 -0.009236053 0.009547456 -0.014741727 0.00011702403
0.0099335965 0.055211462 0.0030495983 0.022891423 0.017780708 1.8198422 -1.0888844 -0.00792106
-0.070710555 -0.05123405 -0.2445683 0.18077591 0.007447413 -0.00062776654 0.008580898 -2.044071
-0.44799164 -0.08046238 -0.33522323 0.010727171 -0.044893324 -0.42324817 -0.74788284 0.13788626
-0.42874277 -0.86763185 0.015562782 -0.0015196532 0.11882558 0.0023664385 9.9463316e-05 0.026250351
-0.0023029395 -0.01672721 0.120744735 0.021684295 -0.010995844 1.1493177 -0.0012800073 -0.0034420697
0.029146535 -0.08419448 0.009489031 -0.17249729 -0.20157258 -0.034258552 -1.027268 0.017403034
0.0096687535 0.7063832 -0.7782502 1.2637405 -0.5615371 -0.10369609 0.24454708 -0.119563095
-0.022808956 2.416763 0.016919855 -0.05484624 0.14938289 -0.15529211 0.1734436 0.005933426
0.8706292 0.0024294818 -0.09031426 -0.10067046 -0.001292322 0.1082195 -0.2162931 -0.011157638
-0.0012265327 0.025198027 -0.0645158 0.019617954 0.019089734 0.050483454 1.2271621 -0.020004107
0.042455334 -1.1437564 0.25695643 -0.057775863 -0.022525322 0.08577636 0.016345913 0.7610317
-0.18407783 -0.67980695 -0.00770511 -0.21413296 -0.6433537 -0.2844544 -0.41755012 0.006412183
0.5057383 -0.87972456 0.0015946634 -0.31619823 -0.18056905 0.10413643 0.07807794 0.00575402
-0.3585547 -0.0019720988 0.009779295 -0.6443076 -0.7529928 0.11155167 0.36349955 -0.015946558
-0.19239198 -0.044901397 -0.02763562 0.019932305 0.0987118 0.07243588 -0.0036758396 -1.5738549
-0.01093263 0.15572736 -0.08176092 0.9798434 -0.5633294 0.41434407 -0.009345171 0.04252164
-0.12318198 -0.11133773 0.021619575 -0.03760932 0.5770334 0.4885525 -0.034486942 -0.38264215
1.4107977 0.6463117 -0.1127795 0.7428583 0.6071616 0.34017158 0.3030381 0.22897205
0.45743656 0.018017568 0.37993672 -0.042727873 0.0014197523 -0.013331935 -0.00084615365 0.0074838516

parameters.std_b f4 [8]
00000000: c049 5cc0 0f44 62c0 a146 6cc0 c45a 62c0
00000010: 58bd 5fc0 4a56 69c0 75ef 60c0 35cf 62c0
-3.4420013 -3.535404 -3.6918108 -3.53679 -3.4959316 -3.6458917 -3.5146153 -3.543897

parameters.std_w f4 [8, 256]
00000000: 97cd 11bd 4783 12be b8eb 04bf 5016 03be
00000010: 9b5d 063d 2839 81be ea85 80be 3bfb 7bbd
00000020: abda 413d 0ab8 a0be a63e 3abe e6b9 99be
00000030: d31c cfbb 1dec debd e084 6abe e1be 31bd
00000040: 9dc0 72be 6ce7 663e 0140 08bc b056 c03c
00000050: a158 dfbe 9096 883c 5da8 193c 80ed 173c
00000060: 995e 47be 5246 713d 873f 3b3c a95e 193c
00000070: 5b3f 063d 48b0 97be fa87 a93e 55fe 403d
00000080: 8a3e dd3d cf00 103e 0abc 11bd dc54 cf3d
00000090: 1f52 563a b22c 78be 80e4 43be ac70 a0bc
000000a0: e0e9 973b 180c 4fbe 1f5a 6d3c aeb1 9f3c
000000b0: c33f 383d bb6c b5bd 7352 81ba e0c0 32be
000000c0: 21aa 343b 47ce b7bc eaaf 0ebf ccee 283e
000000d0: bb51 b23d 5a7f 36be a97c 573d 1aca 49bc
000000e0: 2456 b93c 25ec afb9 4de5 d7be cac5 76be
000000f0: 704f 023d 951a 313c 6b75 8abe 11cb 333f
00000100: 245f 71be 6e48 fcbd b48a 253c 5be3 6dbc
00000110: ae54 d6be 7715 43be 6aa8 68be ac86 8e3c
00000120: 9041 0abe a52b ccbc d18e e4bb f4d6 5fbe
00000130: 269c 2a3b 687e 3ebe 87e7 143d 299d 13bf
00000140: 97e0 333c 9db0 35be 6a89 ae3c 030c edbd
00000150: 37ea 693c 70e6 2a3d 2faf 90bd eec2 953d
00000160: 9b52 133e bcff c1bc 40d9 e4bd 3236 823e
00000170: 8736 ee3a 33d7 3fbe 7f24 193c 91ad 103d
00000180: 7ba4 133c 1bfb df3b f7f3 c5bd 7424 7ebe
00000190: 7ccd c9ba 696b e43b 96c9 d33c e715 a23c
000001a0: 68f4 163c be99 42bc 239f d53a a60d 3a3c
000001b0: 9fb1 053a 8840 273e 38f7 3abc 131c 553c
000001c0: 5059 dcbd 2ede 053c 585a 90be adee 53be
000001d0: 604c bd3c 4944 bbbb e27e 98bb 9f97 223f
000001e0: 34ca 44be e54f 0fbe ed80 cfbe 942e f13b
000001f0: 9dca 03bf 71a6 adbc cd55 cbbc b0ff c63b
00000200: d1d4 f8bb d1c7 593c dc1d 3c3d 2e82 ef3c
00000210: 82ff 6c3d 8393 69bb 3c02 533d a23c 173c
00000220: 7a4b b8bb a9e6 31bc 2098 f4be 0384 06bf
00000230: 5561 a7bc 0c4a fabe 7760 9c3b bdec 8fbb
00000240: 3c5e 503c fa26 883d 9796 c23b d2eb eabe
00000250: 898a 0ebe e3ca c1be ada3 673d e711 99bc
00000260: d5b9 3ebe aae2 6f3e 3828 85bd 650b 163e
00000270: e336 863c babe 2cbd 599e e73c 69b9 dd3c
00000280: db53 083d ffba 693f d150 063c 7a5b 43bd
00000290: dec7 0cbd 2a99 9bbe daf1 8fbd b571 67bb
000002a0: c4df 6bbb e6af 28bc 19b4 c33e 1429 6bbe
000002b0: 18bb 4a3a d21b 58be aa16 03bf ab50 8d3d
000002c0: 50e2 bf3c efd1 46be 7ac7 b23d 1130 10bc
000002d0: 2144 6b3c fa70 cebe df8d a0bd bbac ae3e
000002e0: 9c85 34bc 8c10 473e 9e5a 8abe 7aea 07be
000002f0: 4e0b ca3c f205 e53e bb48 683c 3cc1 fbbd
00000300: 7dcd ecbe fb42 58be ae45 a33c dd7f edbd
00000310: df1b 073f a169 32bc 7277 c1bd d38a 1d3c
00000320: 0c8d f93e 7579 0d3f af81 47be 9b7d 37be
00000330: 0533 38be cf74 21be 0c19 d73d f6fa 6e3c
00000340: 1f58 353c 9ef4 d3bb db09 0c3c 91cb b8bc
00000350: e7a7 823d 712c 87bb f718 14be 567f acbb
00000360: 82d6 a3bd 83bf f23b 50c3 453c 59d2 7a3d
00000370: 4a2c c83c 8ed4 e4be 7a76 79bc 5495 0b3d
00000380: 24ca 633d 86b7 e0be c9b9 cebe 89e1 d73d
00000390: 109c 0c3e 537e 66bd ca1a 33bb 3e63 a93d
000003a0: bc6f b9be 06d5 a1be 84f3 02ba 5e63 883d
000003b0: 2cce e3be 200a ef3d ad98 95be 0467 10bf
000003c0: 9992 7b3e 4ef5 2abe adb6 68be 01f8 a13d
000003d0: 27d7 abbe 7d3a b33d 0a4d 96be 8352 a03f
000003e0: 1761 22be 2969 0d3c 8682 bc3c a518 03bf
000003f0: a926 c53c 7eab c43c 5bc1 963c 5f7c b239
-0.035596456 -0.14307891 -0.5192218 -0.1280148 0.032804113 -0.2523892 -0.25102168 -0.06151889
0.04732768 -0.3139041 -0.18187961 -0.30024642 -0.006320575 -0.10884879 -0.2290225 -0.043394927
-0.23706289 0.22549218 -0.008316041 0.023478836 -0.43622306 0.016673356 0.00937852 0.009272933
-0.1946968 0.058904953 0.01142872 0.009360948 0.032775264 -0.2962668 0.33111554 0.04711755
0.10802944 0.14062808 -0.03557972 0.101236075 0.0008175689 -0.242358 -0.19130135 -0.019584976
0.0046360344 -0.20219457 0.014486819 0.019493904 0.044982683 -0.08858629 -0.0009866491 -0.17456388
0.0027567225 -0.022437228 -0.55737174 0.16497344 0.08706995 -0.17822018 0.05260912 -0.012316251
0.022624083 -0.00033554542 -0.4216713 -0.24098888 0.03181404 0.01080956 -0.27042708 0.7023173
-0.2357145 -0.12318502 0.01010387 -0.014519538 -0.4186148 -0.19051157 -0.22720495 0.0173982
-0.13501573 -0.024923155 -0.006975033 -0.21859342 0.0026033013 -0.18602908 0.036353614 -0.5766168
0.010978839 -0.17743154 0.021305759 -0.11574557 0.014277033 0.04172367 -0.070646636 0.073125705
0.1438698 -0.023681514 -0.1117425 0.25431973 0.0018174209 -0.18734436 0.00934708 0.035321776
0.009011383 0.006835354 -0.09665673 -0.24818593 -0.0015396322 0.006970812 0.02585296 0.019785834
0.009213544 -0.011877475 0.0016298037 0.011355793 0.0005100015 0.1633321 -0.011411481 0.013007182
-0.107592225 0.008170648 -0.28193927 -0.20696516 0.023107708 -0.0057149273 -0.0046537975 0.63512605
-0.1921776 -0.13995321 -0.4052805 0.007360289 -0.5148104 -0.02119753 -0.024821186 0.006072961
-0.007593729 0.013292269 0.045926914 0.02923688 0.05786086 -0.0035640902 0.051515803 0.009230765
-0.005624232 -0.010858216 -0.47772312 -0.52545184 -0.020432154 -0.48884618 0.0047722417 -0.004392235
0.01271778 0.06648059 0.005938362 -0.45883042 -0.13920034 -0.37850103 0.056552578 -0.018685294
-0.18625577 0.23426309 -0.06501812 0.14652784 0.016383594 -0.04217408 0.028273748 0.02706595
0.033283096 0.9130096 0.008197979 -0.04769466 -0.034370296 -0.30390292 -0.070285514 -0.0035315577
-0.003599153 -0.010295844 0.3822334 -0.22964889 0.00077335676 -0.21104363 -0.5120646 0.06900152
0.023423344 -0.19416021 0.087294534 -0.008800522 0.014359505 -0.4032057 -0.0783956 0.34116158
-0.011018183 0.19439906 -0.2702226 -0.1327304 0.024663594 0.44731098 0.014177497 -0.12292716
-0.46250525 -0.21119301 0.019930687 -0.115966536 0.527769 -0.010889442 -0.094466105 0.009615618
0.48740423 0.55263454 -0.19483064 -0.17919008 -0.17988212 -0.15767215 0.10502824 0.014586201
0.011068373 -0.0064683696 0.008547272 -0.022558006 0.06379681 -0.004125171 -0.14462648 -0.005264203
-0.079998985 0.007408084 0.012070492 0.06123576 0.024435181 -0.44693416 -0.015226001 0.034077957
0.0556127 -0.43890017 -0.40376118 0.10541064 0.13731408 -0.056272816 -0.00273292 0.08270882
-0.3621806 -0.31607836 -0.0004995393 0.06659578 -0.44493234 0.11671853 -0.29218045 -0.5640719
0.24567641 -0.16695139 -0.22725935 0.07908631 -0.33562586 0.0875139 -0.2935565 1.252518
-0.1585735 0.008631029 0.023011457 -0.5120948 0.024066286 0.024007555 0.018402746 0.0003404347
