notebook/result/weights/sac_snapbot/episode_950.pth (torch, 355440 bytes, 8 tensors)

parameters.mlp_0_b f4 [256]
00000000: 01bb a33d 1cf7 28be c4d5 843d 047f 0cbe
00000010: c0ae bf3e a556 8bbe 73e0 a7be cca1 18be
00000020: a2fc 73be 14bf 59bd d14d 153e 6975 eabd
00000030: 5d5b a0bd 5a8b a83d 7902 a2bd 4cce 053f
00000040: 0343 24be 2de1 b0be d091 3dbe 8f3b 03be
00000050: 5839 4d3c 22c5 c0bd 17e1 25bd f94f b53c
00000060: 9f5b 6dbe 3a38 eb3c 7fb8 ef3c 763d e5bd
00000070: 2657 40be ffbd d1bc c544 6dbe 166a 57be
00000080: 1bc8 34be 4513 fb3d 48a4 e8bd f08d 2ebe
00000090: 294e 23bc 6213 9f3d d003 68bd bc5c e9bd
000000a0: b07b 6ebe a732 9cbe b1f4 2fbe 06bf 64be
000000b0: 1110 d3bd 19b4 763e 4169 f83d 5b68 39be
000000c0: f039 13bc 4793 e1bb ef35 a3bd b050 c7bd
000000d0: ea52 d0bd 68d9 69be f028 2d3e f9fc c1bd
000000e0: ee47 06be 20af a5be 898d 3cbe 1e8c aebe
000000f0: 7f29 abbd 768e a1bd df79 f3bd e434 5abe
00000100: 4a2e aabd f195 bebe 0958 e7bd 27d9 043e
00000110: 2740 71be 8ffa b2be 472d e43d 4f2a 63be
00000120: 8728 40be 4800 87bc b871 e8bd e08e 71bd
00000130: c34f d83c 2002 16be ff45 5ebd d335 93be
00000140: 884a 22be 3d80 b5bd c4c5 06bd beab 03be
00000150: bebe e0bc 2e1e a4be 5e8e 76be c811 59be
00000160: c938 4f3d c2d9 b53e 0d5b bfbd b678 d13d
00000170: 36d6 a13d ee57 90bc fe3c 0cbe 997e abbe
00000180: e420 69bd 4a33 e9bd 78c9 13be 450d 1cbe
00000190: 0210 a1bd aeb2 f7ba 5c1a aabc 2a56 30be
000001a0: bfb4 a4be e4ba 24be b6a1 66be d69e a83e
000001b0: 40e7 a2be db19 1fbe 86a6 50be 7f22 cfbc
000001c0: 3a97 0cbe 6528 24be 9ebb e83d 7201 19be
000001d0: ecdd 42bd 9c75 c9bd 9679 c43d 74bf 58be
000001e0: a671 363e 7a0a 84be f1f8 b2bd e3ad 933e
000001f0: 1f6e 803c 98e8 cc3c 0423 42bd 9472 cbbd
00000200: 7325 1fbe 2aed f33d 8461 febd 773d a2bd
00000210: 2d0b b7be 5879 9ebe 9f5c fdbd 7104 8a3d
00000220: d273 de3e 4086 65be 1d5e 51be d057 ec3b
00000230: ee60 8bbd b400 c5bb 4455 7ebd ab76 4cbe
00000240: 9bd3 9dbe 2900 50bc c1e2 42be 9c2b afbe
00000250: 4c35 37be 3c0d 59be 4475 97bd 7f35 7abe
00000260: c5d8 78be 5970 a6be 1f88 b83c 8a6a 423e
00000270: 54b1 94be af6d 02be a215 7cbe 789a 87be
00000280: 2033 d7bb 4889 98bd 2e5e a2be 3914 fabd
00000290: 5382 00be a839 67be bebe 843e 1e2c 12be
000002a0: f7da 97be e846 43be d9ac dabc 2f99 793d
000002b0: b69a 743d e8ff 05be fbda 91bd edcc 91bd
000002c0: 6b34 c1bb 1f31 5b3e 40b0 18be e997 44be
000002d0: 81fa 1bbe a233 aabe 2503 68be 48e7 06be
000002e0: cd35 6fbe 8467 30be 6af3 42be 76e8 8bbd
000002f0: 82b6 97bb f410 1a3e 707b 57be c38d b2bc
00000300: e7ad 0fbd 7d63 b33d 1a0b 963e d13a 85ba
00000310: 0392 edbd 8f11 753c d0c4 03be 7958 f43d
00000320: 01e5 653e 1c58 8bbe 5fdb 5bbd 8540 663c
00000330: 5db7 a9bd ad2e 28bd e54b 453d 8c60 3cbe
00000340: 26fa 54be e68f 3abe 710f 0abe a6a9 d5bc
00000350: 88a3 473f 1093 8cbe f4cc ac3c 5e91 003f
00000360: 4278 e4bd d931 d23d 1263 83be f122 44be
00000370: 6bb1 66be 609f 6abe e4f1 073e aa7a f2bd
00000380: 97cf 49be 9d8b d2bd 705f 6cbd c399 92bd
00000390: c392 5cbe a160 28bd 2016 cf3d 1fc2 293f
000003a0: 0231 2ebe ac29 623e d36d 5fbd ba5e 7bbe
000003b0: 482b d4bd 26f8 163e 12b6 2dbe c817 03be
000003c0: ab30 013e 271b b43e b961 44be 34ca 15be
000003d0: a2ff 143e 1443 c3bd 082e 2fbe 9c93 983d
000003e0: e655 873e 9a39 78be 9773 1b3d 7075 6cbd
000003f0: a25f 983d 1802 6d3e 61ec 1fbd e2ab 0dbe
0.079946525 -0.16500515 0.06486085 -0.13720328 0.3743801 -0.27214542 -0.3278843 -0.1490547
-0.2382684 -0.053160742 0.14580466 -0.114481755 -0.07829926 0.08229704 -0.07910628 0.5226791
-0.16041188 -0.34546795 -0.18512654 -0.12815689 0.012525879 -0.094126 -0.040497866 0.02213286
-0.23179482 0.028713334 0.02926278 -0.11193363 -0.18783244 -0.025603293 -0.23170765 -0.21036562
-0.17654459 0.12259535 -0.11359459 -0.17046332 -0.009967365 0.07767369 -0.05664426 -0.11394641
-0.2328937 -0.30507395 -0.17183186 -0.22338495 -0.10305799 0.2409214 0.121294506 -0.18106215
-0.008985981 -0.006884012 -0.079692714 -0.09732187 -0.101720646 -0.2283684 0.16910148 -0.09472079
-0.13113376 -0.32360172 -0.18413366 -0.34091276 -0.08357524 -0.078885004 -0.118884794 -0.21309239
-0.0830961 -0.3722377 -0.11296088 0.12973462 -0.23559628 -0.34956786 0.111414485 -0.22184108
-0.1876546 -0.016479626 -0.11349815 -0.058974147 0.02640522 -0.14649248 -0.054265972 -0.28752002
-0.15848744 -0.0886235 -0.032903448 -0.12858483 -0.027434703 -0.32054275 -0.24077746 -0.2119819
0.050591264 0.355177 -0.093435384 0.10228102 0.079021856 -0.017620053 -0.13695142 -0.33495024
-0.056916133 -0.11386736 -0.14432323 -0.15239437 -0.078643814 -0.0018897855 -0.020764522 -0.17220369
-0.32169148 -0.16086918 -0.22522625 0.32933682 -0.31817055 -0.15537207 -0.20376024 -0.025285004
-0.13729563 -0.16031034 0.1136391 -0.14941958 -0.047574922 -0.09836885 0.09593503 -0.21166784
0.17816791 -0.25789243 -0.08738888 0.28843603 0.01567751 0.025013253 -0.047396675 -0.099339634
-0.1554163 0.1191047 -0.124209434 -0.0792188 -0.35750714 -0.30951953 -0.12371182 0.067391284
0.4344774 -0.22414494 -0.20446058 0.0072126165 -0.06805597 -0.0060120467 -0.062093034 -0.19967143
-0.30825505 -0.012695351 -0.19031812 -0.3421296 -0.17891425 -0.21196455 -0.073954135 -0.2443447
-0.24301441 -0.3250759 0.022525845 0.18985954 -0.2904154 -0.12737153 -0.24617627 -0.26485038
-0.006567374 -0.07448059 -0.31712478 -0.122108884 -0.12549715 -0.22580588 0.25926775 -0.14274642
-0.29659244 -0.19070017 -0.026693748 0.060937103 0.059717856 -0.13085902 -0.07121845 -0.071191646
-0.0058961413 0.21405457 -0.14910984 -0.19198574 -0.15232278 -0.33242518 -0.2265745 -0.13174164
-0.23360367 -0.17226988 -0.19038168 -0.06831448 -0.004629911 0.1504553 -0.21043181 -0.021796113
-0.035077956 0.0875921 0.29305345 -0.0010164623 -0.11600115 0.0149578 -0.12868047 0.11930937
0.2245064 -0.2721566 -0.053676005 0.014053469 -0.08286927 -0.04106014 0.04816808 -0.18396205
-0.20798549 -0.18218955 -0.13482453 -0.026081871 0.77983904 -0.2745595 0.021093823 0.5022181
-0.1115575 0.10263414 -0.25661522 -0.19153954 -0.22528617 -0.22912359 0.13275868 -0.118398026
-0.19708095 -0.10280535 -0.057708204 -0.07158234 -0.2154036 -0.041107778 0.10111642 0.6631183
-0.17010882 0.22086209 -0.054548096 -0.24547854 -0.10359818 0.14743099 -0.16963986 -0.1280204
0.12616222 0.35176966 -0.19177903 -0.14627916 0.14550641 -0.095342785 -0.17107403 0.07450029
0.26432723 -0.24240723 0.037952032 -0.057729185 0.074401155 0.2314533 -0.039043788 -0.138351

parameters.mlp_0_w f4 [256, 70]
00000000: bd63 f6bd d51f 613d f28c 34be 236d 6bbf
00000010: cb0a 09bb a977 ed3d 1ce1 09bc e739 943e
00000020: 7047 3c3d b892 c3bd 60d5 47be 3de0 91bf
00000030: 2f91 47bd 1530 26be d87a 403e bdd3 bd3e
00000040: d2e8 85be 59ad 573e 3188 9f3e 2fe2 80be
00000050: 57a1 12be 6261 8dbf 66f9 10bf a406 813f
00000060: d90a 803c 8a5c 033d 65d4 823f 2715 dcbd
00000070: 3a7f 0e3c 44fe b03d 8af7 873b 9044 843d
00000080: d679 05be a8bb 9a3e cb32 c6bd 90e2 9a3a
00000090: 144f 513e 6d32 29be fea1 89be 56b8 2f3e
000000a0: faaa 22be ecfb 44be 3733 8e3d 5e69 c7bd
000000b0: 4f99 57be e6e9 54bc b758 ccbe 460f 183e
000000c0: de98 8c3e 546e abbc 990a 813e aa2b 1cbc
000000d0: b301 22be 9424 1dbf 0fd6 863d 144c 003c
000000e0: 3e00 0bbc 4e47 2c3e 31e8 8c3e 3202 923c
000000f0: f039 ba3e 0f0a 583f 2812 993c 1402 a13d
00000100: bffc 29bd 0c53 09be dc93 c83e 48af 86bd
00000110: 5f4a 143e 7c00 4e3d b116 12bf ce69 473d
00000120: ea78 d8bd 3c35 143f bb15 9bbc b525 82be
00000130: 28dc b33e 746a 5e3d 2860 b1be 8e83 abbd
00000140: 422a c7bd 4422 9d3e ff83 4abc 706b 8fbe
00000150: 2219 843e cc29 59be e2fa 643d 5c15 4e3e
00000160: c2ea 88bf e146 ed3c e095 c33d ae6b 78be
00000170: 270e 583f 41cc 1d3e a262 8cbe 6bc1 c33e
00000180: f2f0 b13d 97b7 b4bc 15a9 b5bd 5963 8cbe
00000190: cb98 683d 7990 7dbe 6f19 c23e 885b d9be
000001a0: 1121 2fbf 36bf 9e3e 2537 12bd e7f7 823d
000001b0: 6d06 983e 0180 073e c85e cfbd 12aa 6abe
000001c0: 4609 3e3e 36ee 853d 6ebe 25be 7c78 abbb
000001d0: 8778 b73e 6e93 e7bb 4ff6 d4bd d8ef 80bc
000001e0: adfd e73d 0ada b53b b607 46bd d1fc 8dbd
000001f0: 0904 96bb 703b 9ebc 08ce 02bf fa25 ecbd
00000200: 330c 29be 0846 b0be b03a 69be 4749 ec3e
00000210: 2b80 1dbe c899 913d 1c17 243c fe25 1abb
00000220: 6a0b 843e e8cd a63d 12bc 603d d771 b33e
00000230: e9f2 55be a01c e73e 9c76 91be 4d2f b23e
00000240: 3647 a5be 4e70 1d3e c0d6 ea3e 638d 87bd
00000250: d5e7 ee3d 2080 f13e c8d5 b2be c60c f3bd
00000260: 7580 a3be 4584 da3d 39f2 983d a730 72be
00000270: 9823 b0bd 0a9b 373f 46de 6c3f 283c 36bf
00000280: 13cb 8cbc e374 1abe b0ed a2bf eb1c 753e
00000290: 56b8 c4bc 7859 883f b6d3 fabe ee5c c0bd
000002a0: 3266 16be 4ae1 94bb e378 5a3d b576 3fbe
000002b0: 38d3 c03e 1293 973b d724 f1bd 8115 b4be
000002c0: a226 853e 27bb 60bd adf5 313e ad11 bf3c
000002d0: 90f2 0f3d ce17 72be 135b 17be 1672 483c
000002e0: 25ee efbe e8e9 6fbe 90bd 753e 6ee1 20bd
000002f0: 4d77 88bd 3e8c 493d 02db f2bd 88e3 96bd
00000300: a97d cc3e a6a1 86be ab65 afbe 35e0 92bd
00000310: c930 f73c 0e53 48bd b224 1d3e b76f 20be
00000320: 43bb a53e 61eb 2bbf 2992 95bd 268a adbd
00000330: cf01 ac3d 4f76 4f3d dca5 a7be c2e7 a6be
00000340: 1afc 31bd b93a e53d 2cca 00bf 12a8 373e
00000350: 936a 0bbe 00aa 9fbc 1997 fbbe d149 18bf
00000360: 3bd6 b43e 4e3b 083f 7388 09be e578 92be
00000370: cc9f a4bd bafa 52be e703 d7bd b8f6 7dbf
00000380: e412 f73d 4bda 073f 8c93 503e 449c cd3d
00000390: 9de2 8b3e d701 213d 56a1 6c3d dd99 063f
000003a0: d582 babe f1d9 9bbe 26ea c2bb 9924 4abe
000003b0: 3966 73bf e4b6 b5bd bffe 773d 9a90 1e3d
000003c0: acda 463d 7609 ff3d 306b edbe 5c52 fdbe
000003d0: 938b 2d3e c503 803d e677 563c e795 6a3d
000003e0: 16ba a3bd 4b43 88bd 48a4 93be cad9 e13d
000003f0: cb1b a63e d99c 093e bd6b d2bd 5853 0fbe
-0.12030742 0.054961998 -0.17631891 -0.91963404 -0.0020910974 0.11595089 -0.008415487 0.28950426
0.045966566 -0.09549469 -0.1951499 -1.1396557 -0.048722442 -0.1622928 0.18796861 0.37075606
-0.2615419 0.2106222 0.31158593 -0.25172564 -0.14319359 -1.1045344 -0.5663055 1.0080152
0.015630173 0.032070674 1.0221068 -0.10746222 0.008697325 0.08642247 0.004149382 0.0645839
-0.13034758 0.30221295 -0.09677657 0.0011816788 0.20440322 -0.16523142 -0.26881403 0.17160162
-0.15885535 -0.19236726 0.06943362 -0.09736894 -0.21054576 -0.012995219 -0.39911434 0.14849576
0.27460378 -0.020926632 0.25203398 -0.009531895 -0.1582096 -0.6138394 0.06583797 0.007830638
-0.008483944 0.16824076 0.27520898 0.017823312 0.36372328 0.8439035 0.018685415 0.078617245
-0.041500803 -0.13410586 0.39175308 -0.06576401 0.14481495 0.05029343 -0.57065874 0.048684888
-0.105699375 0.5789373 -0.01893126 -0.25419393 0.35128903 0.05430074 -0.34643674 -0.083747014
-0.09724857 0.30690205 -0.012360572 -0.28011656 0.25800425 -0.2120735 0.055903323 0.20125335
-1.0696642 0.028964462 0.09550071 -0.24259827 0.84396595 0.15409948 -0.27419 0.38233504
0.08688535 -0.022060199 -0.088701405 -0.27419546 0.05678634 -0.24762143 0.3791003 -0.42452645
-0.6840983 0.31005257 -0.03569712 0.0639494 0.29692402 0.13232423 -0.101255 -0.22916439
0.18558225 0.06539576 -0.16185924 -0.0052328687 0.35834143 -0.0070671355 -0.10398542 -0.015739366
0.11327682 0.005549674 -0.048347197 -0.069329865 -0.0045781177 -0.019315451 -0.5109563 -0.11530681
-0.1650856 -0.3442843 -0.22776294 0.46149656 -0.15380923 0.071094096 0.010015275 -0.002352118
0.25789958 0.08144742 0.054866858 0.3504779 -0.20893444 0.45139027 -0.28410804 0.34801713
-0.32280892 0.15374872 0.45866966 -0.06618764 0.11665312 0.47168064 -0.34928727 -0.11867671
-0.31933942 0.1066976 0.07468075 -0.23651372 -0.08600539 0.71720946 0.9252666 -0.7118554
-0.017186677 -0.15083651 -1.2728786 0.23936813 -0.02401368 1.0652304 -0.48989648 -0.09392725
-0.14687422 -0.004543458 0.053337943 -0.18697627 0.37661147 0.0046256864 -0.11774605 -0.35172656
0.26006037 -0.054865982 0.17378874 0.023323858 0.035143435 -0.23641893 -0.14780836 0.012234231
-0.46861377 -0.23429072 0.23998094 -0.039277487 -0.0666338 0.04920601 -0.11858179 -0.07367617
0.3993962 -0.26295203 -0.34257254 -0.0717167 0.03017463 -0.048907332 0.1534603 -0.15667616
0.32369432 -0.67156035 -0.073032685 -0.08473615 0.083987825 0.050649937 -0.32743728 -0.32598692
-0.043453313 0.11192841 -0.5030849 0.17935207 -0.13614874 -0.019490242 -0.49138716 -0.59487635
0.35319695 0.5321549 -0.13430957 -0.2860786 -0.08038291 -0.20603457 -0.10498791 -0.9920459
0.1206415 0.53067464 0.20368785 0.10039571 0.2732133 0.039308395 0.05777105 0.52578527
-0.36427942 -0.30439714 -0.005948323 -0.19740523 -0.95077854 -0.08872774 0.06054568 0.03871212
0.048548386 0.124529764 -0.4637084 -0.49476898 0.16947775 0.06250719 0.013090109 0.057271864
-0.079944775 -0.0665346 -0.28836274 0.11027868 0.3244308 0.13438739 -0.10274456 -0.13996637

parameters.mlp_1_b f4 [256]
00000000: e591 823e 4642 c23e 326e e03e 5316 0a3d
00000010: c189 2b3c a92f f53e c75e df3d 3dd3 d23e
00000020: 161c 133c e9c9 863e cbf3 323e 3f31 e53d
00000030: 3da4 13be f368 403e f0cd ea3e dbfa 3b3e
00000040: 03d1 6b3e 3863 8b3d 4498 aabc 318b 893c
00000050: 1c35 823e d5e9 793c 7fe7 9d3c 6e04 d8bc
00000060: 349b d63d 64f6 493e e6d4 92bc 4e29 d9bc
00000070: a5bc 4d3e d0c1 403d 7faf 913e 4471 dabc
00000080: 9a17 2abd 6d06 db3e c5cd b83e 820f 8f3e
00000090: 262a 47bc 3c7c 913e 09e3 003e 4768 7abc
000000a0: 7260 4ebc 40ff 0b3f 3df8 98bc 8a3f 533d
000000b0: 3c35 d63d 6e5e 353e 49c3 8dbc 08c7 193e
000000c0: e2ad 6dbc 2fb3 5f3d c5b4 0abe b84c 7a3e
000000d0: a81b 433e 74b8 333e 8c0a 903c c176 18bd
000000e0: 0c27 86bc 1b0a 9dbc 6877 6ebc 270f 833e
000000f0: 84fe b1bb a78a f4bc af0c a73d a839 8e3d
00000100: 3af5 8ebd f843 a13e b161 e9bc 1716 9ebc
00000110: bf5f ca3d 8d59 c4bd 6043 023d b003 80bc
00000120: aa2c b83e 2ca1 ab3e 71c4 83bc 4c73 1d3e
00000130: d7b0 1ebe c0c0 913e ceb2 5abd ef7f f43d
00000140: 8be8 dd3c 5c05 963e 43b8 3fbc 07f9 383e
00000150: d8a1 a8bc ce62 513d 554e ae3e 5db0 1b3e
00000160: ef52 2f3e 9c59 14bc ca01 3c3d a63d 2f3f
00000170: 584f 38bc 2ad3 0a3f cd07 803d a0a9 b73c
00000180: 59f8 c0bc 9e5c f3bc 4b0f 3e3e b7b9 9dbd
00000190: a727 f8bc c0f1 d5bc 52fd babc 0fa7 04bd
000001a0: 6d12 5bbc f4b7 8a3c a8eb 97bc 4085 0ebd
000001b0: d325 c0bc 3abc 773d 84df 0c3e 5660 d1bb
000001c0: 9d20 213f c19b 643d 6236 f13e 4169 b83e
000001d0: 64dc 06bd 1ee8 91bc 6f44 73bc 41b3 743e
000001e0: 314d bc3d e511 033f e55d 2f3e de2c afbc
000001f0: 00e6 093f bbd4 933e 417a e33d 60f4 743e
00000200: 99c2 9e3c ca93 a13e 4dc6 133e 2a3e 8a3c
00000210: 7dff 313e d7f4 47bd c3ef 383d 047b efbc
00000220: c4ba 89bc b140 9ebc 953b dfbd f99f 52be
00000230: d486 c9bc 19e2 823e eea8 03bd 6ddd 97bc
00000240: 90ef f5bc a50e 453e 0d7d c1bc 141a c43e
00000250: 9829 a13e 5a86 9d3e 4883 ce3e 63e6 9dbc
00000260: 85d5 1a3e 5a8f d73d 7b19 7e3d 46b0 2d3e
00000270: 6c15 3b3e 8548 873e d44d 733e 07bf 01bd
00000280: e97f 073d 0b95 853d 8cc3 b8bc 4959 18bd
00000290: 4cda 993e 235f 073f 7132 a33d 4344 86bc
000002a0: a70a ba3d 78fc 69bc d80f 61be fbf9 723e
000002b0: ba03 05bd 46e1 c63d a0f9 853e 8462 c33c
000002c0: 53f1 fa3c 6f6c c73e c14c 543e bdf5 bcbc
000002d0: 14d4 c5bc 9b5a b83e e02a 0c3e d481 a0bc
000002e0: 23c6 253e 437e 70be 81b5 7b3e fa94 193d
000002f0: 56f3 903c b06b 27be a474 c9bc a345 d13e
00000300: 226b 2ebe 555c 1d3c 56a0 9cbc 1809 1b3e
00000310: c053 893e c6e1 123e 0eb2 923e ee06 a6bc
00000320: 9af8 f5bd dd91 a03e 61b2 b43e 2471 2e3d
00000330: d69d 133f 8228 cebd d3e9 1c3d 6184 8dbc
00000340: 20f0 8f3d 0f23 68bc 2ab8 c8bc 2c2d 733e
00000350: 9cef db3e f10c 783d 8f0e 23bd 0b92 a3bc
00000360: 968e 9d3e 3718 0abd 7b06 d23c f259 c5bc
00000370: 592d 953d cc69 223e 05ea 86bc c1a8 cc3e
00000380: f0d6 cb3c 9850 e23c ba2c c83e bcb3 803d
00000390: 1efb dc3e 23af 403d e445 ecbc ca9a d63e
000003a0: 5691 863e c865 c73e 0dfe 7dbd 894a 7abd
000003b0: d2b6 f8bd 5470 debd 09ae 353e fd68 debc
000003c0: 3b5a a53e 6342 4a3e 6a5c 813d b101 15be
000003d0: b055 69be a378 0dbe 2962 bd3d 75a2 d23d
000003e0: 0bd7 463d 52a9 7fbc 802c 843e 0863 693e
000003f0: 53ba b1bc 989e 78bc f6e1 e9bc 037b 5cbc
0.25501934 0.37941188 0.43834072 0.033712696 0.010469855 0.47887924 0.10906749 0.41176787
0.008978864 0.2632592 0.17475812 0.111910336 -0.1441812 0.18790035 0.45860243 0.18357413
0.2302895 0.06806034 -0.020824559 0.016790004 0.25431144 0.015253504 0.019275425 -0.0263693
0.104788214 0.19722897 -0.017923784 -0.026508953 0.20091493 0.047059834 0.28454205 -0.026665337
-0.041526414 0.4277834 0.3609449 0.2794152 -0.012156045 0.28415096 0.12586607 -0.015283651
-0.012596237 0.54686356 -0.018673057 0.051574267 0.104593724 0.17711803 -0.017305033 0.1501733
-0.014506789 0.054614242 -0.1354552 0.24443328 0.19053519 0.17550832 0.017583154 -0.037222628
-0.01637604 -0.019169858 -0.014554836 0.25597498 -0.005431952 -0.02985127 0.08156716 0.06944591
-0.06980367 0.3149717 -0.028488966 -0.019297643 0.09881543 -0.09587393 0.031802535 -0.015626758
0.35971576 0.33521402 -0.016084881 0.15376014 -0.15497147 0.2846737 -0.053393178 0.11938464
0.027088424 0.29300964 -0.011701646 0.18063746 -0.020584986 0.051119618 0.34044138 0.15203996
0.1712148 -0.009054568 0.045900144 0.68453443 -0.011249386 0.5422846 0.06251488 0.02241975
-0.023555921 -0.02970725 0.18560521 -0.07701438 -0.030292345 -0.026116252 -0.02282587 -0.032385882
-0.013371092 0.016933419 -0.018544987 -0.034795046 -0.023455536 0.06048224 0.1375714 -0.006389658
0.6294039 0.0558126 0.47111803 0.36017802 -0.032925025 -0.017810877 -0.014847859 0.23896505
0.091944106 0.5119918 0.17125662 -0.021383699 0.5386658 0.28873238 0.111073025 0.23921347
0.0193799 0.31558067 0.14431114 0.016875345 0.17382617 -0.04881748 0.04515053 -0.029233463
-0.01681269 -0.019317957 -0.10900036 -0.20568837 -0.024600424 0.25563124 -0.032143526 -0.018538201
-0.030021459 0.19243868 -0.0236192 0.38301146 0.31477046 0.30766565 0.40334535 -0.019274896
0.15120514 0.10525389 0.06203602 0.16961774 0.1826989 0.26422516 0.23760158 -0.03167632
0.03308097 0.06522568 -0.022554182 -0.037194524 0.3004936 0.5287954 0.07968605 -0.016389972
0.09084063 -0.014281385 -0.219787 0.23728172 -0.032474257 0.09710936 0.2616701 0.023850687
0.03063265 0.38949916 0.20732404 -0.023066396 -0.024148978 0.36006626 0.1368823 -0.019593157
0.16188864 -0.23485665 0.24580957 0.03749559 0.017694157 -0.16349673 -0.024591751 0.4087344
-0.17033055 0.009604533 -0.019119423 0.15140188 0.2682171 0.14343938 0.2865147 -0.020266976
-0.120103076 0.31361285 0.35292342 0.042588368 0.57662714 -0.1006632 0.03830893 -0.017275037
0.07028222 -0.014168515 -0.024501879 0.237477 0.42956245 0.060559217 -0.039808806 -0.0199671
0.30772847 -0.0337145 0.025637856 -0.02409074 0.0728404 0.15860671 -0.016469011 0.399725
0.024882764 0.02762632 0.39096624 0.062842816 0.43160337 0.047042023 -0.02884192 0.4191497
0.26282758 0.3894484 -0.06200986 -0.06110624 -0.12144245 -0.10861269 0.1774217 -0.027149672
0.32295403 0.19751887 0.06316455 -0.14551426 -0.22786593 -0.1381555 0.09247238 0.102848925
0.048544925 -0.015604334 0.258152 0.22791684 -0.021695292 -0.01517453 -0.02855013 -0.013457063

parameters.mlp_1_w f4 [256, 256]
00000000: 4a09 d5be 3ba1 abbe d2c5 873e a9b5 83bc
00000010: f2da 93bc 4a12 8bbe 0804 bfbd 9e9a afbe
00000020: 4442 b6bd bd2f 843e 87ec 113f cfe7 77be
00000030: 68c7 27bf 867a 80be b790 c2bd 82b2 373f
00000040: ac6d 9a3e f4cc 193e f329 e7bd 2820 8fbd
00000050: 16e7 023d e5eb 04bf 4e28 853d c3c6 803e
00000060: a03f bd3b 7133 493d b8cd 2fbd d19a bdbe
00000070: 0acd 30ba 34e1 ef3c 1efe a5be af0a 893e
00000080: d615 df3b 2c5e e6be 53c6 183e 9475 083e
00000090: 8090 ac3d 59f1 cb3c e504 cdbe 3fe5 53bd
000000a0: 43df 0e3e 69a7 52be 627d dbbc 8080 143e
000000b0: 9bfc 88be 7092 273e c579 f43e 9907 4abb
000000c0: 01da 3fbf 3307 983e 4633 88ba ff1d 383e
000000d0: aafe 873e a586 8fbf b71b 78be 1d5f 063e
000000e0: 4e1a f1bd e3f4 39bf 3040 cdba 39e0 89be
000000f0: 1ffe c63e b016 48be ccfe c9be a9bf 9a3d
00000100: 3e05 84be 4c37 23be 5a4f 4f3d 5ad7 94bf
00000110: 9ef8 6fbf e326 77be 228b 403d aa4d 9f3d
00000120: f94c 02be cc34 e4be c5ec b8bc cdc2 193e
00000130: 484f 8ebe 0f25 f4bd 1f4c 1e3e 2dd9 233e
00000140: 36b5 153f 81c7 203e 0fb9 043d 57ab b23d
00000150: 95a3 973d 67a3 2f3d c05a 6dbe d062 903e
00000160: 4c2f 543e c179 743e 4ef8 7b3d 14b5 91be
00000170: 5f70 9e3e d5ad fc3d 59b5 b93d c6f5 26bd
00000180: 7011 2ebd be50 183e 069a a1be 2fc6 573b
00000190: b9da a3be d086 af3d 109c 7abf 7017 5cbc
000001a0: 04a2 be3e d927 f7be db60 fabc 7caa cb3e
000001b0: 954c 603e 87b5 00be 95ec d03c 3841 453e
000001c0: 7364 e93e 31af ac3e aff4 f73d b9cb cb3d
000001d0: ae51 bd3c 0d22 d1bd 9367 c13e fdc0 06bf
000001e0: b13e 04be d70d b1be 28f4 353e 9acc c03e
000001f0: 4ddb 683e 2b28 3a3e cd36 893e d646 4fbe
00000200: 6e30 1abe def7 6bbf 9b07 5ebd 8806 073e
00000210: b227 b23e 86ec 6a3c fc7a 03bf ea5d 01bf
00000220: 9acc 0abe c36d 0a3e 3abf eebc 707e d8bd
00000230: 40e4 b33e ac5b dabe 2a6e 8cbe a7dc 0c3e
00000240: b066 8bbe 9a98 48be db63 c63e 79e3 073d
00000250: 26e7 de3d 3b2b 12bd ce23 21be 28a1 1abe
00000260: 8685 dcbe 96dc bcbc c3ed 533c 9f7f bd3c
00000270: 9930 9d3d 5b8c 2abd a156 f4bd 9019 b5bc
00000280: 1eb5 37bb b94d 1b3e b05b 99be f11b 063d
00000290: f041 473e bd32 10bd b4e2 4bbd 3a81 923e
000002a0: a748 85be 3311 083e 3206 78bf 4df3 edbe
000002b0: 77d7 283d 78bd 0abe 01e0 7abd bba1 e7be
000002c0: d99f afbe bd56 69be 6e5a 30be 6bf8 683e
000002d0: c4fc e43d 720d fbbe dc18 853c 92d4 4c3e
000002e0: 204a 2bbd 858c 353d d549 e1be 1d15 2f3e
000002f0: 274d 78be 49c3 633e 96ac 06bf 9961 52be
00000300: e2eb ecbe 33b8 46bd f39b a93d 071f 74be
00000310: ef72 96bd 4118 4cbe 0d53 783d 9668 6cbd
00000320: 8484 e1be 4b21 063f de1c 94bf 010a 9cbc
00000330: 2dac a2be 9b1c 0bbd 89c0 153e 8fd8 83bc
00000340: 28fa a0bd bda3 4b3d 17ac 70bd 7aa9 683d
00000350: 8004 2fbf b5b9 223e 9c3e 8dbe 1721 1cbf
00000360: 5a5b a03d 5b85 193c b428 433e 95df 68bd
00000370: 40b3 b73e c364 6a3e 0e9b bd3d 86a8 173e
00000380: 6566 e5bd 3e0a 52be 4446 7f3e aab0 f4be
00000390: 0c95 0b3e c5ca 64bd 96b6 8abe 36ca 2abd
000003a0: 4c38 1ebd 6ce3 a13c c78b 25bf a9b3 93be
000003b0: 5bf6 65be 718e dabd 7880 a2be 0912 04bf
000003c0: ebc3 ebbc 6fd9 17bd 33c0 053f a0ea 00be
000003d0: 0d08 1cbf fdce 8dbe 65f6 d63d a596 4b3c
000003e0: 25d6 ec3e 4ee0 05be 8b7e 33be bd89 9cbe
000003f0: d51f c2bd 37ac 6cbd 5ed8 86be a1ee d7be
-0.4160865 -0.33521447 0.26518112 -0.016077833 -0.018048737 -0.2716239 -0.09326941 -0.3429765
-0.08899358 0.2581767 0.5700154 -0.24209522 -0.65538645 -0.25093478 -0.095002584 0.71756756
0.30161798 0.1501959 -0.11287298 -0.06988555 0.031958662 -0.51922446 0.06501828 0.25151643
0.005775407 0.049121324 -0.042920798 -0.37032178 -0.00067444204 0.02928219 -0.3242044 0.26765963
0.006808023 -0.44993722 0.14919405 0.13326102 0.08425999 0.024895357 -0.40042797 -0.051732298
0.13952355 -0.20571674 -0.026793186 0.14502144 -0.26755223 0.16364455 0.47749153 -0.0030827282
-0.7494202 0.29692993 -0.0010391257 0.17980193 0.2656148 -1.1212965 -0.24229322 0.1312222
-0.11772595 -0.7263929 -0.0015659388 -0.2692888 0.38865754 -0.19539905 -0.39452207 0.075560875
-0.2578525 -0.15939063 0.050612785 -1.162822 -0.93738735 -0.24135928 0.047007687 0.07778485
-0.12724675 -0.4457153 -0.022573838 0.15015717 -0.27794862 -0.11921131 0.15458725 0.16000815
0.5847963 0.15701105 0.032403048 0.08724087 0.07404248 0.042880442 -0.2317915 0.28200388
0.20721167 0.2387457 0.0615161 -0.28458464 0.30945107 0.12337843 0.090677924 -0.04076173
-0.0424971 0.1487455 -0.31562823 0.0032924523 -0.3200281 0.08570635 -0.9789438 -0.013433322
0.37232983 -0.4827259 -0.030563762 0.39778507 0.21904214 -0.12569247 0.025503436 0.1926316
0.4558445 0.3372741 0.121072166 0.099509664 0.023110237 -0.10211573 0.37774333 -0.52638227
-0.1291454 -0.3458087 0.1776892 0.376561 0.22739907 0.18179385 0.26799622 -0.20241866
-0.15057537 -0.9217509 -0.054206472 0.13186085 0.3479591 0.014338618 -0.51359534 -0.50533926
-0.13554612 0.13518433 -0.029143918 -0.10570991 0.35135078 -0.42648065 -0.27427799 0.13756047
-0.27226782 -0.19589463 0.3874806 0.03317592 0.10883932 -0.03568576 -0.15736315 -0.15100539
-0.4307062 -0.023054402 0.012935105 0.023132144 0.07675285 -0.04163776 -0.11930586 -0.022106916
-0.0028031538 0.15166368 -0.29952765 0.03274149 0.19458747 -0.035204638 -0.049776748 0.28614217
-0.26031992 0.13287811 -0.96884453 -0.46474686 0.04122111 -0.13548839 -0.061248783 -0.45240578
-0.34301642 -0.22786994 -0.17221996 0.22751014 0.11181024 -0.49033695 0.016247205 0.20002964
-0.041818738 0.044323463 -0.44001642 0.17097898 -0.24248181 0.22242464 -0.52607095 -0.20545043
-0.46273714 -0.04851551 0.08281698 -0.23839961 -0.073461406 -0.19931127 0.06062608 -0.05771693
-0.44046414 0.5239455 -1.157131 -0.019047739 -0.31771985 -0.033962827 0.14624228 -0.016094474
-0.078602135 0.0497167 -0.058757868 0.05680225 -0.6836624 0.15891154 -0.2758683 -0.6098799
0.07829924 0.009370173 0.19058496 -0.05685385 0.35878944 0.2289 0.0925809 0.1481038
-0.11201171 -0.2051172 0.24929148 -0.47791034 0.13631076 -0.05585744 -0.27092427 -0.04169675
-0.038627908 0.019761764 -0.6466641 -0.28848007 -0.22457258 -0.106717 -0.3173864 -0.5159002
-0.028779944 -0.037072595 0.522464 -0.12589502 -0.60949785 -0.27696982 0.10496215 0.012426053
0.4625713 -0.13073847 -0.17528741 -0.30573836 -0.09478728 -0.057781424 -0.2633695 -0.42174247

parameters.mu_b f4 [8]
00000000: 8c65 03be 1be4 523d e3b9 2c3e 1dfd 89bd
00000010: 2033 2b3d b5cc 11bc da7d 793d f6be f63d
-0.12831706 0.05148707 0.16867785 -0.06737731 0.041796803 -0.008898904 0.060911037 0.12048142

parameters.mu_w f4 [8, 256]
00000000: cdc3 5b3e fce5 d8bd 0862 9dbe 9c89 7a3d
00000010: 501a 5fbd a4c3 b33d d804 cf3e b411 2dbd
00000020: c8c0 84bc 7c58 78be 00c0 a53d 824f 4abf
00000030: 7a6d 30bf 9a69 98bd 46cc 16be 8fdb 303f
00000040: 60f8 bc3e 03f7 803f 0671 1cbb 0187 febb
00000050: 8510 fdbd 6540 9abc e03d 15bd 95f7 c73c
00000060: 41c6 383f fdf5 d83c e365 ef3a c1e3 e7ba
00000070: 722c 58bf 9d5b a23e 2844 373f 97f5 4fbf
00000080: a0c8 993d fbb9 65bf 08ee 47be 7cab 68bf
00000090: 1d1c e63b b769 c1bd aa65 cabd 9e6b ec3b
000000a0: 4d21 073c 47ee a3be 0eca 893c 7e3f c9bb
000000b0: 1fc3 0d3f 3587 913f e3d8 aa3c 7a1d 28be
000000c0: f62f 08bb 380a 26bc 7e4d 5e3d 9cdb 02bf
000000d0: 158e 5e3f ed04 1f3f dc20 c2bb 918e 57bc
000000e0: a7bb 18bd b60a 983c 5178 963e 40e3 b9be
000000f0: 0b59 9abb a20c e43b 84f8 3cbf 10cc e23e
00000100: 6d9a d1be 9ac3 00be 462c d23c d033 20bc
00000110: 2e83 a1be 9b99 703e 6a56 e03e d103 91bb
00000120: 641b 82be 5d45 953e b492 54bc 5b3d 843d
00000130: 2ec5 abbf 3ffd a43e dae3 c63f 23b7 303f
00000140: 3e8e 4cbd 172e a23e c38a fdbc a50c 2dbf
00000150: bf2d 8c3b f19e 043c 4ab8 c13e 1b3a ef3e
00000160: cf01 1bbf 4b35 593b 20fc 0f3f 8659 d8be
00000170: bca4 f33b 8556 ffbe 51a0 bbbc c447 12bf
00000180: 59af 72bc 40ff 5dbb 23f5 85bd 5336 943e
00000190: d052 17bc ef6c 1c3c 4987 71bc cc6a f538
000001a0: 86c0 223c 6a25 623d c5db 473b cb86 bb3c
000001b0: d9a8 913c 5ba8 bc3f 22b8 83bf 55c7 01bc
000001c0: 5d29 b5bd ccda 51bd dcab 30be 9cbc 863c
000001d0: 6e09 f43b b390 24ba e596 0c3c c512 05c0
000001e0: 6aa1 39bf 2bb7 b1be 6b75 6fbe 04c1 2f3c
000001f0: ea0c 0a3c 1093 f6be 775d d5bc 94c3 8fbe
00000200: 7bc4 6cbf 144a 91be 1918 debe 1a2f c7ba
00000210: 603c 4f3c 4016 1b3b f696 d038 fa0a d73c
00000220: eaec 16bb 8007 89bc 34b9 babc 7c6b c53d
00000230: ea27 34bc d918 783f ebc5 a7ba 5994 61bb
00000240: b7c4 ee3c ab11 8bbe e177 1b3c d341 adbe
00000250: f245 eabe 1e11 3e3e dba2 05bf cf90 8e3c
00000260: 80cb 50be eeed 593f c067 41bf d270 a83f
00000270: 76ee 79be 2b5a 6e3e 8593 b13e 22ee 2dbf
00000280: d9d9 babc 866e 2340 829b 8a3c 73a6 60bd
00000290: 9079 9c3d b70a a0bd c38f 173e 2f6d c23b
000002a0: ab52 023f f137 1f3b 31da 88bd aa28 2dbd
000002b0: 2163 a9ba dde1 833d a2a4 e7bd 87ce 36bc
000002c0: 25f0 9dba c4a2 013f 41b3 28bf d5b5 a03c
000002d0: 1362 9c3c 5d26 f0bc f07a a43f a7df a3bc
000002e0: 80f1 01bf bdf2 7dbf d34a 923e 8235 143c
000002f0: 0687 b8bc 06bd e1be dde7 853c a33d 393f
00000300: ea84 a9be 350f 2bbf 267b fcbb 6d1b 80be
00000310: df70 67bf 08b4 1fbf 97b8 dbbe 4a1d d23b
00000320: 1178 013f 4265 a7bf b291 f9bc c499 9abd
00000330: dd55 21bf 9f43 b33d 2c48 a2bc 388c bc3b
00000340: bee5 afbe 543e 01bb 5639 203c 00c0 f6be
00000350: 5190 48bf 3475 e43d 420b 34bd 5ba2 82bc
00000360: f6f6 6d3e 87ea 37bd cf64 42bd 1349 a33c
00000370: 502a 613d 9225 e43d 5be6 70bb 82bb eebf
00000380: c61e 33bc 3914 bd3d 6bc8 6abe e274 833f
00000390: 5375 17be e9a8 d83e 7d1c 19bc e029 ac3e
000003a0: 7f70 eabe ae40 ca3d 891b b13c 218c c33d
000003b0: 1f93 bb3e 8e23 fa3e f248 02be 320f 24bf
000003c0: fe72 b03f cebf 053f d2cd 91be 0544 473f
000003d0: 2823 2f3f b279 83be c42c 053f a677 6a3e
000003e0: 6c6f 983e 9499 933c 9712 943d af71 0ebe
000003f0: fb16 ba3a 306e 5abc 69d0 5dba 193b f53b
0.21461411 -0.10590741 -0.30738854 0.06116639 -0.054468453 0.0877755 0.40433383 -0.04225321
-0.016205207 -0.24252504 0.08093262 -0.7902757 -0.6891705 -0.07442017 -0.14726362 0.6908502
0.36908245 1.0075382 -0.0023871078 -0.0077675586 -0.123566665 -0.018829534 -0.03643596 0.024410048
0.7217751 0.026484484 0.0018264618 -0.0017691777 -0.8444282 0.3171052 0.71588373 -0.81234115
0.07508969 -0.8973691 -0.19524395 -0.90886664 0.0070223943 -0.09443992 -0.09882672 0.0072149774
0.008247686 -0.3201773 0.01681998 -0.006141602 0.55375856 1.1369387 0.020855373 -0.16417494
-0.002078054 -0.010134272 0.05427312 -0.5111635 0.8693555 0.6211689 -0.0059243273 -0.013156549
-0.037288334 0.018559795 0.2938867 -0.3630619 -0.004710322 0.0069595138 -0.73816705 0.44296312
-0.4093813 -0.12574616 0.025655877 -0.009777978 -0.31545395 0.23496096 0.4381593 -0.004425504
-0.25411522 0.29154482 -0.01297443 0.06457015 -1.341955 0.3222446 1.5538285 0.69029444
-0.04994034 0.3167579 -0.030949956 -0.6759742 0.0042779143 0.008094535 0.37835914 0.46724018
-0.60549635 0.0033143337 0.5624409 -0.422558 0.0074354094 -0.49870697 -0.022903593 -0.57140756
-0.014812314 -0.0033874065 -0.06540897 0.28947696 -0.009236053 0.009547456 -0.014741727 0.00011702403
0.0099335965 0.055211462 0.0030495983 0.022891423 0.017780708 1.4738878 -1.0290568 -0.00792106
-0.0884578 -0.05123405 -0.17253059 0.016447358 0.007447413 -0.00062776654 0.008580898 -2.0792706
-0.72511923 -0.3471006 -0.23384635 0.010727171 0.0084259305 -0.48159075 -0.026045544 -0.28078902
-0.92487305 -0.2837683 -0.4337776 -0.0015196532 0.012648672 0.0023664385 9.9463316e-05 0.026250351
-0.0023029395 -0.01672721 -0.02279339 0.09639642 -0.010995844 0.96912915 -0.0012800073 -0.0034420697
0.029146535 -0.27161917 0.009489031 -0.33839282 -0.4575649 0.18561217 -0.5220162 0.017403034
-0.20390129 0.85128677 -0.75548935 1.315943 -0.24407372 0.23276584 0.3468286 -0.67941487
-0.022808956 2.5536208 0.016919855 -0.05484624 0.07640374 -0.07814544 0.14800934 0.005933426
0.5090739 0.0024294818 -0.06682242 -0.04227511 -0.001292322 0.064395644 -0.11310698 -0.011157638
-0.0012049718 0.50638986 -0.6589852 0.019617954 0.019089734 -0.029315168 1.2850018 -0.020004107
-0.50759125 -0.99198514 0.2857271 0.00904596 -0.022525322 -0.44089526 0.016345913 0.72359675
-0.33109218 -0.6682008 -0.00770511 -0.25020924 -0.904066 -0.6238408 -0.42914268 0.006412183
0.5057383 -1.3077776 -0.03046498 -0.0754886 -0.6302164 0.08753132 -0.019809805 0.00575402
-0.34354967 -0.0019720988 0.009779295 -0.4819336 -0.7834521 0.11155167 -0.04395605 -0.015946558
0.2323874 -0.044901397 -0.04745942 0.019932305 0.054971993 0.111399785 -0.0036758396 -1.8650973
-0.01093263 0.09232373 -0.22928016 1.0270045 -0.1479085 0.42316368 -0.009345171 0.33625698
-0.45788953 0.09875618 0.021619575 0.09548212 0.36635682 0.4885525 -0.12723139 -0.64085686
1.3785093 0.52245796 -0.2847734 0.77838165 0.6841302 -0.25678784 0.5202143 0.22897205
0.29772508 0.018017568 0.07230108 -0.13910554 0.0014197523 -0.013331935 -0.00084615365 0.0074838516

parameters.std_b f4 [8]
00000000: ea79 6bc0 caab 71c0 9e95 7fc0 9c93 6cc0
00000010: 962d 76c0 7420 78c0 3f44 6ec0 3db1 74c0
-3.679316 -3.7761102 -3.993507 -3.6965094 -3.8465323 -3.8769808 -3.7229154 -3.8233178

parameters.std_w f4 [8, 256]
00000000: 0aae 083d e2c5 86bd 36fc 12be 6109 063d
00000010: 9b5d 063d 6b97 d6bc 7bc0 c5bd f9c3 04be
00000020: abda 413d 0dbd 14be 266c 0ebe afad f4bd
00000030: 52aa d4bc 785f b0bc 9146 b3bc 9053 883d
00000040: a994 8bbe b7bf d03e 0140 08bc b056 c03c
00000050: 4c19 c9be 9096 883c 5da8 193c 80ed 173c
00000060: 16d1 12bb 3f8c 4e3e 873f 3b3c a95e 193c
00000070: 21e1 90bd ab7c 95be aea2 9f3e 9cf7 babc
00000080: 8a3e dd3d 90c3 9c3e 57ef bbbd bd81 b23e
00000090: 1f52 563a 1944 22be 53b8 a13d ac70 a0bc
000000a0: e0e9 973b e6c6 23bd 1f5a 6d3c 42a9 943d
000000b0: f162 1abe 09c2 4b3d 7352 81ba 9bf8 51bd
000000c0: 21aa 343b 47ce b7bc 91d8 51be 6ab4 ab3e
000000d0: f3a1 713e 4d99 7fbe a97c 573d 1aca 49bc
000000e0: 2456 b93c 25ec afb9 c094 adbe d8d8 69be
000000f0: 704f 023d 951a 313c 37d2 f63d 92ec 003f
00000100: 89cb 0fbe 56e4 a23d b48a 253c 5be3 6dbc
00000110: 0e66 3dbe 96aa 56be 7119 07be ac86 8e3c
00000120: 16f5 c2be 5e2a 6e3d d18e e4bb 68f8 0abe
00000130: f993 793e b061 c5bd 3372 223e 734b f5be
00000140: 97e0 333c c037 e8bd 6a89 ae3c 5095 1f3d
00000150: 37ea 693c 70e6 2a3d 4e01 05be 6b16 97bb
00000160: fa4d 973e bcff c1bc 612a 373d 4a6d 993e
00000170: 8736 ee3a c7c6 35bd 7f24 193c 70b9 453d
00000180: 7ba4 133c 1bfb df3b c92d 3ebd 8cda ddbe
00000190: 7ccd c9ba 696b e43b 96c9 d33c e715 a23c
000001a0: 68f4 163c be99 42bc 239f d53a a60d 3a3c
000001b0: 9fb1 053a a4e2 8c3d d3fd a93d 131c 553c
000001c0: 3ec6 e7ba 2ede 053c 2e44 4cbc c188 d13d
000001d0: 604c bd3c 4944 bbbb e27e 98bb 5135 4d3f
000001e0: 2843 9fbd 6e82 de3d 2fda cebd 942e f13b
000001f0: aedd 16bf f574 1f3e 14ad 7d3e 4e80 9a3d
00000200: 70b6 1a3e 7d82 973d 11dc d8bd 2e82 ef3c
00000210: 57f9 0f3d 8393 69bb 3c02 533d a23c 173c
00000220: 7a4b b8bb a9e6 31bc bd68 22bf 9c6f 3cbf
00000230: 5561 a7bc 6874 50be 7760 9c3b bdec 8fbb
00000240: 3c5e 503c 3f95 773e 9796 c23b a668 06bf
00000250: 73bd aebd b810 c4bd 19d7 8a3e e711 99bc
00000260: 30f8 8dbe 79e1 163e 05f7 82bd f58e a13e
00000270: 956e 1abb 51e7 e2bd 6adf bbbd 4403 44bd
00000280: db53 083d c20d 963f d150 063c 7a5b 43bd
00000290: 6da7 463c 42d6 36be 9bd0 86bc b571 67bb
000002a0: 8029 b73d e6af 28bc 7dd1 c33e 2761 92be
000002b0: 18bb 4a3a 682d 59bd 2c3f cdbe ab50 8d3d
000002c0: 51e2 bf3c 96cc 053d 188e a63e 1130 10bc
000002d0: 2144 6b3c d924 cebe dd31 c8bc bbac ae3e
000002e0: 6cee 563e f5fa ad3e 93ac 08be aae3 94be
000002f0: 4e0b ca3c 4c26 ca3e bb48 683c 5d9e b0be
00000300: 7ffb e1be f772 f73a ae45 a33c 9aaf b53c
00000310: e4bf bc3e 5c7e 263d 4c18 943c d38a 1d3c
00000320: 0c8d f93e 5f17 2e3f 439c 17be 1807 4ebe
00000330: 9586 6e3d 342f bfbe 1149 d83d f6fa 6e3c
00000340: ee85 95be 9ef4 d3bb db09 0c3c 3ae1 cfbc
00000350: a812 a93d 712c 87bb 5871 21be 567f acbb
00000360: 9e55 ff3d 83bf f23b 7de2 f03c 59d2 7a3d
00000370: 3478 8f3e 2116 9abe 7a76 79bc 192f 4c3f
00000380: 24ca 633d a5d0 5bbe 790f 78be 7d93 a03e
00000390: 463c c13e 2a3b 0fbe ca1a 33bb 252e b73d
000003a0: 6a3c bcbe fb97 38be 84f3 02ba 97bf a1bc
000003b0: bad4 b2be 200a ef3d 5689 3fbe 1858 0fbf
000003c0: 4f54 533e 1372 5ebe 6388 26bd cc94 433e
000003d0: d6fa e2be db1a 4a3c d65c aabe 8352 a03f
000003e0: a21e 543d 2969 0d3c 1922 9e3e 8a29 b8be
000003f0: a926 c53c 7eab c43c 5bc1 963c 5f7c b239
0.0333691 -0.06580712 -0.14354023 0.03272379 0.032804113 -0.026195249 -0.09655853 -0.12965383
0.04732768 -0.14525242 -0.13908443 -0.1194719 -0.025960121 -0.021529898 -0.021884235 0.06656563
-0.27261856 0.40771267 -0.008316041 0.023478836 -0.39277112 0.016673356 0.00937852 0.009272933
-0.0022402457 0.20170687 0.01142872 0.009360948 -0.0707419 -0.29196677 0.31178802 -0.022823147
0.10802944 0.30617952 -0.0917651 0.34864607 0.0008175689 -0.1584629 0.07896485 -0.019584976
0.0046360344 -0.039984606 0.014486819 0.07258846 -0.15076806 0.049745593 -0.0009866491 -0.05126248
0.0027567225 -0.022437228 -0.2049277 0.33536083 0.23596935 -0.24960823 0.05260912 -0.012316251
0.022624083 -0.00033554542 -0.3390255 -0.22836626 0.03181404 0.01080956 0.12051814 0.5036098
-0.14042486 0.07953708 0.01010387 -0.014519538 -0.18495962 -0.20963511 -0.13193299 0.0173982
-0.3807761 0.058145873 -0.006975033 -0.13571322 0.24372853 -0.09637773 0.15863876 -0.47909126
0.010978839 -0.113387585 0.021305759 0.038960755 0.014277033 0.04172367 -0.12988779 -0.0046108267
0.2955168 -0.023681514 0.04471815 0.29966193 0.0018174209 -0.044379022 0.00934708 0.04827255
0.009011383 0.006835354 -0.046430383 -0.433308 -0.0015396322 0.006970812 0.02585296 0.019785834
0.009213544 -0.011877475 0.0016298037 0.011355793 0.0005100015 0.06879166 0.08300366 0.013007182
-0.0017682982 0.008170648 -0.012467427 0.10231162 0.023107708 -0.0057149273 -0.0046537975 0.8015948
-0.07776481 0.10864721 -0.10100209 0.007360289 -0.58932006 0.1557196 0.24773055 0.075440034
0.15108657 0.073979355 -0.10588849 0.02923688 0.0351499 -0.0035640902 0.051515803 0.009230765
-0.005624232 -0.010858216 -0.6344107 -0.736078 -0.020432154 -0.20356905 0.0047722417 -0.004392235
0.01271778 0.24178027 0.005938362 -0.5250343 -0.08532228 -0.09573501 0.2711723 -0.018685294
-0.27728415 0.14734448 -0.063947715 0.3155438 -0.0023564447 -0.11079276 -0.09173472 -0.047854677
0.033283096 1.1722949 0.008197979 -0.04769466 0.012124878 -0.1785517 -0.016456893 -0.0035315577
0.08943462 -0.010295844 0.38245764 -0.28589746 0.00077335676 -0.05302182 -0.4008726 0.06900152
0.023423346 0.03266581 0.32530284 -0.008800522 0.014359505 -0.40262488 -0.02443784 0.34116158
0.20989388 0.33980528 -0.13347082 -0.29079944 0.024663594 0.39482343 0.014177497 -0.34495822
-0.4413719 0.0018878867 0.019930687 0.02217846 0.3686515 0.04064785 0.018077992 0.009615618
0.48740423 0.6800441 -0.14805703 -0.20119894 0.058233816 -0.373407 0.10560811 0.014586201
-0.29203743 -0.0064683696 0.008547272 -0.025375951 0.082555115 -0.004125171 -0.15765893 -0.005264203
0.12467502 0.007408084 0.029404873 0.06123576 0.28021395 -0.30095008 -0.015226001 0.79759365
0.0556127 -0.2146631 -0.24224652 0.31362525 0.37741297 -0.13987413 -0.00273292 0.08944348
-0.36764842 -0.18026726 -0.0004995393 -0.019744677 -0.34927922 0.11671853 -0.18704733 -0.55993795
0.2063763 -0.21723203 -0.040657412 0.1909973 -0.44331998 0.012335504 -0.33273953 1.252518
0.051787026 0.008631029 0.3088539 -0.35969192 0.024066286 0.024007555 0.018402746 0.0003404347
