notebook/result/weights/sac_snapbot/episode_800.pth (torch, 355440 bytes, 8 tensors)

parameters.mlp_0_b f4 [256]
00000000: 4d19 983d 23ce 14be c4a8 8d3d 94b0 a8bd
00000010: 9927 9a3e 2564 7dbe 1ca3 8abe b17a 11be
00000020: c7ba 58be 18be 8dbd a281 1f3e 844a ccbd
00000030: 0ab4 a7bd a11a c93d e2bd d5bd bb01 fd3e
00000040: 11a9 0ebe 8180 99be f8a5 04be f87b fcbd
00000050: 27a7 07bd 1e81 aebd e9ac 96bd 65b3 7d3d
00000060: 4a47 5bbe bfec 2fbd e86d e03d bb27 0bbe
00000070: 858b 42be bb43 5cbc c789 50be d339 8ebe
00000080: a5dc f9bd e547 b93d 347b a5bd e7d2 45be
00000090: b9bc 843c 567f b63d ae2c b8bd a528 d5bd
000000a0: 44ba 5ebe cb18 9abe 7168 f6bd b710 5bbe
000000b0: 5f0b a6bd b2d4 253e a6a3 803d 3bf3 3dbe
000000c0: 121e 5bbd bacb f5ba ae17 e1bd fb60 a1bd
000000d0: acfe c4bd 17ad 90be 4894 153e 70e6 d1bd
000000e0: 7e05 22be b1f7 99be 81f0 2dbe ea1f a1be
000000f0: f40b c6bd a93c d2bd 8111 98bd ceed 41be
00000100: 8af8 04be cc10 c6be 7274 e8bd 91d7 ae3d
00000110: 64dc 85be 84bb bbbe 9bff fc3d 06a5 5dbe
00000120: 7ae9 57be 152f 88bb 2112 d0bd adbd 92bd
00000130: e2c1 173d a7e8 06be e281 51bd 4254 a9be
00000140: 181a 2fbe 0a96 afbd ae81 73bd 47c3 17be
00000150: af4d 57bc ce65 83be dc10 88be adf8 4fbe
00000160: 88c7 1e3d 2d57 9c3e 8d84 b2bd ec3e 453e
00000170: 3e6b 05bc ba5c f3bc 6137 efbd 561a 92be
00000180: e349 53bd 5a02 25bd 75b2 1cbe 2aa1 febd
00000190: 333e 05bd 7934 6ebc 3c6a 23bd c4aa 0dbe
000001a0: d3dc 92be 7ff6 fbbd 5c0c 37be 88d7 a23e
000001b0: 73e7 99be 3c3c 28be 1633 5dbe cb69 d3bc
000001c0: 380a 13be 7c3d 32be a7ad 6c3e b98d 11be
000001d0: 69b6 e43b ce3e d0bd f24c 0d3e 029f 85be
000001e0: 47a5 d13d b25b 79be b634 fbbd 9be0 883e
000001f0: 3f48 0b3d 9524 253d 132c 95bd 0e5d 2dbd
00000200: adee 3abe 4c3d 013e eca8 01be ed04 61bd
00000210: 2bd3 acbe be3b 99be 977b 02be b3b7 ab3d
00000220: 2075 d03e 603f 16be 0426 57be 9b30 5bbd
00000230: 4414 d7bc 3ecd ab3c 012c 16be beff 3fbe
00000240: a94f 69be 2996 a9bb 308b 34be f439 9bbe
00000250: 94b1 69be 62dd 42be 1d04 75bd 9e9b 7fbe
00000260: 6617 5bbe 4e93 85be d457 78bc 5d5f e73d
00000270: 6c27 88be 9839 02be c5eb 85be 6220 56be
00000280: f269 c93b 2867 aabd 6be2 9cbe e83f cfbd
00000290: a1e6 e7bd 188c 4bbe b7df 6e3e 57c2 cdbd
000002a0: 5259 9fbe 85a0 80be f794 b3b9 133f 8ebc
000002b0: ab3a af3d 2514 a9bd a0e3 53bd 36ce 75bd
000002c0: fdd5 cc3c df7d 543e 4874 64be c8e8 5abe
000002d0: 50eb 1cbe 792f 90be deb7 6cbe 11cc 02be
000002e0: 6963 45be a313 2ebe 70c5 36be 8377 dbbd
000002f0: b558 9bbc 6122 f63d 837b 4dbe 7d69 88bd
00000300: 1c3d 76bd 9cd5 c83d fd08 963e fc4e dfbb
00000310: 97be aabd 7aa2 b23d 0d5f f0bd fcb2 ec3d
00000320: ea84 393e 63fb 75be 7848 9abd 6bf1 04bd
00000330: 82c6 b8bd d181 13bd 3b2a 02bc 91b2 25be
00000340: 751c 33be 9e20 26be a708 0fbe 824c 90bd
00000350: 1afa 2c3f c6ce 7dbe feeb 35bc 9891 e13e
00000360: c63e 0dbe d3ff 5d3d 8f91 67be 3665 21be
00000370: 4467 63be de81 68be 109f 2b3e 120e 28be
00000380: ddce 65be dadb a2bd 842a 9abd df21 d1bd
00000390: 1a4e 82be c6d4 45bd 1d25 173e 7c00 203f
000003a0: 00a1 fdbd 310e 673e ddde 5fbd 6443 36be
000003b0: 170f fabd 33e3 babc b44e 22be 1dcd f4bd
000003c0: 3242 123e 7d78 b03e 00e3 46be 1fdc 1fbe
000003d0: c5d3 0d3e 24f5 eebd f34c 02be 4513 813d
000003e0: c823 8d3e 88c6 82be bd6b 043d 5c56 52bd
000003f0: 0d9b 7e3d d5fa 453e 208b 52bd 3687 1dbe
0.07426701 -0.1453176 0.06916955 -0.082368046 0.30108336 -0.24745233 -0.27077568 -0.1420696
-0.21165 -0.06921023 0.15576795 -0.0997515 -0.081886366 0.09819532 -0.10436608 0.49415383
-0.13931681 -0.29980853 -0.12953937 -0.12328333 -0.033118393 -0.08520721 -0.07357199 0.061938662
-0.21413913 -0.042950388 0.10958463 -0.13589375 -0.18998535 -0.013443883 -0.20365058 -0.2777849
-0.12200288 0.09046916 -0.0808014 -0.19318734 0.016203271 0.08911006 -0.08992897 -0.10408143
-0.21750742 -0.3009704 -0.12031639 -0.21393095 -0.081076376 0.16194418 0.062812135 -0.18549816
-0.053495474 -0.0018752732 -0.10990845 -0.07879826 -0.09618887 -0.28257057 0.14607346 -0.102490306
-0.15822408 -0.30071786 -0.16986276 -0.3146966 -0.09670249 -0.10265476 -0.074252136 -0.18938372
-0.12985435 -0.3868469 -0.11350335 0.0853721 -0.26144707 -0.366665 0.123534404 -0.21644983
-0.21085158 -0.0041560032 -0.10159708 -0.07165084 0.037050135 -0.13174687 -0.051149257 -0.33072096
-0.17099798 -0.085735396 -0.059449844 -0.14820586 -0.01314108 -0.25663608 -0.26575363 -0.20309706
0.038764507 0.3053526 -0.08716688 0.19262284 -0.008143244 -0.029707301 -0.116804846 -0.28535718
-0.051584136 -0.040285446 -0.15302451 -0.12433083 -0.03253002 -0.014538878 -0.039896235 -0.13834673
-0.286841 -0.12302875 -0.17875808 0.31805062 -0.30059394 -0.16429228 -0.21601519 -0.025807282
-0.14359367 -0.17406267 0.23113118 -0.14214219 0.006979753 -0.10168229 0.13798884 -0.26097876
0.10236602 -0.24351385 -0.12265913 0.2673386 0.034004446 0.04031809 -0.07283797 -0.042325072
-0.1825511 0.12621039 -0.12662095 -0.05493634 -0.33754858 -0.29928392 -0.12742458 0.08384647
0.4071436 -0.14672613 -0.21010596 -0.05351315 -0.02625478 0.02097189 -0.14665224 -0.18749902
-0.22784294 -0.005175371 -0.17631221 -0.30317652 -0.22821647 -0.19029763 -0.059818376 -0.24961707
-0.21395645 -0.26088947 -0.015157659 0.11297486 -0.26592577 -0.12717283 -0.2615644 -0.2091079
0.006146663 -0.08320457 -0.30641493 -0.10119611 -0.11323286 -0.1987766 0.23327528 -0.10046833
-0.31122833 -0.25122467 -0.00034252528 -0.01736406 0.08556112 -0.082557954 -0.051730752 -0.06001111
0.025004381 0.20751141 -0.22309983 -0.21377861 -0.1532414 -0.2816122 -0.23117015 -0.12773158
-0.19276203 -0.16999678 -0.17848754 -0.107161544 -0.018963197 0.12018276 -0.20066647 -0.06660745
-0.060116872 0.09806368 0.29303733 -0.0068148356 -0.083371334 0.08722396 -0.117368795 0.11557576
0.18117109 -0.24021678 -0.075333536 -0.032456797 -0.09022237 -0.036012474 -0.007944639 -0.16181399
-0.17491324 -0.1622338 -0.13968144 -0.07045843 0.67569125 -0.24785909 -0.011103628 0.44056392
-0.13793477 0.05419905 -0.2261412 -0.15761265 -0.22207361 -0.2270579 0.16759896 -0.16411617
-0.22442193 -0.079520896 -0.075276405 -0.102115385 -0.25450212 -0.04829862 0.14760251 0.6250074
-0.12384224 0.22564007 -0.0546559 -0.17799145 -0.122099094 -0.022813415 -0.15850335 -0.11953185
0.14283064 0.34466925 -0.19422531 -0.15611313 0.13850315 -0.116678506 -0.12724666 0.063025035
0.2756636 -0.25542092 0.03232931 -0.05135189 0.062159587 0.19333966 -0.05140221 -0.1538361

parameters.mlp_0_w f4 [256, 70]
00000000: 76a5 f4bd 8a75 423d b53f b4bd 7bc0 4fbf
00000010: a805 5abd 67d3 f53c 37a9 a63d 966c 8c3e
00000020: d6c8 1e3e 9869 873d 2735 55be 8ab7 81bf
00000030: 67e2 b33c f081 82b9 7593 c93d a21a 053f
00000040: 554c 74be 4075 6d3e 25a4 ed3e f324 8fbe
00000050: a834 23be 310e 63bf a588 24bf 154e 253f
00000060: 488a 8a3c eacd 47bd d575 a43f 7494 353d
00000070: 9cbc d6bc ad55 e83d 3296 c33d 5ff2 dc3d
00000080: e684 3b3d b7bd 6e3d 6c51 bfb9 b07f 0fbe
00000090: 1182 343e 0173 fbbd c739 6cbe 6b76 763e
000000a0: 9d2e 41be 92be 00be 8001 8c3d e9f3 1abc
000000b0: a20c 63be 3e0a d53b ed75 a6be 7d3f 283e
000000c0: 9b6a 343e 7787 19bc e61c 303e f77b 0bbc
000000d0: 8ac3 8e3d a1b2 17bf 9389 99bd 38de a2b9
000000e0: 57b4 923e 64a5 853e 0f06 d03d 4a7b c33c
000000f0: cbcc dc3e b10e 8c3f 2b85 193d 77c3 aa3b
00000100: 6951 f73c e59b 1fbd 16b6 bf3d 6ac0 923d
00000110: f429 59bd 8c52 ed3b a7ac e7be 2d02 b03d
00000120: a39f b4bd b22a a43e 98ca 3d3c 763a a3be
00000130: d733 7c3e 1771 053c 1d83 cdbe 5e6f 9fbe
00000140: b45e dcbd aa31 093e ae0f acbd 903b 03bf
00000150: 4a4a 8f3d 27a9 a3be b433 2a3c 294d 01bb
00000160: 5aef 7abf 655f 0b3e 61f3 4c3d bb1f e2be
00000170: 3429 4c3f d54b 463d a841 8abe 2ce5 ab3e
00000180: 6229 9a3d f652 2abe 3ec2 203e da63 1bbd
00000190: e826 253d 6641 b6be 13cd c13e fb51 7dbe
000001a0: 44ce 15be 4070 dc3e f8a1 373c 203b 103d
000001b0: eb11 363e ed04 fd3d 363d 5dbe d689 29be
000001c0: 3b09 a53c 0038 183d 1586 2dbd 8354 70bd
000001d0: 4e3d 533e a731 b3bd 5f85 2a3e 00c9 843d
000001e0: e267 893d d2dc 8ebc e7f9 f83d ca3b 7dbe
000001f0: 2e9b 2fbe 3690 88bb 0846 88be a39e d23d
00000200: 6fb0 56bd bb47 acbe 7d22 f6bd 02c8 063e
00000210: 45fb c2bd b527 3fbc aede ecbd c5db b43c
00000220: cf0f 4c3e f3cc 9cbc e003 ba3e 7e26 14bd
00000230: 2f4b 19be bb33 d73e 5663 5fbe 2854 793e
00000240: df3b 72be dbb5 8a3d 101b 153f 5af3 39be
00000250: 9252 043e 25f7 093f 8d97 58be f6ff 41be
00000260: 143b 88be da90 bc3d 74a2 123e cf54 a7be
00000270: 9f66 71bd e7cf 303f a3ea 833f 18ec 1ebf
00000280: 5c93 48bc 5a53 f03c bf6f a3bf f13b 5a3d
00000290: 3e52 45bc 3151 603f 0fb0 bebe 30a6 19bc
000002a0: a305 34bd dca3 b1bd 15a5 a0bc 2112 1bbe
000002b0: 33f7 ad3e b27d 0ebe 6176 153e 3822 8cbe
000002c0: b677 4f3e ec66 50bc 691a 3c3e e430 703d
000002d0: d7c8 203d 52b9 39be 5930 0fbd 5206 a8bc
000002e0: ef24 bcbe 6b83 3fbe 4b05 173e ccb8 753b
000002f0: 3c90 86be d3d7 1e3e fe8f 2ebe a267 58bd
00000300: bdd7 a13e a49a 31bd 3946 89be 605a 98bd
00000310: 4804 c0be 006e 8bbe 7d09 0b3f 2fd5 11be
00000320: 9264 253e c30a 15bf 0419 903d 2861 6fbd
00000330: 0d9f e6bc 0cc7 523d f1c9 17be 6e86 f83d
00000340: 89e1 58be d4e3 7e3e 77bd c5be 8455 833e
00000350: a667 1fbc 7fc4 bbbd a56e e6be 0d90 01bf
00000360: 87cf c03e c041 003f 10b1 7fbd e649 85be
00000370: 228d 54bd eb38 a1bd 6b4c e9bd e5f2 70bf
00000380: bc27 8b3d 34a9 133f 1fbc 473e c751 19bc
00000390: c5a8 cb3c a18a d73d ecae c33d ac3b e93e
000003a0: 4190 d8bd 10f7 b7be 5e78 e73b f2c6 0bbe
000003b0: 16cf 87bf cdaf aabd 449a a1bd 0a0c f9bc
000003c0: 7592 113d b342 5f3e 2058 b4be c12e debe
000003d0: 25f6 e23d de31 3e3e 3eb8 a33d 4f8e 94bc
000003e0: becb 8dbd d491 21be 95c1 2fbe 5750 3e3e
000003f0: bc4f 9e3e a8f4 1a3e 90f2 3c3c e7ef 97bd
-0.11945622 0.047475375 -0.08801214 -0.81153077 -0.05322805 0.030008031 0.08137744 0.27426594
0.155063 0.06611937 -0.20821057 -1.0134137 0.021958543 -0.00024892343 0.09842578 0.51993763
-0.23857243 0.23189259 0.46414295 -0.27957878 -0.15938056 -0.8869353 -0.64271003 0.6457227
0.01691164 -0.04878036 1.284846 0.04433103 -0.026212983 0.11344466 0.09550132 0.10788416
0.04578104 0.058286395 -0.00036491023 -0.14013553 0.17627741 -0.12277795 -0.23068915 0.2406861
-0.18865438 -0.12572697 0.068362236 -0.009457567 -0.22172788 0.006501465 -0.32511845 0.16430469
0.17618792 -0.009370676 0.17198524 -0.008513442 0.0697089 -0.5925694 -0.07496943 -0.00031064614
0.28653213 0.26102746 0.101574056 0.0238625 0.43124995 1.0941983 0.037480514 0.0052112895
0.030190187 -0.038967032 0.09360902 0.07165606 -0.053018525 0.0072425064 -0.4524891 0.08594165
-0.08819511 0.32063824 0.011583947 -0.3188054 0.2462915 0.0081446385 -0.40139094 -0.31139654
-0.10760251 0.13397852 -0.08401428 -0.5126276 0.069965914 -0.3196499 0.010388304 -0.001972983
-0.9802147 0.13610609 0.05003679 -0.44164833 0.7975037 0.048412163 -0.27003217 0.33573282
0.075274244 -0.1663321 0.15699098 -0.037937023 0.040320307 -0.3559677 0.37851772 -0.24738304
-0.14629465 0.4305439 0.01120805 0.035212636 0.17780273 0.12354455 -0.21605381 -0.16556486
0.020146003 0.03716278 -0.0423642 -0.058674347 0.20628855 -0.08749705 0.1665244 0.0648365
0.06709267 -0.01743928 0.1215704 -0.24729839 -0.1714904 -0.004167582 -0.2661593 0.10284164
-0.052414354 -0.33648476 -0.12018297 0.13162234 -0.09520582 -0.011667182 -0.1156591 0.02207745
0.19927905 -0.019140696 0.3633108 -0.03616952 -0.14970087 0.42031655 -0.21815237 0.2434851
-0.23655652 0.067729674 0.5824442 -0.18159238 0.12922123 0.5389274 -0.21151562 -0.18945298
-0.26607573 0.09207316 0.14319783 -0.3268189 -0.058935758 0.69067234 1.030598 -0.62079
-0.012242164 0.02933662 -1.2768477 0.05327982 -0.012043534 0.8762389 -0.37243697 -0.009378001
-0.043950688 -0.08673832 -0.019609967 -0.15143634 0.3397766 -0.13915136 0.14595939 -0.27369857
0.2026051 -0.012719851 0.1836945 0.058640376 0.039254036 -0.181371 -0.034958217 -0.020510826
-0.36746928 -0.18702476 0.14748113 0.003749418 -0.26281917 0.15512018 -0.17047116 -0.052833207
0.31609908 -0.043360367 -0.26811388 -0.07439113 -0.37503266 -0.2723236 0.5431135 -0.1424148
0.16151646 -0.58219546 0.07036021 -0.058442265 -0.028152013 0.051459357 -0.14823128 0.121350154
-0.21179785 0.24891597 -0.38621113 0.2565118 -0.009729302 -0.09168338 -0.4500629 -0.5061043
0.3765833 0.50100327 -0.06242472 -0.26032943 -0.051892407 -0.07872184 -0.11391529 -0.9412063
0.06794688 0.5768006 0.19505356 -0.009357876 0.024860749 0.10524488 0.09554848 0.4555334
-0.10574389 -0.3593068 0.0070639094 -0.1365011 -1.0610073 -0.083343126 -0.07890752 -0.030401248
0.035540063 0.21802787 -0.35223484 -0.43395045 0.110821046 0.1857371 0.07994126 -0.018134264
-0.06923626 -0.15778285 -0.1716369 0.18585335 0.30920208 0.15132391 0.011532441 -0.074188046

parameters.mlp_1_b f4 [256]
00000000: 9606 0a3e 5881 d53e abb8 f73e 6c55 8b3d
00000010: c189 2b3c c1b6 d13e e76a 0f3e 0275 9d3e
00000020: 161c 133c 0d76 a33e 621c f63d bf2a 393e
00000030: 55da 14be e643 fa3d 4e11 f73e b637 103e
00000040: c390 ee3d cc63 903d 4498 aabc 318b 893c
00000050: b472 8d3e d5e9 793c 7fe7 9d3c 6e04 d8bc
00000060: 66ef 49bd 63d9 e63d e6d4 92bc 4e29 d9bc
00000070: b098 853d 7711 d63c 8822 8c3e c660 a63b
00000080: 9a17 2abd 861e c93e 9d24 443e 4717 5e3e
00000090: 262a 47bc a6e4 343e 5727 193d 4768 7abc
000000a0: 7260 4ebc 9b59 fa3e 3df8 98bc da51 4f3d
000000b0: ae70 1a3e 6b5b 823d 49c3 8dbc a00c c83d
000000c0: e2ad 6dbc 2fb3 5f3d 5ac9 89bd 57ed 423e
000000d0: 75fd 293e 2489 143e 8c0a 903c c176 18bd
000000e0: 0c27 86bc 1b0a 9dbc ae76 2a3d 0adc 3b3e
000000f0: 84fe b1bb a78a f4bc b898 383e 8022 813d
00000100: bd5b a1bd a7d6 8d3e b161 e9bc 1716 9ebc
00000110: e7db 223e a9a4 3cbe 30db ee3d b003 80bc
00000120: e10e b63e 4b9a b43e 71c4 83bc bd75 ed3d
00000130: b446 b4bd e3f3 a13e 2420 b0bd 0793 3bbd
00000140: 8be8 dd3c 8263 213e 43b8 3fbc 92a1 f23d
00000150: d8a1 a8bc ce62 513d 96fb ba3e 3198 163e
00000160: b488 553e 9c59 14bc 81c0 ba3c edf2 083f
00000170: 584f 38bc 73b2 c73e cd07 803d 66d6 8fbd
00000180: 59f8 c0bc 9e5c f3bc b9b8 423e c740 8dbc
00000190: a727 f8bc c0f1 d5bc 52fd babc 0fa7 04bd
000001a0: 6d12 5bbc f4b7 8a3c a8eb 97bc 4085 0ebd
000001b0: d325 c0bc 4715 053a f26d 423e 5660 d1bb
000001c0: f572 053f c19b 643d a821 c73e 750b 8b3e
000001d0: 64dc 06bd 1ee8 91bc 6f44 73bc 39c8 393e
000001e0: 3b7c 313e 3f67 e83e 1778 883e de2c afbc
000001f0: d396 053f 680b 683e 427b 323e 582d 673e
00000200: 014f 5f3e c6d5 a93e 80b2 443d 2a3e 8a3c
00000210: 9d60 073e d7f4 47bd c3ef 383d 047b efbc
00000220: c4ba 89bc b140 9ebc 2e48 1dbe e3e5 41be
00000230: d486 c9bc 9f48 403e eea8 03bd 6ddd 97bc
00000240: 90ef f5bc 60b5 373d 0d7d c1bc 3f00 b13e
00000250: f541 823e 5956 983e 2c2b c63e 63e6 9dbc
00000260: 29b4 873d 45f1 6f3e 7bd5 b8bd bd60 613e
00000270: 318e 323e ca28 7f3e e700 703e 2235 db3d
00000280: e97f 073d 662e f43d 8cc3 b8bc 4959 18bd
00000290: 52a3 953e 0ce7 f73e d638 673d 4344 86bc
000002a0: 1244 3b3e 78fc 69bc 95b7 41be ed3d 273e
000002b0: ba03 05bd fbe7 c23d 76aa 8e3e 8462 c33c
000002c0: 9d30 3d3d 838e aa3e b172 693e bdf5 bcbc
000002d0: 14d4 c5bc 025b 893e 0b69 7d3e d481 a0bc
000002e0: eef5 6b3e d5b5 50be 4380 793e 7d1c a63d
000002f0: 56f3 903c 9daf 37be a474 c9bc 91d9 d83e
00000300: d797 bbbd 5429 3ebc 56a0 9cbc 1f42 cf3d
00000310: a063 393e bfa1 4a3e 106a 513e ee06 a6bc
00000320: 9af8 f5bd ad94 4c3e 0f8f 813e 99bc 84bc
00000330: 8ad0 033f a675 e8bd f2f2 6c3d 6184 8dbc
00000340: 15d1 a23d 0f23 68bc 2ab8 c8bc 47e5 943d
00000350: b24a b83e f10c 783d 1c2b 213d 0b92 a3bc
00000360: 28bb 993e 3718 0abd 10bb 1f3d f259 c5bc
00000370: 9c16 d63d 357f 423e 05ea 86bc c485 a93e
00000380: f0d6 cb3c bb06 20be 35e2 ab3e 51ed ea3a
00000390: 94b7 c73e 2bce 943c e445 ecbc 51fb 8d3e
000003a0: c784 293e d51a cb3e 0dfe 7dbd 237e 42bc
000003b0: 9069 1bbe 5470 debd 93aa 123e ab6d 4e3d
000003c0: 5bcd 7a3e 8f11 8c3e e8b9 343e 69fc 07be
000003d0: 16d2 d7bd cc0e e4bd d470 c83d 75a2 d23d
000003e0: 9b15 873d 52a9 7fbc cf22 943e 2458 a73e
000003f0: 53ba b1bc 989e 78bc f6e1 e9bc 037b 5cbc
0.13479075 0.41700244 0.48383078 0.06803402 0.010469855 0.40959743 0.14005624 0.30753332
0.008978864 0.31926003 0.12017132 0.18082713 -0.14536412 0.12219982 0.4825539 0.14083752
0.11648705 0.07050285 -0.020824559 0.016790004 0.27626574 0.015253504 0.019275425 -0.0263693
-0.049300574 0.11271932 -0.017923784 -0.026508953 0.065232635 0.026131375 0.27370095 0.0050774543
-0.041526414 0.392811 0.19154592 0.21688567 -0.012156045 0.17665347 0.037391033 -0.015283651
-0.012596237 0.4889649 -0.018673057 0.05061517 0.15082046 0.06365093 -0.017305033 0.09768033
-0.014506789 0.054614242 -0.06727858 0.1903585 0.16600592 0.1450544 0.017583154 -0.037222628
-0.01637604 -0.019169858 0.041617088 0.18345657 -0.005431952 -0.02985127 0.18027008 0.063054085
-0.07878826 0.2770283 -0.028488966 -0.019297643 0.15904199 -0.18422188 0.116629004 -0.015626758
0.35558227 0.35273966 -0.016084881 0.115947224 -0.08802548 0.31631383 -0.0859988 -0.045794513
0.027088424 0.15760615 -0.011701646 0.11847223 -0.020584986 0.051119618 0.3652007 0.14706494
0.2085293 -0.009054568 0.022796871 0.53495675 -0.011249386 0.39003333 0.06251488 -0.07023315
-0.023555921 -0.02970725 0.19015779 -0.017242802 -0.030292345 -0.026116252 -0.02282587 -0.032385882
-0.013371092 0.016933419 -0.018544987 -0.034795046 -0.023455536 0.0005076718 0.18987253 -0.006389658
0.52128536 0.0558126 0.38892865 0.2715718 -0.032925025 -0.017810877 -0.014847859 0.18142785
0.17332546 0.4539127 0.2665412 -0.021383699 0.52183264 0.22660601 0.17429832 0.22575891
0.21807481 0.3317091 0.048021793 0.016875345 0.13220449 -0.04881748 0.04515053 -0.029233463
-0.01681269 -0.019317957 -0.15359566 -0.18935351 -0.024600424 0.18777703 -0.032143526 -0.018538201
-0.030021459 0.044850707 -0.0236192 0.345705 0.25440946 0.29753378 0.38704813 -0.019274896
0.0662616 0.23431881 -0.09025093 0.22009559 0.17437054 0.24917904 0.23437844 0.10703494
0.03308097 0.11922912 -0.022554182 -0.037194524 0.29226166 0.48418462 0.056450687 -0.016389972
0.18287686 -0.014281385 -0.18917687 0.16332217 -0.032474257 0.09516903 0.27864426 0.023850687
0.04618894 0.33311853 0.22797658 -0.023066396 -0.024148978 0.26827246 0.24747102 -0.019593157
0.23043033 -0.20381863 0.24365334 0.081109025 0.017694157 -0.17938085 -0.024591751 0.4235349
-0.091598205 -0.011606533 -0.019119423 0.101200335 0.1810441 0.19788264 0.20450616 -0.020266976
-0.120103076 0.1997859 0.25304458 -0.016203212 0.5149008 -0.11350565 0.05784888 -0.017275037
0.079500355 -0.014168515 -0.024501879 0.07270294 0.35994488 0.060559217 0.039347753 -0.0199671
0.300256 -0.0337145 0.038996756 -0.02409074 0.10453531 0.18993838 -0.016469011 0.33109868
0.024882764 -0.15627567 0.3357102 0.0017923509 0.39007246 0.018164715 -0.02884192 0.27730802
0.16554557 0.3966891 -0.06200986 -0.011870894 -0.15176988 -0.10861269 0.14322881 0.050397556
0.244924 0.27357146 0.17649043 -0.1327988 -0.105381176 -0.11135635 0.09787145 0.102848925
0.06595918 -0.015604334 0.28932807 0.32684433 -0.021695292 -0.01517453 -0.02855013 -0.013457063

parameters.mlp_1_w f4 [256, 256]
00000000: e905 68be 4998 a1bd 308f 89bb b049 93bd
00000010: ff2d 203d 2609 61be 6bb9 813c 22c5 90be
00000020: 9070 be3c 300e 3f3e 33b9 df3e e129 1abe
00000030: 701a 22bf b682 d4bd 3ebb aa3d db4f dd3e
00000040: 02c6 5f3e 6f64 803e baba 73be d94b 87be
00000050: dc88 4b3d f002 97be d7b8 ac3d 7db1 373e
00000060: 7a7a d53c c452 b5bc 7203 323e d5d0 a83c
00000070: 102f 203b d05e cbbd 4e42 84bd 14d3 18bd
00000080: 2b28 573d 3cbc e1be 1d6e 143e 0ca5 6c3e
00000090: 9e16 20be b4b3 54bd 66c9 ddbd dae6 843e
000000a0: ce98 5cbb 04d9 5fbe a30c 01bc 6f3a cabc
000000b0: c610 9bbd 4223 e93d 89f3 c83e 27ff bebd
000000c0: c648 27bf 5e05 8d3e a2b3 3f3d 5ab7 613e
000000d0: cbe6 933e 5889 89bf 8da4 53be 1f55 973e
000000e0: dda5 55be 6c68 afbe ccc9 d53d 9d27 d0be
000000f0: 1f47 a33e 2cf8 17bd 129e d4be 7a96 d43d
00000100: 0721 cdbe 5a91 1e3d 8404 71bd 8c60 18bf
00000110: f018 34bf 3617 62be 048d 253e cd5f 3f3e
00000120: 6c0d 0bbe 6433 8d3d d9c7 b5bc 5a6b eebd
00000130: cc14 1abe cdf0 2ebe 59fc f8bc 7fca 7c3e
00000140: b77b f73d 04f2 743d c0e4 2e3e 3fe4 853e
00000150: 4ee3 e33b 4a9f 753d 736e cebe 3070 633e
00000160: 229e 5c3e c582 c93d a2e5 3cbc 73ff 17be
00000170: 396c 963e 5831 ffbc d5b0 d23d d088 3e3d
00000180: c44e 61be f993 cd3d 7f12 b6be 525a 38bd
00000190: 1cf1 85be bc3f c23d 5f32 4fbf 8b17 9c3d
000001a0: d090 153e eef8 6ebe 4cfb 973e 3259 543e
000001b0: 8c08 e5bd 43de aabc feb2 2f3e 7256 a33e
000001c0: 2be0 173e 57d1 953e 7041 323e 8202 6fbe
000001d0: 1851 bcbc 59cd 4dbe 3500 853e aeae f6be
000001e0: c91f 91be eba0 4abe db29 3b3e 4d47 af3d
000001f0: 7f16 cc3e 22f0 a83e d519 9e3e 1beb a83d
00000200: e1f8 99be 7eba 05bf 1902 173e 98c8 1c3e
00000210: b086 033f ec98 d2bc 28e3 71be c6da a6bd
00000220: 74ad afbd aa5f 4cbd 6232 a7bd f934 28bd
00000230: 3ede d53e 8a00 a6bd 4246 29be c237 873e
00000240: 6389 1fbe f077 5fbd dcce 8d3e aa26 95bd
00000250: 329f a6bb c578 55be 8551 10bd 18d5 05be
00000260: e441 5dbe ecd6 903c d218 db3d 142d b2bd
00000270: e53a 293e 793b e13d 09c8 70be 9e10 c93c
00000280: 694f babd fa6e 9ebd 7157 f3be 4f5c 15bf
00000290: 982c 6e3d 65e8 94bc abb2 d63c 2909 813e
000002a0: ba4c a2be b7dd 903e 5891 14bf 98f0 e0be
000002b0: ee1a 0e3e 63e6 4bbd d00a 7cbd e128 b5be
000002c0: 5123 5cbe 2caf 14bd da8b 84be a4f4 893e
000002d0: a5f9 263e bfe4 44bf 2651 073e 5420 24bd
000002e0: efd3 e03d 9549 613e 8642 c8be ea5b 9f3d
000002f0: bcc9 e2be a5ba e93d 5b17 b9be 388d eebd
00000300: 6458 bbbe ed5e 00be 02c5 903c 2855 4b3b
00000310: e793 f93b e6f9 d3be 1b60 453d 31dc 82be
00000320: 62d6 c2be 9afb 9b3e 7ad5 3cbf 4835 acbe
00000330: 953f bebe 0ae9 923d 72f0 803e c553 da3d
00000340: cd3a 94bd b7c2 2b3b 5183 bdbe d5a8 a7bc
00000350: b545 dcbe ee75 d03d 2f0d d9bd 22bb 3fbf
00000360: 6ed2 323e 547f 103e 89b6 c13e bdf4 de3d
00000370: 6704 943e e4a2 383e a0c0 8ebe 8166 ea3d
00000380: 1587 2b3d 8f12 fe3d ce8f 293d 5819 2fbf
00000390: 6433 96be cbd8 753e 109b 7abe e6af 44be
000003a0: 654a 21bd 630a 77bd 60fc fabe 704d 28bc
000003b0: feb3 8dbe 7dcb bfbe 0118 d0be d263 95be
000003c0: 2fc4 3b3d 1ac1 a6bd f76b de3e 49c9 b5bd
000003d0: 83ae 97be 77ff 01bf b2ec ba3d 540c f6bd
000003e0: 6e89 123f 2618 5fbe 7e6b bebe 938d 0abf
000003f0: ba4d a9bc 5b6e 9d3d 781f 09be f20b 6ebe
-0.22658505 -0.07890374 -0.0041979775 -0.07191789 0.039106365 -0.21976146 0.015835484 -0.282754
0.023247033 0.18657756 0.43695983 -0.15055038 -0.6332159 -0.10376494 0.08336495 0.43224987
0.21852878 0.25076625 -0.238017 -0.26425055 0.049691066 -0.2949443 0.08433693 0.179388
0.026059378 -0.022134192 0.17384127 0.020607391 0.0024442114 -0.099301934 -0.06457959 -0.037310675
0.05252854 -0.44088924 0.1449513 0.23109835 -0.15633628 -0.05192919 -0.10829429 0.25957376
-0.0033660415 -0.21860129 -0.007876548 -0.024686066 -0.07571559 0.11383678 0.39248303 -0.0932601
-0.6534542 0.27543157 0.04680217 0.220426 0.2888702 -1.0745039 -0.2066824 0.2955713
-0.20864053 -0.34259355 0.1043888 -0.40655223 0.318902 -0.03710191 -0.41526848 0.103802636
-0.4006426 0.038712837 -0.058842197 -0.5952232 -0.7035055 -0.22079167 0.16167074 0.18688889
-0.13579339 0.068945676 -0.022190021 -0.116415694 -0.15046996 -0.17084046 -0.030393766 0.24686621
0.120841436 0.059801117 0.17079449 0.261507 0.006954587 0.059966363 -0.4031864 0.22210765
0.21544698 0.098393954 -0.011529358 -0.1484354 0.29379442 -0.031151459 0.10287634 0.046517193
-0.22002703 0.10037989 -0.35560986 -0.04500801 -0.26160514 0.094848126 -0.80936235 0.07621678
0.14606023 -0.23337147 0.29683912 0.2073715 -0.11183271 -0.020857936 0.17158124 0.3190189
0.14831607 0.29261276 0.17407775 -0.233408 -0.022987887 -0.20097865 0.2597672 -0.48180145
-0.28344563 -0.19787948 0.18277685 0.085585214 0.39860913 0.32995707 0.30879083 0.08247968
-0.30072692 -0.5223769 0.14746894 0.15310895 0.5137739 -0.025707684 -0.2362181 -0.081471965
-0.085780054 -0.04989592 -0.08163907 -0.041066144 0.4177112 -0.081055716 -0.16530707 0.26409727
-0.15579753 -0.05455774 0.27696884 -0.07282765 -0.0050848955 -0.20846851 -0.035233993 -0.1306957
-0.21607167 0.017680608 0.106980935 -0.08700004 0.16526373 0.10997672 -0.23513807 0.024544057
-0.090971775 -0.07736011 -0.4752765 -0.58343977 0.058147997 -0.01817722 0.026208242 0.252023
-0.31699163 0.28294155 -0.58034277 -0.43933558 0.1387746 -0.04978026 -0.06153375 -0.3538275
-0.21497847 -0.03629987 -0.25887948 0.26944458 0.1630617 -0.7691154 0.1321455 -0.040069893
0.10977923 0.22000726 -0.39113253 0.07781203 -0.44294536 0.11412553 -0.3615063 -0.11648029
-0.36590874 -0.12536211 0.017672066 0.00310261 0.0076165083 -0.41401595 0.048187356 -0.25558618
-0.38054186 0.30465394 -0.7376324 -0.336344 -0.37157884 0.07173355 0.25183445 0.10660509
-0.07237778 0.0026208588 -0.3701425 -0.020466248 -0.43021932 0.10178743 -0.10598218 -0.74894917
0.17463085 0.14111072 0.37834576 0.10886524 0.2890961 0.18030888 -0.27881336 0.11445332
0.04187687 0.124058835 0.04139691 -0.68398046 -0.29336083 0.24008481 -0.24473214 -0.19207725
-0.03937759 -0.06031264 -0.49020672 -0.010272369 -0.27676386 -0.37459937 -0.40643314 -0.2917772
0.045841392 -0.081423 0.43441746 -0.08876283 -0.2962533 -0.50780433 0.09127177 -0.1201407
0.5724095 -0.21786556 -0.37191385 -0.54122275 -0.020666946 0.07687064 -0.1339091 -0.23246744

parameters.mu_b f4 [8]
00000000: 6888 9cbd 4a8a 2b3e 320d 803e 1ed3 dabc
00000010: a0c4 06bc bfff 7fbd cc96 ed3d 2e9c 7b3c
-0.07643205 0.16751972 0.25010067 -0.026711997 -0.00822559 -0.062499758 0.11601028 0.01535706

parameters.mu_w f4 [8, 256]
00000000: 0dfe a53e 7e7d 3cbe f30a 6dbe db86 0a3e
00000010: 501a 5fbd 1b00 173e 95a6 893e 1b0f cb3d
00000020: c8c0 84bc 9dee 1ebe d074 523e acb7 c2be
00000030: a99c 27bf e408 4c3e a69b 3dbe 23ff 783f
00000040: 9c4c b93e d7ba 3c3f 0671 1cbb 0187 febb
00000050: 7589 313e 6540 9abc e03d 15bd 95f7 c73c
00000060: b12e 343f ba7c f83c e365 ef3a c1e3 e7ba
00000070: 98df 34bf af90 653e 82af 823f 3f8f 3dbf
00000080: a0c8 993d a7b9 50bf f43e 16be f338 47bf
00000090: 1d1c e63b 5934 b0bd 4ab0 703c 9e6b ec3b
000000a0: 4d21 073c e726 34be 0eca 893c ead5 53bd
000000b0: 10a8 003f 91dc 993f e3d8 aa3c ad8f 313e
000000c0: f62f 08bb 380a 26bc 4e3b 6a3c f448 093d
000000d0: 0642 14bd 1a62 6c3f dc20 c2bb 918e 57bc
000000e0: a7bb 18bd b60a 983c 7c12 6d3e 8f26 d5be
000000f0: 0b59 9abb a20c e43b 3213 10bf acae 323f
00000100: b59d b0be 45cd d03c 462c d23c d033 20bc
00000110: 016e 0fbf 9f77 3d3e 1cd2 f73d d103 91bb
00000120: 0b73 24be cbb9 273e b492 54bc 7154 2b3e
00000130: 86ea 37bf 18bb 2b3e 4009 b23f 7661 033f
00000140: 3e8e 4cbd ee88 9b3e c38a fdbc bebc 8cbe
00000150: bf2d 8c3b f19e 043c 7602 6a3e b939 863e
00000160: 641a 66bf 4b35 593b 05d2 2c3f 60e2 9cbe
00000170: bca4 f33b 97af e5be 51a0 bbbc 869a cbbe
00000180: 59af 72bc 40ff 5dbb 9b16 40be 56a0 2d3e
00000190: d052 17bc ef6c 1c3c 4987 71bc cc6a f538
000001a0: 86c0 223c 6a25 623d c5db 473b cb86 bb3c
000001b0: d9a8 913c f86f a53f 1358 86bf 55c7 01bc
000001c0: d14f a0bb ccda 51bd f481 6ebe 65e3 193e
000001d0: 6e09 f43b b390 24ba e596 0c3c d67b 07c0
000001e0: 4a3d 12bf 356a 0fbe 3263 88be 04c1 2f3c
000001f0: cfda ab3b 4671 04bf 92cd 10bf 9f49 413d
00000200: 2336 f9be b7fb 33bf 957e e6bc 1a2f c7ba
00000210: a696 873d 4016 1b3b f696 d038 fa0a d73c
00000220: eaec 16bb 8007 89bc 8fbf ee3c 67a1 b13c
00000230: ea27 34bc 0303 933f ebc5 a7ba 5994 61bb
00000240: b7c4 ee3c e934 3abe e177 1b3c 1208 85be
00000250: 6d36 a5be 1c5b 0b3e 7d40 79bf cf90 8e3c
00000260: e7d7 66bd 23de 1c3f 8fa9 24bf ee25 c73f
00000270: b507 f9be 6ee8 3fbd 7697 513e 7119 5ebe
00000280: d9d9 babc 27db 0f40 829b 8a3c 73a6 60bd
00000290: 8a3c 673e ad3b 50be 68ae 743e 2f6d c23b
000002a0: 8bbf 5f3f f137 1f3b cb27 90bd 6912 5dbe
000002b0: 2163 a9ba 7574 193e e2d5 66be 87ce 36bc
000002c0: 9cc3 a0ba 97ad 883e 618f ebbd d5b5 a03c
000002d0: 1362 9c3c c016 523d eed2 a13f a7df a3bc
000002e0: cc58 2bbe e2dd 80bf 3cfa 583e 07de e6bd
000002f0: 0687 b8bc 35c6 a2bd dde7 853c f503 343f
00000300: 1627 92be 3a82 24bf 267b fcbb 70cb 13be
00000310: e743 43bf a4fa afbe dca6 c8be 4a1d d23b
00000320: 1178 013f c8d8 71bf a0ea 85bc 8f66 b7be
00000330: c3e2 95be 6df4 153d 26de 553e 388c bc3b
00000340: 6d9e e0be 543e 01bb 5639 203c a43e 0cbf
00000350: ea24 56bf 3475 e43d 74bb d93e 5ba2 82bc
00000360: 5781 34be 87ea 37bd 1964 e2bc 1349 a33c
00000370: 94d1 3b3e 5099 8d3d 5be6 70bb 3184 e2bf
00000380: c61e 33bc 325a 943d b08f 9abd a549 923f
00000390: a92f 04bf c1af d03e 7d1c 19bc bbf1 eb3d
000003a0: ae04 08be 7267 13be 891b b13c cd58 933d
000003b0: 75b3 ab3e 8e23 fa3e c8ba ffbd 0974 13bf
000003c0: d216 c63f a063 3c3f 02c5 66be 212c 323f
000003d0: 50f6 293f a30b f4bd 7b43 da3e a677 6a3e
000003e0: 0ef4 f03e 9499 933c 5b90 d43d e229 27be
000003f0: fb16 ba3a 306e 5abc 69d0 5dba 193b f53b
0.32420388 -0.18407246 -0.23148708 0.13528006 -0.054468453 0.14746134 0.26884905 0.099149905
-0.016205207 -0.15520711 0.20552373 -0.38030756 -0.6547342 0.19925267 -0.18516406 0.9726431
0.3619126 0.73722595 -0.0023871078 -0.0077675586 0.17337592 -0.018829534 -0.03643596 0.024410048
0.70383745 0.030332912 0.0018264618 -0.0017691777 -0.70653677 0.22418474 1.0209811 -0.740467
0.07508969 -0.81533283 -0.14672452 -0.7782127 0.0070223943 -0.086037345 0.014690468 0.0072149774
0.008247686 -0.17592965 0.01681998 -0.051717676 0.50256443 1.2020437 0.020855373 0.17339964
-0.002078054 -0.010134272 0.014296366 0.03351684 -0.036195777 0.9233719 -0.0059243273 -0.013156549
-0.037288334 0.018559795 0.23151582 -0.4163098 -0.004710322 0.0069595138 -0.5627929 0.6979778
-0.3449532 0.025488505 0.025655877 -0.009777978 -0.5602723 0.18502663 0.12100622 -0.004425504
-0.1605951 0.16379468 -0.01297443 0.1673143 -0.7184223 0.1677059 1.3909073 0.5132059
-0.04994034 0.30377907 -0.030949956 -0.2748775 0.0042779143 0.008094535 0.22852501 0.26215914
-0.8988402 0.0033143337 0.67507964 -0.3064146 0.0074354094 -0.44860527 -0.022903593 -0.3976633
-0.014812314 -0.0033874065 -0.18758623 0.16955695 -0.009236053 0.009547456 -0.014741727 0.00011702403
0.0099335965 0.055211462 0.0030495983 0.022891423 0.017780708 1.2924795 -1.0495628 -0.00792106
-0.0048923274 -0.05123405 -0.2329176 0.1502815 0.007447413 -0.00062776654 0.008580898 -2.1169333
-0.5712477 -0.14005359 -0.2663818 0.010727171 0.00524459 -0.5173534 -0.56563675 0.04718935
-0.48674116 -0.7030596 -0.02813653 -0.0015196532 0.06620531 0.0023664385 9.9463316e-05 0.026250351
-0.0023029395 -0.01672721 0.029144077 0.021683408 -0.010995844 1.1485294 -0.0012800073 -0.0034420697
0.029146535 -0.18184246 0.009489031 -0.2598272 -0.32268086 0.13608974 -0.97364026 0.017403034
-0.056358244 0.61276454 -0.64321226 1.555845 -0.48638692 -0.04685252 0.20467934 -0.21689393
-0.022808956 2.247751 0.016919855 -0.05484624 0.22581688 -0.20335265 0.23894656 0.005933426
0.87401646 0.0024294818 -0.0703884 -0.21589054 -0.001292322 0.14985831 -0.22542527 -0.011157638
-0.0012265327 0.2669494 -0.11501957 0.019617954 0.019089734 0.051291227 1.2642496 -0.020004107
-0.16733092 -1.0067713 0.21189207 -0.11272817 -0.022525322 -0.07947961 0.016345913 0.7031854
-0.28545445 -0.6426121 -0.00770511 -0.14433074 -0.76275486 -0.3437091 -0.39189804 0.006412183
0.5057383 -0.94471407 -0.01634723 -0.35820433 -0.29274568 0.036610056 0.20885524 0.00575402
-0.4387087 -0.0019720988 0.009779295 -0.5478308 -0.83650076 0.11155167 0.42525828 -0.015946558
-0.17627464 -0.044901397 -0.02763562 0.019932305 0.18341666 0.06914008 -0.0036758396 -1.7696592
-0.01093263 0.07243766 -0.075469375 1.1428725 -0.51635224 0.4075909 -0.009345171 0.11520716
-0.13283035 -0.1439493 0.021619575 0.07194672 0.33535352 0.4885525 -0.124867976 -0.5759893
1.5475714 0.73589516 -0.2253609 0.69598585 0.6639147 -0.11916282 0.4262961 0.22897205
0.470612 0.018017568 0.10379096 -0.16324571 0.0014197523 -0.013331935 -0.00084615365 0.0074838516

parameters.std_b f4 [8]
00000000: e2a5 60c0 5a98 67c0 8ecd 71c0 5eda 5ec0
00000010: 4400 68c0 1139 6dc0 8d80 63c0 eb6d 67c0
-3.5101247 -3.6186738 -3.778171 -3.482078 -3.6250162 -3.706608 -3.554721 -3.6160839

parameters.std_w f4 [8, 256]
00000000: d57b 1d3c 9a98 e9bd 15ef ecbe 2e62 a5bd
00000010: 9b5d 063d 8a54 43be f37d 0ebe 7eec b8bd
00000020: abda 413d 426d b2be 5335 89be 7aa7 81be
00000030: a975 533b 9789 07be 0f19 60be 8338 283b
00000040: 541c 01be c7bf 8d3e 0140 08bc b056 c03c
00000050: bbe1 b6be 9096 883c 5da8 193c 80ed 173c
00000060: 3e12 febd 6c84 bd3d 873f 3b3c a95e 193c
00000070: 5eaa 053d 028a b6be c454 ac3e b779 563d
00000080: 8a3e dd3d a79e 183e 7d27 98bd a46f 6d3e
00000090: 1f52 563a b639 debd 400d 0bbe ac70 a0bc
000000a0: e0e9 973b 5e39 1fbe 1f5a 6d3c aeb1 9f3c
000000b0: b994 7e3c 7e43 50bd 7352 81ba d775 f4bd
000000c0: 21aa 343b 47ce b7bc 1860 eebe 675d 233e
000000d0: f54c 8a3d 6685 23be a97c 573d 1aca 49bc
000000e0: 2456 b93c 25ec afb9 4243 efbe 7d79 51be
000000f0: 704f 023d 951a 313c 5ac0 25be 4d72 0a3f
00000100: f3a9 76be 75be aabd b48a 253c 5be3 6dbc
00000110: 2576 c9be fa41 80be 0186 0cbe ac86 8e3c
00000120: 11d2 71be d33e e4bc d18e e4bb e18e 41be
00000130: 8286 2f3d 296e 20be b72f dc3d d48f 1fbf
00000140: 97e0 333c 5baf 3abe 6a89 ae3c dfee 55bc
00000150: 37ea 693c 70e6 2a3d 5370 2abe 105c d63d
00000160: 99be dd3d bcff c1bc 9b5c 3abd f5cc 813e
00000170: 8736 ee3a 27f4 01be 7f24 193c d6f1 873d
00000180: 7ba4 133c 1bfb df3b d294 ddbd c06a dbbe
00000190: 7ccd c9ba 696b e43b 96c9 d33c e715 a23c
000001a0: 68f4 163c be99 42bc 239f d53a a60d 3a3c
000001b0: 9fb1 053a 432c 173e cf11 4c3d 131c 553c
000001c0: 8563 f9bd 2ede 053c 73be 80be 2c61 19be
000001d0: 604c bd3c 4944 bbbb e27e 98bb 9af0 293f
000001e0: 2d1c 1fbe 90c5 0b3e 585a bfbe 942e f13b
000001f0: c291 09bf 63fb 813b 3134 093c a4e1 05bd
00000200: 4882 c7bc 6721 e1bc 63b0 b03d 2e82 ef3c
00000210: b216 b13c 8393 69bb 3c02 533d a23c 173c
00000220: 7a4b b8bb a9e6 31bc 292e 07bf feff 18bf
00000230: 5561 a7bc 7ab2 bebe 7760 9c3b bdec 8fbb
00000240: 3c5e 503c ec4f 673e 9796 c23b 3168 dfbe
00000250: 1051 23be 7a52 8ebe 91fd de3d e711 99bc
00000260: 6679 5bbe 2a1e 8f3e bbfc 35bd 7da7 7a3e
00000270: fcbf 073e a704 6dbc 59dc 053c 4c77 663c
00000280: db53 083d de15 663f d150 063c 7a5b 43bd
00000290: 49d0 32bd 5cb1 36be 7cd9 f3bd b571 67bb
000002a0: bafb cb3c e6af 28bc 16ce c33e 1f86 80be
000002b0: 18bb 4a3a 7a60 1cbe 3b11 bbbe ab50 8d3d
000002c0: 50e2 bf3c 077c a5bc 428d 0c3e 1130 10bc
000002d0: 2144 6b3c 4901 cdbe 1b6c 02bc bbac ae3e
000002e0: ca42 f73c 4962 563e 5f40 99be d762 29be
000002f0: 4e0b ca3c 08f8 003f bb48 683c be26 efbd
00000300: 1cd9 ecbe 8604 3abe ae45 a33c d6d2 58bd
00000310: c286 ee3e 5eac 5bbd f22f 763d d38a 1d3c
00000320: 0c8d f93e 8438 283f 1fcd 15be 2caf 47be
00000330: 9b41 a0bd 826e 86be e205 d13d f6fa 6e3c
00000340: e056 1abe 9ef4 d3bb db09 0c3c fb8c 7abd
00000350: 29c9 d53a 712c 87bb fb05 2abe 567f acbb
00000360: 5c28 573d 83bf f23b 50c3 453c 59d2 7a3d
00000370: 1679 ca3d 4e13 cebe 7a76 79bc b062 1e3e
00000380: 24ca 633d 3a7f dbbe f3f2 d4be 0bda f43d
00000390: 009e 533e 5b0d 40be ca1a 33bb 96ad 963d
000003a0: 6d56 acbe 991f bfbe 84f3 02ba 568c 253d
000003b0: db70 ddbe 200a ef3d b56e a7be 23cb 1cbf
000003c0: 24fe 6c3e 11c4 2bbe c1bf 14bd 299b d23d
000003d0: ae62 b2be ac60 cf3d d06f 99be 8352 a03f
000003e0: 3970 e4bd 2969 0d3c 983e 563e e121 e7be
000003f0: a926 c53c 7eab c43c 5bc1 963c 5f7c b239
0.009612043 -0.114060596 -0.46276155 -0.08075367 0.032804113 -0.19075218 -0.13915233 -0.09029482
0.04732768 -0.34848982 -0.26798496 -0.25323087 0.0032266176 -0.1323608 -0.21884559 0.002566845
-0.12608463 0.27685377 -0.008316041 0.023478836 -0.35719094 0.016673356 0.00937852 0.009272933
-0.12405823 0.09253773 0.01142872 0.009360948 0.032633178 -0.35652167 0.3365842 0.05236217
0.10802944 0.14904271 -0.07429407 0.23187119 0.0008175689 -0.10850851 -0.13579273 -0.019584976
0.0046360344 -0.15549228 0.014486819 0.019493904 0.015538388 -0.050845616 -0.0009866491 -0.11936539
0.0027567225 -0.022437228 -0.4655769 0.15953599 0.0675296 -0.15968856 0.05260912 -0.012316251
0.022624083 -0.00033554542 -0.46731 -0.204565 0.03181404 0.01080956 -0.16186658 0.5408066
-0.24088268 -0.08337108 0.01010387 -0.014519538 -0.3934795 -0.25050336 -0.13722993 0.0173982
-0.2361529 -0.027861988 -0.006975033 -0.1890216 0.042852886 -0.15667023 0.107512884 -0.6232884
0.010978839 -0.18230955 0.021305759 -0.01305744 0.014277033 0.04172367 -0.16644411 0.10466778
0.10827369 -0.023681514 -0.04549847 0.25351682 0.0018174209 -0.12690793 0.00934708 0.066379234
0.009011383 0.006835354 -0.10819401 -0.4285488 -0.0015396322 0.006970812 0.02585296 0.019785834
0.009213544 -0.011877475 0.0016298037 0.011355793 0.0005100015 0.14762978 0.04982167 0.013007182
-0.12177185 0.008170648 -0.251453 -0.14978474 0.023107708 -0.0057149273 -0.0046537975 0.66382754
-0.15538092 0.13649583 -0.37373614 0.007360289 -0.53738034 0.003966735 0.00837426 -0.03268589
-0.024354115 -0.027481748 0.08627393 0.02923688 0.021617267 -0.0035640902 0.051515803 0.009230765
-0.005624232 -0.010858216 -0.5280481 -0.59765613 -0.020432154 -0.37245542 0.0047722417 -0.004392235
0.01271778 0.22589082 0.005938362 -0.4363418 -0.15948892 -0.277973 0.10888208 -0.018685294
-0.21433029 0.279527 -0.044430476 0.24477954 0.1325683 -0.014466441 0.008170211 0.0140665285
0.033283096 0.89877117 0.008197979 -0.04769466 -0.043655667 -0.17841095 -0.11906716 -0.0035315577
0.024900306 -0.010295844 0.3824317 -0.25102326 0.00077335676 -0.15271178 -0.36536583 0.06900152
0.023423344 -0.020200742 0.1372576 -0.008800522 0.014359505 -0.40040043 -0.007960345 0.34116158
0.030183215 0.2093593 -0.29931924 -0.1654161 0.024663594 0.50378466 0.014177497 -0.11677311
-0.4625939 -0.18165788 0.019930687 -0.052935444 0.46587187 -0.05363118 0.060104318 0.009615618
0.48740423 0.65711236 -0.14629029 -0.19500417 -0.07825013 -0.26256186 0.102062 0.014586201
-0.15072203 -0.0064683696 0.008547272 -0.061169606 0.0016310561 -0.004125171 -0.16603844 -0.005264203
0.052528724 0.007408084 0.012070492 0.06123576 0.098863766 -0.40249103 -0.015226001 0.15467334
0.0556127 -0.42870504 -0.41591606 0.11955651 0.20665741 -0.18755095 -0.00273292 0.07357328
-0.33659688 -0.37328795 -0.0004995393 0.040417038 -0.43250164 0.11671853 -0.3270165 -0.6124746
0.23143822 -0.16774012 -0.036315683 0.10283501 -0.34840912 0.101258606 -0.2996812 1.252518
-0.11154217 0.008631029 0.20922315 -0.45143035 0.024066286 0.024007555 0.018402746 0.0003404347
