notebook/result/weights/sac_snapbot/episode_150.pth (torch, 355440 bytes, 8 tensors)

parameters.mlp_0_b f4 [256]
0	0x3e8d0928	0.27546048
1	0x3ce4c430	0.02792558
2	0xbda4f795	-0.08055035
3	0x3c90006c	0.017578326
4	0x3eac6c8f	0.33676574
5	0xbd08c1ff	-0.033388134
6	0xbd7afa69	-0.061273966
7	0xbda18878	-0.078873575
8	0xbdf34f48	-0.11880356
9	0x3d142812	0.036171027
10	0xbddcbe2c	-0.1077846
11	0x3d326f52	0.043563195
12	0x3de86b50	0.11348593
13	0x3e5f0caa	0.21782175
14	0xbd8cbd1e	-0.06872009
15	0x3f018e50	0.50607777
16	0x3e194edf	0.14971493
17	0xbcfbab9d	-0.03072148
18	0xba9b73e7	-0.0011860103
19	0x3e1545b8	0.14577377
20	0x3e19af7b	0.15008347
21	0x3d098699	0.033575628
22	0x3d7c1e6f	0.06155246
23	0x3e69993b	0.22812359
24	0x3b90caff	0.0044187303
25	0x3d89cf56	0.06728999
26	0xbcde96f9	-0.027171599
27	0x3d5b489b	0.05353604
28	0x3d5e2eb7	0.05424377
29	0xbddb3b2a	-0.10704644
30	0xbcf4987d	-0.029857868
31	0xbd566db7	-0.052350726
32	0xbcf70cca	-0.030157465
33	0x3e82acea	0.25522548
34	0xbc8f4c33	-0.01749239
35	0x3d8fa583	0.07013991
36	0xbdcdbeee	-0.100461826
37	0x3e0f4a2e	0.13993141
38	0xbce96cc2	-0.028494243
39	0x3bdb867c	0.0066993814
40	0x3df43b14	0.11925331
41	0xbddea077	-0.1087045
42	0x3e7dee59	0.24797954
43	0xba0809c1	-0.0005189442
44	0x3de8744d	0.113503076
45	0x3e60bfe7	0.21948205
46	0x3d4c12f8	0.049822778
47	0xbc99da9e	-0.018781003
48	0xbde850c7	-0.11343532
49	0x3cade0da	0.021225382
50	0xbd600b9f	-0.054698583
51	0x3d83858a	0.06421955
52	0x3d939415	0.07205979
53	0xbd2e2b73	-0.042521905
54	0x3ea9e753	0.331843
55	0xbce48022	-0.02789313
56	0x3ca9e186	0.02073742
57	0xbda7ddf3	-0.0819663
58	0x3d6196c2	0.055075414
59	0x3ded90aa	0.11599858
60	0x3d9444e9	0.07239706
61	0x3df118b6	0.11772291
62	0x3e023ae2	0.12717775
63	0x3c1aa56c	0.009438854
64	0xbd5a5f87	-0.05331376
65	0xbe271e6b	-0.16320197
66	0xbdec6f5e	-0.11544679
67	0x3cbcd1ce	0.023049261
68	0x3d0fa71d	0.03507148
69	0xbde3f669	-0.111309834
70	0x3e277803	0.16354375
71	0xbe0742bc	-0.13209051
72	0xbe025e78	-0.1273135
73	0x3d3c1ab2	0.045923896
74	0xbdb08a60	-0.08620143
75	0xbd4f75c1	-0.05064941
76	0x3e13f1ca	0.14447704
77	0xbb6f062b	-0.0036472182
78	0x3d4d4fe3	0.050125014
79	0xbdabe1f8	-0.083927095
80	0xbe1a1cce	-0.1505005
81	0xbd31eb87	-0.043437507
82	0x3d07e061	0.03317297
83	0x3c6d2172	0.014473306
84	0x3e699d71	0.22813965
85	0x3dd7dffe	0.1054077
86	0xbe25a987	-0.16177951
87	0x3c93b84e	0.01803222
88	0xbd0f04fb	-0.03491686
89	0x3e2dabad	0.1696002
90	0xbd95933a	-0.07303472
91	0x3e62d252	0.22150543
92	0xbdcca525	-0.09992436
93	0x3dde909d	0.108674265
94	0x3cf1d390	0.029519826
95	0xbe7d1b5d	-0.2471747
96	0xbc41138a	-0.011784444
97	0x3d94fbf0	0.07274616
98	0x3d89a8e4	0.067216665
99	0x3d880428	0.06641418
100	0x3e6e84d5	0.23292859
101	0x3df3058c	0.11866292
102	0x3d8e65ee	0.06953035
103	0x3dad1261	0.08450771
104	0xbb6a624e	-0.003576416
105	0x3d13e827	0.03611007
106	0x3d7d5ff8	0.0618591
107	0x3e60e11a	0.2196087
108	0xbcddcd49	-0.027075427
109	0x3c292bbe	0.01032537
110	0xbd14b0ee	-0.036301546
111	0xbb937af0	-0.0045007393
112	0x3db494ec	0.08817467
113	0xbc992868	-0.018696025
114	0xbd9b6bdc	-0.07588932
115	0xbd3c5208	-0.04597667
116	0x3e039b4a	0.12852207
117	0x3e20f881	0.15719797
118	0x3e94453f	0.2895908
119	0xbcb44647	-0.022006167
120	0x3d918ced	0.071069576
121	0xbc75074e	-0.014955355
122	0x3d1d1ad2	0.038355656
123	0x3e138fbf	0.14410304
124	0x3c97c412	0.01852611
125	0x3e2a654a	0.16640201
126	0xbddfef1a	-0.10934277
127	0x3d93bbc7	0.0721355
128	0x3dc08288	0.09399897
129	0x3e728a86	0.23685655
130	0xbcebbcfc	-0.028776638
131	0x3dbf77b1	0.09349001
132	0xbdd9b6f2	-0.10630597
133	0xbe076b92	-0.13224629
134	0x3e157db7	0.14598738
135	0x3dd22bbb	0.10262247
136	0x3e9aa154	0.3020121
137	0x3d3de8d0	0.046364605
138	0x3d984a19	0.07436008
139	0x3e70d50f	0.23518775
140	0x3e4344b6	0.1906918
141	0x3e5d8234	0.216317
142	0xbe4f1c6d	-0.20225687
143	0x3d46a3c7	0.048496034
144	0x3e174882	0.14773753
145	0x3e749869	0.23886265
146	0x3c7e979c	0.015539076
147	0xbbe6bbe8	-0.007041443
148	0xbe8922a9	-0.26784256
149	0x3d762119	0.060090158
150	0x3db34fd6	0.08755462
151	0xbdfc361b	-0.12315007
152	0xbdee530a	-0.11636932
153	0xbd70cdd3	-0.05879004
154	0x3cc53187	0.024071468
155	0xbda04825	-0.078262605
156	0x3cbf1322	0.023324553
157	0x3d26d3f4	0.040729478
158	0xbdb1fa8e	-0.08690368
159	0xbd2b0316	-0.04175099
160	0x3e29c6a1	0.16579677
161	0xbdb7ed8a	-0.08980854
162	0xbdddc5de	-0.10828756
163	0x3dc93d17	0.09826105
164	0x3e2ba7ae	0.16763183
165	0x3e465afa	0.19370642
166	0x3d5dace6	0.054119967
167	0x3e21c1d5	0.15796597
168	0xbe2a9200	-0.16657257
169	0xbbe3fe99	-0.0069578406
170	0xbd1b24b9	-0.03787682
171	0x3e239916	0.15976366
172	0x3d9556e4	0.07291964
173	0x3dbde840	0.09272814
174	0x3e00bc8b	0.12571923
175	0x3d7b84ad	0.061405826
176	0xbca01c7e	-0.019544836
177	0x3ee68260	0.45021343
178	0xbd55ab30	-0.05216521
179	0xbe115457	-0.1419233
180	0x3e03c264	0.12867123
181	0xbc77dcbc	-0.015128311
182	0xbc95ebae	-0.018300857
183	0xbdc2668b	-0.09492215
184	0x3daed4a3	0.08536651
185	0x3c609420	0.013707191
186	0xbb0d6e6b	-0.0021580707
187	0xbd29926b	-0.0413994
188	0xbc443ac3	-0.0119769005
189	0x3e7eb8c7	0.24875174
190	0x3d98bc7a	0.07457824
191	0xbd93c2f1	-0.072149165
192	0x3ce74585	0.028231392
193	0x3cee4bee	0.02908894
194	0x3e7d32da	0.2472643
195	0xbcdf9a1b	-0.027295163
196	0xbd71de36	-0.059049807
197	0xbd12d643	-0.035848867
198	0x3cbd89f7	0.023137076
199	0x3e1238d3	0.14279489
200	0x3e5ddfc3	0.2166739
201	0xbde3022d	-0.11084399
202	0xbd052676	-0.032507382
203	0xbb9b7a89	-0.004744832
204	0x3e03129a	0.12800065
205	0x3d2ae622	0.041723378
206	0x3dd5fcb4	0.1044859
207	0xbd2f3f32	-0.042784877
208	0xbdc2470c	-0.09486207
209	0x3dcc7562	0.099833265
210	0xbd367b31	-0.04455108
211	0x3d48ed70	0.049054563
212	0xbde32849	-0.11091668
213	0xbc7df231	-0.015499637
214	0x3d2312d8	0.039812893
215	0x3c6528dc	0.013986792
216	0x3dade63d	0.0849118
217	0x3bab9221	0.005235926
218	0x3da72b30	0.08162534
219	0xb96b967e	-0.00022467409
220	0xbceb27a3	-0.028705424
221	0xbcbc9594	-0.023020543
222	0x3da671c2	0.08127166
223	0xbcb52cb2	-0.022116039
224	0xbd90d3dd	-0.0707166
225	0x3c144654	0.009049971
226	0x3c5c0c94	0.013430733
227	0xbd254165	-0.04034557
228	0xbb6bc573	-0.0035975843
229	0xbe1caa9f	-0.15299462
230	0x3dc1cd13	0.09462943
231	0x3ed720c0	0.42017174
232	0x3dbfd52f	0.093668334
233	0x3e9df11d	0.30848017
234	0x3d98b1ed	0.07455812
235	0x3da4c4e9	0.0804537
236	0x3dfe24ab	0.124093376
237	0xbc7f6a6c	-0.015589338
238	0x3dde7524	0.108621866
239	0xbb84db4c	-0.0040544625
240	0x3ea798f6	0.32733887
241	0x3ea5b992	0.3236814
242	0xbe32616a	-0.17419973
243	0x3d513c50	0.05108291
244	0x3db7f834	0.08982888
245	0xbd6a1723	-0.05715097
246	0x3c9795cd	0.018504048
247	0x3d6d2f3f	0.057906386
248	0x3dc707f2	0.09718312
249	0x3c4d0ecc	0.012515735
250	0x3e5b8097	0.21435772
251	0x3d390e2a	0.045179524
252	0x3d72999d	0.05922853
253	0x3e382e66	0.1798645
254	0xbc97a1ad	-0.01850971
255	0x3d5e632a	0.05429379

parameters.mlp_0_w f4 [256, 70]
0	0xbdd85d1e	-0.10564636
1	0xbe8fc953	-0.28083286
2	0xbf0cd6f3	-0.55015486
3	0xbec35170	-0.3814807
4	0x3e75b96c	0.23996514
5	0xbdadb29f	-0.08481335
6	0xbe710c89	-0.23539938
7	0xbe1df80b	-0.15426652
8	0x3ea57337	0.32314464
9	0xbdb0863d	-0.08619354
10	0xbe3e11f6	-0.18561539
11	0xbeeb34fa	-0.45938855
12	0x3e69fd62	0.22850564
13	0xbd3c1025	-0.045913834
14	0xbe705f07	-0.2347375
15	0xbdd752db	-0.1051385
16	0x3ddb39b0	0.107043624
17	0x3dbbf3e5	0.091773786
18	0xbe1b4e98	-0.151667
19	0xbd9fa5d8	-0.07795304
20	0x3e096b5d	0.13419862
21	0xbec7fefc	-0.39061725
22	0x3ea1fd50	0.31638575
23	0x3edb7f98	0.42870784
24	0x3e4e470a	0.20144287
25	0x3e1f4c3c	0.15556425
26	0x3f60b924	0.877825
27	0x3da55c97	0.08074301
28	0x3d2ff703	0.042960178
29	0x3e0f3dd0	0.13988423
30	0x3e34728b	0.1762182
31	0x3d9983a1	0.07495809
32	0x3c817610	0.015803367
33	0xbd42a2b2	-0.04751844
34	0xbcf048a5	-0.029331515
35	0xbe254045	-0.16137798
36	0xbe85bee2	-0.26122195
37	0xbe843a89	-0.2582591
38	0xbe88be91	-0.2670789
39	0x3d7e0fe8	0.062026888
40	0xbe05bd93	-0.13060598
41	0x3aa84e95	0.0012840802
42	0xbe12ba1d	-0.14328809
43	0x3ddabeeb	0.10680946
44	0x3d254e0a	0.040357627
45	0xbde5c6d0	-0.11219561
46	0xbe803ef7	-0.25048038
47	0x3c42c9a6	0.011888897
48	0x3e0794b5	0.13240321
49	0xbcc05cae	-0.023481693
50	0x3dcc5d4c	0.099787325
51	0x3e24f9c9	0.1611091
52	0x3d952048	0.07281548
53	0xbe518c29	-0.20463623
54	0xbd81ee64	-0.063442975
55	0x3e189344	0.14899927
56	0xbe8774ea	-0.26456386
57	0x3e90d7e9	0.28289726
58	0x3e52b5c2	0.20577148
59	0x3e7ebf47	0.24877654
60	0x3e4b8c6e	0.19877788
61	0x3f5959a3	0.849024
62	0x3d22c0c3	0.039734613
63	0x3d1bd667	0.038046267
64	0x3d9a1bb3	0.075248145
65	0x3e245ee6	0.16051826
66	0x3d87484f	0.06605589
67	0x3e0c02e3	0.13672976
68	0x3e0e2f06	0.13885126
69	0xbd9b7a74	-0.075917155
70	0xbeae4322	-0.34035593
71	0xbd8ffa8b	-0.07030209
72	0xbcd52f78	-0.026023611
73	0xbdb2b053	-0.087250374
74	0xbdad1a8c	-0.08452329
75	0xbef79ec7	-0.48363325
76	0x3e029fca	0.12756267
77	0xbbecee49	-0.0072305542
78	0xbe8e6df0	-0.2781825
79	0xbe91b1f5	-0.28456083
80	0xbdd0c004	-0.10192874
81	0xbd324e1b	-0.04353152
82	0x3d6e9ff9	0.05825803
83	0xbe7be389	-0.24598517
84	0xbd6f444e	-0.05841475
85	0xbe06c807	-0.13162242
86	0x3d6f6405	0.058444995
87	0xbdd12ed8	-0.10214013
88	0x3b14e38b	0.0022718634
89	0x3dc1bc5c	0.09459755
90	0x3d3c7db4	0.046018317
91	0x3da4d083	0.08047583
92	0xbe241319	-0.1602291
93	0xbe94f29f	-0.29091355
94	0xbd08169b	-0.033224683
95	0xbd23fc2c	-0.04003541
96	0xbea784f8	-0.32718635
97	0xbe065c2f	-0.13121103
98	0xbded9fbb	-0.11602732
99	0xbe17e4d1	-0.1483338
100	0x3ddc2145	0.10748533
101	0xbe407039	-0.1879281
102	0x3d816dde	0.06319784
103	0x3daf79bf	0.08568143
104	0x3bf65bdc	0.0075182747
105	0xbdfe1415	-0.12406174
106	0xbd5d52ff	-0.05403423
107	0x3d0ce012	0.034393378
108	0xbd392d37	-0.045209136
109	0xbdc6e69d	-0.09711955
110	0xbec52f32	-0.3851257
111	0x3da8da99	0.08244819
112	0xbc134029	-0.008987465
113	0xbe2618dd	-0.16220422
114	0xbe4f884e	-0.2026684
115	0x3c960ab0	0.018315643
116	0xbe5266bc	-0.20547003
117	0x3d7820b2	0.060578056
118	0xbec614d2	-0.3868776
119	0x3dac23c2	0.08405258
120	0x3d8d71ef	0.06906497
121	0xbacd51b0	-0.0015664604
122	0xbdbc3be0	-0.09191108
123	0x3dba1a58	0.09087056
124	0x3db7dc65	0.08977584
125	0xbd06ac84	-0.032879367
126	0x3dfcc5be	0.12342404
127	0xbe46e3ea	-0.1942288
128	0xbdfe365d	-0.12412713
129	0xbddbe17c	-0.10736367
130	0xbdc820fb	-0.097719155
131	0xbe970947	-0.29499266
132	0xbd40a7af	-0.047034916
133	0xbd0a7d4c	-0.0338109
134	0xbe1d7dbe	-0.15379998
135	0xbca6c490	-0.0203574
136	0xbe270803	-0.1631165
137	0xbd8d0ca9	-0.0688718
138	0x3d67eca0	0.056622148
139	0x3d495d13	0.049161028
140	0x3e302693	0.17202215
141	0x3ea36d1b	0.31919178
142	0x3e4823bb	0.1954488
143	0x3e525a0d	0.20542164
144	0xbe66b288	-0.22529042
145	0x3d6d70fb	0.057969075
146	0x3dd36b8b	0.103232466
147	0x3e6a0ae6	0.2285572
148	0x3d8e8594	0.06959072
149	0x3dc3fbba	0.095694974
150	0x3e6dd63c	0.23226255
151	0x3eb5501b	0.35412678
152	0xbe5aa961	-0.21353675
153	0xbd9aca1e	-0.07558082
154	0x3d022476	0.031773053
155	0xbd4099b2	-0.047021575
156	0xbdeb6e5e	-0.1149566
157	0xbda3cedf	-0.07998442
158	0x3e34a0f9	0.17639531
159	0x3d9db02f	0.0769962
160	0xbdf58ecb	-0.11990126
161	0x3ef72bc6	0.48275584
162	0xbeb0d322	-0.34536082
163	0xbe98eae1	-0.29866698
164	0xbdde89b0	-0.108661056
165	0xbcbbc2db	-0.022920063
166	0xbf0ea1d4	-0.5571568
167	0xbc6f0fee	-0.0145912
168	0xbe2034d9	-0.1564516
169	0xbe06814c	-0.1313526
170	0xbe6e2788	-0.23257267
171	0xbe5a85c4	-0.2134009
172	0xbd02b551	-0.031911198
173	0xbb3fa3fc	-0.002924203
174	0xbaaf76a3	-0.0013386797
175	0x3d4e7fd0	0.05041486
176	0x3e8f3524	0.2797023
177	0xbd537af2	-0.05163092
178	0x3dff431b	0.12463971
179	0xbdad0653	-0.08448472
180	0x3de7b82f	0.11314427
181	0x3c2b6849	0.010461875
182	0x3e691e9d	0.22765584
183	0xbd00d8b2	-0.031456657
184	0x3badbd1f	0.005302086
185	0xbd853ff9	-0.065063424
186	0x3e237159	0.15961207
187	0xbd8ad833	-0.06779518
188	0xbdb19094	-0.08670154
189	0x3d4a33d2	0.049365826
190	0x3a8ea5fe	0.001088321
191	0xbdf3dcea	-0.119073704
192	0xbda0ad31	-0.07845534
193	0x3d8e2cb0	0.06942117
194	0x3dcbda7a	0.099537805
195	0xbe04ebaf	-0.12980531
196	0x3e47be81	0.19506265
197	0xbe3ca007	-0.1842042
198	0xbe1bb61c	-0.15206188
199	0xbe066480	-0.13124275
200	0xbcf34902	-0.029697899
201	0xbf1659ae	-0.5873059
202	0x3c2498f9	0.010046237
203	0xbe52b63b	-0.20577328
204	0xbe0cdd1c	-0.13756222
205	0xbe279942	-0.16367057
206	0xbe61f2e3	-0.2206531
207	0x3b1abace	0.002360988
208	0x3bc648cb	0.006051158
209	0x3cb5d366	0.02219553
210	0xbe011b8c	-0.12608165
211	0x3e767c2e	0.24070808
212	0xbcb17aca	-0.021664996
213	0xbcf8bb8b	-0.030362865
214	0xbcff0c66	-0.031133842
215	0xbe1a01a5	-0.1503969
216	0x3d6b2f4b	0.05741815
217	0x3e1448c4	0.14480883
218	0xbeac425d	-0.3364438
219	0x3e4a2e98	0.19744337
220	0xbbf45fc7	-0.0074577066
221	0x3e7f1dfd	0.24913783
222	0xbd93e45d	-0.07221291
223	0xbe1bfb2b	-0.15232532
224	0x3e8f19b9	0.27949312
225	0xbd9e3b0d	-0.07726107
226	0x3cd85af3	0.026410555
227	0xbd42d343	-0.047564756
228	0x3d05eff1	0.03269953
229	0x3d7bad35	0.06144448
230	0x3c0f4f26	0.008746898
231	0x3eb4cd6e	0.3531298
232	0xbcec1ca4	-0.02882225
233	0xbe34a0e8	-0.17639506
234	0x3c1e9b79	0.009680622
235	0x3dc9086b	0.09816059
236	0xbf19e16d	-0.601096
237	0xbd59405f	-0.053039905
238	0xbc67d51f	-0.014149933
239	0x3dc996e3	0.098432325
240	0x3da87da6	0.082270905
241	0xbe06db9c	-0.13169712
242	0xbe2fdb5d	-0.17173524
243	0xbd08bcdd	-0.03338324
244	0xbe562e39	-0.2091607
245	0xbce974a1	-0.028497996
246	0x3e50dbef	0.20396398
247	0xbe1771ce	-0.14789507
248	0xbd8aca81	-0.06776906
249	0xbcf02842	-0.029316071
250	0xbd8a9168	-0.06766015
251	0xbceed1b0	-0.029152721
252	0x3e074894	0.1321128
253	0xbd54a0d5	-0.051911194
254	0x3d93ffc8	0.07226521
255	0x3da47d9c	0.080317706

parameters.mlp_1_b f4 [256]
0	0x3d814369	0.063116856
1	0x3e4c14f5	0.1992987
2	0x3e0d74f0	0.1381414
3	0x3d2fb3fd	0.04289626
4	0x3cd29a4a	0.025708336
5	0x3e884695	0.2661635
6	0x3da63c3f	0.0811696
7	0x3de8bef3	0.11364546
8	0x3cc83ad3	0.024442112
9	0x3dc5e884	0.096634895
10	0x3cb2fd3f	0.021849273
11	0x3e299b5f	0.16563176
12	0xbe0afd18	-0.1357311
13	0x3da8f899	0.08250541
14	0x3e88ae98	0.26695704
15	0x3de8e28e	0.11371337
16	0x3db1b109	0.08676345
17	0x3d688333	0.056765746
18	0xbbc8f6e4	-0.0061329473
19	0x3c898b31	0.016790004
20	0x3d91d215	0.07120148
21	0x3c79e9d5	0.015253504
22	0x3d4e4a26	0.050363682
23	0xbcd8046e	-0.0263693
24	0x3e05fe96	0.13085398
25	0x3d411c38	0.047146052
26	0xbc92d4e6	-0.017923784
27	0xbc82c164	-0.015961356
28	0x3dbc6074	0.091980845
29	0x3da79654	0.0818297
30	0x3e61db08	0.2205621
31	0x3d211885	0.039330024
32	0xbd2a179a	-0.041526414
33	0x3e586a80	0.21134377
34	0x3deb3bb9	0.114860006
35	0x3de96d50	0.11397803
36	0xbc472a26	-0.012156045
37	0xbbe4fb12	-0.0069879377
38	0x3e07e6ea	0.1327168
39	0xbb98d64f	-0.0046642195
40	0xbc4e6072	-0.012596237
41	0x3de0920f	0.109653585
42	0xbc98f83d	-0.018673057
43	0x3d9ebd72	0.077509776
44	0x3d88d15a	0.06680556
45	0x3e3a2c8f	0.1818106
46	0xbc8dc349	-0.017305033
47	0xbbd6e4ee	-0.0065580523
48	0xbc6dade2	-0.014506789
49	0x3d904b8a	0.07045658
50	0x3dc07fbf	0.09399366
51	0x3e47fd0a	0.1953012
52	0x3d597e25	0.053098816
53	0x3d3fe45c	0.04684864
54	0x3d0825ae	0.03323906
55	0xbc44d64b	-0.012013982
56	0xbc86270c	-0.01637604
57	0xbb93142b	-0.004488488
58	0x3e6f0625	0.23342188
59	0x3da22427	0.07917052
60	0xbb2704df	-0.002548508
61	0xbc6ed4f9	-0.014577144
62	0x3dde1f30	0.10845792
63	0x3e6af0db	0.22943442
64	0xbbfa99b9	-0.0076477197
65	0x3d9efb55	0.077627815
66	0xbc92ad5b	-0.017904928
67	0xbb83e516	-0.004025112
68	0x3e690653	0.22756319
69	0x3de56a97	0.11201971
70	0x3d8cff46	0.06884627
71	0x36cc830d	6.09493e-06
72	0x3d9cfde4	0.07665613
73	0x3e68b6ff	0.22726057
74	0xbb9d5775	-0.0048016855
75	0x3b906efc	0.0044077616
76	0xbc41f2a7	-0.011837638
77	0x3e89e473	0.26932105
78	0xbd3254cc	-0.0435379
79	0xbd749d52	-0.059720345
80	0x3d2f7aa0	0.042841554
81	0x3d8b76c9	0.06809766
82	0xbc3fb843	-0.011701646
83	0xbb5b9d91	-0.0033510665
84	0xbbb5ad70	-0.005544357
85	0x3d88f042	0.066864505
86	0x3e3a5940	0.18198109
87	0x3d689f0d	0.056792308
88	0x3d56b6f4	0.05242057
89	0xbc14599c	-0.009054568
90	0x3e4cfa5d	0.20017381
91	0x3e2dcba6	0.16972217
92	0xbc384f58	-0.011249386
93	0x3d9bf178	0.07614416
94	0x3ddd5ae0	0.10808349
95	0x3e38c866	0.18045196
96	0xbcc0f859	-0.023555921
97	0xbc6dd43b	-0.014515932
98	0x3d5eb31c	0.05437003
99	0x3d0b5fea	0.034027018
100	0xbc846f8e	-0.016166475
101	0xbb878143	-0.0041352822
102	0xbbcc2ed4	-0.0062311683
103	0xbc8ae5b3	-0.016955232
104	0xbc5b126d	-0.013371092
105	0x3d4e9d8a	0.05044321
106	0xbc97eba8	-0.018544987
107	0xbd0e8540	-0.034795046
108	0xbc3b0eac	-0.011417072
109	0x3d86c106	0.06579785
110	0x3cc4007c	0.023926012
111	0xbbd16056	-0.006389658
112	0x3ea5b9e4	0.32368386
113	0x3d92943c	0.0715718
114	0x3eb1e36b	0.3474382
115	0x3d461580	0.048360348
116	0xbca01910	-0.0195432
117	0xbc91e81e	-0.017810877
118	0xbc73446f	-0.014847859
119	0x3d4034c8	0.046925336
120	0x3e9635d5	0.29337946
121	0x3e601344	0.21882349
122	0x3d54f07a	0.05198715
123	0xbbd6eb3c	-0.006558804
124	0x3e7b74da	0.24556294
125	0x3c3825e4	0.011239503
126	0x3de3b632	0.111187354
127	0xbd12b682	-0.035818584
128	0x3deddd8b	0.116145216
129	0x3e3009b6	0.17191204
130	0x3d4a566d	0.04939883
131	0x3cfd6ee5	0.030936668
132	0x3da6b88c	0.08140668
133	0xbba92f92	-0.0051631415
134	0x3d77f396	0.060535036
135	0xbcef7b04	-0.029233463
136	0xbc89bac4	-0.01681269
137	0xbbbea9b1	-0.0058185686
138	0xbc6affdf	-0.014343231
139	0x3df605ce	0.12012826
140	0xbbaea71d	-0.00532998
141	0x3e028c3a	0.12748805
142	0xbc46dc22	-0.012137445
143	0xbc634a55	-0.013872703
144	0xbcf5ef90	-0.030021459
145	0xbcf5bbe1	-0.029996814
146	0xbcc17d0d	-0.0236192
147	0x3e4aa55c	0.19789642
148	0xbd2d9060	-0.042374015
149	0x3e504775	0.20339759
150	0x3e6517a1	0.22372295
151	0xbc9de663	-0.019274896
152	0x3d425328	0.047442585
153	0x3e73ea32	0.23819807
154	0x3d36aa91	0.04459626
155	0x3e114382	0.14185908
156	0x3db2176a	0.08695872
157	0x3e060b11	0.13090159
158	0x3da4e178	0.08050817
159	0x3db86b33	0.09004822
160	0x3d834b1a	0.06410809
161	0x3e3155a2	0.17317823
162	0xbcb8c38c	-0.022554182
163	0x3cdbe052	0.026840363
164	0x3e0238ea	0.12717023
165	0xbd94d14b	-0.07266482
166	0x3cf82771	0.030292245
167	0xbc864443	-0.016389972
168	0x3d681065	0.05665626
169	0xbc69fc78	-0.014281385
170	0x3d5881eb	0.052858274
171	0x3d9256a6	0.07145433
172	0xbc8a6bf9	-0.016897188
173	0x3dcd0420	0.100105524
174	0x3da522d4	0.080632836
175	0x3d226c2f	0.039653953
176	0x3d77bc0f	0.06048208
177	0x3ca0f000	0.01964569
178	0x3e30aad2	0.17252663
179	0xbc110141	-0.008850397
180	0xbc5a6d93	-0.013331789
181	0x3cb6b6ee	0.022304025
182	0x3d33ab01	0.043864254
183	0xbb8311d3	-0.0039999275
184	0x3d1312dc	0.035906658
185	0x3df137c7	0.11778217
186	0x3dd3844e	0.103279695
187	0x3e572122	0.21008733
188	0x3c90f356	0.017694157
189	0xbd077275	-0.03306814
190	0xbcc974a4	-0.024591751
191	0x3ec899d8	0.39179873
192	0x3e24c909	0.16092314
193	0x3dc94c6b	0.09829029
194	0xbbb70abd	-0.005585997
195	0x3d679d57	0.056546535
196	0x3e19171f	0.14950226
197	0x3da9e0e8	0.082948506
198	0x3e1a7769	0.15084614
199	0xbc0e3546	-0.008679694
200	0x3e30523e	0.17218873
201	0x3e2a34c0	0.16621685
202	0xbd5e5459	-0.05427966
203	0x3d55a8c6	0.052162908
204	0x3d888a2c	0.06666979
205	0x3db92c61	0.09041668
206	0xbe001a5d	-0.12510057
207	0xbc8d8461	-0.017275037
208	0xbcc7305f	-0.024315057
209	0xbc68230f	-0.014168515
210	0xbcc8b82a	-0.024501879
211	0x3dc77cf9	0.097406335
212	0x3cbaea1e	0.022816714
213	0x3dbc862b	0.09205278
214	0x3c014e7e	0.007892249
215	0xbca3920b	-0.0199671
216	0x3dc31ec4	0.095273525
217	0xbb52526c	-0.0032092584
218	0x3d1fbb10	0.038996756
219	0xbcc559f2	-0.02409074
220	0x3e395029	0.18096985
221	0x3e0914d4	0.13386852
222	0xbc86ea05	-0.016469011
223	0x3d64b5f6	0.055837594
224	0x3d250967	0.04029217
225	0x3d51b925	0.05120196
226	0x3da4469c	0.0802128
227	0x3d5ad079	0.05342147
228	0x3cbdc4d0	0.023165137
229	0x3d1778e8	0.03698054
230	0xbc5b2dc4	-0.013377611
231	0x3d91b05d	0.07113717
232	0x3cf3a336	0.029740911
233	0x3d261aa1	0.04055274
234	0xbd3d2584	-0.046178356
235	0xbba8aa00	-0.0051472187
236	0x3e1649c3	0.14676575
237	0xbd3c0dea	-0.045911707
238	0x3b2fafe0	0.002680771
239	0xbc773eac	-0.015090626
240	0x3e87b017	0.26501533
241	0x3e5082fa	0.20362464
242	0x3bc93b4b	0.0061411015
243	0x3e67ac7a	0.22624388
244	0xbb7ec682	-0.0038875644
245	0xbc9fce9c	-0.019507699
246	0x3e2ed2d0	0.17072606
247	0x3e5de156	0.2166799
248	0xbda6b529	-0.08140022
249	0xbc2801ce	-0.0102543365
250	0x3dd3b0b4	0.10336438
251	0x3df976bc	0.1218085
252	0xbbdf9944	-0.0068236906
253	0xbc3a5707	-0.011373288
254	0xbc619592	-0.0137685705
255	0xbc5c7b03	-0.013457063

parameters.mlp_1_w f4 [256, 256]
0	0xbdca41c2	-0.098758236
1	0x3c9a9cc5	0.018873582
2	0x3c677e8a	0.01412929
3	0xbc3effd8	-0.011657678
4	0x3d8c8297	0.068608455
5	0xbc27f78f	-0.010251894
6	0xbd081758	-0.033225387
7	0xbcff14bb	-0.031137815
8	0xbd6d7755	-0.057975132
9	0xbc7c2374	-0.015389312
10	0x3d17a68a	0.03702406
11	0xbd1a60f9	-0.037690137
12	0xbdb5dc14	-0.08879867
13	0x3be4fd60	0.0069882125
14	0x3caba47e	0.02095246
15	0x3c9b0103	0.01892138
16	0x3c929e3a	0.017897714
17	0xbcaccb55	-0.02109305
18	0x3b6bd781	0.0035986605
19	0xbcfeb92a	-0.031094152
20	0x3b61ebb9	0.0034472777
21	0xbc1cd129	-0.009571352
22	0x3b55cf7b	0.0032624889
23	0xbd99a029	-0.07501251
24	0xbd0f7bb1	-0.03503007
25	0xbd978ba2	-0.0739968
26	0xbbb6fe62	-0.005584524
27	0xbcd4b8f1	-0.025967093
28	0xbc8b7b43	-0.01702655
29	0xbd00bb8b	-0.031428855
30	0x3c2e8450	0.010651663
31	0xbcf27ff0	-0.029602021
32	0xbbb9cd19	-0.0056702015
33	0xbcf93684	-0.030421503
34	0x3ce59564	0.028025337
35	0xba0105b5	-0.000492181
36	0xbc5df41e	-0.013546972
37	0xbd855645	-0.06510595
38	0xbc260b32	-0.010134505
39	0xbb551d0c	-0.0032518534
40	0xbca3e9bd	-0.020008916
41	0xbc1ffecc	-0.009765338
42	0x39afbe70	0.00033520488
43	0xbcd0214b	-0.0254065
44	0xbd160430	-0.036625087
45	0x3a775d3d	0.0009436196
46	0x3cc8fec3	0.024535542
47	0x3cc8ef72	0.024528239
48	0xbc064d37	-0.00819712
49	0xbd1d95d0	-0.03847295
50	0xbd1cc8e9	-0.03827754
51	0xbca4144e	-0.020029213
52	0xbd6df652	-0.058096237
53	0x3c2c6719	0.010522627
54	0xbc5fa842	-0.013650956
55	0xbc951903	-0.018200403
56	0xbd11c8ba	-0.03559182
57	0xbd9c8b77	-0.07643788
58	0x3b2edc29	0.0026681519
59	0xbd4aaccc	-0.0494812
60	0xbd034faa	-0.032058395
61	0xbd602256	-0.054720245
62	0x3b437c22	0.0029828628
63	0xbb013e05	-0.0019720804
64	0xbb8edc29	-0.004359741
65	0x3baa5172	0.0051976973
66	0xbd11f98d	-0.03563838
67	0xbd524800	-0.051338196
68	0xbc635203	-0.013874534
69	0xbd2ba208	-0.041902572
70	0xbc7b32a0	-0.015331894
71	0x3cd59f38	0.026076898
72	0xbd387ddd	-0.045041908
73	0xbcd15065	-0.02555103
74	0x3b119789	0.0022215566
75	0x3cc6c177	0.024262173
76	0xbd58b859	-0.052910183
77	0x3c88b097	0.016685767
78	0xbb6876ee	-0.0035471278
79	0x3bacad2c	0.005269667
80	0xbc3d9bc5	-0.011572783
81	0x3bca8ed2	0.0061815763
82	0xbcb2bc81	-0.021818401
83	0xbc5ab2cd	-0.0133482935
84	0xbd3b674e	-0.045752816
85	0x3cac1f42	0.021010999
86	0xbcddf71e	-0.027095374
87	0xbbf97366	-0.0076126335
88	0x3cad7ed4	0.02117864
89	0xbcbe52fb	-0.023232928
90	0xbb1bd36e	-0.0023777145
91	0xbd8c99c3	-0.06865265
92	0x3cb02fd8	0.021507189
93	0xbcfab09c	-0.030601792
94	0xbd892a14	-0.06697479
95	0xba5b2abb	-0.00083605543
96	0x3cbca77e	0.023029085
97	0xbb8af06f	-0.0042400877
98	0xbc968202	-0.01837254
99	0xbb93e1f7	-0.004513021
100	0xbb34e87d	-0.0027604394
101	0xba8a45d8	-0.001054938
102	0x3c87f6dc	0.016597204
103	0xbc369832	-0.011144685
104	0x3b7b8ad6	0.0038382313
105	0x3a3796bc	0.0007003357
106	0xb8bb2723	-8.924145e-05
107	0xbcac0cf3	-0.021002268
108	0x3c9818bb	0.01856648
109	0xbd879ea3	-0.066220544
110	0x3c9750d3	0.018471157
111	0xbd417e5b	-0.047239643
112	0x3ce45f05	0.02787734
113	0xbbf58768	-0.0074929483
114	0xb9e9bd92	-0.00044582464
115	0x3ccd5286	0.025063764
116	0x3d1bf854	0.03807862
117	0x3bdbca96	0.0067074997
118	0xbd3c8711	-0.046027247
119	0xbc9cbc79	-0.01913284
120	0xbd3ab1ef	-0.045579847
121	0xbd838cd3	-0.064233445
122	0x3bcfb5a6	0.006338793
123	0xbd494214	-0.049135283
124	0xbd075e70	-0.033049047
125	0xbcc3752b	-0.023859581
126	0x3c317104	0.010830168
127	0xbd2d568c	-0.042318866
128	0xbd2ad1c6	-0.04170396
129	0x3c707a49	0.014677593
130	0xbd038870	-0.03211254
131	0xbcb20c16	-0.021734279
132	0x3c361d23	0.011115345
133	0xbbb6b85c	-0.0055761766
134	0xbc81b8f6	-0.015835267
135	0xbd888183	-0.066653274
136	0xb9450866	-0.00018790513
137	0xbd4cbe80	-0.049986362
138	0xbb24b878	-0.0025134366
139	0x3cfc0ade	0.0307669
140	0xbc3c5e12	-0.0114970375
141	0xbcd7b80d	-0.02633288
142	0xbca1b324	-0.019738741
143	0xbc300938	-0.010744385
144	0xbc0bc28d	-0.008530271
145	0x3d48011c	0.048829183
146	0x3ce0924c	0.02741351
147	0x3c99cb42	0.018773679
148	0x3c88ff82	0.016723398
149	0xbabecca8	-0.0014556842
150	0xbd1029bf	-0.035196062
151	0x3a951218	0.001137319
152	0x3b824cdf	0.003976449
153	0xbd66a62b	-0.056310814
154	0x3b917447	0.00443891
155	0xbba46bca	-0.0050177323
156	0xbd1098b7	-0.03530189
157	0xb9a0fde3	-0.00030706738
158	0xbd8d495f	-0.0689876
159	0xbc189034	-0.009311724
160	0xbc78288c	-0.015146386
161	0xbd88e883	-0.06684973
162	0xbd882c93	-0.06649127
163	0xbca46ee3	-0.020072406
164	0xbd51f1fc	-0.051256165
165	0xbd2c398a	-0.04204706
166	0xbd3a0dde	-0.04542338
167	0x3b9ae1da	0.0047266306
168	0xbc7b172f	-0.015325352
169	0xbcf435ab	-0.029810747
170	0xbd66dba0	-0.056361794
171	0xbd161d44	-0.036649004
172	0xbcd7e40e	-0.026353862
173	0xbc142ae8	-0.009043433
174	0x39118d93	0.00013881018
175	0x3beffa52	0.0073235417
176	0x3b747af3	0.0037304729
177	0x3df8072e	0.121107444
178	0xbc01253e	-0.007882414
179	0x3cc58f0c	0.024116062
180	0xba010ae3	-0.0004922582
181	0xbc8b060e	-0.01697066
182	0xbd589117	-0.052872743
183	0xbbe8e9dc	-0.0071079563
184	0x3c336ca0	0.010951191
185	0x3b45c90e	0.0030179652
186	0xbc873798	-0.016506001
187	0xbc610404	-0.013733868
188	0xbcad9b6d	-0.021192277
189	0xbcbf0246	-0.023316514
190	0xbd5ab073	-0.05339093
191	0xbd8af3b8	-0.06784767
192	0x3b974f13	0.0046175807
193	0xbd5efcd0	-0.05444032
194	0xbd924c0e	-0.071434125
195	0xbd656f1b	-0.05601416
196	0xbc1fb6b8	-0.009748153
197	0xbd154a0c	-0.03644757
198	0xbcb04e64	-0.021521755
199	0xbca33b1f	-0.019925652
200	0x3b3b9681	0.0028623643
201	0xbc013118	-0.00788524
202	0xbcdd66d3	-0.02702657
203	0xbd3bee72	-0.045881696
204	0xbd32d522	-0.04366029
205	0x3c0fd3ce	0.0087785255
206	0xbc819625	-0.015818665
207	0x3b863ca7	0.004096586
208	0xbcd3e4be	-0.025865909
209	0xbcff0ec0	-0.031134963
210	0xbc95b124	-0.018272944
211	0xbca2aa6e	-0.019856658
212	0xbd061ad9	-0.032740448
213	0xbcaebbd4	-0.021329798
214	0xbc95abd5	-0.018270412
215	0x3c7bfc5b	0.01537999
216	0xbd329644	-0.043600336
217	0x3cdabf68	0.026702598
218	0xbb36d264	-0.0027896399
219	0x3c0551eb	0.008137207
220	0x3a4ed063	0.00078893284
221	0xbc0241db	-0.0079502715
222	0xbc8bae01	-0.017050745
223	0xbccd8d7e	-0.025091883
224	0x3c5066ad	0.012719792
225	0xbc633582	-0.013867738
226	0xbc513817	-0.0127697205
227	0xbcc58184	-0.02410961
228	0xba255f01	-0.0006308407
229	0xbc2ebfa9	-0.0106658125
230	0xbc89a7e6	-0.016803693
231	0x3cec615f	0.028855024
232	0x3d27379a	0.04082451
233	0x3d006740	0.031348467
234	0xbcd30a9a	-0.025761891
235	0xbca92e86	-0.020652067
236	0xbd15afb4	-0.036544517
237	0xbca61560	-0.020273864
238	0xbc0e05ca	-0.008668372
239	0x3cc9c73a	0.024631131
240	0xbca38848	-0.019962445
241	0xbc808961	-0.015690507
242	0x3d0e2547	0.03470352
243	0xbd796615	-0.06088837
244	0xbdcd89f2	-0.100360766
245	0xb9b9a78c	-0.00035410782
246	0x3bf0605a	0.0073357048
247	0xbc8bc402	-0.017061237
248	0x3c402d24	0.011729512
249	0xbd011232	-0.031511493
250	0xbd3907a6	-0.04517331
251	0x3c7cd078	0.015430562
252	0xbc78fb2d	-0.015196604
253	0xbd35f61d	-0.044424165
254	0x3c82a82d	0.015949333
255	0xbbbc678d	-0.005749649

parameters.mu_b f4 [8]
0	0x3c4f3f8b	0.012649427
1	0xbd5b6582	-0.053563602
2	0x3e0e7e32	0.13915327
3	0x3e2c2d28	0.168141
4	0x3b739478	0.0037167352
5	0xbc2a59cc	-0.010397386
6	0x3d8da417	0.06916063
7	0x3b9145a0	0.004433349

parameters.mu_w f4 [8, 256]
0	0x3c6a813d	0.014313039
1	0x3d410aaa	0.04712931
2	0x3e618928	0.22024977
3	0x3ce28233	0.027649974
4	0xbd876cf5	-0.06612579
5	0x3ef689ca	0.48152
6	0x3d2d961c	0.042379484
7	0x3d075a15	0.033044893
8	0xbc8ac85f	-0.016941248
9	0x3e2e4eff	0.17022322
10	0xbda4b97f	-0.08043193
11	0x3e106efe	0.1410484
12	0xbdad2020	-0.08453393
13	0xbeaf4a7b	-0.34236512
14	0xbec496df	-0.38396356
15	0x3e6c154c	0.23054999
16	0xbdbd6c13	-0.09249129
17	0xbe4e6f39	-0.20159616
18	0xbc4504b8	-0.012025051
19	0xbbfe8701	-0.0077675586
20	0x3c95429f	0.018220244
21	0xbc9a4065	-0.018829534
22	0xbcc70478	-0.024294123
23	0x3cc7f795	0.024410048
24	0x3e009b62	0.12559274
25	0x3c10f663	0.008847806
26	0x3aef65e3	0.0018264618
27	0x3b430a17	0.0029760653
28	0xbdb2b7ec	-0.087264866
29	0xbd653bb7	-0.05596515
30	0x3ddb4392	0.107062474
31	0xbb3f2f46	-0.0029172464
32	0x3d99c8a0	0.07508969
33	0xbeba6b00	-0.3640976
34	0xbdd80a2b	-0.105488144
35	0x3e5e567f	0.21712683
36	0x3be61c1d	0.0070223943
37	0x3c474558	0.012162529
38	0xbd1017fd	-0.035179127
39	0xbbde8272	-0.0067904526
40	0x3c07214d	0.008247686
41	0x3c2954a5	0.010335122
42	0x3c89ca0e	0.01681998
43	0xbd801bb7	-0.06255286
44	0xbc4ae49b	-0.012383605
45	0x3d1928d4	0.037392452
46	0x3caad8e3	0.020855373
47	0xbba34f0c	-0.0049837884
48	0xbb082ff6	-0.002078054
49	0xbbc03fe0	-0.0058669895
50	0x3d8d3516	0.06894891
51	0xbe10f0ae	-0.14154312
52	0xbcc1ed23	-0.023672646
53	0xbc7eab54	-0.0155437775
54	0xbc4a7d88	-0.012359031
55	0xbbc1473f	-0.005898386
56	0xbd18bba7	-0.037288334
57	0x3c296e1e	0.010341195
58	0x3d9ccf97	0.07656782
59	0xbd7f3893	-0.062309813
60	0x3c603a13	0.013685721
61	0x3bea3718	0.007147681
62	0xbd744392	-0.059634753
63	0xbedf1005	-0.4356691
64	0x3c8a8b00	0.016911983
65	0xbd2ef2bd	-0.042711962
66	0x3c7eeba9	0.015559115
67	0xbc0be93e	-0.008539496
68	0x3e97d67b	0.29655823
69	0xbe7f19cc	-0.24912184
70	0xbd77805f	-0.06042516
71	0xbb8dc192	-0.004326054
72	0xbd4b960c	-0.049703643
73	0x3d95e7e7	0.073196225
74	0xbc9429c5	-0.018086324
75	0x3e2136df	0.15743588
76	0xbc275877	-0.010213963
77	0xbe73689b	-0.23770373
78	0x3c17013e	0.009216605
79	0x3e964ec4	0.29356968
80	0xbd4ecbea	-0.050487436
81	0x3d8c9239	0.06863827
82	0xbcfd8ac3	-0.030949956
83	0xbe09a969	-0.13443531
84	0x3b888f86	0.0041675
85	0xbb658d9f	-0.003502704
86	0xbc5ba9ee	-0.013407214
87	0xbbf93e2e	-0.0076062893
88	0xbceaa0be	-0.028641101
89	0x3b59354b	0.0033143337
90	0x3e1856b1	0.1487682
91	0xbdbbf672	-0.09177865
92	0x3bf3a4bc	0.0074354094
93	0xbd10175c	-0.035178527
94	0xbce641ca	-0.028107543
95	0xbebebec4	-0.37254918
96	0xbc72af59	-0.014812314
97	0xbb753392	-0.0037414772
98	0xbee8a2e3	-0.45436773
99	0xbd66e80f	-0.056373652
100	0xbc86ff27	-0.016479088
101	0xbbd1661c	-0.006390346
102	0x3bf45993	0.007456967
103	0xbbcee618	-0.0063140504
104	0x3c22c086	0.0099335965
105	0x3d2d2c7e	0.04227876
106	0x3b47dbc5	0.0030495983
107	0x3cbb86cb	0.022891423
108	0x3c8e0980	0.017338514
109	0x3e24bbc4	0.16087252
110	0xbd3a71ec	-0.0455188
111	0xbc01c755	-0.00792106
112	0x3d257e0c	0.04040341
113	0xbd876a53	-0.066120766
114	0xbeab2661	-0.33427718
115	0xbbce8f98	-0.006303739
116	0x3bf3fa9d	0.007445647
117	0xba2490b3	-0.00062776654
118	0x3c0c96e5	0.008580898
119	0xbe0fd5bf	-0.14046381
120	0xbe9d8f85	-0.3077356
121	0xbd6358b6	-0.055504523
122	0x3dcf682a	0.101272896
123	0x3b2b3a93	0.0026127442
124	0xbd8cc82a	-0.06874116
125	0xbbb3397a	-0.005469498
126	0xbd2f33e5	-0.0427741
127	0xbde1eb2b	-0.11031183
128	0x3e0ad614	0.13558227
129	0x3e0af1e9	0.13568844
130	0x3cff44df	0.03116077
131	0xbbdfb845	-0.0068273866
132	0xbd4620a0	-0.048370957
133	0x3c874e52	0.016516838
134	0xbc00f6e1	-0.0078713605
135	0x3cd70afa	0.026250351
136	0xbb16ecea	-0.0023029395
137	0xbc037cac	-0.00802533
138	0xbe3fa051	-0.187135
139	0xbe2dbe02	-0.16967013
140	0xbc8b5de1	-0.017012538
141	0xbd640135	-0.055665214
142	0xbb99fbab	-0.0046991906
143	0x3c6c1263	0.014408681
144	0x3ceec4b7	0.029146535
145	0xbbe4ba84	-0.006980242
146	0x3c1b77e1	0.009489031
147	0xbd29ab41	-0.041423086
148	0x3e02ba84	0.12766463
149	0xbc3b62c9	-0.011437126
150	0xbe8f5bf9	-0.27999857
151	0x3c8e90cf	0.017403034
152	0xbc0e928c	-0.008701932
153	0xbd999087	-0.074982695
154	0x3e254048	0.16137803
155	0x3d98743b	0.07444044
156	0xbd664858	-0.056221336
157	0x3dbe4eba	0.0929236
158	0xbd481270	-0.04884571
159	0xbded5530	-0.11588514
160	0xbd083f5f	-0.03326356
161	0x3d34f840	0.044182062
162	0x3c8a9b82	0.016919855
163	0xbe0df0a2	-0.13861325
164	0xbe117d4e	-0.14207956
165	0xbe222985	-0.15836151
166	0xbe9eb02f	-0.30993792
167	0x3bc26d2f	0.005933426
168	0x3e136a0a	0.1439592
169	0x3b1f37f1	0.0024294818
170	0xbe4604eb	-0.19337814
171	0xbce2b70a	-0.02767517
172	0xbaa9a466	-0.0012942671
173	0x3d4680ac	0.048462555
174	0xbd3b9c89	-0.04580358
175	0xbcc5e413	-0.024156606
176	0xbb1e252f	-0.002413105
177	0xbe10a439	-0.14125146
178	0x3d0f3903	0.03496648
179	0x3c188a04	0.009310249
180	0x3cef3faf	0.029205171
181	0x3d8d9595	0.06913296
182	0xbd1bc153	-0.038026165
183	0xbca2e875	-0.019886235
184	0x3d96a7de	0.07356237
185	0xbebe0351	-0.37111905
186	0x3e4d80ff	0.2006874
187	0xbe8eb1ea	-0.27870113
188	0xbcb88706	-0.022525322
189	0x3f0d966e	0.5530766
190	0x3c85e7dd	0.016345913
191	0x3eb421d8	0.3518207
192	0x3cf46389	0.029832618
193	0xbe207a05	-0.15671547
194	0xbb701898	-0.0036635753
195	0x3a058c4f	0.0005094455
196	0xbea7f314	-0.3280264
197	0xbe4d40ab	-0.200442
198	0xbda08c61	-0.07839275
199	0xbc20a43c	-0.0098047815
200	0x3ede86ee	0.43462318
201	0xbe7ea636	-0.24868092
202	0x3cb7f520	0.022455752
203	0xbc83cdf0	-0.01608941
204	0xbd0ff086	-0.03514149
205	0xbc83d3a3	-0.016092127
206	0xbe720b46	-0.23637113
207	0x3bbc8c38	0.00575402
208	0xbe375a31	-0.17905499
209	0xbb013e54	-0.0019720988
210	0x3c203956	0.009779295
211	0x3e842e38	0.25816512
212	0xbe094ecd	-0.13408966
213	0x3dfc1fe7	0.123107724
214	0x3e8769a3	0.26447782
215	0xbc82a25b	-0.015946558
216	0x3e1a6f98	0.15081632
217	0xbc4a22a5	-0.012337361
218	0xbce26419	-0.02763562
219	0x3ca34913	0.019932305
220	0xbd480fef	-0.04884332
221	0x3da47cc2	0.08031608
222	0xbb70e65b	-0.0036758396
223	0xbd2d5982	-0.04232169
224	0xbc5216b7	-0.012822798
225	0x3e7aa32d	0.24476309
226	0xbd45dbfe	-0.048305504
227	0xbebd635d	-0.3698987
228	0xbe823bb1	-0.25436166
229	0xbcfa1f93	-0.030532634
230	0xbc0332e0	-0.008007735
231	0x3bd311ed	0.006441346
232	0xbb5a7aff	-0.0033337472
233	0xbe04121d	-0.12897535
234	0x3c8175dd	0.015803272
235	0xbb24843d	-0.0025103234
236	0x3e7f7cbe	0.24949929
237	0x3f0665fd	0.5249937
238	0xbc2f0f6a	-0.010684827
239	0x3c13d618	0.009023212
240	0xbe87ef24	-0.26549637
241	0x3df5c7d1	0.120010026
242	0x3d3bcd06	0.045849822
243	0x3ef4406f	0.4770541
244	0xbb9d88fe	-0.0048075905
245	0x3d213f96	0.03936728
246	0xbd3ea722	-0.04654611
247	0x3ede8ac5	0.43465248
248	0x3ed6c1bf	0.41944692
249	0xbbebb9ee	-0.0071937954
250	0xbd805ce8	-0.062677205
251	0x3e3b65e9	0.18300594
252	0x3c24dd7d	0.010062573
253	0x3bff9b7b	0.007800517
254	0xbc2b809c	-0.010467675
255	0x3bf53b19	0.0074838516

parameters.std_b f4 [8]
0	0xbf2da61b	-0.6783158
1	0xbf03f90f	-0.5155191
2	0xbf377fc0	-0.71679306
3	0xbf0582a7	-0.52152485
4	0xbf3601a5	-0.7109626
5	0xbf01262d	-0.50448877
6	0xbf103a1c	-0.5633867
7	0xbee2d8af	-0.4430594

parameters.std_w f4 [8, 256]
0	0x3caac25d	0.020844633
1	0xbcaef2f2	-0.02135608
2	0xbe6ed10d	-0.23321934
3	0xbdb5ae81	-0.088711746
4	0x3d0893c8	0.03334406
5	0x3dbf579c	0.09342882
6	0xbd15401a	-0.036438085
7	0xbb45b99a	-0.0030170442
8	0x3d41dd84	0.047330394
9	0xbd330fe6	-0.043716334
10	0xbdeab0ec	-0.114595264
11	0xbd01827f	-0.03161859
12	0x3d695bdf	0.05697238
13	0x3e54e703	0.20791249
14	0x3dcc543f	0.09977006
15	0x3e0a142e	0.1348426
16	0x3d50646d	0.050877023
17	0x3d12f435	0.035877425
18	0xbbfb872b	-0.0076760254
19	0x3cc056b0	0.023478836
20	0x3d24cdb3	0.040235233
21	0x3c889690	0.016673356
22	0x3c118c06	0.008883482
23	0x3c17ed80	0.009272933
24	0x3cddd4e6	0.027079057
25	0xbd11d84d	-0.03560667
26	0x3c3b3f87	0.01142872
27	0x3c1e10f8	0.0096476
28	0xbd92c6a6	-0.071667954
29	0x3c91390f	0.017727403
30	0x3dcf550f	0.101236455
31	0x3d430707	0.047614124
32	0x3ddd3e8a	0.10802944
33	0x3ececc2b	0.40390143
34	0x3db62836	0.088943884
35	0x3d26d773	0.040732812
36	0x3a56521f	0.0008175689
37	0x3b172066	0.0023060082
38	0x3a1f1755	0.00060688454
39	0xbcab86a2	-0.020938221
40	0x3b97e9e0	0.0046360344
41	0xbd95c87a	-0.073136285
42	0x3c6d5a1f	0.014486819
43	0x3c9e01de	0.019288
44	0x3d2dd405	0.042438526
45	0x3beb3f66	0.0071791885
46	0xba815273	-0.0009866491
47	0x3c757fee	0.014984114
48	0x3b34aa21	0.0027567225
49	0xbcb8094c	-0.02246537
50	0xbe0d79d5	-0.13816006
51	0xbd5e4aa0	-0.054270387
52	0x3cb0f7e7	0.021602584
53	0x3d40fea5	0.047117848
54	0x3d57bcbe	0.052670233
55	0x3b1dee90	0.0024098493
56	0x3cb95624	0.022624083
57	0xb93a5b27	-0.00017772299
58	0xbe2a91a4	-0.1665712
59	0x3d140dd1	0.03614599
60	0x3d01e771	0.03171486
61	0x3c30deff	0.010795354
62	0xbd52ff60	-0.051513076
63	0x3ebc831d	0.36818781
64	0xbd535492	-0.051594324
65	0x3c5826e0	0.013192862
66	0x3c1f5cf7	0.009726754
67	0xbc730350	-0.014832333
68	0x3e31095a	0.17288724
69	0xbd1e1a23	-0.038599145
70	0xba878055	-0.0010337929
71	0x3c8e8563	0.017397588
72	0x3c2512e3	0.010075304
73	0xbcc2442c	-0.023714148
74	0xbbe25d9f	-0.006908133
75	0xbdb3fac0	-0.08788061
76	0xba846bf0	-0.0010102969
77	0x3c29f3f2	0.0103731025
78	0x3cd8a89d	0.026447589
79	0xbcf3db25	-0.029767582
80	0x3c33d9e7	0.010977245
81	0xbb7c5238	-0.0038501155
82	0x3cae896a	0.021305759
83	0xbcff3d06	-0.031157028
84	0x3c69d565	0.014272069
85	0x3d29ebcc	0.04148464
86	0xbdaaf6d9	-0.08347864
87	0x3d2983e3	0.041385543
88	0x3be7aecb	0.0070703975
89	0xbcc1ffbc	-0.023681514
90	0xbda61e8d	-0.08111296
91	0xbb7382a2	-0.003715672
92	0x3aee3687	0.0018174209
93	0x3c717ea9	0.014739671
94	0x3c119b4a	0.008887121
95	0x3c1454a6	0.009053385
96	0x3c13a47b	0.009011383
97	0x3bdffc38	0.0068354867
98	0x3e29f331	0.16596676
99	0xba2b2c3c	-0.0006529724
100	0xbac80a5b	-0.0015261875
101	0x3ba49f4c	0.0050238725
102	0xbaa48b67	-0.0012553752
103	0x3ca11a4d	0.019665862
104	0x3c16f468	0.009213544
105	0xbc498a23	-0.012301001
106	0x3ad59f23	0.0016298037
107	0x3c3a0da6	0.011355793
108	0x3a01f470	0.00049573835
109	0xbc0e103c	-0.008670863
110	0x3ce9c80c	0.028537773
111	0x3c551c13	0.013007182
112	0xbc91bf3a	-0.01779138
113	0x3b2e6ec4	0.0026616314
114	0x3d1b1ad3	0.03786738
115	0x3d649803	0.055809032
116	0x3cbd4bf3	0.023107504
117	0xbbbb4449	-0.0057149273
118	0xbb987ee2	-0.0046537975
119	0xbe0f7f11	-0.14013316
120	0x3d2d42c3	0.042299997
121	0xbd92791b	-0.07152005
122	0xbe280c54	-0.16410953
123	0x3bf484ab	0.0074621043
124	0xbeec9f7f	-0.46215436
125	0x3d1e664f	0.038671788
126	0xbcc7b247	-0.024377001
127	0x3e15481e	0.14578292
128	0xbc5eba68	-0.013594247
129	0x3d751f9b	0.059844594
130	0x3d6d2ffd	0.057907093
131	0x3cf08a12	0.029362712
132	0x3c9a59e4	0.018841691
133	0x3c216a20	0.009851962
134	0x3d537b45	0.05163123
135	0x3c173ca2	0.009230765
136	0xbbb84b7a	-0.005624232
137	0xbc3022d5	-0.010750492
138	0x3dfea032	0.124328986
139	0xbdc74f2b	-0.09731897
140	0xbb1e9888	-0.0024199802
141	0xbd18eaaa	-0.037333168
142	0x3b9bd3e1	0.0047554825
143	0xbb4f45d8	-0.0031627323
144	0x3c505e3c	0.01271778
145	0x3d262b63	0.04056872
146	0x3bc29697	0.005938362
147	0x3cc82b10	0.024434596
148	0xbc989197	-0.01862411
149	0xbc9891f6	-0.018624287
150	0xbd4cd652	-0.05000908
151	0xbc9911e7	-0.018685294
152	0xbd56fba4	-0.052486077
153	0x3da9cb9d	0.08290789
154	0x3d2c1df2	0.042020746
155	0x3d7019bd	0.058618296
156	0x3c703865	0.014661883
157	0xbd98791c	-0.07444975
158	0x3cd7be21	0.026335778
159	0x3ceea6c0	0.029132247
160	0x3d0849ec	0.033273622
161	0x3de39d83	0.11114027
162	0x3c0650d1	0.008197979
163	0xbd46a1c6	-0.048494123
164	0x3c65f2d4	0.0140349455
165	0xbc2c4a6f	-0.010515793
166	0xb7dba174	-2.6182017e-05
167	0xbb6771b5	-0.0035315577
168	0xbb2c422a	-0.0026284554
169	0xbc28afe6	-0.010295844
170	0x3d2fa350	0.042880356
171	0x3c454799	0.012040996
172	0x3a4aba92	0.00077334896
173	0xbd8beaa7	-0.06831866
174	0x3d0946dd	0.033514846
175	0x3d8cff39	0.06884617
176	0x3cbfa763	0.023395246
177	0x3df7a7db	0.12092563
178	0xbd3ca6c9	-0.046057496
179	0xbc10367f	-0.008802055
180	0x3c795490	0.015217915
181	0xbdbbe243	-0.091740154
182	0x3c41bf8a	0.011825452
183	0x3eaeac73	0.34115943
184	0x3c14b109	0.009075412
185	0x3ea6ca99	0.32576445
186	0xbe038bf4	-0.12846357
187	0x3da8b696	0.082379505
188	0x3cca0b4e	0.024663594
189	0xbe818f30	-0.25304556
190	0x3c6848bb	0.014177497
191	0xbe463d19	-0.19359244
192	0xbd70a0d6	-0.058747135
193	0xbb84d834	-0.0040540937
194	0x3ca2fd75	0.019896248
195	0x3cd0bc36	0.025480371
196	0x3e8ea964	0.2786361
197	0x3e2d03a1	0.16895916
198	0xbdad8629	-0.08472855
199	0x3c92635e	0.017869648
200	0x3ec202c1	0.37892726
201	0x3e157421	0.14595081
202	0xbd2a901b	-0.041641336
203	0x3d14f0ae	0.036362343
204	0x3d46d562	0.04854334
205	0x3d518f49	0.051162038
206	0x3d550374	0.052005246
207	0x3c6efaf6	0.014586201
208	0x3d0b0bd6	0.033946835
209	0xbbd3f49e	-0.0064683696
210	0x3c0c09db	0.008547272
211	0x3eaea71a	0.34111863
212	0x3e052f17	0.13006245
213	0xbb31a7fa	-0.0027108178
214	0xbd9ea878	-0.077469766
215	0xbbac7f56	-0.005264203
216	0xbd01bdbc	-0.031675085
217	0x3c746492	0.014916556
218	0x3c45c350	0.012070492
219	0x3d7ad259	0.06123576
220	0x3d5af7e3	0.05345906
221	0x3c04e902	0.008112194
222	0xbc79767a	-0.015226001
223	0x3cf19b2b	0.029492935
224	0x3d63cf56	0.055617653
225	0x3c956a96	0.0182393
226	0x3c51b1b1	0.012798713
227	0x3de90825	0.113785066
228	0xbd8baae3	-0.068197034
229	0x3c193cce	0.009352876
230	0xbb336605	-0.002737404
231	0x3d05d09e	0.032669656
232	0x3e118269	0.14209904
233	0x3cf8ed40	0.030386567
234	0xba0263c8	-0.0004973975
235	0x3b87882e	0.004136107
236	0x3e70f25d	0.23529954
237	0x3e117fe3	0.14208941
238	0x3a0b68e7	0.0005318061
239	0xbc982f7e	-0.018577334
240	0x3db29bfd	0.08721159
241	0x3d87a26d	0.06622777
242	0xbe0e0b61	-0.13871528
243	0x3f2d245e	0.67633617
244	0xbc8f0163	-0.017456716
245	0xbd3f2c11	-0.046672884
246	0xbdf56c80	-0.11983585
247	0xbdccf373	-0.10007372
248	0x3d33b872	0.043877073
249	0x3c818ea9	0.015815096
250	0xbd49d392	-0.049274035
251	0xbe5fe84b	-0.21865956
252	0x3cc363b2	0.02385125
253	0xbc381ce3	-0.011237356
254	0x3c9f7097	0.019462867
255	0x39b27c5f	0.0003404347
